qn1/weights/model_weights_b5_em2.pth (torch, 383834 bytes, 9 tensors)

emb.weight f4 [62, 2]
-0.7218248 -0.28930587 -0.8928573 -2.5194306 0.43137676 -2.0297828 -0.2847891 -0.7631726
0.9477047 -1.7243351 -2.9957352 -0.43362084 0.89326966 0.07765424 -0.29731977 0.3197153
-0.361467 -1.1770844 -0.9172637 -1.0907745 -0.122846544 -0.39011723 0.4531277 0.25773883
-0.94505095 -0.19541875 -0.31731978 -0.9686928 1.0055088 -0.5621034 1.7900541 1.9603863
0.24121939 0.45125034 -0.95353574 0.5825962 -1.9521301 2.545665 -0.74563736 -0.7074755
-1.2020541 0.10523015 0.7165812 -0.03541104 -0.8024303 0.14693306 -1.1143242 -0.5366883
-0.7052106 0.82984805 -0.0275892 -1.1370801 -0.057193894 -0.86240983 -0.653753 -0.9447431
-0.47492263 -0.6627326 -0.39164734 0.51350164 1.0282832 -0.21629356 -0.8376037 0.43535307
-0.007948752 -1.560641 -1.1951619 0.49184567 -1.1082848 0.3532294 0.85484767 -0.29384708
0.16037467 -0.75357735 -0.50213635 2.1845415 1.7541709 0.3882435 -1.7624927 0.8165293
-1.3645356 1.5119697 2.5910041 -1.1024842 2.5792384 0.6020962 0.364629 1.4377894
0.822653 -0.88468724 1.7272558 -0.50287956 0.24286698 -1.4133695 0.6141152 0.52252173
-2.160719 -0.43601346 -0.4448627 1.1340176 0.082156554 0.18398447 2.1137965 -0.15660387
0.54113185 -1.3530291 1.7390982 -1.0784427 0.03803524 0.67328674 1.257268 1.2813495
0.5777538 -0.21641116 0.42357403 2.4666245 1.1530005 0.33904466 0.28357467 1.0732377
-1.4070568 0.18043159 -1.470524 -0.42943487
00000000: 83c9 38bf e61f 94be 4c92 64bf 5a3e 21c0
00000010: 6add dc3e f6e7 01c0 e0cf 91be 485f 43bf
00000020: c69c 723f 03b7 dcbf 20ba 3fc0 8d03 debe
00000030: 52ad 643f 3009 9f3d 4c3a 98be b9b1 a33e
00000040: 3412 b9be b4aa 96bf cbd1 6abf 809e 8bbf
00000050: f896 fbbd 72bd c7be 5b00 e83e 58f6 833e
00000060: dcee 71bf da1b 48be bd77 a2be 40fc 77bf
00000070: 83b4 803f 02e6 0fbf 7e20 e53f f0ed fa3f
00000080: 3702 773e 490a e73e eb1a 74bf 0625 153f
00000090: 66df f9bf 2dec 2240 17e2 3ebf 1d1d 35bf
000000a0: e9dc 99bf e882 d73d de71 373f 2b0b 11bd
000000b0: 126c 4dbf 9f75 163e 2da2 8ebf 6864 09bf
000000c0: af88 34bf ec70 543f bf02 e2bc d78b 91bf
000000d0: 2544 6abd e4c6 5cbf 5b5c 27bf afda 71bf
000000e0: 0f29 f3be d8a8 29bf 0086 c8be d874 033f
000000f0: c99e 833f 0f7c 5dbe 326d 56bf 99e6 de3e
00000100: 7b3b 02bc 16c3 c7bf 11fb 98bf 32d3 fb3e
00000110: 47dc 8dbf 7cda b43e 4cd7 5a3f 2073 96be
00000120: 4239 243e 72ea 40bf 028c 00bf 87cf 0b40
00000130: ac88 e03f dac7 c63e 5c99 e1bf 1008 513f
00000140: 1aa9 aebf 3988 c13f 03d3 2540 341e 8dbf
00000150: 3e12 2540 fa22 1a3f a7b0 ba3e 7c09 b83f
00000160: 6399 523f dd7a 62bf b816 dd3f b7bc 00bf
00000170: 1fb2 783e 4be9 b4bf a736 1d3f fcc3 053f
00000180: 3849 0ac0 283d dfbe 0bc5 e3be 7d27 913f
00000190: b241 a83d 6d66 3c3e 7148 0740 c45c 20be
000001a0: 9e87 0a3f 0f30 adbf c59a de3f 690a 8abf
000001b0: d7ca 1b3d 855c 2c3f 28ee a03f 4303 a43f
000001c0: ace7 133f e39a 5dbe b2de d83e 2ddd 1d40
000001d0: 8595 933f 4397 ad3e b330 913e da5f 893f
000001e0: 701a b4bf 0fc3 383e 213a bcbf e3de dbbe

lin1.weight f4 [200, 10]
-0.19479735 -0.32648006 -0.42976683 -0.27468914 -0.4142079 -0.33411092 -0.58198816 -0.15564272
0.31604037 0.3373826 -0.64677024 -0.4199243 -0.19145297 0.34481657 -0.47919676 0.3104131
-0.4845707 0.07472419 -0.12235227 0.03277976 -0.37969658 0.06804266 -0.40611717 0.22039261
-0.442118 -0.53871375 -0.30566743 0.3914576 -0.16506438 0.03414753 -0.062888704 0.027495291
0.05504774 -0.45299938 0.11049935 -0.039971 -0.037573654 -0.04874194 0.061417945 0.52196926
0.22032006 -0.0019087179 -0.26534134 -0.3579601 -0.2666914 0.5670288 0.17309108 0.33596864
0.49090025 0.055213373 -0.29211688 0.084108405 0.2709692 -0.1499317 -0.2683401 0.028136723
0.65963805 0.5228864 -0.34147826 -0.21745232 -0.22138411 0.066365466 -0.2455874 -0.06429345
0.03592349 0.13006559 -0.0051558893 0.37288108 0.56894004 -0.012217126 -0.5602049 0.5051725
-0.43676546 0.22980534 -0.21673976 0.23578142 0.3895009 0.71504635 0.23996487 0.076224506
0.38772917 0.13614082 0.14531657 0.49929732 0.39100406 0.071159765 0.20900138 0.44122562
0.43431932 -0.70207465 -0.20788401 0.40686268 -0.14298643 0.44064173 -0.041605737 0.46719098
-0.092677966 0.41378796 -0.3435209 -0.3015018 -0.053873718 -0.45048073 -0.82861745 -0.1029947
-0.05649318 -0.2677308 0.2410448 -0.086742975 0.3372641 0.011059553 0.6399736 -0.5392318
-0.4169106 -0.14950825 -0.27945787 -0.04731023 0.077624984 0.0713598 0.6004641 0.6101858
-0.07806337 -0.16860715 -0.41317096 -0.33398762 -0.07334159 -0.35727543 0.35631388 0.05630914
-0.45217097 0.39024687 -0.24635567 0.26820078 -0.0010508761 0.38991523 -0.28304186 -0.04622407
-0.49417517 0.43515465 0.32870778 -0.30812427 0.49741775 0.42780998 0.15021111 0.5801447
-0.3094836 -0.64591306 0.048464593 -0.19595605 -0.38224763 -0.1449241 -0.07606076 0.6141615
0.11459436 0.49889547 -0.0940823 0.23501307 0.14639166 -0.13393119 -0.17988412 -0.07766768
-0.04320165 -0.02564008 0.04319994 0.112572394 -0.11200389 -0.44968307 -0.23947218 -0.19631347
0.41807982 -0.47308952 0.5723615 0.16228491 -0.28014028 0.06681606 -0.3304337 -0.027491938
-0.357348 -0.18416186 0.0995668 0.2656163 -0.07266983 0.09536519 -0.013746297 0.06805038
0.20108713 -0.05264812 0.122414485 0.037589237 -0.48031348 0.21048926 0.22288357 0.20854849
-0.30739257 -0.09837372 0.12569371 -0.015673626 0.49968955 -0.08244888 0.26032373 -0.16569102
-0.14743194 0.07671725 0.4988188 0.6357398 0.290731 0.4154689 0.18412606 -0.14902776
0.4064133 -0.13398527 0.14787406 -0.2667672 0.14915764 -0.1791294 -0.45670953 0.18087867
0.6399975 0.1371122 0.36851287 0.39670599 -0.13276719 0.26313123 0.09161637 -0.3425043
0.77557147 0.4783456 -0.52938294 0.18701991 0.36506435 -0.27364153 0.6086329 0.17197213
-0.5872287 -0.3087716 -0.6872331 -0.13895808 -0.0060762297 0.047911458 0.08220389 -0.3576444
-0.27942806 -0.46234858 0.19917135 -0.013452568 -0.57244706 -0.061034545 0.44336137 -0.15057808
0.25487745 -0.16234028 0.21759555 0.31047434 -0.319023 -0.4870732 -0.3331927 -0.22618146
00000000: f578 47be 6528 a7be 660a dcbe 0ea4 8cbe
00000010: 0f13 d4be 9610 abbe 2dfd 14bf ce60 1fbe
00000020: 0bd0 a13e 6abd ac3e bc92 25bf 5100 d7be
00000030: 3f0c 44be cc8b b03e 4759 f5be 77ee 9e3e
00000040: a719 f8be ff08 993d d493 fabd 1244 063d
00000050: 9767 c2be f359 8b3d 97ee cfbe 9aae 613e
00000060: 4a5d e2be 25e9 09bf 7180 9cbe 216d c83e
00000070: a306 29be 48de 0b3d cbcb 80bd ce3d e13c
00000080: bd79 613d 89ef e7be 7c4d e23d a2b8 23bd
00000090: d5e6 19bd a1a5 47bd 6291 7b3d c79f 053f
000000a0: 959b 613e f22d faba d2da 87be 8c46 b7be
000000b0: c68b 88be cd28 113f ca3e 313e 1504 ac3e
000000c0: 4757 fb3e 6b27 623d 5890 95be 0741 ac3d
000000d0: 7abc 8a3e b287 19be e063 89be fc7e e63c
000000e0: 0ade 283f e2db 053f 3dd6 aebe d2ab 5ebe
000000f0: 84b2 62be 9eea 873d 437b 7bbe 49ac 83bd
00000100: 8224 133d ea2f 053e bcf2 a8bb 45ea be3e
00000110: 0ea6 113f 572a 48bc 9769 0fbf fc52 013f
00000120: b99f dfbe 1752 6b3e 07f1 5dbe af70 713e
00000130: a96c c73e 470d 373f 5ab9 753e 981b 9c3d
00000140: 7084 c63e 8068 0b3e decd 143e e6a3 ff3e
00000150: af31 c83e 36bc 913d 7504 563e 53e8 e13e
00000160: 1a5f de3e 2abb 33bf 8cdf 54be 4e50 d03e
00000170: 096b 12be cb9b e13e c76a 2abd a833 ef3e
00000180: f2cd bdbd 04dc d33e f9e1 afbe 725e 9abe
00000190: b0aa 5cbd 69a5 e6be 4620 54bf e3ee d2bd
000001a0: 6565 67bd 0314 89be 73d4 763e 4da6 b1bd
000001b0: e1ad ac3e 2133 353c 4fd5 233f 180b 0abf
000001c0: 4e75 d5be b118 19be 1a15 8fbe 5fc8 41bd
000001d0: d9f9 9e3d 1625 923d 04b8 193f 2335 1c3f
000001e0: b0df 9fbd 5aa7 2cbe 258b d3be 6d00 abbe
000001f0: 1e34 96bd ceec b6be c66e b63e 6aa4 663d
00000200: f482 e7be 70ce c73e a944 7cbe 9d51 893e
00000210: 8dbd 89ba f8a2 c73e ddea 90be 7355 3dbd
00000220: 8704 fdbe 97cc de3e 634c a83e 77c2 9dbe
00000230: 8aad fe3e e909 db3e f1d0 193e 5d84 143f
00000240: a274 9ebe 8f5a 25bf cf82 463d b4a8 48be
00000250: f6b5 c3be fc66 14be bec5 9bbd b039 1d3f
00000260: 73b0 ea3d 3a6f ff3e 39ae c0bd 44a7 703e
00000270: b2e7 153e 4225 09be 8b33 38be 3c10 9fbd
00000280: 37f4 30bd 250b d2bc 6cf2 303d 5b8c e63d
00000290: 4c62 e5bd dc3c e6be 3238 75be 6606 49be
000002a0: 8f0e d63e ca38 f2be 4986 123f 042e 263e
000002b0: 8c6e 8fbe dcd6 883d 9b2e a9be c636 e1bc
000002c0: 51f6 b6be ed94 3cbe aee9 cb3d dcfe 873e
000002d0: ebd3 94bd d34e c33d 2638 61bc ff5d 8b3d
000002e0: c9e9 4d3e 8ea5 57bd 72b4 fa3d 2cf7 193d
000002f0: a6eb f5be 7f8a 573e 973b 643e bc8d 553e
00000300: 8f62 9dbe 2978 c9bd dab5 003e fa65 80bc
00000310: 4fd7 ff3e f5da a8bd 2749 853e e8aa 29be
00000320: 66f8 16be ef1d 9d3d 2e65 ff3e d8bf 223f
00000330: b2da 943e 57b8 d43e 8b8b 3c3e bc9a 18be
00000340: 6715 d03e 6f33 09be 4c6c 173e b695 88be
00000350: c8bc 183e b36d 37be d5d5 e9be 4238 393e
00000360: e0d6 233f 2467 0c3e b8ad bc3e 0c1d cb3e
00000370: 1ff4 07be 23b9 863e 5da1 bb3d b95c afbe
00000380: da8b 463f b7e9 f43e a485 07bf 2682 3f3e
00000390: b7e9 ba3e be1a 8cbe 5ecf 1b3f 7619 303e
000003a0: 9f54 16bf 5017 9ebe 82ee 2fbf 074b 0ebe
000003b0: 1c1b c7bb ce3e 443d 835a a83d 2b1d b7be
000003c0: 3211 8fbe f4b8 ecbe 93f3 4b3e 2968 5cbc
000003d0: e48b 12bf 5cff 79bd 4300 e33e 2431 1abe
000003e0: 4c7f 823e 883c 26be 5ed1 5e3e 7ef6 9e3e
000003f0: fc56 a3be a961 f9be 3c98 aabe 1d9c 67be

lin1.bias f4 [200]
-0.15412188 -0.28440526 0.6298899 0.08879205 -0.46836248 -0.46646264 0.49644294 -0.46857288
-0.28793782 0.59843755 0.65234756 -0.30215877 -0.3884205 0.27758068 0.23192601 0.34383628
-0.43484813 0.33476526 -0.4218484 -0.5360885 -0.10928857 -0.55110687 -0.36482164 0.26999772
0.36580837 0.26338062 0.32351673 -0.65078694 -0.47535926 0.4392057 0.18321937 -0.25698954
-0.42302382 0.3359088 0.6361749 -0.6582928 -0.21635847 0.44292668 0.56941384 -0.013075562
-0.2391631 -0.4947881 -0.53522855 0.26235637 0.44885984 0.08997332 0.70822877 0.5566776
-0.011601881 -0.50982493 -0.21720016 -0.460076 -0.3330138 -0.41063404 0.02623261 0.45573607
-0.49030265 0.082117595 -0.5368342 -0.17584877 0.18129703 0.071817 -0.460508 0.37454906
-0.46696725 0.29627115 0.28776026 0.041383423 -0.46277425 0.27444956 -0.31498292 -0.3336054
-0.44026777 0.016262341 -0.48456928 0.51002985 -0.3191603 0.46326342 -0.31726485 0.5239687
-0.34851354 -0.14027748 0.4387279 0.5052319 0.1389724 0.57905823 -0.34574324 0.20883477
-0.23709448 0.3044205 -0.007998425 -0.27831364 0.48738074 0.3368916 0.34661186 -0.43105206
-0.2281268 0.10927024 -0.47965193 -0.6970889 -0.067690335 0.28371397 0.24902225 -0.31398264
-0.41969365 0.37719968 -0.53213197 -0.39676437 -0.15140529 0.19352739 0.17007601 0.03042542
0.32750338 -0.14883637 0.55663687 0.35706207 0.09669872 -0.1355534 -0.21988991 -0.19120316
-0.031225793 0.27498257 0.25163737 0.010231505 -0.45481145 -0.28968552 -0.35226858 -0.24988768
-0.23461828 -0.19029073 -0.3804378 -0.3684645 0.13393001 -0.39859077 0.410779 -0.40852723
0.34502903 0.4215738 -0.08901562 0.15127777 0.38302547 -0.36328474 0.4986914 -0.477893
-0.026139935 0.009865642 -0.052545648 -0.55694395 0.30171728 0.33339486 -0.5084728 -0.4952946
-0.35445252 0.4609156 0.23362164 0.124633685 -0.08051287 -0.0032710175 0.123021804 -0.22516339
-0.15275899 0.4509073 -0.22152744 -0.2637091 0.11526602 -0.3866166 0.6041847 0.31371912
0.24086826 -0.14551173 0.016826566 -0.22647214 -0.53202516 -0.34713945 -0.2423717 -0.25882316
0.3300758 -0.28948826 0.0638615 -0.28239504 0.09481771 -0.159737 0.07941656 -0.2771771
-0.2303445 -0.20839646 -0.33702973 0.039185345 -0.51234514 0.0036971082 0.17408563 -0.67521554
0.12762652 -0.11860386 -0.05065966 0.38415283 -0.5334525 -0.47099173 -0.2666286 -0.41912204
00000000: 20d2 1dbe 919d 91be 7740 213f 9bd8 b53d
00000010: 35cd efbe 31d4 eebe c52d fe3e c9e8 efbe
00000020: 966c 93be 3433 193f 4000 273f 8eb4 9abe
00000030: 0ddf c6be 0e1f 8e3e 037e 6d3e 4f0b b03e
00000040: 6aa4 debe 5a66 ab3e 83fc d7be 193d 09bf
00000050: b0d2 dfbd 5715 0dbf e7c9 babe 243d 8a3e
00000060: 3c4b bb3e d3d9 863e fca3 a53e f999 26bf
00000070: 4a62 f3be 92df e03e dc9d 3b3e 2294 83be
00000080: 9496 d8be 3dfc ab3e 5cdc 223f e085 28bf
00000090: 138d 5dbe 49c7 e23e 1bc5 113f e23a 56bc
000000a0: 2ce7 74be de54 fdbe bd04 09bf 9353 863e
000000b0: f5d0 e53e ef43 b83d 7b4e 353f 6c82 0e3f
000000c0: d115 3ebc e383 02bf b869 5ebe 158f ebbe
000000d0: c980 aabe a03e d2be c5e5 d63c 3d56 e93e
000000e0: f308 fbbe 452d a83d f76d 09bf b311 34be
000000f0: eea5 393e cb14 933d b4c7 ebbe e5c4 bf3e
00000100: 5516 efbe dab0 973e 5055 933e aa81 293d
00000110: bff0 ecbe a784 8c3e 7145 a1be 54ce aabe
00000120: c76a e1be 9a38 853c 7719 f8be 5191 023f
00000130: fb68 a3be dd30 ed3e 8a70 a2be d022 063f
00000140: 5e70 b2be e6a4 0fbe f1a0 e03e e156 013f
00000150: c84e 0e3e 293d 143f 4205 b1be c8d8 553e
00000160: e5c8 72be 01dd 9b3e d30b 03bc 207f 8ebe
00000170: f889 f93e 0e7d ac3e 1c77 b13e dbb2 dcbe
00000180: 129a 69be 13c9 df3d f094 f5be 6b74 32bf
00000190: 3ba1 8abd f542 913e b0ff 7e3e 55c2 a0be
000001a0: 16e2 d6be 5120 c13e cd39 08bf b324 cbbe
000001b0: fd09 1bbe 0b2c 463e 6828 2e3e bb3e f93c
000001c0: 86ae a73e 9068 18be c17f 0e3f d7d0 b63e
000001d0: fa09 c63d 83ce 0abe d22a 61be c3ca 43be
000001e0: 3ccd ffbc 84ca 8c3e 9dd6 803e 0ba2 273c
000001f0: 0cdd e8be a951 94be 8c5c b4be 8ee2 7fbe
00000200: c63f 70be 93db 42be bec8 c2be 61a7 bcbe
00000210: f324 093e 1714 ccbe a051 d23e 7b2a d1be
00000220: a5a7 b03e 85d8 d73e d24d b6bd 8fe8 1a3e
00000230: ea1b c43e 7500 babe 7b54 ff3e 64ae f4be
00000240: 6b23 d6bc 80a3 213c 1b3a 57bd e193 0ebf
00000250: b07a 9a3e bbb2 aa3e 462b 02bf 4197 fdbe
00000260: cd7a b5be 21fd eb3e 833a 6f3e f23f ff3d
00000270: eee3 a4bd 915e 56bb dbf2 fb3d 3b91 66be
00000280: da6c 1cbe 52dd e63e 17d8 62be e104 87be
00000290: 9710 ec3d 9cf2 c5be d9ab 1a3f cb9f a03e
000002a0: 2ba6 763e 0701 15be ded7 893c 50e8 67be
000002b0: cd32 08bf 43bc b1be 4930 78be 7884 84be
000002c0: b2ff a83e ce37 94be d1c9 823d 1596 90be
000002d0: ca2f c23d 1992 23be 26a5 a23d 28ea 8dbe
000002e0: 6edf 6bbe e265 55be 298f acbe d080 203d
000002f0: 0d29 03bf 2f4b 723b 8143 323e edda 2cbf
00000300: 87b0 023e 95e6 f2bd 8180 4fbd aeaf c43e
00000310: 5890 08bf d425 f1be 8b83 88be 2a97 d6be

lin2.weight f4 [200, 200]
-0.0369287 -0.028541 0.20714587 -0.061194163 -0.07440278 0.12557243 -0.14745244 -0.028284723
0.00051602686 0.24554256 0.15251638 -0.15043138 0.012428924 -0.11864485 0.17302097 0.09992257
-0.022596713 0.09448056 0.28733903 -0.18194856 -0.17565988 0.10403774 -0.21244934 0.032229956
0.016005432 0.09994174 0.22231962 0.077536866 -0.4323161 0.14592713 -0.026941381 -0.23181622
0.19264469 0.050038517 0.1085304 -0.058158312 -0.10240297 0.21997303 0.042268105 -0.025162704
0.074931785 -0.030946204 -0.037530825 0.1253259 -0.16372058 -0.21468177 0.008062921 0.077683784
0.104860775 0.047106173 0.112533696 -0.11999511 -0.016203996 0.0024156792 0.14251564 0.22438996
0.06536517 0.06612384 -0.15068386 -0.30958384 -0.020420365 -0.28423893 -0.0015975987 -0.18360135
0.20012468 0.053039618 0.14967456 -0.20973496 -0.18014258 0.065912716 0.11312535 0.19152965
0.05202671 0.29511678 -0.30062857 0.1429771 -0.28737798 0.35985097 -0.039936237 0.034022566
0.02722384 0.16799065 0.01459779 -0.24931225 0.047945023 0.039328817 -0.22396958 -0.07596948
-0.16075842 0.08614379 -0.24549115 0.10776448 0.013884922 0.15017912 0.020523025 0.17632662
0.23393978 0.054487314 -0.1553132 0.03187014 0.16306643 -0.14713112 0.03044645 -0.027331263
-0.13392372 -0.22382882 0.034455083 0.13008775 -0.08285231 -0.18795368 -0.0240505 -0.003048646
-0.049916156 0.05975121 -0.045486003 0.100672595 0.12944746 0.04621462 0.1776349 0.1277721
0.045679156 -0.0449946 0.040040966 -0.19948444 0.12293056 -0.21578611 0.16870809 -0.004913244
0.15899332 -0.09027421 -0.12612376 -0.052445363 0.23870717 -0.011802948 0.16584335 0.083696686
-0.13866009 -0.06311697 0.026858129 0.0066487873 0.08601363 -0.1854733 -0.19547714 -0.03767018
-0.2580912 0.39227548 -0.029200554 -0.10057024 0.10468103 0.15441751 0.17201924 0.090127215
0.0011079683 -0.017476877 0.30967912 0.037923034 0.066788346 -0.004769886 -0.00091163843 0.14946538
0.1267724 0.1198261 0.07447143 0.15295209 -0.0099762445 -0.15625398 -0.20290552 -0.10969901
0.3271706 0.14174008 -0.08427198 0.0123599535 0.05835689 0.053855702 -0.095216 -0.09378083
-0.095817 -0.06738042 -0.0049011186 0.08477509 -0.17514643 -0.022133825 -0.026538368 -0.04424685
0.32550886 0.14647442 -0.13780555 0.17997938 -0.3046696 -0.067733355 0.104631566 0.06979496
0.24886706 -0.16742589 -0.008104923 0.03613717 0.055262458 0.030734355 -0.03038302 0.033487506
0.23623346 0.038619954 -0.09024776 0.11135906 -0.17214283 -0.34428853 -0.07005645 -0.22772337
0.079081535 -0.038450517 0.27863488 -0.12590061 0.040503327 -0.23162298 0.0061380207 -0.011540736
0.17776024 -0.012814245 0.0035812263 -0.026611498 -0.097052224 -0.05171846 -0.3053099 0.12872899
0.15504178 -0.20476355 0.1624229 0.25893867 -0.23183404 -0.16079116 0.102620475 -0.18843582
0.051031098 0.16194184 -0.08632869 0.13457148 0.11731435 0.07546533 -0.13153285 -0.30718756
0.10946792 -0.17782359 -0.04284817 0.014380366 -0.01065321 -0.139689 0.16928764 0.15379488
-0.08180543 -0.11831396 -0.07031727 0.30067778 0.028232612 0.0052519143 0.17116573 -0.13375168
00000000: 8c42 17bd d1ce e9bc 0c1e 543e bba6 7abd
00000010: 7c60 98bd 0f96 003e c6fd 16be 5db5 e7bc
00000020: fa45 073a 826f 7b3e 412d 1c3e af0a 1abe
00000030: b0a2 4b3c 12fc f2bd 692c 313e 34a4 cc3d
00000040: be1c b9bc 067f c13d 1a1e 933e b950 3abe
00000050: 2fe0 33be bd11 d53d 528c 59be 8f03 043d
00000060: d31d 833c 41ae cc3d c1a7 633e a6cb 9e3d
00000070: 8958 ddbe ec6d 153e 2cb4 dcbc 3b61 6dbe
00000080: a644 453e 30f5 4c3d 3045 de3d 6937 6ebd
00000090: a6b8 d1bd 9c40 613e 5221 2d3d 0422 cebc
000000a0: d675 993d e582 fdbc ecb9 19bd 6f55 003e
000000b0: 5ea6 27be 8ad5 5bbe 581a 043c ad18 9f3d
000000c0: 3fc1 d63d 67f2 403d 1178 e63d ffbf f5bd
000000d0: 3ebe 84bc 5f50 1e3b 9fef 113e 7bc6 653e
000000e0: 2dde 853d f06b 873d df4c 1abe c681 9ebe
000000f0: 9c48 a7bc c487 91be 8466 d1ba fe01 3cbe
00000100: 7ced 4c3e 1240 593d 4a44 193e c3c4 56be
00000110: 4c77 38be 3ffd 863d 43ae e73d 5920 443e
00000120: f619 553d 8c19 973e fdeb 99be 9768 123e
00000130: 3523 93be 633e b83e 2e94 23bd 3f5b 0b3d
00000140: 8804 df3c be05 2c3e 922b 6f3c b64b 7fbe
00000150: 0062 443d 4117 213d 4858 65be e395 9bbd
00000160: db9d 24be 286c b03d 0862 7bbe a0b3 dc3d
00000170: 957d 633c 8ec8 193e e71f a83c f78e 343e
00000180: e98d 6f3e 172e 5f3d 6c0a 1fbe 448a 023d
00000190: e3fa 263e 8aa9 16be d56a f93c d0e5 dfbc
000001a0: 4d23 09be 6233 65be c620 0d3d b935 053e
000001b0: 79ae a9bd ee76 40be 8e05 c5bc cbcb 47bb
000001c0: e274 4cbd afbd 743d 884f 3abd 6f2d ce3d
000001d0: e08d 043e 8b4b 3d3d ece5 353e b0d6 023e
000001e0: 111a 3b3d 424c 38bd ff01 243d a645 4cbe
000001f0: 04c3 fb3d 09f7 5cbe d0c1 2c3e 47ff a0bb
00000200: 25cf 223e afe1 b8bd 9626 01be f3d0 56bd
00000210: a76f 743e 2761 41bc d7d2 293e 2b69 ab3d
00000220: e9fc 0dbe 7843 81bd 9405 dc3c 12de d93b
00000230: ea27 b03d b6ec 3dbe 292b 48be 0c4c 1abd
00000240: 8824 84be 55d8 c83e 0036 efbc c5f7 cdbd
00000250: 0263 d63d a01f 1e3e d025 303e 9e94 b83d
00000260: 3f39 913a ab2b 8fbc 438e 9e3e 2f55 1b3d
00000270: 54c8 883d b44c 9cbb 05fb 6eba 740d 193e
00000280: a0d0 013e 6367 f53d 7a84 983d 799f 1c3e
00000290: 6773 23bc 0b01 20be 77c6 4fbe e0a9 e0bd
000002a0: e882 a73e 5024 113e ca96 acbd 6781 4a3c
000002b0: a207 6f3d cc97 5c3d 9b00 c3bd 2a10 c0bd
000002c0: b43b c4bd bffe 89bd 9099 a0bb 909e ad3d
000002d0: 9659 33be ff51 b5bc fe66 d9bc 2f3c 35bd
000002e0: 19a9 a63e 64fd 153e e61c 0dbe 844c 383e
000002f0: a7fd 9bbe c9b7 8abd 1349 d63d a9f0 8e3d
00000300: 02d7 7e3e b171 2bbe 83ca 04bc 9204 143d
00000310: e35a 623d 9dc6 fb3c d0e5 f8bc 322a 093d
00000320: 2fe7 713e f52f 1e3d d1d3 b8bd 3810 e43d
00000330: 3646 30be 9646 b0be c279 8fbd 5130 69be
00000340: 80f5 a13d 4a7e 1dbd 3ba9 8e3e 17ec 00be
00000350: d1e6 253d 932e 6dbe 7321 c93b 5b15 3dbc
00000360: c806 363e d7f2 51bc 02b3 6a3b 5b00 dabc
00000370: 51c3 c6bd bcd6 53bd 9451 9cbe 88d1 033e
00000380: 46c3 1e3e 89ad 51be 3052 263e 9c93 843e
00000390: e765 6dbe 70a6 24be af2a d23d 52f5 40be
000003a0: fc05 513d 15d4 253e 19cd b0bd 1bcd 093e
000003b0: 8242 f03d 918d 9a3d 8cb0 06be b047 9dbe
000003c0: b830 e03d 6317 36be 9081 2fbd a09b 6b3c
000003d0: cd8a 2ebc a20a 0fbe bd59 2d3e 687c 1d3e
000003e0: 9b89 a7bd 974e f2bd 8002 90bd 70f2 993e
000003f0: 1448 e73c 4018 ac3b 1246 2f3e 33f6 08be

lin2.bias f4 [200]
0.3800114 0.261763 0.14790806 0.13410552 0.30111775 -0.13084263 0.28504357 -0.1941198
-0.11129607 0.23135427 -0.117002115 -0.01027429 -0.039683145 -0.31332183 0.06887909 0.14289968
0.30594572 0.04395701 -0.025009612 0.16802095 -0.08861533 0.08927565 0.13129544 0.09386831
0.20613658 -0.30691794 0.13198707 -0.52109414 0.07732972 -0.30344552 0.12938711 0.057507597
-0.05662516 -0.24414597 -0.43123633 -0.15732118 0.06597521 -0.05717564 -0.30664536 -0.032373924
0.29820222 0.17994294 0.006594579 0.03950109 0.22021411 0.037338782 -0.10200592 -0.35064217
-0.17428909 0.47960052 -0.02551017 0.43781888 0.0101984665 -0.14072937 0.18532482 0.22417688
-0.040550273 0.21973342 0.08852449 0.04499121 -0.013079013 -0.16220039 -0.13073099 0.08204793
0.0593501 0.39478737 0.10161331 -0.18684116 0.12982021 -0.16254997 -0.25458562 0.20537475
-0.20613237 0.06936825 -0.10443304 -0.09873219 -0.22110577 0.13406837 0.31431633 0.34487554
-0.13398178 -0.16805261 0.06470434 0.38932228 -0.031006625 -0.037217654 -0.1544259 0.10047326
-0.13552457 0.047390517 -0.2024341 -0.168563 0.015715435 0.05199599 0.042801127 0.08901633
-0.3237267 -0.076992474 0.11591337 0.08961561 -0.013487523 0.45229483 -0.38278148 0.09439855
-0.13831466 0.1467041 0.022305913 -0.3461598 -0.22901475 -0.352422 0.22070159 -0.3501735
0.08543506 0.12827864 0.25266197 -0.08461097 -0.09351828 0.3567267 0.013175 -0.04995963
-0.067006946 -0.2946034 -0.2923861 -0.048853293 0.026945628 -0.29104117 -0.074604206 -0.2488884
-0.03953077 0.3089215 0.017383449 0.17425 0.27129713 -0.16596617 0.30068806 0.05833799
0.0005450526 0.12196796 -0.04033549 -0.27273697 -0.04199976 -0.10307369 0.34523878 -0.14787552
-0.25595495 -0.13174686 -0.123945415 0.056520462 -0.05671191 -0.16529575 0.04000695 -0.31079748
-0.11814843 -0.22839066 -0.10664379 -0.03421606 0.20897476 0.12505145 0.22981527 -0.029127674
-0.20027569 -0.3075183 -0.102574736 0.36229616 0.34733272 0.1399502 0.022345737 0.086806774
0.08187463 -0.012334176 -0.34021994 0.33258304 0.12132868 0.05712679 -0.002003883 0.07573455
0.22412 -0.028228289 0.15191177 0.2319698 0.13932312 0.14768331 -0.037552986 0.059607014
0.15611874 -0.001094258 -0.070869625 -0.040787913 0.01307672 0.1853415 0.20711134 -0.12868531
-0.18915996 -0.123547435 -0.28980893 0.018247552 -0.1889276 -0.026073817 0.0073369704 0.12686665
00000000: db90 c23e cd05 863e 3675 173e f552 093e
00000010: 1b2c 9a3e 9cfb 05be 3bf1 913e 57c7 46be
00000020: 32ef e3bd 22e8 6c3e ce9e efbd 7f55 28bc
00000030: cb8a 22bd b86b a0be 7b10 8d3d 4b54 123e
00000040: eba4 9c3e 440c 343d f5e0 ccbc af0d 2c3e
00000050: f47b b5bd 27d6 b63d 5072 063e 073e c03d
00000060: 7815 533e 5924 9dbe 9e27 073e 6d66 05bf
00000070: 0b5f 9e3d 365d 9bbe 0e7e 043e 168d 6b3d
00000080: c9ef 67bd 6701 7abe 02cb dcbe ce18 21be
00000090: 031e 873d 0131 6abd 9f00 9dbe 859a 04bd
000000a0: f6ad 983e f642 383e 5717 d83b e5cb 213d
000000b0: cf7f 613e 8df0 183d 7be8 d0bd 5f87 b3be
000000c0: d778 32be 338e f53e b4fa d0bc cc29 e03e
000000d0: 7817 273c 5c1b 10be cac5 3d3e a08e 653e
000000e0: 0b18 26bd cc01 613e 544c b53d b448 383d
000000f0: 5b49 56bc dc17 26be 58de 05be bf08 a83d
00000100: 1719 733d 9221 ca3e a41a d03d 4a53 3fbe
00000110: 97ef 043e 8073 26be 0c59 82be c24d 523e
00000120: 5d14 53be f110 8e3d fde0 d5bd 1a34 cabd
00000130: 8d69 62be 3849 093e 12ee a03e 8793 b03e
00000140: 8532 09be fc15 2cbe b683 843d 4055 c73e
00000150: 9b01 febc 8a71 18bd d321 1ebe edc4 cd3d
00000160: f4c6 0abe 8f1c 423d e24a 4fbe c79b 2cbe
00000170: a8bd 803c bff9 543d 3c50 2f3d 324e b63d
00000180: 82bf a5be 3bae 9dbd fd63 ed3d 6488 b73d
00000190: c6fa 5cbc 3093 e73e effb c3be 0754 c13d
000001a0: 5ca2 0dbe 9939 163e e4ba b63c db3b b1be
000001b0: d882 6abe a870 b4be 99ff 613e f149 b3be
000001c0: 94f8 ae3d 7a5b 033e e95c 813e 8448 adbd
000001d0: 8386 bfbd e2a4 b63e f5db 573c 78a2 4cbd
000001e0: f03a 89bd 42d6 96be a2b3 95be 641a 48bd
000001f0: 14bd dc3c 5903 95be 17ca 98bd 9adc 7ebe
00000200: 04eb 21bd f52a 9e3e bc67 8e3c 986e 323e
00000210: 75e7 8a3e 09f3 29be c9f3 993e d1f3 6e3d
00000220: dce1 0e3a 56ca f93d d436 25bd 2ea4 8bbe
00000230: f107 2cbd 4c18 d3bd 23c3 b03e ae6c 17be
00000240: 870c 83be a6e8 06be 18d7 fdbd 0082 673d
00000250: bf4a 68bd 4a43 29be 54de 233d d920 9fbe
00000260: cef7 f1bd 3edf 69be 0f68 dabd 2426 0cbd
00000270: 7bfd 553e 7d0d 003e b254 6b3e 299d eebc
00000280: 1215 4dbe 0a73 9dbe b412 d2bd e27e b93e
00000290: 98d5 b13e 1b4f 0f3e 680e b73c c0c7 b13d
000002a0: e3ad a73d 4915 4abc 4f31 aebe 5348 aa3e
000002b0: 2c7b f83d c8fd 693d 9453 03bb b71a 9b3d
000002c0: b77f 653e 033f e7bc c28e 1b3e 7e89 6d3e
000002d0: b8aa 0e3e 4b3a 173e 29d1 19bd 7c26 743d
000002e0: 97dd 1f3e 356d 8fba 1824 91bd 3a11 27bd
000002f0: bd3f 563c 2aca 3d3e ff14 543e 15c6 03be
00000300: 26b3 41be 7006 fdbd d661 94be e47b 953c
00000310: 3d76 41be c298 d5bc f86a f03b 55e9 013e

lin3.weight f4 [200, 200]
0.17094159 -0.32565585 -0.40210932 -0.18922634 -0.015563924 0.097784184 -0.1676596 -0.18662706
0.060776662 0.028382609 0.12169672 0.32590014 0.17514855 -0.050524354 -0.48441058 0.08813413
-0.11003443 -0.26523533 -0.10930392 -0.1719491 0.100227505 0.009042921 -0.29652935 0.11359092
-0.19361381 0.08656303 0.5343952 0.09134445 0.122217126 0.16204342 0.17303465 -0.3794889
0.27474377 -0.11971301 -0.10887773 -0.09785297 -0.12502593 0.15911467 0.18700455 0.087768614
0.071047045 0.11043061 0.060482766 0.4205649 -0.022639748 0.10106793 0.13132763 0.029783348
0.026890691 0.1101455 0.25305954 0.25860137 0.08487325 0.29664826 -0.14204715 0.2588785
0.22768766 0.16932598 0.18563446 0.09916802 -0.43063068 0.25455076 0.24269618 -0.050377667
0.029041544 -0.168387 -0.26225308 0.18531567 0.51111686 0.044878006 0.2802726 0.18622784
0.3305521 -0.14474429 -0.07238751 0.26538748 0.00901074 -0.23152873 -0.023129178 0.13037913
-0.23531103 0.58041584 -0.19943687 -0.33388805 0.2968239 -0.12751444 -0.12479624 0.07061672
0.10487492 -0.09034002 -0.046137843 -0.22828628 -0.015312349 -0.39001256 0.17421308 -0.48307338
-0.21451558 -0.48083517 -0.08187179 -0.2531083 0.23577492 -0.3154558 0.116849676 -0.10192817
0.02422916 -0.08571878 -0.05271437 0.28258526 0.43570477 -0.04526127 0.45260474 0.22757334
-0.22234061 0.047808852 -0.24530695 0.27525178 -0.04735511 0.25286695 0.051210113 -0.02439555
0.04664273 0.080010094 0.01999029 0.08104483 -0.07179518 0.037436392 0.039516997 -0.08949185
0.26358125 -0.004267975 0.03867686 0.02176827 0.037827663 0.27725685 0.37221673 -0.19400392
-0.26487866 -0.481531 0.0945533 -0.0070202104 -0.10855641 0.012170028 0.11629123 0.08116453
0.072631076 -0.22598897 0.12263923 0.18095845 0.15846503 -0.0007201897 0.17032678 0.5739914
-0.17594169 -0.27841184 0.07244916 -0.09102431 0.0989327 0.19477516 -0.06603302 0.25829583
0.13968286 0.06739209 -0.120073885 0.033285644 -0.24804938 -0.10038659 0.11955056 0.121687986
0.040349044 -0.36507848 0.20012729 0.1024154 0.18450083 -0.13090199 -0.10699201 0.13000628
0.11593132 0.04662236 0.19440337 0.15568522 -0.31900042 -0.11152871 0.118935645 0.36592746
0.123216994 0.21923158 -0.12852098 0.015184721 -0.026697379 -0.022689402 0.13316628 0.23171984
0.13614662 0.20619783 -0.0024766868 0.5611384 -0.17395674 0.111801155 0.029058533 -0.11591158
-0.17355917 0.11136766 0.5489707 0.005223197 0.28475666 -0.24689311 0.04581727 0.019624855
0.1969729 -0.53715134 -0.32274473 -0.026203075 -0.23656629 0.08939634 -0.29753458 -0.36807904
0.035465226 -0.35459846 0.2709452 0.29328904 -0.095529705 -0.3583197 0.008846617 0.03030417
-0.18866313 0.11650397 0.29196283 -0.27988896 0.16067478 0.34890515 -0.14834306 0.40545064
0.09528714 -0.28709176 -0.13615713 -0.14171763 0.31661272 -0.2629954 0.4296424 -0.17878293
0.38438222 -0.04477429 0.09116051 0.037380867 0.31523675 0.069870725 -0.13909595 -0.119310066
0.057235986 0.010728029 0.12701379 -0.19633736 -0.086302504 0.11265106 0.20130344 0.009946762
00000000: 500b 2f3e 5dbc a6be 46e1 cdbe 8dc4 41be
00000010: d4ff 7ebc 1343 c83d f5ae 2bbe 2a1b 3fbe
00000020: f3f0 783d a582 e83c 213c f93d 62dc a63e
00000030: 245a 333e a0f2 4ebd aa04 f8be ab7f b43d
00000040: bb59 e1bd edcc 87be bcda dfbd 6d13 30be
00000050: 1444 cd3d c228 143c b2d2 97be 5ba2 e83d
00000060: b342 46be f547 b13d 20ce 083f cd12 bb3d
00000070: f94c fa3d b6ee 253e ff2f 313e 5e4c c2be
00000080: 37ab 8c3e 182c f5bd 4afb debd 2367 c8bd
00000090: cc06 00be f5ee 223e 1f7e 3f3e 08c0 b33d
000000a0: 1d81 913d 7229 e23d c7bc 773d 4854 d73e
000000b0: fe76 b9bc b4fc ce3d c07a 063e 35fc f33c
000000c0: de49 dc3c f793 e13d 0591 813e 6667 843e
000000d0: 07d2 ad3d 48e2 973e cf74 11be b98b 843e
000000e0: f426 693e ca63 2d3e f616 3e3e 9a18 cb3d
000000f0: a07b dcbe 7a54 823e 5985 783e d058 4ebd
00000100: 88e8 ed3c a46d 2cbe 0946 86be 64c3 3d3e
00000110: 8ed8 023f 00d2 373d e47f 8f3e 83b2 3e3e
00000120: 203e a93e d937 14be e73f 94bd dee0 873e
00000130: c8a1 133c de15 6dbe 6779 bdbc 1b82 053e
00000140: 60f5 70be 2296 143f 2e39 4cbe 60f3 aabe
00000150: 4df9 973e 2593 02be 2c95 ffbd 809f 903d
00000160: a9c8 d63d 3004 b9bd 09fb 3cbd e1c3 69be
00000170: a6e0 7abc baaf c7be ea64 323e 6555 f7be
00000180: f9a9 5bbe 0730 f6be 66ac a7bd 6997 81be
00000190: fb6e 713e 6c83 a1be e24e ef3d b7bf d0bd
000001a0: 3b7c c63c 548d afbd 06eb 57bd 04af 903e
000001b0: b214 df3e e263 39bd cfbb e73e fc08 693e
000001c0: 42ad 63be 37d3 433d bf31 7bbe cded 8c3e
000001d0: 6ff7 41bd c777 813e b2c1 513d 2dd9 c7bc
000001e0: 720c 3f3d 55dc a33d adc2 a33c d5fa a53d
000001f0: 5a09 93bd e756 193d 93dc 213d 8147 b7bd
00000200: 1ff4 863e 5fda 8bbb a16b 1e3d 5f53 b23c
00000210: 2ef1 1a3d 9cf4 8d3e 3193 be3e f7a8 46be
00000220: 2d9e 87be 3b8b f6be 29a5 c13d cb09 e6bb
00000230: d352 debd cc64 473c 192a ee3d 9739 a63d
00000240: 9abf 943d a769 67be 472a fb3d 2c4d 393e
00000250: a844 223e 1dcb 3cba 256a 2e3e 1af1 123f
00000260: 0f2a 34be ff8b 8ebe 3a60 943d f46a babd
00000270: 3a9d ca3d 2473 473e 523c 87bd 5a3f 843e
00000280: 0609 0f3e dd04 8a3d 4ce9 f5bd 8756 083d
00000290: a800 7ebe 7c97 cdbd edd6 f43d 8d37 f93d
000002a0: 0a45 253d 91eb babe 2bee 4c3e 2abf d13d
000002b0: c9ed 3c3e 2c0b 06be a01e dbbd 5e20 053e
000002c0: 666d ed3d 16f7 3e3d ad11 473e f26b 1f3e
000002d0: 0654 a3be 2a69 e4bd 8894 f33d d85a bb3e
000002e0: 3159 fc3d 3e7e 603e 019b 03be 56c9 783c
000002f0: 76b4 dabc 20df b9bc be5c 083e f747 6d3e
00000300: 056a 0b3e 8625 533e e94f 22bb c4a6 0f3f
00000310: b721 32be 01f8 e43d 290c ee3c 0d63 edbd
00000320: 7fb9 31be ba14 e43d 5889 0c3f 5a27 ab3b
00000330: a0cb 913e 8cd1 7cbe e4aa 3b3d 4ec4 a03c
00000340: 44b3 493e c082 09bf cc3e a5be d5a7 d6bc
00000350: 6f3e 72be 6e15 b73d 7456 98be db74 bcbe
00000360: fc43 113d ee8d b5be 54b9 8a3e fb29 963e
00000370: 14a5 c3bd ae75 b7be 67f1 103c 7340 f83c
00000380: e830 41be a299 ee3d 277c 953e 9b4d 8fbe
00000390: ee87 243e b2a3 b23e 3ee7 17be 3a97 cf3e
000003a0: e725 c33d b1fd 92be c66c 0bbe 6d1e 11be
000003b0: 101b a23e 55a7 86be 17fa db3e df12 37be
000003c0: bfcd c43e 3f65 37bd 5db2 ba3d ae1c 193d
000003d0: b666 a13e 6218 8f3d 2b6f 0ebe d658 f4bd
000003e0: 4870 6a3d 9dc4 2f3c e70f 023e a90c 49be
000003f0: 5ebf b0bd 99b5 e63d 7d22 4e3e bef7 223c

lin3.bias f4 [200]
-0.43857944 0.14683418 -0.35284206 0.24124354 -0.19073375 -0.16177754 -0.0832697 -0.024618687
-0.20058589 0.3815913 0.5162173 -0.22037037 0.06394912 0.468341 0.18146364 0.23138295
-0.2545773 -0.24814476 -0.51177937 0.8219434 0.87881666 -0.20738007 0.26584208 -0.03642661
-0.41160515 -0.1933575 -0.09866443 0.09368154 -0.29544082 -0.1232474 -0.20150372 -0.08920393
-0.23676147 -0.16958737 -0.17486376 -0.34502426 -0.54162365 -0.049509585 -0.19292574 0.060711898
-0.3014503 0.21487471 0.18684953 -0.117448755 -0.3501161 -0.6633261 -0.016078355 -0.12549476
0.069702275 0.14728425 0.57082206 0.28779393 0.41251123 -0.50322115 -0.24664344 -0.055388507
0.22564957 -0.23269859 -0.07084944 -0.034111567 0.32522935 0.012954451 -0.0011064259 -0.47735485
0.25058448 -0.17213635 -0.41674447 0.38785124 -0.03487314 -0.2626427 0.4027197 -0.16307355
-0.1812682 -0.49266532 0.44968802 -0.50207615 0.42886525 0.16523975 0.27574995 0.02052441
-0.34814033 0.1337941 0.05863828 0.4348975 -0.2279218 0.39335445 -0.15903921 0.044213068
-0.32804957 0.06592346 0.01067797 -0.38202545 0.23815419 0.4954443 0.23843159 0.4032303
0.7527544 0.1339073 0.23998298 -0.17410965 0.4855351 0.07872886 -0.42986247 -0.22220457
0.14136735 0.2492618 0.6480601 -0.5520969 -0.081469305 0.020057812 0.093876086 -0.654985
0.13870251 0.19506454 0.076513074 -0.2822671 0.38004827 -0.21258982 0.30515283 -0.16789956
0.30976877 -0.19308692 0.31504923 -0.21936028 -0.07943213 0.097040206 0.17117459 -0.5421236
0.57484907 -0.4170245 0.008401916 0.31173313 -0.0008188568 0.039890885 0.30255058 -0.56703967
-0.12507533 0.28456718 -0.16890098 0.21883427 0.21997622 0.32911462 -0.06259509 -0.14574368
-0.8559424 0.25162196 -0.36015964 0.31248745 -0.19675155 0.3254334 0.2177319 -0.19868314
-0.11429381 0.23674223 -0.58436275 0.25108358 -0.04867408 -0.26407903 0.4135177 -0.037832398
0.06696277 -0.31481484 0.12500392 0.6489512 0.09631115 0.26765627 0.3844371 0.04623856
-0.30801862 -0.25854868 0.37495676 -0.060870577 -0.002275943 0.40920037 -0.38037086 0.18240127
0.60109025 -0.023523588 0.09745084 0.1095127 -0.6735412 -0.08649291 -0.28805655 0.42101443
0.45665544 0.13413955 0.4743925 -0.2501579 0.116202995 0.344312 -0.027843853 0.40907776
0.100813426 -0.10099994 -0.54871017 0.51007605 0.24924959 -0.27132815 -0.38750273 -0.08416287
00000000: 7c8d e0be b35b 163e b7a7 b4be 8c08 773e
00000010: b54f 43be 03a9 25be 4e89 aabd 21ad c9bc
00000020: 6366 4dbe ef5f c33e d126 043f c5a8 61be
00000030: c2f7 823d 64ca ef3e 9bd1 393e a7ef 6c3e
00000040: f557 82be a919 7ebe f903 03bf e26a 523f
00000050: 21fa 603f 715b 54be 741c 883e 1234 15bd
00000060: e9bd d2be 82ff 45be 9410 cabd 1bdc bf3d
00000070: 0544 97be 2269 fcbd fe56 4ebe 8db0 b6bd
00000080: 9971 72be 50a8 2dbe 7c0f 33be 05a7 b0be
00000090: d9a7 0abf 90ca 4abd 538e 45be 0aad 783d
000000a0: b257 9abe 1e08 5c3e 7c55 3f3e f988 f0bd
000000b0: 6b42 b3be bdcf 29bf c1b6 83bc b381 00be
000000c0: 11c0 8e3d afd1 163e 6521 123f ba59 933e
000000d0: ac34 d33e 1ad3 00bf 1990 7cbe 0fdf 62bd
000000e0: ae10 673e 8a48 6ebe 8319 91bd 92b8 0bbd
000000f0: 7684 a63e e83e 543c 7e05 91ba db67 f4be
00000100: 9c4c 803e 8344 30be 885f d5be 7094 c63e
00000110: 23d7 0ebd 1b79 86be 4731 ce3e c1fc 26be
00000120: 5f9e 39be a13e fcbe 823d e63e 1088 00bf
00000130: 3a94 db3e 9c34 293e 192f 8d3e cf22 a83c
00000140: 733f b2be 5201 093e b12e 703d e3aa de3e
00000150: 5564 69be c165 c93e 2ddb 22be c318 353d
00000160: 1df6 a7be e102 873d a7f2 2e3c d798 c3be
00000170: b1de 733e e0aa fd3e 6927 743e 3474 ce3e
00000180: 83b4 403f ff1e 093e 19be 753e cd49 32be
00000190: 0e98 f83e 993c a13d ef16 dcbe 9889 63be
000001a0: 9ac2 103e 7c3e 7f3e 44e7 253f 3956 0dbf
000001b0: 61d9 a6bd 4850 a43c 1b42 c03d 19ad 27bf
000001c0: 0808 0e3e 00bf 473e e3b2 9c3d 5085 90be
000001d0: b095 c23e 25b1 59be fe3c 9c3e dded 2bbe
000001e0: 039a 9e3e 94b8 45be 224e a13e fb9f 60be
000001f0: 50ad a2bd 04bd c63d 6448 2f3e 9dc8 0abf
00000200: 4f29 133f 3c84 d5be 31a8 093c 7c9b 9f3e
00000210: 8da8 56ba a064 233d e9e7 9a3e 8329 11bf
00000220: bf13 00be cab2 913e 61f4 2cbe 1716 603e
00000230: 7241 613e b681 a83e db31 80bd d53d 15be
00000240: 0b1f 5bbf 98d4 803e d866 b8be 5bfe 9f3e
00000250: 3d79 49be 359f a63e 1cf5 5e3e 9873 4bbe
00000260: e012 eabd 8e6c 723e cc98 15bf 078e 803e
00000270: 795e 47bd 5e35 87be 98b8 d33e 25f6 1abd
00000280: c723 893d 692f a1be 0701 003e aa21 263f
00000290: c83e c53d 3e0a 893e f1d4 c43e a564 3d3d
000002a0: 9eb4 9dbe 7e60 84be 55fa bf3e 6d53 79bd
000002b0: fd27 15bb b682 d13e f8bf c2be 66c7 3a3e
000002c0: 0de1 193f 8ab4 c0bc 4e94 c73d 3248 e03d
000002d0: 326d 2cbf 3223 b1bd 267c 93be 348f d73e
000002e0: bece e93e e15b 093e 93e3 f23e b214 80be
000002f0: d6fb ed3d aa49 b03e cb18 e4bc a472 d13e
00000300: 4577 ce3d 0ed9 cebd 4578 0cbf 5894 023f
00000310: 493b 7f3e 86eb 8abe c266 c6be 955d acbd

lin4.weight f4 [62, 200]
1.0535468 -0.44722205 0.5593017 0.82753617 0.022628538 0.043774754 -0.83648515 0.023140023
-0.20231566 1.3159506 0.44970194 -0.1865862 0.9128819 0.2130021 -1.6087046 -1.3134208
-1.2052732 0.81362736 -0.008366585 0.04174062 -0.094805665 1.5174364 -0.32407343 0.6540774
0.6208531 0.47247386 -1.6937346 -0.51864415 0.0024278795 -0.25047448 -1.2246813 1.9231997
-0.4265171 -0.005013745 -1.0968877 0.22683945 -0.062059842 -1.5584046 0.76574844 0.55116826
1.172955 0.15376581 0.5111002 0.5112274 -0.690302 0.8361081 -0.19316731 -0.23796006
1.1882517 0.3986011 -1.3371137 1.766524 -0.6474807 0.7953001 -0.03861184 -0.8903179
0.05987152 -1.2684474 -1.1021241 0.23821276 -0.038271043 0.37544185 0.9334232 0.9390215
0.06800101 0.8495012 -0.36485857 -0.40481964 -0.5975009 -0.746496 1.6046729 1.089629
0.82950974 -0.84250814 0.67152375 0.24818604 0.44581786 0.08427702 0.32077596 0.06635273
-0.29166976 0.020743018 -0.30877402 0.144013 0.57484764 0.6297943 1.0245652 -1.8684326
-0.11780962 0.3606952 -0.6167437 -1.4283946 -0.09931804 -1.1194476 -0.32213354 0.28994524
-0.37036496 0.2480665 -0.31995335 -0.7355121 -0.5401874 1.2250522 -0.6881068 -0.46387157
-0.9825023 0.12793845 -0.0017646587 0.365518 1.0939784 0.06931109 0.60502034 -0.18633291
0.30014527 0.25659797 -0.033636484 0.053163026 0.37425476 0.01935219 -0.49169433 0.7402636
0.45431244 -0.43305692 0.025203679 0.7315169 0.37060785 0.06749289 0.7120616 0.9134406
0.1156594 0.7419535 -0.50757986 0.18495733 0.5945011 0.48754826 -1.2855624 -0.45233104
1.3969437 0.32235503 -0.18405826 0.32980752 -0.02669485 -0.9714032 0.11894216 0.13354355
1.0612187 0.4244098 -0.25532234 -0.06361751 0.3356112 0.66438586 0.41626188 -0.62346596
1.3673661 1.1013169 -0.8048188 0.5930279 -0.51667446 1.3579848 0.19238338 0.06620951
-0.9083481 0.059072 0.56044245 0.45502308 0.49052164 -0.20319633 -0.01661507 0.9784127
0.2837392 1.7983257 0.008435913 -0.58349293 -1.909183 0.8194108 0.77986187 0.31848586
-1.3172796 -0.05955843 0.6321052 0.89317155 -0.20540567 -0.25135344 0.26761398 1.5582093
0.63745785 -0.3365374 0.21956073 -1.2212662 -0.4351706 0.81361127 -0.26603845 0.83313704
-0.55239695 -0.23852108 0.62671524 0.3908022 -0.3684276 -0.06656158 -0.23053303 0.35763097
-0.20996684 0.5572171 -0.30115044 0.7832576 0.27706861 0.9548685 -0.004842766 -0.09086951
-0.53502166 0.90225947 -0.27393475 0.055058382 0.05051727 0.8405649 -1.2063057 0.14964418
0.33013314 0.41400683 -0.7457504 -0.06967802 1.3496933 0.5319573 -0.056322742 0.14675634
-0.4164874 -0.24298984 -1.1686504 0.6826956 -0.12240566 -0.19185242 -0.36612672 1.4372902
-1.115528 0.1939213 -0.41883436 -0.29036438 0.31916076 -0.658249 0.34385175 0.40981773
0.8807465 0.48197004 0.5531478 0.21624477 -0.32414535 0.07411637 -1.009673 -0.4906855
0.7768466 0.31444356 0.13295476 0.6402541 0.7171505 0.5844947 -0.29852536 -0.5419403
00000000: 9fda 863f 4afa e4be 652e 0f3f 69d9 533f
00000010: 7c5f b93c 284d 333d e423 56bf 2590 bd3c
00000020: d62b 4fbe 1271 a83f 553f e63e 7410 3fbe
00000030: a1b2 693f 391d 5a3e 08ea cdbf 2c1e a8bf
00000040: 6446 9abf e249 503f 0014 09bc 36f8 2a3d
00000050: 7929 c2bd 5b3b c23f f4ec a5be 9e71 273f
00000060: 3bf0 1e3f 18e8 f13e 4ccc d8bf ddc5 04bf
00000070: 0f1d 1f3b 313e 80be 5bc2 9cbf 682b f63f
00000080: 7360 dabe 574a a4bb d166 8cbf 9a48 683e
00000090: 7632 7ebd cd79 c7bf 1708 443f 5d19 0d3f
000000a0: 6423 963f c974 1d3e 76d7 023f cddf 023f
000000b0: a2b7 30bf 2e0b 563f a7cd 45be cdab 73be
000000c0: a218 983f 7215 cc3e 8b26 abbf 751d e23f
000000d0: 4cc1 25bf ca98 4b3f 7327 1ebd e0eb 63bf
000000e0: d73b 753d 7c5c a2bf 6712 8dbf 0cee 733e
000000f0: 19c2 1cbd ea39 c03e d3f4 6e3f b763 703f
00000100: 1d44 8b3d e978 593f bece babe 8544 cfbe
00000110: d2f5 18bf 5d1a 3fbf ec65 cd3f f778 8b3f
00000120: c05a 543f 9dae 57bf fbe8 2b3f 7b24 7e3e
00000130: 3d42 e43e 6e99 ac3d bf3c a43e f1e3 873d
00000140: bd55 95be 43ed a93c a117 9ebe 2578 133e
00000150: 3729 133f 333a 213f f424 833f cd28 efbf
00000160: 2c46 f1bd 0bad b83e eae2 1dbf a2d5 b6bf
00000170: 4267 cbbd 0f4a 8fbf b0ee a4be b473 943e
00000180: 7aa0 bdbe 2505 7e3e edd0 a3be 854a 3cbf
00000190: b949 0abf 83ce 9c3f c427 30bf 9380 edbe
000001a0: 4585 7bbf 4c02 033e 1f4c e7ba 2d25 bb3e
000001b0: 7c07 8c3f f9f2 8d3d 9de2 1a3f 0ece 3ebe
000001c0: a4ac 993e cf60 833e 69c6 09bd 79c1 593d
000001d0: 529e bf3e 7c88 9e3c 5cbf fbbe ea81 3d3f
000001e0: a49b e83e a3b9 ddbe f277 ce3c b144 3b3f
000001f0: 50c0 bd3e b639 8a3d ab49 363f 3ed7 693f
00000200: d6de ec3d aaf0 3d3f c1f0 01bf 7465 3d3e
00000210: 3931 183f ed9f f93e 4f8d a4bf ef97 e7be
00000220: 0dcf b23f b80b a53e c579 3cbe 88dc a83e
00000230: 28af dabc e1ad 78bf f297 f33d a4bf 083e
00000240: 04d6 873f 3e4c d93e 9cb9 82be e649 82bd
00000250: 3bd5 ab3e 3115 2a3f 4720 d53e 779b 1fbf
00000260: da05 af3f f4f7 8c3f 9b08 4ebf add0 173f
00000270: c744 04bf 72d2 ad3f 2600 453e da98 873d
00000280: 8089 68bf 7bf5 713d 2879 0f3f c9f8 e83e
00000290: a725 fb3e b312 50be 541c 88bc 4179 7a3f
000002a0: 4446 913e 892f e63f c936 0a3c cb5f 15bf
000002b0: 1c60 f4bf e8c4 513f 07a5 473f 9410 a33e
000002c0: 9e9c a8bf 8af3 73bd a5d1 213f e4a6 643f
000002d0: dd55 52be 66b1 80be b304 893e 6773 c73f
000002e0: 7030 233f a14e acbe 87d4 603e 7352 9cbf
000002f0: aece debe d448 503f 3136 88be 7848 553f
00000300: e369 0dbf df3e 74be 6970 203f 3a17 c83e
00000310: 8ba2 bcbe 7051 88bd da10 6cbe 681b b73e
00000320: 8c01 57be c8a5 0e3f 6430 9abe 9283 483f
00000330: f0db 8d3e 4372 743f 11b0 9ebb cb19 babd
00000340: 2ef7 08bf 7afa 663f 2d41 8cbe e684 613d
00000350: 32eb 4e3d 432f 573f 3a68 9abf 533c 193e
00000360: 3607 a93e b4f8 d33e 80e9 3ebf 5ab3 8ebd
00000370: c0c2 ac3f 5b2e 083f adb2 66bd 4b47 163e
00000380: d63d d5be 54d2 78be 5696 95bf 24c5 2e3f
00000390: d2af fabd f674 44be f674 bbbe 20f9 b73f
000003a0: 9fc9 8ebf 4e93 463e 7571 d6be a4aa 94be
000003b0: 0a69 a33e 0283 28bf 560d b03e a1d3 d13e
000003c0: 9a78 613f c7c4 f63e 189b 0d3f 456f 5d3e
000003d0: 61f6 a5be 53ca 973d f73c 81bf 213b fbbe
000003e0: 6bdf 463f bffe a03e 4b25 083e b1e7 233f
000003f0: 2d97 373f 72a1 153f 51d8 98be 99bc 0abf

lin4.bias f4 [62]
-0.10768654 2.5129247 -1.2305619 -0.68410873 0.1979466 -2.465734 -0.7001113 -0.830039
-1.515073 -1.6074265 -1.0303495 -1.7501283 -1.1825742 -1.66507 -1.6705338 -2.0109808
-2.1575217 -1.3666233 -0.027352817 -1.4104943 -2.2639847 -1.1001813 -1.5101469 -1.674941
-1.6491973 -1.4265747 -1.6789291 -1.1316178 -1.2206684 -0.9436601 -2.6111634 -1.6944821
-1.7530333 -13.373296 -2.5754538 -13.706012 1.3857836 -0.31478748 -0.23234825 -0.13759325
1.6233549 -0.07787241 -1.2973297 0.7001632 0.5366028 -2.080602 -1.7137812 0.7084012
0.54462475 0.7280584 0.6308252 -0.5698866 -1.939408 0.50291824 1.5486062 1.2921088
-0.66499 -1.1892358 0.06820644 -2.3002803 -0.083481275 -2.6905274
00000000: c38a dcbd c2d3 2040 0d83 9dbf c021 2fbf
00000010: 83b2 4a3e 96ce 1dc0 7f3a 33bf 707d 54bf
00000020: e9ed c1bf 27c0 cdbf 7ee2 83bf 3404 e0bf
00000030: 975e 97bf 0421 d5bf 0dd4 d5bf e9b3 00c0
00000040: d614 0ac0 83ed aebf 0413 e0bc 148b b4bf
00000050: 20e5 10c0 bed2 8cbf 7e4c c1bf 7764 d6bf
00000060: e618 d3bf 009a b6bf 26e7 d6bf dad8 90bf
00000070: dd3e 9cbf b593 71bf 4d1d 27c0 cae4 d8bf
00000080: 6563 e0bf 05f9 55c1 3cd4 24c0 d34b 5bc1
00000090: 5b61 b13f d32b a1be b3ec 6dbe 3fe5 0cbe
000000a0: 18ca cf3f 927b 9fbd e60e a6bf e53d 333f
000000b0: cd5e 093f 9528 05c0 2f5d dbbf c859 353f
000000c0: 876c 0b3f 0962 3a3f c37d 213f 17e4 11bf
000000d0: 853e f8bf 40bf 003f ba38 c63f d263 a53f
000000e0: c93c 2abf e138 98bf d1af 8b3d cb37 13c0
000000f0: 3bf8 aabd 9a31 2cc0
