qn1/weights/model_weights_b15_em5.pth (torch, 436581 bytes, 9 tensors)

emb.weight f4 [62, 5]
0	0x3f901910	1.1257648
1	0xbf1881ed	-0.5957325
2	0xbde5557e	-0.11197947
3	0xbf5c0fca	-0.8596159
4	0x3f373972	0.7157203
5	0x3f18f331	0.5974608
6	0xbe84f58d	-0.2596859
7	0x3f052e7c	0.52024055
8	0xbe86cc34	-0.2632767
9	0xbf0aabee	-0.54168594
10	0xbef9a567	-0.48759004
11	0x3f09da68	0.53848886
12	0x3f542bc4	0.8287928
13	0xbea57c91	-0.323216
14	0x3f97b763	1.185284
15	0xbf055f70	-0.5209875
16	0x3c39621c	0.011314895
17	0xbf133a9e	-0.5751132
18	0xbfc2b151	-1.5210363
19	0xbec87497	-0.3915145
20	0x3e84e5e3	0.2595664
21	0x3f8b4b97	1.0882443
22	0xbe883efc	-0.26610553
23	0xbef8999d	-0.48554698
24	0xbe7b9cae	-0.24571487
25	0x3d2e6153	0.042573284
26	0x3e8d7d32	0.2763458
27	0x3e08de0f	0.13365959
28	0x3f010ebf	0.50413126
29	0x3e282d3b	0.16423504
30	0x3ea02483	0.31277856
31	0xbe988cfd	-0.29795066
32	0x3f1b6f4c	0.607167
33	0x3fa07416	1.2535427
34	0x3e68b61b	0.22725718
35	0x3dff81f7	0.12475961
36	0xbed17855	-0.4091212
37	0xbf53cb53	-0.82732123
38	0x3f370b9d	0.71502095
39	0x3ed926e8	0.42412496
40	0xbe1a8e8d	-0.15093441
41	0x3db19fd2	0.086730614
42	0xbf4e4bae	-0.8058423
43	0xbf368589	-0.7129751
44	0xbf0b5f14	-0.5444195
45	0xbe019b87	-0.12656985
46	0xbf073128	-0.5280938
47	0x3d9f5610	0.07780087
48	0x3f4f6a6b	0.81021756
49	0x3f000a32	0.50015557
50	0x3e02640e	0.1273348
51	0x3e8a9f98	0.27074885
52	0xbd785077	-0.060623612
53	0xbf277aee	-0.6542195
54	0x3f55e05e	0.8354548
55	0x3de0aa1d	0.109699465
56	0x3f17aa1d	0.5924395
57	0x3f97b92e	1.1853387
58	0x3f33ab26	0.70183027
59	0x3c964a73	0.018346047
60	0x3f1f9253	0.6233265
61	0x3d659cdc	0.056057796
62	0x3d02c9b6	0.031930648
63	0x3f05f349	0.5232435
64	0xbe341c50	-0.17588925
65	0x3e4b2d6d	0.19841547
66	0x3f5ccd2c	0.8625057
67	0xbd926113	-0.07147422
68	0x3f36cfdf	0.71410936
69	0x3f6c95bc	0.92415977
70	0xbf29b294	-0.66288114
71	0xbf87c070	-1.0605602
72	0x3ec82b98	0.3909576
73	0xbf3e4b44	-0.74333596
74	0x3ec0da02	0.37666327
75	0x3fa85243	1.3150104
76	0xbe415833	-0.18881302
77	0x3f637c04	0.8886111
78	0xbf84b797	-1.0368527
79	0x3e0688e3	0.13138156
80	0xbd2caf61	-0.04215944
81	0xbe1b29e0	-0.15152693
82	0xbd99542c	-0.07486758
83	0xbf1a6fd3	-0.6032688
84	0x3e0ef087	0.13958941
85	0xbe68ccf6	-0.22734436
86	0xbe58b125	-0.21161325
87	0x3e719d15	0.23595078
88	0xbecc8bd1	-0.3995042
89	0x3f32dbec	0.69866824
90	0x3ee2c771	0.44292787
91	0x3f2cdf02	0.6752778
92	0x3e82346d	0.25430623
93	0xbf32fc8b	-0.699166
94	0xbef45155	-0.477183
95	0xbee4d45a	-0.4469326
96	0xbdc184dd	-0.0944917
97	0x3fb8f8a9	1.4450885
98	0x3f3e54e6	0.74348295
99	0xbf171ff9	-0.5903316
100	0xbeebafb0	-0.46032476
101	0xbeb62cef	-0.35581157
102	0x3f273fb1	0.6533156
103	0x3f8b90f9	1.0903617
104	0xbefa659e	-0.48905653
105	0x3f978963	1.1838802
106	0xbd88560d	-0.06657038
107	0xbd1de7bb	-0.038551074
108	0x3e2c9ad4	0.16855937
109	0xbf364a3f	-0.7120704
110	0xbec335e8	-0.38127065
111	0x3f50b662	0.81528294
112	0x3f01c968	0.50697947
113	0x3f47e068	0.7807679
114	0xbc9ef93c	-0.019405954
115	0xbf471d1c	-0.7777879
116	0xbe202b93	-0.15641622
117	0x3e99a3cc	0.3000778
118	0x3eaeaac5	0.34114662
119	0xbe10edb7	-0.14153181
120	0xbe8ef410	-0.2792058
121	0x3f84d733	1.0378174
122	0x3ebc3b79	0.36764124
123	0x3fa9a591	1.3253652
124	0x3f909087	1.1294106
125	0x3f33d442	0.70245755
126	0x3e9b1b4c	0.30294263
127	0x3ef68d9d	0.48154917
128	0xbd2610c1	-0.04054332
129	0x3e3a300a	0.18182388
130	0xbf497c9b	-0.7870576
131	0xbd61d6dc	-0.055136546
132	0x3e84ec3d	0.25961486
133	0xbe458883	-0.19290356
134	0x3f091845	0.5355266
135	0xbdb9c293	-0.09070315
136	0xbedd1ad3	-0.43184528
137	0x3eb148e3	0.3462592
138	0xbf09f91f	-0.53895754
139	0x3f9cddeb	1.2255224
140	0x3dd14442	0.10218097
141	0x3f69fd54	0.91402173
142	0x3f759bfe	0.9594115
143	0xbecc7a70	-0.39937162
144	0x3eca3234	0.39491427
145	0xbe902236	-0.281511
146	0x3f100c70	0.5626898
147	0x3b84ac3a	0.0040488513
148	0xbf1d7e80	-0.6152115
149	0x3cade9ad	0.02122959
150	0x3e42aeb3	0.19011955
151	0xbe05b569	-0.13057484
152	0x3d4e4965	0.050362963
153	0xbf85f436	-1.0465152
154	0xbeab90ae	-0.3350882
155	0x3f8c0fdf	1.0942343
156	0x3f0aaa79	0.5416637
157	0x3eb26a11	0.34846547
158	0x3ec8fa8c	0.39253652
159	0xbe28ae28	-0.16472685
160	0x3f90e85f	1.1320914
161	0x3e8a4b12	0.270104
162	0xbf046f61	-0.5173245
163	0x3f4995a6	0.7874397
164	0x3e18a4af	0.14906572
165	0x3ef60299	0.48048857
166	0x3efcb885	0.49359527
167	0xbebe392e	-0.37153
168	0x3efa72c7	0.48915693
169	0x3e582925	0.21109445
170	0x3ea80bc7	0.32821485
171	0xbc881349	-0.016610758
172	0xbd9324d1	-0.071847565
173	0x3f4a4ca5	0.790232
174	0xbfa15b9a	-1.260608
175	0xbf96d639	-1.1784126
176	0x3ea48d00	0.32138824
177	0x3f029cdd	0.51020604
178	0x3f93522d	1.1509453
179	0xbd13f7bb	-0.036124926
180	0xbfa4fbf9	-1.2889396
181	0xbd979b63	-0.074026845
182	0x3f0e72ea	0.55644095
183	0xbebebb47	-0.37252256
184	0x3e0e10da	0.13873616
185	0x3ecf2de9	0.40464714
186	0xbeea229d	-0.45729533
187	0xbf268be2	-0.65057194
188	0xbeabf20f	-0.33583114
189	0x3d1874ae	0.03722065
190	0xbe3f9f7c	-0.18713182
191	0xbe8d7b48	-0.2763312
192	0xbf211f71	-0.629386
193	0xbe4a8b68	-0.19779742
194	0xbeb9b6b0	-0.36272192
195	0x3dd83884	0.105576545
196	0x3db87693	0.09006991
197	0xbf72bc30	-0.948184
198	0xbecd33c2	-0.4007855
199	0x3d73c0e2	0.05951012
200	0xbebf5783	-0.37371454
201	0x3eeac329	0.4585202
202	0xbda9d5ba	-0.08292718
203	0xbe50259b	-0.20326845
204	0xbf6c1972	-0.92226326
205	0x3f7c0fe4	0.9846175
206	0x3f15f484	0.58576226
207	0xbf08db9f	-0.53460115
208	0x3e328784	0.17434508
209	0xbe09ae32	-0.13445356
210	0xbe55d81c	-0.2088322
211	0x3e9761a8	0.29566693
212	0xbeb0005b	-0.3437527
213	0x3e1d2c1c	0.15348858
214	0x3ea2ab55	0.3177134
215	0x3eb29dd5	0.3488604
216	0x3ca5501b	0.020179799
217	0xbea24a30	-0.31697226
218	0xbb8c704b	-0.0042858473
219	0x3faf2302	1.3682559
220	0xbf9e4be6	-1.2366912
221	0x3ed7b8f3	0.42133293
222	0x3ce8fdab	0.02844127
223	0x3dde882d	0.10865817
224	0x3e6ab2f5	0.22919829
225	0xbd8e03e2	-0.06934334
226	0x3c753fd7	0.014968834
227	0x3f08fa77	0.5350718
228	0x3db7593f	0.08952569
229	0x3e17b4f6	0.14815125
230	0xbf901e00	-1.1259155
231	0xbeae7ddb	-0.34080395
232	0x3f772727	0.96544117
233	0x3eb79a87	0.35860083
234	0x3e165b1a	0.1468319
235	0xbeed4bef	-0.46346995
236	0xbf4e9125	-0.8069022
237	0xbd8d05fc	-0.06885907
238	0xbd499d00	-0.049221992
239	0x3e8c9ec7	0.27464887
240	0xbeae3d7a	-0.34031278
241	0xbed3df89	-0.4138148
242	0x3f5c94e1	0.8616467
243	0xbdaa8269	-0.08325655
244	0x3f09ba60	0.5380001
245	0x3eaa3bd5	0.33248773
246	0xbf90acf1	-1.1302778
247	0x3eedec1c	0.464692
248	0x3f73a96f	0.9518041
249	0x3ec5b534	0.3861481
250	0xbe3dc50b	-0.18532197
251	0x3d23c3ae	0.039981537
252	0xbf38a034	-0.7211945
253	0x3f969083	1.1762851
254	0x3deceb8c	0.115683645
255	0x3d2606af	0.040533718

lin1.weight f4 [200, 75]
0	0x3b4a714f	0.003089029
1	0x3d839032	0.064239874
2	0xbdc7bba3	-0.09752586
3	0x3e18ce0f	0.14922355
4	0x3c70060b	0.014649878
5	0xbd450d90	-0.048108637
6	0x3e497985	0.19675262
7	0x3dde7d0e	0.10863696
8	0xbdb09ed3	-0.08624043
9	0xbe67835c	-0.22608703
10	0xbdc7b542	-0.09751369
11	0x3ec8ef7a	0.39245206
12	0x3cd6ae4e	0.026206162
13	0x3e1c65a5	0.1527315
14	0xbe8720e9	-0.26392296
15	0xbd378dd5	-0.044812996
16	0xbe41edbc	-0.18938345
17	0x3e4deb91	0.20109393
18	0x3d3611d8	0.04445061
19	0xbca34ce6	-0.019934129
20	0x3e091e2c	0.13390416
21	0xbd187db9	-0.037229273
22	0x3e97f9d3	0.29682788
23	0x3df75e09	0.12078483
24	0xbc942456	-0.018083733
25	0xbc923b0c	-0.017850421
26	0x3c4761f7	0.012169353
27	0x3e242755	0.16030629
28	0xbdf3373a	-0.11875768
29	0x3dc988ba	0.09840532
30	0x3eaeacfd	0.34116355
31	0x3ce756ad	0.028239572
32	0x3e7a5e29	0.24449982
33	0xbe5451c2	-0.20734313
34	0xbd2277aa	-0.0396649
35	0x3e219974	0.15781194
36	0xbe2ac596	-0.16676936
37	0x3dd02890	0.10163987
38	0x3e31ddca	0.17369762
39	0xbeb370f7	-0.35047123
40	0xbe8fbccb	-0.28073725
41	0x3e4b6fe9	0.19866909
42	0x3b923766	0.0044621704
43	0xbeb014c6	-0.3439085
44	0x3e15f859	0.14645518
45	0xbe3bc249	-0.18335833
46	0x3e367546	0.17818174
47	0x3e7da393	0.2476943
48	0xbdd98585	-0.1062117
49	0xbe2c5d38	-0.16832435
50	0xbe5092a8	-0.20368445
51	0xbd8ca5a9	-0.06867535
52	0x3ebfbd98	0.37449336
53	0x3ee51e0c	0.44749486
54	0xbecc13b1	-0.39858773
55	0xbe93818b	-0.2880977
56	0x3ea64f7f	0.32482526
57	0x3e02be4c	0.12767905
58	0x3eed3cc2	0.46335417
59	0xbe5dedb6	-0.21672711
60	0x3f47470d	0.7784279
61	0xbe8eadb9	-0.27866915
62	0x3e60ae73	0.21941547
63	0xbf06a438	-0.5259433
64	0xbef90cdf	-0.48642632
65	0x3e8bda02	0.27314764
66	0xbe4fafb4	-0.20281869
67	0x3deec1ef	0.11658084
68	0x3da052d2	0.07828297
69	0xbee903b4	-0.45510638
70	0xbe42968d	-0.19002743
71	0xbeb2a97b	-0.34894928
72	0x3e266c23	0.16252188
73	0xbea24d91	-0.31699803
74	0x3ea61fa9	0.3244603
75	0x3d146340	0.036227465
76	0xbe745207	-0.23859416
77	0xbde63e25	-0.11242322
78	0x3d1da642	0.038488634
79	0x3bea48ef	0.0071498076
80	0x3d7a8783	0.06116439
81	0x3eb0df64	0.34545434
82	0xbe103138	-0.14081275
83	0xbda9c907	-0.08290296
84	0x3d41419b	0.047181707
85	0x3de34f60	0.11099124
86	0x3d20bcfd	0.039242733
87	0xbd5d6809	-0.054054294
88	0x3cb2b055	0.021812597
89	0x3e174b28	0.14774764
90	0x3e284662	0.16433099
91	0xbec8550b	-0.39127383
92	0x3e39a429	0.18129028
93	0xbc424239	-0.011856609
94	0xbebda73e	-0.37041658
95	0x3e24efed	0.1610715
96	0xbdd5d979	-0.1044187
97	0x3e4fecd9	0.20305194
98	0xbcc5eb93	-0.024160182
99	0x3e1ecfed	0.15509005
100	0x3dad45bd	0.08460567
101	0x3e0b4685	0.1360112
102	0xbd5ba3d9	-0.053623054
103	0xbbe1f931	-0.006896161
104	0x3df48326	0.11939077
105	0x3c053761	0.008130879
106	0xbd149e28	-0.036283642
107	0x3ec2e12f	0.38062426
108	0xbd41864c	-0.047247216
109	0xbae2d61f	-0.0017306245
110	0xbeafaae8	-0.3431008
111	0x3e9b6f55	0.30358377
112	0xbe1df535	-0.1542557
113	0x3e2134bd	0.15742774
114	0x3ca5a7e8	0.020221666
115	0x3d07b430	0.033130825
116	0x3e17c438	0.14820945
117	0xbe01964b	-0.12654988
118	0x3dae1434	0.08499947
119	0x3c6ae393	0.0143364845
120	0xbed5eb6b	-0.41781172
121	0x3d5c096a	0.053719915
122	0x3ed019bd	0.40644637
123	0xbe118ecc	-0.14214629
124	0x3ddc657d	0.10761545
125	0xbe1d2c38	-0.153489
126	0x3ec88657	0.39164993
127	0xbeb3b0c8	-0.3509581
128	0x3e802d2e	0.2503447
129	0xbe06656a	-0.13124624
130	0x3e71a04b	0.23596303
131	0x3e0bedb8	0.13664901
132	0x3f0fab2f	0.5612058
133	0xbf250f04	-0.6447604
134	0xbd67880e	-0.056526236
135	0xbec5e8da	-0.38654214
136	0xbe7b65d0	-0.24550557
137	0x3d9f945c	0.07791969
138	0xbe3fe79c	-0.18740696
139	0xbe47fbff	-0.19529723
140	0xbdac3d11	-0.08410085
141	0xbde693c5	-0.112586536
142	0x3d915ec3	0.070981525
143	0x3eb53615	0.35392824
144	0x3ebb6c08	0.3660586
145	0xbf28eced	-0.6598652
146	0x3e957367	0.29189608
147	0xbe284e1b	-0.16436045
148	0x3dfacefd	0.12246511
149	0xbef1576c	-0.4713701
150	0xbdb7a2a5	-0.08966569
151	0x3d5459ce	0.051843457
152	0xbd7b4da2	-0.061353333
153	0x3d1ce4e7	0.038304236
154	0xbdbaace0	-0.091150045
155	0xbe5cd347	-0.21564971
156	0xbda3a593	-0.07990565
157	0x3d96b99a	0.073596194
158	0x3de528ce	0.111894235
159	0x3d52b5b9	0.051442835
160	0xbca943e0	-0.020662248
161	0x3d03e003	0.032196056
162	0x3e365177	0.17804514
163	0x3ce90b6b	0.028447827
164	0x3debbb1c	0.11510298
165	0x3d933915	0.07188622
166	0x3e0a1a3c	0.1348657
167	0xbcff8333	-0.03119049
168	0xbdfd144b	-0.12357386
169	0x3c9228fe	0.017841812
170	0x3d8199f0	0.063281894
171	0x3e5fe3ac	0.21864194
172	0x3d9febe3	0.07808664
173	0x3d101799	0.035178754
174	0xbd2e0146	-0.042481683
175	0x3dd11e29	0.10210831
176	0x3dbc24c3	0.09186699
177	0xbe1164ba	-0.1419858
178	0xba36ce87	-0.0006973524
179	0xbc001f80	-0.00782001
180	0xbd9f4b7b	-0.07778069
181	0x3b5f5192	0.003407572
182	0x3e049a0b	0.12949388
183	0x3e68f81d	0.22750898
184	0x3e5bb6ca	0.21456447
185	0x3e2036da	0.15645924
186	0xbdc6a13b	-0.09698721
187	0x3d6b8d7d	0.05750798
188	0x3ca6a2e9	0.020341353
189	0xbd006e50	-0.031355202
190	0x3cf49baa	0.029859383
191	0xbe5a9635	-0.21346362
192	0xbdb6cb3a	-0.08925481
193	0x3e01d3e0	0.1267848
194	0x3e98e299	0.2986038
195	0xbcb1332e	-0.02163085
196	0x3dfd4ec9	0.12368543
197	0x3e34daa1	0.17661525
198	0xbe3eed38	-0.1864518
199	0xbe3af3e9	-0.18257107
200	0x3b33b501	0.002742112
201	0x3df4791b	0.119371615
202	0x3e52c0b1	0.20581318
203	0xbe8e7285	-0.27821746
204	0x3d55f186	0.052232288
205	0xbe71f17c	-0.23627275
206	0x3eafb2b8	0.3431604
207	0x3d842c8c	0.06453809
208	0xbc7361e7	-0.014854885
209	0xbe5eeca2	-0.21769956
210	0xbc54cd0a	-0.012988338
211	0xbe37c918	-0.17947805
212	0xbf040a96	-0.5157865
213	0x3ee2175c	0.44158447
214	0x3ecfda8d	0.4059643
215	0xbe0bf338	-0.13667
216	0xbeb8a880	-0.36066055
217	0xbe0b9137	-0.13629614
218	0x3e440c8c	0.19145411
219	0x3eb82597	0.3596618
220	0x3df30e38	0.118679464
221	0x3eee1afc	0.46504962
222	0xbea515a8	-0.32243085
223	0xbdac04a0	-0.0839932
224	0xbf236d54	-0.63838696
225	0xbd73d8ae	-0.059532814
226	0x3e457b25	0.19285257
227	0x3e8c2f8d	0.27380028
228	0xbcbea01b	-0.023269704
229	0x3c3290d6	0.010898789
230	0xbd90739c	-0.07053301
231	0xbe06fbed	-0.1318204
232	0x3dbf1135	0.09329454
233	0xbe8c8e4c	-0.27452314
234	0xbdaab580	-0.083354
235	0x3e6801ea	0.2265698
236	0xbdfa2a3d	-0.122150876
237	0xbd5e9cca	-0.054348744
238	0x3e0a2739	0.13491525
239	0xbe7f8bf4	-0.24955732
240	0x3e918a11	0.2842565
241	0xbd52fa1b	-0.05150805
242	0x3cfb37ed	0.030666316
243	0x3e64a4c9	0.22328486
244	0x3e173d9c	0.14769596
245	0xbd79f464	-0.061024085
246	0xbe05a449	-0.13050951
247	0x3de52952	0.11189522
248	0xbe2950bd	-0.16534705
249	0x3dd21b9c	0.10259172
250	0x3e9a01d7	0.3007953
251	0xbd411603	-0.047140133
252	0x3d817b03	0.06322291
253	0xbc6b2c0f	-0.014353766
254	0xbd8bd45f	-0.06827616
255	0x3e3fb39a	0.18720856

lin1.bias f4 [200]
0	0xbec697fa	-0.38787824
1	0xbe50f705	-0.2040673
2	0x3e7b3e56	0.24535498
3	0x3ea4fcfb	0.3222426
4	0xbb18eca0	-0.00233344
5	0x3efa8f4f	0.4893746
6	0xbeb07308	-0.34462762
7	0xbe232841	-0.15933324
8	0x3e761b23	0.2403379
9	0xbedc0e6c	-0.42979753
10	0x3dd5feb8	0.10448974
11	0x3ec2a634	0.38017428
12	0x3cae046a	0.02124234
13	0x3e59f7c3	0.2128592
14	0x3e942912	0.28937584
15	0x3e524bc6	0.20536718
16	0xbe6cb60b	-0.23116319
17	0xbd39f3fb	-0.045398694
18	0x3ed5b030	0.41735983
19	0xbc6b7680	-0.014371514
20	0xbe115d80	-0.14195824
21	0x3e00e076	0.12585625
22	0x3e36ebb8	0.17863357
23	0x3e8ce49a	0.2751816
24	0x3dcb6dcb	0.09933051
25	0x3e4ac83e	0.19802949
26	0xbec9c310	-0.39406633
27	0xbe2ffb12	-0.1718562
28	0x3e875e3c	0.26439083
29	0x3e57a137	0.21057592
30	0xbce7bb6b	-0.02828761
31	0x3e23a51e	0.15980956
32	0xbeb70dd3	-0.35752735
33	0x3ddd1bdd	0.1079633
34	0xbe8221d3	-0.2541643
35	0xbe1d25d5	-0.15346463
36	0xbc5518d5	-0.013006409
37	0x3eed7167	0.46375582
38	0x3e532665	0.20620115
39	0xbe1e7623	-0.15474753
40	0x3e96f064	0.29480278
41	0xbd9cc1b8	-0.076541364
42	0x3e38e4e5	0.18056066
43	0xbebc67bf	-0.36797902
44	0xbb455590	-0.0030110814
45	0x3e7527ce	0.23940966
46	0xbe8baa1c	-0.2727822
47	0x3e814dc9	0.25254658
48	0xbd4ca647	-0.049963262
49	0x3e7f4448	0.24928391
50	0xbe35d2a9	-0.17756142
51	0x3e359ed8	0.17736375
52	0xbc9b6096	-0.018966954
53	0x3e94484f	0.28961417
54	0xbdadcb82	-0.08486082
55	0xbe571d29	-0.21007217
56	0xbe22c058	-0.15893686
57	0x3ddcfec6	0.10790782
58	0xbed5bff5	-0.41748014
59	0x3e93e0b2	0.28882366
60	0xbe9d3e96	-0.30711812
61	0x3d2fba9d	0.042902578
62	0x3df047dd	0.11732457
63	0x3e911d62	0.2834273
64	0xbd2c929e	-0.042132013
65	0xbe40ce73	-0.18828754
66	0xbecb1809	-0.39666775
67	0xbcdff1e4	-0.027337022
68	0x3e84443f	0.25833318
69	0x3ed2d194	0.4117552
70	0x3e4e4632	0.20143965
71	0x3e4c344e	0.19941828
72	0xbecc1415	-0.3985907
73	0xbc22b0e8	-0.009929873
74	0x3e879d26	0.26487082
75	0xbe01c5b0	-0.12673068
76	0xbf0a0545	-0.5391429
77	0xbef26be2	-0.47347933
78	0xbdd06c3c	-0.10176894
79	0x3e9e3626	0.30900687
80	0x3e7b5865	0.24545439
81	0x3e26d99d	0.1629395
82	0x3db6fd4e	0.08935033
83	0x3e3eef57	0.18645988
84	0xbe563e54	-0.20922214
85	0xbcc2eb75	-0.023793915
86	0x3e3fb37f	0.18720816
87	0xbe93d472	-0.2887302
88	0x3cc64e64	0.024207301
89	0x3eafb89b	0.3432053
90	0xbe9f2e02	-0.3108979
91	0x3e8e3866	0.27777404
92	0x3d46aca2	0.04850448
93	0x3eb497a3	0.3527194
94	0x3e5dde97	0.21666943
95	0xbd9fcabd	-0.07802341
96	0xbeb28fb7	-0.3487527
97	0xbde12d46	-0.10994963
98	0xbe461d90	-0.19347215
99	0xbe2983ff	-0.16554259
100	0x3edc7368	0.43056798
101	0x3be391f5	0.0069448897
102	0x3c9d133b	0.019174209
103	0x3e9fd6d6	0.31218594
104	0x3e81b19c	0.25330818
105	0x3e4f2fda	0.20233098
106	0xbe560580	-0.20900536
107	0xbe5ddec7	-0.21667014
108	0x3e30765b	0.17232649
109	0x3d94a5ff	0.07258224
110	0x3e5f0cae	0.2178218
111	0x3ecef9b7	0.40424892
112	0xbdcc28a7	-0.09968691
113	0xbd90beea	-0.07067664
114	0x3ca5d277	0.020241959
115	0x3e42039b	0.18946688
116	0xbd1de689	-0.038549934
117	0xbe632974	-0.22183782
118	0xbdaea55f	-0.08527636
119	0xbe17e845	-0.14834698
120	0xbe59ab4b	-0.2125675
121	0xbeb4e251	-0.35328916
122	0x3d9d4231	0.07678641
123	0xbea9a4dd	-0.33133593
124	0xbea905e5	-0.3301231
125	0x3ba21752	0.0049466277
126	0x3e1dc0ae	0.15405533
127	0x3e38e3a9	0.18055595
128	0xbcb43e41	-0.022002341
129	0x3e93e815	0.28888002
130	0x3dcae7b2	0.099074736
131	0xbdab332a	-0.08359368
132	0x3e337a21	0.17527057
133	0xbe2a1bcf	-0.1661217
134	0xbe05d6be	-0.13070199
135	0xbda2b459	-0.07944555
136	0xbf0baab2	-0.54557335
137	0xbeae3d72	-0.34031254
138	0x3ee45e2d	0.446031
139	0x3e636ae5	0.22208746
140	0x3a46c3b9	0.00075822655
141	0xbe920ee3	-0.28526983
142	0xbe068021	-0.13134815
143	0xbe18b0b0	-0.14911151
144	0xbbfe4af7	-0.0077604013
145	0x3e18f574	0.14937383
146	0xbe368c1e	-0.17826888
147	0xbd9f30e5	-0.07772998
148	0xbe258142	-0.16162589
149	0xbf068f43	-0.5256235
150	0xbec3ce19	-0.38243178
151	0x3ee49e96	0.4465224
152	0xbe8055fc	-0.250656
153	0xbe56433a	-0.20924082
154	0xbdc7c40d	-0.097541906
155	0x3df48364	0.11939123
156	0x3c0e2cf0	0.008677706
157	0xbeac76ac	-0.3368429
158	0xbe3703a0	-0.17872477
159	0xbd232946	-0.039834283
160	0x3bbf51b7	0.0058385986
161	0x3eb74227	0.35792658
162	0xbe402cf3	-0.18767147
163	0x3dba58a7	0.0909894
164	0xbdc6f553	-0.09714761
165	0x3ef154ce	0.47135013
166	0x3eb36412	0.35037285
167	0xbe9adf96	-0.30248708
168	0x3d8079a6	0.062732026
169	0xbefc2646	-0.4924795
170	0xbd590920	-0.052987218
171	0x3ec9f48b	0.39444384
172	0xbe75b9bf	-0.23996638
173	0xbc4ed05a	-0.012622917
174	0x3f014c21	0.5050679
175	0xbea216ef	-0.31658122
176	0x3e29d7a0	0.1658616
177	0xbe745f9a	-0.23864594
178	0x3dc59174	0.096468836
179	0x3e621b7a	0.22080794
180	0x3dd659b6	0.1046633
181	0xbce21405	-0.027597437
182	0xbec12bbe	-0.37728685
183	0x3dd5ea7d	0.10445116
184	0xbe88c0f9	-0.26709726
185	0x3da1a9bf	0.078937046
186	0xbd287b28	-0.041133076
187	0x3e843d9c	0.25828254
188	0x3eb1f45b	0.3475674
189	0xbe3d49e5	-0.1848522
190	0xbe46f6a7	-0.19430028
191	0x3d52222f	0.05130213
192	0xbe2bbbab	-0.16770808
193	0x3d362198	0.04446563
194	0x3dc350fe	0.095369324
195	0x3ea59164	0.32337487
196	0xbda1e201	-0.07904435
197	0xbe5b8b94	-0.21439964
198	0xbe01445e	-0.12623736
199	0xbe09e841	-0.13467504

lin2.weight f4 [200, 200]
0	0x3d786ef9	0.060652707
1	0x3df9b62c	0.1219295
2	0x3ddd6577	0.108103685
3	0xbd320323	-0.043460023
4	0xbd450c1f	-0.048107263
5	0x3d007ab8	0.031367034
6	0xbdd340e2	-0.1031511
7	0x3e62153a	0.2207841
8	0xbd9403c2	-0.07227279
9	0x3e20cc87	0.15703021
10	0xbe062e92	-0.13103703
11	0xbe612da4	-0.21990067
12	0xbc8a76b0	-0.016902298
13	0xbe58f9d0	-0.21189046
14	0xbdd96be3	-0.10616281
15	0xbd881465	-0.06644515
16	0xbddf0fc5	-0.1089168
17	0xbb2458f5	-0.0025077437
18	0x3e0f28b2	0.13980368
19	0xbe305dea	-0.17223325
20	0xbddc04fd	-0.10743139
21	0xbd97fa76	-0.074208185
22	0x3dab6d88	0.08370501
23	0x3ea03f86	0.31298465
24	0xbcf63b03	-0.030057436
25	0x3cd729dd	0.02626508
26	0x3e044720	0.12917757
27	0x3e3c7459	0.18403758
28	0xbd32f2cc	-0.04368858
29	0xbe2ee39d	-0.17079015
30	0xbda1275b	-0.078688346
31	0xbc928a55	-0.017888227
32	0xbeb168b0	-0.34650183
33	0x3e33897c	0.17532915
34	0xbd737242	-0.059435137
35	0xbe578d61	-0.21050026
36	0x3e4e3617	0.20137821
37	0x3ccd9825	0.025096962
38	0x3e2d4e69	0.16924442
39	0xbde8e606	-0.113719985
40	0xbe100839	-0.14065637
41	0x3e2cf9aa	0.16892114
42	0xbe434352	-0.1906865
43	0x3e37bc0c	0.17942828
44	0xbd2a88d9	-0.041634414
45	0xbe205dc3	-0.15660767
46	0xbdb20d82	-0.08693983
47	0xbd906bba	-0.07051797
48	0xbda2536d	-0.079260685
49	0x3e2f445d	0.17115922
50	0xbe9dcd68	-0.30820775
51	0xbdc1d9ff	-0.094654076
52	0x3c97367c	0.018458597
53	0x3d0b8192	0.034059115
54	0x3d5090cd	0.050919343
55	0x3dbbbc8d	0.091668226
56	0x3c007dde	0.007842509
57	0x3d1f6b8e	0.03892093
58	0xbde9d744	-0.11418012
59	0x3c4da6ee	0.012552006
60	0xbe9ae38f	-0.30251738
61	0x3ccd8f08	0.025092617
62	0x3ea2e658	0.31816363
63	0xbcb991bc	-0.0226525
64	0x3d75d9db	0.060022216
65	0x3d5f378a	0.054496326
66	0xbeaacd6f	-0.33359858
67	0xbe6d703f	-0.2318735
68	0x3dc586ef	0.09644877
69	0x3e66b78e	0.22530958
70	0xbd32e8ac	-0.043678924
71	0xb9628884	-0.00021603896
72	0x3da955c5	0.08268312
73	0x3d2cf555	0.042226154
74	0xbe88fecc	-0.26756895
75	0x3def57f7	0.116867
76	0x3ce6aee9	0.028159576
77	0xbe8e4acf	-0.2779145
78	0x3e36945e	0.17830035
79	0xbe7715d9	-0.24129428
80	0xbe975cc6	-0.29562968
81	0x3c877865	0.0165369
82	0x3e4b93e1	0.1988063
83	0x3e75cdf7	0.2400435
84	0xbd66341d	-0.056202043
85	0x3dc30312	0.0952207
86	0xbe5d9c4c	-0.21641654
87	0xbd939ec6	-0.07208018
88	0x3e081d39	0.13292398
89	0xbe1fa640	-0.15590763
90	0xbcc94553	-0.02456919
91	0xbe02281a	-0.1271061
92	0xbd732bf5	-0.059368093
93	0xbd698b44	-0.05701758
94	0x3e6ae4e7	0.22938882
95	0xbe720ba5	-0.23637255
96	0x3dd85039	0.10562176
97	0xbe0af9a9	-0.135718
98	0xbe6086af	-0.21926378
99	0x3e1d446e	0.15358135
100	0xbdcb2ffb	-0.09921261
101	0x3e2a9edf	0.16662167
102	0xbed654e7	-0.4186165
103	0x3e317181	0.17328455
104	0xbe12c512	-0.14332989
105	0x3dd4f869	0.10398943
106	0xbe9bd291	-0.30434087
107	0x3d554077	0.05206343
108	0x3ce3d6b3	0.027812338
109	0xbdb32754	-0.087477356
110	0xbce67ef5	-0.02813671
111	0x3e19b779	0.15011396
112	0x3ddbbae8	0.10729009
113	0xbdca8379	-0.09888358
114	0xbdf50f0b	-0.1196576
115	0xbca63757	-0.02029006
116	0xbdafa32b	-0.08576044
117	0xbe3ba0bf	-0.18323039
118	0x3b3a8ff6	0.0028467155
119	0x3b965ff1	0.004589074
120	0x3bcfd469	0.00634246
121	0xbe4e17f1	-0.2012632
122	0xbe3dd0fa	-0.1853675
123	0xbdebef70	-0.115202785
124	0xbdd1a7c8	-0.1023708
125	0x3d5a0cf8	0.053235024
126	0x3e5a6d43	0.21330743
127	0x3d82413a	0.06360097
128	0xbcb6aff9	-0.022300707
129	0xbd597438	-0.05308935
130	0xbe385246	-0.18000135
131	0xbd8c70ca	-0.0685745
132	0x3d84a94c	0.06477603
133	0x3cadfc20	0.021238387
134	0xbdbfd5fb	-0.093669854
135	0x3da27958	0.07933301
136	0x3e1189c5	0.14212711
137	0xbdab08da	-0.08351298
138	0x3bc49d8c	0.0060002264
139	0x3e56fce2	0.20994905
140	0x3ded24bd	0.11579273
141	0xbe05b015	-0.13055451
142	0x3e02fc45	0.12791546
143	0x3b9f7dc9	0.0048672897
144	0xbdbc6234	-0.09198418
145	0xbdb98830	-0.09059179
146	0x3b965edc	0.004588945
147	0x3cc6e36a	0.024278361
148	0x3df36371	0.11884201
149	0x3e6ef9e7	0.23337518
150	0x3e762c37	0.24040304
151	0x3dc284f0	0.09498012
152	0x3e6db232	0.23212507
153	0x3dbd184f	0.09233152
154	0x3e115ace	0.14194795
155	0xbe143444	-0.14473063
156	0xbe2074e6	-0.15669593
157	0x3dbab615	0.09116761
158	0x3e48cdc1	0.19609739
159	0x3e692963	0.22769694
160	0x3b255ac9	0.0025231114
161	0xbdce2ede	-0.10067533
162	0x3e161c76	0.14659294
163	0x3c82c65b	0.015963724
164	0xbda7c2b7	-0.08191436
165	0x3cd49f80	0.025954962
166	0x3c871444	0.016489156
167	0xbeb16339	-0.34646013
168	0x3db1efb8	0.08688301
169	0xbd18f30c	-0.037341163
170	0x3c9db496	0.01925115
171	0xbd7cdee3	-0.061736
172	0x3dbb24c7	0.09137874
173	0x3dbcaa55	0.09212176
174	0xbc9997a5	-0.018749068
175	0x3e4fb26d	0.20282908
176	0x3e904518	0.28177714
177	0x3dd4cc73	0.10390558
178	0x3dbe04e8	0.092782795
179	0xbde31ef7	-0.110898905
180	0x3a22dc68	0.00062126527
181	0xbd48cf32	-0.04902572
182	0x3e49bfac	0.19702023
183	0x3d1e43fc	0.038639054
184	0x3df1ae80	0.11800861
185	0x3c7dabff	0.015482902
186	0xbdcde4a6	-0.10053377
187	0x3e0b04f5	0.1357611
188	0x3cb0b33a	0.021569837
189	0xbe0f382f	-0.13986276
190	0x3e16995d	0.14706941
191	0xbd9b377e	-0.07578944
192	0xbe2b5b51	-0.16734053
193	0x3e06cd5d	0.13164277
194	0xbe1fd788	-0.15609562
195	0x3d6e8bcf	0.0582388
196	0xbe56925c	-0.20954269
197	0x3d9450c7	0.072419696
198	0xbec326bc	-0.3811549
199	0xbe964de3	-0.29356298
200	0x3dac0473	0.08399286
201	0x3da16aa7	0.078816704
202	0xbe1a4779	-0.15066327
203	0xbcf333a7	-0.029687716
204	0x3e09ab15	0.13444169
205	0x3d6a4357	0.057193127
206	0xbd2772a7	-0.040880825
207	0xbddac7a7	-0.10682612
208	0x3d17322b	0.03691308
209	0xbe0301cf	-0.12793659
210	0x3c9ea9ee	0.019368138
211	0xbe1a5a76	-0.1507357
212	0xbe503a30	-0.20334697
213	0xbe670387	-0.2255994
214	0xbdebc42a	-0.11512025
215	0xbdf83625	-0.12119702
216	0x3d2cdf22	0.042204984
217	0x3e7b57c6	0.24545202
218	0x3dc13c32	0.094353095
219	0xbc5331e0	-0.012890309
220	0x3da9b429	0.08286316
221	0xbd7b4d4e	-0.06135302
222	0x3dc75b94	0.09734264
223	0xbccc5071	-0.024940701
224	0x3dbcab46	0.09212355
225	0xbdfdeb98	-0.123984516
226	0x3e389617	0.18026005
227	0x3d21e855	0.03952821
228	0xbdd11d84	-0.10210708
229	0x3de70b34	0.11281434
230	0x3ddb6507	0.10712629
231	0xbecb9495	-0.39761797
232	0x3e0e017d	0.13867755
233	0xbe36c4c6	-0.178485
234	0xbca63bd5	-0.020292202
235	0x3e4fb874	0.20285207
236	0xbdfdc29c	-0.123906344
237	0x3d8ef06c	0.069794506
238	0x3e828fb5	0.25500265
239	0x3e91cfe7	0.2847893
240	0xbc222794	-0.0098971315
241	0xbeb69767	-0.35662386
242	0xbc7da2b6	-0.015480688
243	0x3df47844	0.11937001
244	0x3c2fcbad	0.010729712
245	0x3dfb78f1	0.12278927
246	0xbdbc6e75	-0.092007555
247	0xbc3fd856	-0.011709293
248	0xbdbda566	-0.09260063
249	0x3d43dd75	0.04781862
250	0xbbeacd44	-0.007165583
251	0xbe0ccb11	-0.13749339
252	0x3b17d0bb	0.0023165185
253	0x3c511b15	0.0127628045
254	0xbe59106e	-0.21197674
255	0xbda9a58d	-0.082835294

lin2.bias f4 [200]
0	0x3cc2ab0c	0.023763202
1	0xbe3f736b	-0.18696372
2	0xbe2ba651	-0.16762663
3	0x3eb4ed4a	0.35337287
4	0x3da74617	0.081676655
5	0x3d98c8fb	0.07460209
6	0x3e4345ba	0.19069567
7	0x3e836496	0.25662678
8	0xbe30b74a	-0.17257419
9	0xbde6c509	-0.1126805
10	0xbcdbd889	-0.02683665
11	0x3b3d32a0	0.0028869286
12	0xbd98ea87	-0.074666075
13	0xbcfebc97	-0.031095786
14	0xbc8bc10b	-0.017059823
15	0x3d910895	0.07081715
16	0xbe8ea31a	-0.27858812
17	0xbe733e0d	-0.23754139
18	0x3cf8fdd5	0.030394474
19	0xbe917483	-0.28409204
20	0x3d931dff	0.07183456
21	0xbdf9ad9f	-0.12191319
22	0x3d03569c	0.03206502
23	0xbd8ecedb	-0.06973048
24	0xbe1d984e	-0.15390131
25	0x3cbdb99f	0.0231598
26	0xbdb53eae	-0.08849846
27	0xbea83b16	-0.3285758
28	0xbc8699f8	-0.01643084
29	0xbcf451d4	-0.029824175
30	0xbd941e5e	-0.072323546
31	0xbe01356a	-0.12618032
32	0xbd329707	-0.043601062
33	0x3c5dea9f	0.013544708
34	0xbd65486c	-0.05597727
35	0x3d158873	0.03650708
36	0xbe9ae3df	-0.30251977
37	0xbe3c20e4	-0.18371922
38	0x3d169ceb	0.036770742
39	0xbdbcc2c4	-0.09216836
40	0xbe2799d6	-0.16367278
41	0x3e53145b	0.20613234
42	0x3cc3adc5	0.02388657
43	0xbe70a708	-0.23501217
44	0x3cd77d17	0.026304765
45	0x3de32db6	0.11092703
46	0xbd104626	-0.03522315
47	0x3e9a44ac	0.30130517
48	0xbec64cf5	-0.3873059
49	0xbe62a83e	-0.22134492
50	0xbe286e8e	-0.16448423
51	0xbe18141f	-0.14851426
52	0xbecd54c7	-0.40103742
53	0xbea3de4f	-0.32005545
54	0x3b9f8dee	0.0048692143
55	0x3e87ebd4	0.2654711
56	0x3e3e8016	0.18603548
57	0xbe1dc799	-0.15408172
58	0xbee833bf	-0.4535198
59	0x3c89b593	0.016810214
60	0xbda30cae	-0.07961403
61	0x3e575940	0.2103014
62	0xbeeb33f1	-0.45938066
63	0xbe49b12d	-0.19696493
64	0x3d3b0fe9	0.04566947
65	0xbd0c1963	-0.0342039
66	0xbe95df5a	-0.29271966
67	0xbbba1408	-0.0056786574
68	0xbda93e1f	-0.08263802
69	0xbe7b7c8c	-0.2455923
70	0xbe1b6259	-0.15174235
71	0x3e08726b	0.13324897
72	0xbea6b937	-0.32563183
73	0xbe873dcf	-0.26414344
74	0xbe879e3d	-0.26487914
75	0x3e844766	0.25835723
76	0x3e410094	0.18847877
77	0xbe06e3a5	-0.13172777
78	0xbe4a07df	-0.19729565
79	0x3e354b20	0.17704439
80	0x3dd5e0cd	0.10443268
81	0xbdcc7ffd	-0.09985349
82	0xbdf2675f	-0.11836123
83	0x3e5fee4c	0.21868247
84	0x3d61bd89	0.055112395
85	0x3db3bce8	0.087762654
86	0xbe00c07f	-0.12573431
87	0x3bcb2585	0.006199541
88	0xbe43d39c	-0.19123691
89	0x3e0c859f	0.13722847
90	0x3d2ba71d	0.04190742
91	0xbd031d9c	-0.03201066
92	0xbdff572d	-0.12467799
93	0xbe80c92e	-0.25153488
94	0xbd4c0f33	-0.049819183
95	0xbd3aaec9	-0.045576844
96	0xbe1aff4e	-0.15136454
97	0x3e3e1d18	0.18565786
98	0x3d5ffe65	0.05468597
99	0xbe6499b4	-0.22324258
100	0x3e8b9629	0.27263
101	0xbd6d3b83	-0.057918083
102	0x3e894291	0.268086
103	0xbe56753a	-0.20943156
104	0xbe39909f	-0.18121575
105	0xbcc5bbc4	-0.024137385
106	0x3d3fb5b7	0.046804156
107	0x3e0633c7	0.13105689
108	0xbe1654ab	-0.14680736
109	0xbe252994	-0.16129142
110	0x3e901983	0.28144464
111	0x3e2d458f	0.16921066
112	0xbe63f8b5	-0.22262843
113	0x3c0f452b	0.008744518
114	0x3e0ca7d9	0.13735904
115	0x3e8e1a9c	0.27754676
116	0x3e1fd604	0.15608984
117	0x3cab3261	0.020898046
118	0xbe1e6139	-0.15466775
119	0xbe417b70	-0.18894744
120	0xbe38da0c	-0.18051928
121	0x3d26e452	0.040745087
122	0x3d2d4eb5	0.04231139
123	0xbcfb2abe	-0.03066003
124	0x3e57d365	0.21076734
125	0x3dfcb0b9	0.12338395
126	0xbe5823cb	-0.21107404
127	0xbc720282	-0.014771106
128	0xbe1b9952	-0.15195206
129	0x3e775296	0.24152598
130	0x3e720d73	0.23637943
131	0xbe3a9397	-0.18220364
132	0x3e720d7e	0.2363796
133	0x3e4d1d8d	0.20030804
134	0x3d8f467e	0.06995867
135	0xbe219b04	-0.1578179
136	0x3dc5a9b5	0.0965151
137	0x3d969bce	0.07353936
138	0x3ed420c1	0.4143124
139	0xbdda33af	-0.10654389
140	0xbe91bb16	-0.28463048
141	0xbe543607	-0.20723735
142	0x3e4cc499	0.19996871
143	0xbe505de6	-0.2034832
144	0xbe694989	-0.22781958
145	0xbe126373	-0.1429575
146	0xbd1c3ecb	-0.03814582
147	0x3e1fad8c	0.15593547
148	0x3d9b30d4	0.075776726
149	0x3e370b68	0.17875445
150	0xbe278865	-0.16360624
151	0xbc8dd1d6	-0.017311972
152	0xbddd2725	-0.10798482
153	0x3e66c996	0.22537836
154	0x3dfd8a36	0.12379877
155	0x3e0e0898	0.13870466
156	0x3e7e858b	0.2485563
157	0xbcd495f6	-0.025950413
158	0x3e1f69e3	0.15567736
159	0xbde2e3c9	-0.11078603
160	0x3e0817c5	0.13290317
161	0x3e87f9a8	0.2655766
162	0x3de4633b	0.11151739
163	0x3d87e230	0.06634939
164	0x3ebd94c8	0.37027574
165	0xbe0611dd	-0.13092752
166	0xbe883036	-0.26599282
167	0xbe820b85	-0.25399414
168	0x3e79eaa7	0.24405919
169	0xbec3f2db	-0.38271222
170	0x3e1f5486	0.15559587
171	0x3cf44a10	0.029820472
172	0xbe242a46	-0.16031751
173	0xbe0d8668	-0.13820803
174	0x3e1da5c9	0.15395273
175	0x3daa1e61	0.083065756
176	0xbc644ac0	-0.013933837
177	0x3d1a5c94	0.037685946
178	0x3df0916c	0.11746487
179	0x3e556072	0.20837572
180	0xbe6569f3	-0.22403698
181	0x3ec16006	0.37768573
182	0x3da294c0	0.07938528
183	0x3e74997b	0.23886673
184	0xbb4b4a6d	-0.0031019703
185	0x3dfa1bf2	0.122123614
186	0x3dfcfa49	0.123524256
187	0xbe2b6a0f	-0.16739677
188	0x3e829352	0.2550302
189	0xbe578c2c	-0.21049565
190	0x3e3d879b	0.1850876
191	0xbdf5bc50	-0.119988084
192	0x3d66642a	0.056247868
193	0xbecf5b80	-0.40499496
194	0x3db61024	0.08889797
195	0xbe01c8eb	-0.126743
196	0x3c33dae7	0.010977483
197	0xbdad5939	-0.084642835
198	0x3ebc4bac	0.36776483
199	0xbe594a94	-0.21219856

lin3.weight f4 [200, 200]
0	0xbd7e939e	-0.062152497
1	0xbd9e8202	-0.07739641
2	0x3b5cf679	0.0033716245
3	0x3e297652	0.16549042
4	0x3d54f2c1	0.05198932
5	0xbd4e6286	-0.050386928
6	0xbbf020db	-0.0073281354
7	0x3e363d07	0.17796718
8	0xbd8a6bf4	-0.06758872
9	0x3ec84d94	0.39121687
10	0x3e771f61	0.24133064
11	0x3e9e3fb1	0.30907968
12	0xbcdae427	-0.02672012
13	0x3e93b853	0.28851566
14	0x3e308c72	0.17241076
15	0xbe76678a	-0.24062935
16	0xbafd38fb	-0.001931935
17	0xbd06aa25	-0.032877106
18	0xbe9bb7f2	-0.30413777
19	0xbdb646b3	-0.089002036
20	0x3f1e89b5	0.61928874
21	0xbeb2a3de	-0.34890646
22	0x3e78510a	0.24249664
23	0x3c7025a5	0.014657413
24	0x3ed34935	0.4126679
25	0xbd0cda5b	-0.034387928
26	0xbcf9f3a5	-0.030511687
27	0x3dd65cf2	0.10466947
28	0x3ede0734	0.4336487
29	0xbe285410	-0.16438317
30	0xbeab9489	-0.3351176
31	0xbe289cd0	-0.16466069
32	0xbd942c64	-0.07235029
33	0xbed8774f	-0.42278525
34	0x3f19a80b	0.6002204
35	0x3eade826	0.33966178
36	0x3e39c3a8	0.18141043
37	0xbd330387	-0.043704536
38	0x3e8ed3ab	0.27895865
39	0x3d41cdf0	0.047315538
40	0x3d47445c	0.048649177
41	0x3bae7b2b	0.0053247414
42	0x3d360c98	0.044445604
43	0x3e648fd8	0.22320497
44	0x3e644c1a	0.22294655
45	0xbcceee8e	-0.025260236
46	0xbe593aad	-0.2121379
47	0xbe5a93ca	-0.2134544
48	0x3e071ff4	0.13195783
49	0x3e36a30a	0.17835632
50	0xbdbef873	-0.09324732
51	0xbb9db2b4	-0.004812563
52	0xbdc8513e	-0.09781121
53	0x3ed014cc	0.40640867
54	0x3e87fcff	0.26560208
55	0xbe887132	-0.2664886
56	0x3e002d1b	0.12517206
57	0x3e00092f	0.12503503
58	0x3e335657	0.17513405
59	0x3d0f6ff4	0.035018876
60	0xbe1f9be9	-0.15586819
61	0xbe0a99e8	-0.13535273
62	0x3c040569	0.0080579305
63	0xbeff0012	-0.4980474
64	0xbcef33fa	-0.029199589
65	0x3ebd661d	0.3699197
66	0x3d678182	0.056519993
67	0xbb82a971	-0.003987484
68	0xbea41739	-0.32048967
69	0xbe6ef513	-0.23335676
70	0xbe5be603	-0.21474461
71	0x3e129cba	0.14317599
72	0x3e12148b	0.14265649
73	0xbd70b5e1	-0.058767203
74	0xbe689708	-0.22713864
75	0xbc93a177	-0.018021328
76	0x3d344bc0	0.044017553
77	0x3e3ffb7d	0.18748279
78	0xb98f7173	-0.00027359612
79	0x3e07b3e5	0.13252218
80	0xbd5e5f23	-0.05428995
81	0xbdf09cb4	-0.11748639
82	0x3c910a8e	0.017705228
83	0xbdc061e7	-0.093936734
84	0x3d8b46a9	0.06800587
85	0x3e51d60c	0.20491809
86	0x3ec3a845	0.38214317
87	0xbde4b2b0	-0.111668944
88	0x3d97cbf4	0.07411948
89	0xbd8e8c22	-0.06960322
90	0x3ca91d9c	0.020644002
91	0xbe6bc588	-0.23024571
92	0x3e034c59	0.12822093
93	0x3e72c35a	0.23707333
94	0x3d55b88e	0.05217796
95	0x3e44487e	0.19168279
96	0xbe340307	-0.1757928
97	0xbc9a2091	-0.018814357
98	0x3d6498fb	0.055809956
99	0x3c6d6a99	0.014490747
100	0xbe6a4943	-0.2287951
101	0x3de1ff37	0.110350065
102	0x3d6b3f9e	0.057433717
103	0x3dfa23e4	0.12213877
104	0x3d909003	0.07058718
105	0x3be71efa	0.0070532532
106	0x3d014d00	0.031567574
107	0xbe55e66a	-0.20888677
108	0xbd57b24b	-0.052660268
109	0x3eb17b69	0.34664467
110	0xbe016ee9	-0.12639965
111	0x3e6250b9	0.22101106
112	0x3d8ec329	0.069708176
113	0x3d27c05c	0.040954933
114	0xbdb31dbb	-0.08745905
115	0xbef1a018	-0.47192454
116	0x3c67e7a5	0.014154349
117	0x3e87a23c	0.26490963
118	0xbe289a3f	-0.1646509
119	0xbe9d700f	-0.30749556
120	0x3e617432	0.22016981
121	0x3e25ae42	0.16179755
122	0x3e6e7ec4	0.23290545
123	0xbe65863a	-0.22414485
124	0x3ee7eac4	0.452963
125	0xbc20bab6	-0.00981014
126	0xbe1e2a2f	-0.1544578
127	0xbe1ea28e	-0.15491697
128	0x3ed04d21	0.40683845
129	0xbd5531f9	-0.05204961
130	0x3e0e4712	0.13894299
131	0x3dcbc075	0.09948818
132	0xbd3319bc	-0.043725714
133	0x3d2de2dc	0.042452678
134	0x3f12786d	0.57215005
135	0x3e9771e9	0.29579094
136	0x3e1c235d	0.15247865
137	0x3e4afe14	0.19823486
138	0xbe873006	-0.26403826
139	0xbe366fc4	-0.17816073
140	0x3e27d109	0.16388334
141	0x3dc1246b	0.09430774
142	0x3d7477be	0.059684508
143	0xbee424b3	-0.4455925
144	0xbd04d864	-0.03243293
145	0xbd7b9f75	-0.061431367
146	0xbc939781	-0.018016579
147	0x3e0eced1	0.13946082
148	0xbd68f284	-0.056871906
149	0xbd93c3fd	-0.07215116
150	0x3e28ad25	0.164723
151	0xbed203ae	-0.41018432
152	0xbd958ce9	-0.07302267
153	0x3eab60e8	0.3347237
154	0x3d8725e4	0.06599024
155	0xbd445dce	-0.04794102
156	0xbe9f7bd1	-0.31149152
157	0xbdde92a1	-0.10867811
158	0x3e57c981	0.21072961
159	0xbc9aa864	-0.018879123
160	0x3e59b314	0.21259719
161	0xbe9f2ff5	-0.31091276
162	0x3e8146c1	0.25249293
163	0x3d42be75	0.047544915
164	0xbe42a65d	-0.19008775
165	0xbec21087	-0.37903234
166	0xbe30a53f	-0.17250536
167	0xbed73344	-0.420313
168	0x3e7d2dd2	0.2472451
169	0x3da3a12a	0.07989724
170	0x3d761772	0.060080953
171	0xbe1e95a6	-0.15486774
172	0x3e357b3b	0.1772279
173	0x3e830dc3	0.25596437
174	0x3de40541	0.111338146
175	0x3edecedc	0.43517196
176	0xbe921f3b	-0.28539452
177	0xbd9b4107	-0.07580762
178	0x3d316345	0.04330756
179	0x3c7b447c	0.015336152
180	0x3cd6e092	0.02623013
181	0xbde2886e	-0.11061178
182	0x3e686e9f	0.22698449
183	0xbe85892e	-0.26081222
184	0xbe8012b0	-0.25014257
185	0x3e39523c	0.18097776
186	0x3de6bf0e	0.112669095
187	0xbe132a42	-0.14371589
188	0x3d9cd2e8	0.07657415
189	0x3e0ecd99	0.13945617
190	0xbde0704b	-0.10958918
191	0xbddf1008	-0.108917296
192	0xbb9ed1d5	-0.0048467913
193	0x3e1f1de5	0.15538748
194	0xbd3eb5cf	-0.046560105
195	0xbded7294	-0.1159412
196	0x3e4a5ced	0.19762011
197	0x3e8bf108	0.2733233
198	0x3d23a267	0.0399498
199	0xbe27f99b	-0.1640381
200	0xbdf6ebfa	-0.12056728
201	0x3e3ce25a	0.18445721
202	0x3c898894	0.016788758
203	0xbdc7124b	-0.09720286
204	0x3db7d908	0.08976942
205	0x3e20c97f	0.15701865
206	0xbe3cdf50	-0.18444562
207	0xbe58a1eb	-0.21155517
208	0xbdd12c32	-0.10213508
209	0x3e83a1ba	0.25709325
210	0xbdbb7e52	-0.09154953
211	0xbd7108e1	-0.05884636
212	0x3e4f1f7f	0.20226859
213	0xbe31a0f7	-0.1734656
214	0xbe6e511e	-0.23273131
215	0x3cc653e5	0.024209926
216	0x3d3f6d0a	0.046734847
217	0x3e8b1c56	0.27170056
218	0x3e9847e2	0.29742342
219	0x3e1aac98	0.15104902
220	0xbecbbf9b	-0.3979462
221	0x3e81aa7d	0.25325385
222	0xbe085f56	-0.13317618
223	0xbc2ff682	-0.010739924
224	0x3e43f03f	0.19134615
225	0x3c865d38	0.016401872
226	0xbec56d0c	-0.3855976
227	0x3d386601	0.045019154
228	0xbddf8961	-0.10914875
229	0x3e2d41f8	0.16919696
230	0x3e948cf9	0.29013804
231	0xbd2c9617	-0.042135324
232	0x3e80187e	0.25018686
233	0xbdec9468	-0.11551744
234	0xbec9d0d1	-0.39417127
235	0x3ee66d00	0.45005035
236	0x3dfc6a33	0.123249434
237	0x3e079b32	0.13242796
238	0x3db3d48e	0.08780776
239	0x3da156d1	0.07877887
240	0x3d8ed039	0.06973309
241	0x3d95b2e7	0.073095135
242	0x3d37e6a2	0.044897683
243	0xbeb049fc	-0.34431446
244	0xbde17b66	-0.110098645
245	0x3d98eaca	0.074666575
246	0x3ca99d0f	0.020704774
247	0x3e844888	0.25836587
248	0xbc9b053e	-0.018923398
249	0xbe11a0f0	-0.14221549
250	0xbd200dbb	-0.039075594
251	0x3e195de2	0.1497722
252	0xbd766e85	-0.060163993
253	0x3e4101c4	0.1884833
254	0xbd7894db	-0.060688835
255	0x3e88ae1b	0.26695332

lin3.bias f4 [200]
0	0xbed00941	-0.4063206
1	0x3e00652e	0.12538597
2	0xbe33926b	-0.17536323
3	0x3e9a7b1b	0.30172047
4	0x3e4613c3	0.19343476
5	0xbef239f0	-0.47309828
6	0x3ea84031	0.32861474
7	0x3e0fc992	0.14041737
8	0x3e8fe0fa	0.2810133
9	0xbf10e0e1	-0.5659314
10	0xbe81001f	-0.25195405
11	0x3d929c98	0.07158774
12	0x3f1b4d01	0.60664374
13	0xbed93171	-0.42420533
14	0xbd2dcfbc	-0.04243444
15	0xbda73b12	-0.08165564
16	0x3d9152cf	0.070958726
17	0x3b6cf202	0.003615499
18	0x3eb4a9da	0.35285836
19	0xbf0c336d	-0.5476597
20	0xbd0a738c	-0.0338016
21	0xbe9fced0	-0.31212473
22	0x3d723f81	0.059142593
23	0xbe8271a3	-0.25477323
24	0x3e4a7b1e	0.19773528
25	0xbe36eb8a	-0.17863289
26	0xbe4d2db0	-0.2003696
27	0xbe399217	-0.18122135
28	0xbf002c7f	-0.50067896
29	0x3ef9fbbe	0.48824877
30	0x3e460134	0.19336396
31	0x3eb1e33e	0.34743685
32	0x3e643170	0.22284484
33	0xbef1f856	-0.47259778
34	0xbea2c386	-0.31789798
35	0xbe8125d0	-0.2522416
36	0x3eb68a72	0.356525
37	0x3ebbd38c	0.36684835
38	0x3e3a962f	0.18221353
39	0x3e3792e7	0.17927133
40	0xbe906354	-0.2820078
41	0x3d46bc3e	0.048519365
42	0xbea73bb4	-0.32662737
43	0xbe3fcde3	-0.18730883
44	0x3e9d492e	0.30719894
45	0xbdc712cb	-0.09720381
46	0x3df08b07	0.11745267
47	0x3e11bf83	0.14233212
48	0xbe94c3b6	-0.29055566
49	0xbed82c39	-0.4222124
50	0xbf073c79	-0.5282665
51	0x3eb8084d	0.35943833
52	0x3d103008	0.035202056
53	0xbe6c519f	-0.23078011
54	0x3e856c4c	0.26059186
55	0xbe911558	-0.28336596
56	0xbe3587e9	-0.17727627
57	0x3e3420fc	0.17590708
58	0xbef39dd7	-0.4758136
59	0x3e674bcc	0.22587508
60	0x3ea86e87	0.32896826
61	0xbd8b6953	-0.068071984
62	0xbec682e4	-0.38771737
63	0x3d9ae078	0.07562345
64	0xbdc8f4c1	-0.09812308
65	0x3c920e41	0.017829062
66	0x3e7cf316	0.24702105
67	0xbe41a0b8	-0.18908966
68	0x3e54e8c5	0.2079192
69	0xbdb1a3d1	-0.086738236
70	0xbed94738	-0.42437148
71	0x3e611a35	0.21982653
72	0x3e7daa92	0.24772099
73	0xbe181697	-0.14852367
74	0x3eb19cfe	0.34690088
75	0x3e9e89bc	0.30964458
76	0xbeac7b7a	-0.33687955
77	0x3ec83c3f	0.39108464
78	0xbe98c1bb	-0.29835305
79	0x3f2383ad	0.63872796
80	0xbe9e9674	-0.30974162
81	0xbe928e57	-0.28624222
82	0x3e47465a	0.1946043
83	0xbe999333	-0.29995117
84	0x3f21edc3	0.6325342
85	0x3e53fe85	0.2070256
86	0xbd866100	-0.0656147
87	0x3e957000	0.29187012
88	0xbdea8f7d	-0.114531495
89	0x3e25aa25	0.16178186
90	0x3e4344d8	0.1906923
91	0x3c252134	0.010078717
92	0x3e785db6	0.24254498
93	0x3dd084f7	0.10181611
94	0x3f020ab9	0.5079761
95	0x3e99a3e4	0.3000785
96	0x3e7ca672	0.24672869
97	0x3e105565	0.14095075
98	0x3da5edf1	0.08102024
99	0xbeb4be70	-0.35301542
100	0x3e341821	0.1758733
101	0x3d581aa6	0.05275979
102	0x3d4c4e42	0.04987932
103	0xbe3ebd34	-0.18626863
104	0xbdd2d10f	-0.10293781
105	0x3cc67035	0.024223426
106	0xbdf040df	-0.11731123
107	0x3e8b43c4	0.2720014
108	0x3e02711f	0.12738465
109	0x3d6daa22	0.05802358
110	0xbe386a40	-0.18009281
111	0xbec5c135	-0.38623968
112	0x3f115327	0.56767505
113	0xbe93f4ee	-0.28897804
114	0x3ee116b3	0.4396263
115	0xbe6c6206	-0.23084268
116	0xbf00a101	-0.5024567
117	0xbd949e88	-0.072568
118	0x3d6861ec	0.05673401
119	0xbe63e734	-0.22256166
120	0x3da4570f	0.080244176
121	0x3e48ccbf	0.19609354
122	0xbdeeec98	-0.116662204
123	0x3ee571ee	0.44813484
124	0x3e4c635b	0.19959776
125	0x3e529498	0.20564497
126	0xbdbaf969	-0.091296025
127	0x3e9c192f	0.30487964
128	0x3e9d758e	0.3075375
129	0x3e8faab6	0.2805993
130	0x3e1a9e21	0.15099384
131	0xbdda74af	-0.10666787
132	0xbe26ca33	-0.1628807
133	0xbdd9ef24	-0.106413156
134	0x3e5dfeff	0.21679305
135	0xbd991368	-0.074744046
136	0xbe3afef8	-0.18261325
137	0xbdd851a5	-0.105624475
138	0x3c6575d8	0.014005147
139	0xbcb0d7f9	-0.021587359
140	0xbdb4e6b2	-0.08833064
141	0xbe34b389	-0.17646612
142	0xbed55f43	-0.4167424
143	0xbec1a9f8	-0.37824988
144	0xbe39f130	-0.18158412
145	0x3e4e0d67	0.201223
146	0xbd9f9c5b	-0.07793494
147	0x3daec005	0.085327186
148	0xbef91c91	-0.48654607
149	0xbef864e0	-0.48514462
150	0xbe53d8f7	-0.20688234
151	0xbee073a7	-0.43838236
152	0xbddd8a8d	-0.10817442
153	0xbe9c0a38	-0.30476546
154	0xbe9472c1	-0.289938
155	0x3e805b37	0.2506959
156	0xbe6baa4f	-0.23014186
157	0x3e12a028	0.14318907
158	0xbf17f23c	-0.59353995
159	0x3ef08b20	0.46981144
160	0x3e876635	0.26445165
161	0x3e070162	0.13184121
162	0x3e802ab4	0.2503258
163	0xbf2c8b9f	-0.67400545
164	0xbdf679c4	-0.12034944
165	0x3e8e6bcd	0.2781662
166	0x3c01157a	0.007878656
167	0x3e87370e	0.2640919
168	0x3e6b95b1	0.23006321
169	0xbd1f3698	-0.038870424
170	0x3ed1fb84	0.41012204
171	0x3d92da24	0.07170513
172	0xbe647824	-0.22311455
173	0x3e9caa43	0.3059865
174	0x3ebfbce8	0.37448812
175	0xbe234b0e	-0.159466
176	0x3ec89447	0.39175627
177	0xbe3876de	-0.18014094
178	0x3dad4ea9	0.08462269
179	0xbea5fa94	-0.32417738
180	0x3e5ec64f	0.21755336
181	0x3d6d1030	0.057876766
182	0xbeac324c	-0.33632123
183	0x3e0695bb	0.13143055
184	0x3e730a5a	0.23734418
185	0xbd82b7c7	-0.06382709
186	0x3ebe213f	0.3713474
187	0xbf14134b	-0.5784194
188	0xbe6d6f4a	-0.23186985
189	0x3de91dee	0.11382662
190	0x3d03b18d	0.032151747
191	0xbde718e2	-0.11284043
192	0xbede5b12	-0.43428856
193	0xbe0caa94	-0.13736945
194	0x3e21d776	0.15804848
195	0x3e326a9f	0.17423485
196	0x3dda4578	0.10657781
197	0x3df2ce27	0.11855727
198	0xbebb6f3d	-0.36608306
199	0x3d0fa13a	0.035065867

lin4.weight f4 [62, 200]
0	0xbf87069f	-1.0548896
1	0x3fe86664	1.8156247
2	0xbf956be0	-1.1673546
3	0xbf2ffb11	-0.6874247
4	0x3f7d3d88	0.98922014
5	0xbee19745	-0.44060722
6	0xbfb02573	-1.3761429
7	0xbe4cf052	-0.2001355
8	0xc00ff3f3	-2.2492645
9	0x3fe2a7f3	1.7707504
10	0xbead6761	-0.33867934
11	0x3fbdf1ef	1.4839457
12	0xbe95a238	-0.29225326
13	0xbf1def7a	-0.6169354
14	0x3f6b3392	0.91875565
15	0x3e34ae0e	0.17644522
16	0xbf7b42db	-0.9814889
17	0x40171a85	2.3609936
18	0xbf670173	-0.90236586
19	0x3f729eed	0.9477375
20	0xc009e6c1	-2.154709
21	0xbe60b59e	-0.21944281
22	0x3ec847e5	0.3911735
23	0xbfa8c862	-1.3186152
24	0x3eab35ae	0.33439392
25	0xbd929079	-0.07156462
26	0xbf8f1bb0	-1.1180325
27	0x3fb19fb9	1.3876868
28	0xbf5bf82f	-0.85925573
29	0x401e494f	2.4732244
30	0xbdb6ae6b	-0.08919986
31	0x3ed8b862	0.42328173
32	0xc01b0626	-2.4222503
33	0x3f1c642c	0.6109035
34	0xbf1071d5	-0.56423694
35	0xbfdfc972	-1.7483351
36	0xbff89fa7	-1.9423722
37	0xbfb20d07	-1.3910226
38	0x3e0c3dfc	0.1369552
39	0xbff9d3b4	-1.9517732
40	0xbef0c59c	-0.47025764
41	0xc008cbb7	-2.1374338
42	0xc01b1851	-2.4233592
43	0xbe0b5151	-0.13605238
44	0x3f1c1e62	0.6098386
45	0xbeb64b72	-0.35604435
46	0x3f3d454a	0.7393385
47	0xc0008e30	-2.0086784
48	0xbfc4f14c	-1.5386138
49	0xbbb35047	-0.0054722163
50	0xbc6f9678	-0.014623277
51	0x3e9ee429	0.31033447
52	0xbfa289af	-1.2698268
53	0xc012f166	-2.2959838
54	0xbee34ff1	-0.44396928
55	0x3f6d2936	0.9264101
56	0x3bdc8f52	0.0067309523
57	0x3f31cd25	0.6945365
58	0x3f1b619e	0.60695827
59	0xbd912237	-0.07086604
60	0xc017faa4	-2.374673
61	0xbfa4417c	-1.2832484
62	0x3ee343c0	0.44387627
63	0x3f6796e8	0.9046464
64	0x3f78c378	0.9717326
65	0x3fb689b2	1.4260771
66	0x3fdbd2f2	1.717375
67	0xbffddb6b	-1.9832586
68	0xbf697011	-0.91186625
69	0x3edf0a9b	0.4356278
70	0x3f0c6090	0.5483484
71	0x3fcbf00f	1.5932635
72	0xbf9c31b6	-1.220267
73	0x3eb0776a	0.34466106
74	0xbf8be678	-1.0929708
75	0x3f4fe087	0.81201977
76	0xbfde9f20	-1.7392311
77	0xbfa3bf2d	-1.2792717
78	0x3f95fe6d	1.171827
79	0xbf0e4440	-0.5557289
80	0x3f853fdf	1.0410117
81	0x3f3bbc79	0.7333446
82	0xc02d92e6	-2.712091
83	0x3f91621d	1.1358067
84	0xbf45d245	-0.7727397
85	0x3f217290	0.63065434
86	0xc01be2df	-2.435722
87	0xbf330c5e	-0.69940746
88	0x3dba0643	0.090832256
89	0xbe04d34d	-0.1297123
90	0x3f64900e	0.8928231
91	0x3f02b778	0.510612
92	0x3db01903	0.085985206
93	0xbe4b16d3	-0.19832925
94	0xbf468fd9	-0.77563244
95	0x3fb4b57c	1.4117885
96	0x3eca2d3e	0.39487642
97	0xbfc4f6e8	-1.538785
98	0xbf4ed47a	-0.80792964
99	0x3f0be873	0.54651564
100	0xbfc010c8	-1.5005121
101	0x3f863bdf	1.0487021
102	0xbe8cfc7b	-0.27536377
103	0x3fefe12d	1.8740593
104	0xbea51dc0	-0.3224926
105	0xbe05ad04	-0.13054281
106	0xbfc6c1b8	-1.5527868
107	0x3fa64537	1.2989873
108	0xbf8b52cd	-1.0884644
109	0x3cd227eb	0.0256538
110	0xbdb42de4	-0.087978154
111	0xbff6e205	-1.9287726
112	0xc00f9e0a	-2.244021
113	0x3f9f4930	1.244421
114	0x3fa6cb51	1.3030797
115	0xbfaf3500	-1.3688049
116	0xc0264c6a	-2.598414
117	0x3d2d515f	0.04231393
118	0x3f2a4c25	0.6652244
119	0xbfb76b3a	-1.4329598
120	0xbecb0d66	-0.3965866
121	0xbe22ba02	-0.15891269
122	0xbdce484a	-0.10072382
123	0xbfdba3fe	-1.7159421
124	0x3fa7b328	1.3101549
125	0xbe7778e0	-0.24167204
126	0xc000060b	-2.0003688
127	0x3fc6ba53	1.5525612
128	0x3f8384d6	1.0274913
129	0xbd12d226	-0.035844944
130	0x3ed984a2	0.42484003
131	0x3f3f9e63	0.74851054
132	0xbf0d63c1	-0.5523034
133	0x3f82b09a	1.0210145
134	0xbd6901c5	-0.056886453
135	0xbfa4b629	-1.2868091
136	0xbf393b8a	-0.72356474
137	0x3f6b57b6	0.9193071
138	0x3fdffabd	1.7498394
139	0x3fceb13f	1.6147841
140	0x3dbe821d	0.09302161
141	0xbf801436	-1.0006168
142	0x3f239f9e	0.6391543
143	0x3f875245	1.0571982
144	0xbfa7bda5	-1.310475
145	0x40135cea	2.302546
146	0xbf88b96c	-1.0681586
147	0x400d7087	2.2099931
148	0x3e7494c4	0.23884875
149	0xbff5bb84	-1.919785
150	0xbe94fc5b	-0.29098782
151	0xbd0f7580	-0.035024166
152	0x3e407154	0.18793231
153	0xbed00a91	-0.40633062
154	0x3f066270	0.52493954
155	0xbfd4615e	-1.6592214
156	0xbeebd5ea	-0.4606164
157	0x3fa96585	1.3234106
158	0x3f0d9091	0.55298716
159	0xbfe708a5	-1.8049513
160	0xbfa5a500	-1.2940979
161	0x3d9a9f65	0.07549933
162	0xbf9878dd	-1.1911885
163	0xbf13c021	-0.5771504
164	0xbf4e83b3	-0.8066971
165	0x3f9d2c07	1.2279061
166	0x3e9080a7	0.28223154
167	0x3f396395	0.72417575
168	0xbfd08cdb	-1.6292986
169	0x3d0c6453	0.034275364
170	0xbfa20177	-1.2656697
171	0x3d029ab1	0.031885806
172	0xbf66e82e	-0.9019803
173	0xbf3c3521	-0.7351857
174	0x3f09194c	0.53554225
175	0x3f3d025c	0.73831725
176	0x4000f020	2.014656
177	0x3f5c5780	0.86071014
178	0xbee86fab	-0.45397696
179	0x401b249a	2.424109
180	0xbf9cd5be	-1.2252729
181	0x3f6c696a	0.9234835
182	0x3fc35611	1.526064
183	0x3d9bde46	0.07610755
184	0x3f102bb7	0.56316704
185	0x3f57b825	0.8426536
186	0xbe329254	-0.17438632
187	0xbf994f00	-1.1977234
188	0x402a51b1	2.661236
189	0x3f5adc69	0.8549257
190	0xbf893b83	-1.0721287
191	0xbfa50110	-1.2890949
192	0xbeecfc71	-0.46286348
193	0xbef98f28	-0.48742032
194	0x402c12f3	2.6886566
195	0x3fbe3f36	1.486304
196	0xbe5cb82b	-0.2155463
197	0x3f636cd1	0.88837916
198	0xbed0d91b	-0.40790638
199	0x4000dcf3	2.0134857
200	0xbfc9bf80	-1.5761566
201	0x3ecbeee0	0.39830685
202	0xbdce7569	-0.10080988
203	0x3ed18d5c	0.4092816
204	0xbf8ec977	-1.1155232
205	0x400f328f	2.2374609
206	0x3fc090cf	1.5044192
207	0x40262b7b	2.5964038
208	0xbd8aeff0	-0.06784046
209	0xbf92574f	-1.1432894
210	0x3f5ddae9	0.86662155
211	0x3fdac160	1.7090263
212	0x3f0bd33f	0.5461921
213	0xbfb29420	-1.3951454
214	0x4006e4e8	2.1077213
215	0x3ff14a38	1.8850775
216	0x3f11112c	0.5666683
217	0x3f506abf	0.8141288
218	0xbff13258	-1.8843489
219	0x4017265f	2.361717
220	0x3f756d5d	0.9587
221	0xbff7627c	-1.932693
222	0xbf223d32	-0.63374627
223	0xbfa5120a	-1.289613
224	0x3f4a4527	0.7901177
225	0x3ebb0440	0.3652668
226	0xbfbd4769	-1.4787418
227	0xbea0f6d9	-0.3143833
228	0xbf7fed25	-0.9997123
229	0x3fe17103	1.7612613
230	0xbf886590	-1.0655994
231	0x3ff628a5	1.9231154
232	0xc00dd062	-2.2158437
233	0xbf9b2f36	-1.2123783
234	0x3f80d9d1	1.0066472
235	0x3efd3605	0.49455276
236	0xbfdc4525	-1.7208601
237	0x3f5a7ee6	0.8534988
238	0xbfbb0048	-1.4609461
239	0xc01f7967	-2.4917848
240	0xbe96d367	-0.29458162
241	0xbf2788b8	-0.6544299
242	0x3f2b221b	0.66848916
243	0xbf045072	-0.5168525
244	0x3fbb15f7	1.4616078
245	0x3f937c01	1.1522218
246	0x3d88658c	0.066599935
247	0x3faa4b76	1.3304279
248	0xbfb8dbdb	-1.4442095
249	0xbfe77e72	-1.8085463
250	0xbe547160	-0.20746374
251	0xc0040bdc	-2.0632238
252	0xbdc3f685	-0.09568504
253	0xc0112c36	-2.2683234
254	0x3f17cb79	0.5929485
255	0x3fca6f97	1.5815305
