qn1/weights/model_weights_b15_em12.pth (torch, 522416 bytes, 9 tensors)

emb.weight f4 [62, 12]
0	0xbec5bb6c	-0.38619554
1	0x3e2af83f	0.16696261
2	0x3f3ad1e8	0.7297654
3	0xbd30d3cc	-0.043170735
4	0xbcc1a73e	-0.023639318
5	0x3e0370fd	0.1283607
6	0x3ee3325a	0.44374353
7	0x3f4032bf	0.7507743
8	0xbeefd7de	-0.4684438
9	0x3e43f833	0.19137649
10	0xbf47d9c4	-0.7806666
11	0xbed58e33	-0.41710052
12	0x3e9ef531	0.3104644
13	0xbd459f48	-0.048247606
14	0x3e3fa85f	0.18716572
15	0xbd836b10	-0.06416905
16	0xbd16df6b	-0.03683416
17	0xbf557d7c	-0.833946
18	0x3e9827b3	0.29717788
19	0x3d8a7465	0.06760482
20	0x3f3b2230	0.7309904
21	0xbe57a338	-0.21058357
22	0xbe88068d	-0.26567498
23	0xbecfd2a4	-0.40590394
24	0xbebab34d	-0.3646492
25	0xbf08a5a4	-0.5337775
26	0xbd69e81f	-0.057106134
27	0x3eb18f9e	0.34679884
28	0x3f353060	0.7077694
29	0xbef5df1b	-0.48021778
30	0x3e375e04	0.17906958
31	0xbf3dc23d	-0.7412451
32	0xbf6534e3	-0.89533824
33	0xbe693526	-0.22774181
34	0xbe8ed3f1	-0.27896073
35	0xbf2dfce5	-0.6796401
36	0xbe23ab71	-0.15983368
37	0x3ece059d	0.40238658
38	0xbf96e3ad	-1.1788231
39	0x3f3a8999	0.7286621
40	0xbe9d9b3e	-0.30782503
41	0x3f3670c0	0.7126579
42	0x3e028237	0.12744986
43	0x3e611673	0.2198122
44	0xbdb22fd1	-0.087005265
45	0xbeb8c212	-0.36085564
46	0x3e6be55f	0.23036717
47	0xbe169e23	-0.14708762
48	0x3e5afbe7	0.21385156
49	0x3df377f1	0.118881114
50	0x3ea5ff1d	0.32421198
51	0x3eadb682	0.33928305
52	0xbe32ee3b	-0.1747369
53	0x3e379390	0.17927384
54	0x3e076dce	0.13225481
55	0x3e651fea	0.22375455
56	0xbf32196f	-0.6957006
57	0xbf6fa8df	-0.9361705
58	0xbd99eff9	-0.07516474
59	0x3ed3fd5d	0.41404238
60	0xbf2c10ed	-0.67213327
61	0xbe3faaaf	-0.18717454
62	0x3df9da14	0.12199798
63	0xbf5cad82	-0.8620225
64	0x3d3b6998	0.045755
65	0xbe4dbd89	-0.20091833
66	0xbebd2ebf	-0.36949727
67	0xbe05fe16	-0.13085207
68	0x3efc9d5e	0.49338812
69	0x3f2b5b2e	0.66936004
70	0xbed9d842	-0.42547804
71	0xbed5ff70	-0.41796446
72	0xbe5eb825	-0.21749933
73	0x3e26599d	0.16245122
74	0xbf8ad3a3	-1.0845836
75	0x3e806517	0.25077125
76	0x3e523845	0.20529278
77	0xbf1d64f7	-0.61482185
78	0x3eae1848	0.340029
79	0xbe8e71a1	-0.27821067
80	0xbe31377c	-0.17306322
81	0x3ea2f2e7	0.31825945
82	0xbf3c297d	-0.73500806
83	0xbf5a1cbf	-0.85200113
84	0xbeba1d66	-0.36350554
85	0x3f03181f	0.5120868
86	0x3ddd35a0	0.10801244
87	0xbd798495	-0.060917456
88	0xbef55f0c	-0.47924078
89	0xbde12ed5	-0.109952606
90	0xbefbdca8	-0.49191785
91	0xbde40045	-0.11132864
92	0xbeb081d2	-0.34474045
93	0xbf858d66	-1.0433776
94	0x3debb24d	0.115086176
95	0xbe5a3f81	-0.21313287
96	0xbea9a208	-0.33131433
97	0xbe87dc25	-0.26535144
98	0x3f5b6b84	0.8571093
99	0x3e303407	0.17207347
100	0x3f9073ea	1.1285374
101	0xbf364508	-0.71199083
102	0xbf99934b	-1.1998075
103	0xbe82069b	-0.25395665
104	0x3e5dd2f2	0.216625
105	0x3e3e2eb2	0.185725
106	0x3e0c9fa9	0.1373278
107	0xbef3afc7	-0.47595045
108	0xbf0d5adb	-0.5521676
109	0x3ebe3cbe	0.37155718
110	0xbeae1421	-0.33999732
111	0x3f3bcddf	0.7336101
112	0x3dac7cf1	0.08422268
113	0xbd8cf20d	-0.06882105
114	0x3e94d5e2	0.2906943
115	0xbecf68b5	-0.40509573
116	0xbdaee896	-0.08540456
117	0x3ddcdcee	0.107843265
118	0xbf1f5f3c	-0.6225469
119	0xbf44c60c	-0.76864696
120	0xbeb42085	-0.3518106
121	0x3ec46ed4	0.38365805
122	0xbe367a74	-0.1782015
123	0xbf22f06a	-0.6364809
124	0x3f11689e	0.5680026
125	0xbf1a33b1	-0.60235125
126	0xbeb62b49	-0.355799
127	0x3e515e3b	0.20446102
128	0xbf1dba7c	-0.6161268
129	0x3ec3b602	0.38224798
130	0x3d9730e7	0.07382374
131	0xbdc1234d	-0.09430561
132	0xbe8a6ba0	-0.27035236
133	0xbd135d2f	-0.03597754
134	0x3f66eeb1	0.90207964
135	0xbe82b92e	-0.25531906
136	0x3ec2d30e	0.38051647
137	0x3ea3d262	0.31996447
138	0xbf166de2	-0.5876142
139	0xbd2441f5	-0.040101964
140	0x3f1db4c8	0.61603975
141	0xbeeeef37	-0.4666688
142	0xbf59c9bf	-0.85073465
143	0x3e087bdb	0.13328497
144	0xbd6e5ad6	-0.058192097
145	0xbf580468	-0.84381723
146	0xbe5cc155	-0.21558125
147	0x3d2b1523	0.041768204
148	0x3f262734	0.6490357
149	0xbf2acc82	-0.66718304
150	0xbf2aaf20	-0.6667347
151	0xbf667506	-0.90022314
152	0x3f022982	0.50844586
153	0x3e78ca11	0.24295832
154	0xbd9cc421	-0.07654596
155	0x3ecc45ec	0.39897096
156	0x3ed2a700	0.41143036
157	0xbde066a9	-0.10957081
158	0x3db55819	0.08854694
159	0x3ecd6daa	0.4012273
160	0x3e14a361	0.14515449
161	0xbebced8f	-0.36899993
162	0xbf59cc56	-0.85077417
163	0x3f1d3a5f	0.6141719
164	0x3eec5c61	0.4616423
165	0x3d3363f9	0.043796513
166	0x3ec0d48f	0.3766217
167	0xbe3fc5e2	-0.1872783
168	0xbd434c50	-0.0476802
169	0xbf29e2e1	-0.66361815
170	0xbf579b03	-0.84220904
171	0x3eb8027c	0.35939395
172	0x3f229672	0.6351081
173	0x3cdda878	0.027057871
174	0xbe6b3d85	-0.22972687
175	0x3e8af043	0.2713643
176	0xbeb6b97d	-0.3568839
177	0xbdb0a8b0	-0.086259246
178	0xbef71b3c	-0.48262966
179	0xbeaf51e3	-0.34242162
180	0xbf2a98b2	-0.66639245
181	0xbf31a95a	-0.69399035
182	0x3eb8a7a4	0.360654
183	0x3ed4011d	0.414071
184	0xbe1cfaf0	-0.153301
185	0xbe322a09	-0.17398848
186	0x3f690687	0.91025585
187	0x3f0f7feb	0.5605456
188	0xbeff59bb	-0.49873146
189	0x3ec53387	0.38515875
190	0xbb0d42e9	-0.0021554774
191	0xbdd63891	-0.10460008
192	0xbe4ff246	-0.20307264
193	0x3f0d5d61	0.5522061
194	0x3e97c42a	0.2964185
195	0x3edc7671	0.43059114
196	0x3e3c241f	0.18373154
197	0xbe2f5f0a	-0.17126098
198	0xbe3ec984	-0.1863156
199	0xbd1d07a3	-0.03833736
200	0xbecd47d0	-0.4009385
201	0xbec82da9	-0.39097336
202	0x3e02efa1	0.12786724
203	0x3ed89bf9	0.42306498
204	0xbed8352b	-0.42228064
205	0x3e9d1c88	0.3068583
206	0x3f62522c	0.88406634
207	0x3d88bd98	0.06676787
208	0x3f41b5dc	0.7566812
209	0x3ee2e55f	0.4431562
210	0x3cd5877d	0.026065582
211	0x3e92415a	0.28565484
212	0xbe9db226	-0.3079998
213	0xbf4b8c63	-0.7951109
214	0xbe55ad2d	-0.20866843
215	0x3e2d12c3	0.16901688
216	0xbddbefc5	-0.10739092
217	0x3ec02bd4	0.37533438
218	0xbee629a8	-0.44953656
219	0x3eb98d5c	0.3624066
220	0x3e819aa5	0.25313297
221	0xbe9877ba	-0.29778844
222	0xbf466434	-0.7749665
223	0xbe850811	-0.25982717
224	0xbe581907	-0.21103297
225	0x3e5776db	0.21041434
226	0xbeaf88d3	-0.34284076
227	0xbf3e51fe	-0.7434386
228	0xbf1d1b52	-0.6136981
229	0xbece5c57	-0.40304825
230	0xbf7bc928	-0.98353815
231	0x3ea5c0f3	0.3237377
232	0xbe148e1d	-0.14507337
233	0x3e9f1548	0.31070924
234	0xbf23f1bf	-0.6404075
235	0xbeac82ec	-0.33693635
236	0x3eb78a7d	0.35847846
237	0x3e1ec439	0.1550454
238	0xbf5bada8	-0.85811853
239	0xbd3174db	-0.043324333
240	0x3d54d76a	0.051963247
241	0x3dfd2536	0.12360613
242	0xbe83dc99	-0.2575424
243	0x3f9cd857	1.2253522
244	0x3f182154	0.59425855
245	0xbf0bdd7b	-0.5463483
246	0x3e101bb4	0.14073068
247	0x3e80b007	0.25134298
248	0x3e0e4e7f	0.13897131
249	0x3e93d1b9	0.28870943
250	0x3da47f24	0.08032063
251	0xbe7931ea	-0.24335447
252	0x3d0c92f1	0.03431982
253	0xbe4f644b	-0.20253102
254	0xbe848c4e	-0.25888294
255	0x3ed4cbcd	0.41561738

lin1.weight f4 [200, 180]
0	0x3e964042	0.293459
1	0x3e190bc1	0.1494589
2	0xbe68154c	-0.22664374
3	0x3e72a802	0.23696902
4	0x3dd6aca2	0.10482146
5	0xbe3b6b3e	-0.18302628
6	0xbc86cfc1	-0.016456487
7	0xbed21dfe	-0.41038507
8	0xbd0378ec	-0.032097742
9	0xbb7961bf	-0.0038052646
10	0x3e77bd51	0.24193312
11	0xbe8e20da	-0.2775944
12	0xbeca93f4	-0.39566004
13	0xbef6bd86	-0.4819147
14	0x3df4326c	0.1192368
15	0xba789903	-0.000948325
16	0x3e7eba1c	0.24875683
17	0x3e4aeff3	0.19818096
18	0x3e2682c7	0.16260825
19	0xbc77595f	-0.015096991
20	0xbd467989	-0.04845575
21	0x3e139496	0.1441215
22	0x3da3cffa	0.07998653
23	0x3dd7dfd3	0.10540738
24	0xbe262a0f	-0.16226982
25	0x3dc81156	0.097689316
26	0xbd15e557	-0.03659567
27	0xbe09d165	-0.13458784
28	0x3dc30241	0.09521914
29	0xbda35054	-0.07974306
30	0xbdf77e70	-0.12084663
31	0xbde3d598	-0.11124724
32	0xbe94a523	-0.2903224
33	0xbcdfe594	-0.027331151
34	0x3d56130b	0.052264255
35	0x3de70fde	0.11282323
36	0xbd1f1577	-0.03883883
37	0xbe38d0ac	-0.18048352
38	0xbcaf7578	-0.021418318
39	0xbe94e005	-0.29077163
40	0xbe31afa8	-0.17352164
41	0x3dbbba9f	0.091664545
42	0xbe81c91f	-0.25348756
43	0xbd48bf37	-0.04901048
44	0x3e37f34b	0.17963903
45	0x3df32757	0.11872738
46	0x3dbd2eb3	0.09237423
47	0x3ddb2e0a	0.10702141
48	0xbeaae300	-0.33376312
49	0xbde91f9f	-0.11382984
50	0x3e2f6e1f	0.17131852
51	0x3e5c0865	0.21487577
52	0xbdd11165	-0.10208396
53	0x3db08d4c	0.086207
54	0xbe21b29c	-0.1579079
55	0xbecdfe73	-0.40233192
56	0x3e2e7bdd	0.17039438
57	0x3e4d068a	0.20022026
58	0xbda806c7	-0.08204418
59	0x3d910431	0.070808776
60	0xbe345645	-0.17611034
61	0x3da31687	0.07963281
62	0xbe25b7c8	-0.16183388
63	0xbd07e0f2	-0.03317351
64	0x3f06b338	0.52617216
65	0xbcb4d49e	-0.02207404
66	0xbcbdd008	-0.023170486
67	0xbeb659bc	-0.35615337
68	0xbc19c4d1	-0.009385304
69	0x3d6f6342	0.05844427
70	0x3eaa30f1	0.33240464
71	0x3d08ec9e	0.03342878
72	0x3e16924c	0.14704245
73	0x3b10a942	0.0022073542
74	0x3d6cdf26	0.05783
75	0x3ea88181	0.32911304
76	0xbbbce7a0	-0.0057649165
77	0xbdf9f134	-0.12204209
78	0xbe67c1ca	-0.22632518
79	0xbde364e8	-0.11103231
80	0xbe86f509	-0.26358822
81	0xbcf37afa	-0.029721726
82	0x3f0c5fd6	0.54833734
83	0x3c33d3b2	0.010975765
84	0xbdc9a95a	-0.09846754
85	0xbe0257f9	-0.12728871
86	0xbf295962	-0.6615201
87	0x3ddf248a	0.10895641
88	0xbe7170dc	-0.23578209
89	0x3c661627	0.0140433675
90	0xbd7483b9	-0.059695933
91	0xbe9ced08	-0.3064959
92	0x3e674616	0.2258533
93	0xbeee49cd	-0.4654068
94	0x3e9ad5b6	0.30241174
95	0x3e3ec85c	0.18631119
96	0xbf0666ac	-0.52500415
97	0x3dc77eda	0.09740992
98	0xbca68900	-0.020328999
99	0x3e481f22	0.19543126
100	0x3d648b68	0.05579701
101	0x3e57750e	0.21040747
102	0xbe8cfe32	-0.27537686
103	0x3dcccb64	0.09999731
104	0xbea78463	-0.3271819
105	0x3e2742f3	0.16334133
106	0x3dc56f70	0.09640396
107	0x3c6eaec7	0.014568037
108	0xbdf8f326	-0.12155752
109	0xbe7bbb4c	-0.24583167
110	0x3e733934	0.2375229
111	0xbe9d37a6	-0.3070652
112	0xbe0aeb21	-0.13566257
113	0x3e807068	0.2508576
114	0x3e41ae99	0.1891426
115	0x3e47e9ed	0.1952283
116	0xbeac43f8	-0.33645606
117	0xbe92678d	-0.28594628
118	0xbeb1fb24	-0.34761918
119	0x3eab4f82	0.33459097
120	0xbe466e27	-0.19377957
121	0xbe8d97d3	-0.27654895
122	0xbd64f535	-0.05589791
123	0x3edd275c	0.4319409
124	0xbf0cfe27	-0.55075306
125	0xbef4210e	-0.4768147
126	0xbe425618	-0.18978155
127	0x3ef6b2db	0.4818333
128	0x3e610396	0.21974024
129	0xbcca8894	-0.024723329
130	0x3ed589c5	0.41706672
131	0x3ef58a25	0.47956958
132	0xbe0fae80	-0.1403141
133	0xbe56bdbd	-0.20970817
134	0x3e028a9f	0.12748192
135	0xbe37e0b7	-0.17956816
136	0xbe640503	-0.22267537
137	0x3e299194	0.1655944
138	0xbe7b4602	-0.24538425
139	0x3d288b2a	0.041148342
140	0xbe8878e4	-0.26654732
141	0x3d981f9a	0.074279025
142	0xbda9fd26	-0.08300237
143	0xbe1808dd	-0.14847131
144	0x3e3ea95c	0.18619293
145	0x3d3b46c9	0.045721803
146	0xbf5c8036	-0.86133134
147	0xbeba5cd2	-0.3639894
148	0x3df9ec8e	0.12203322
149	0x3e5809cb	0.21097486
150	0x3e2d2869	0.16909947
151	0x3e4f88a6	0.20266971
152	0xbf1ca4ce	-0.6118897
153	0xbdeeb150	-0.116549134
154	0x3d0a7d94	0.033811167
155	0x3e88ccb9	0.2671869
156	0xbeb35056	-0.3502223
157	0x3e87128d	0.2638134
158	0xbeb48317	-0.35256264
159	0xbf11f3ce	-0.5701264
160	0x3d99cc50	0.07509673
161	0x3de6db34	0.112722784
162	0xbe836571	-0.2566333
163	0x3f566c7c	0.83759284
164	0xbe8443e6	-0.25833052
165	0x3e3dc3e7	0.18531762
166	0xbbab15f2	-0.005221122
167	0xbdbde6d0	-0.092725396
168	0x3e589475	0.21150382
169	0x3e9e0702	0.30864722
170	0x3d65f0b0	0.05613774
171	0xbdb5ae73	-0.08871164
172	0xbdcde075	-0.100525774
173	0xbdd73a99	-0.105092235
174	0x3ee03aaf	0.43794772
175	0xbdb5535e	-0.08853792
176	0x3e1c0a38	0.15238273
177	0x3f339ef3	0.7016441
178	0x3d5b8b09	0.05359939
179	0xbeae5426	-0.34048575
180	0x3dab0f57	0.08352535
181	0x3cf4bb37	0.029874427
182	0xbe66c6d7	-0.22536789
183	0x3c0d3859	0.008619391
184	0xbd2cd5d3	-0.042196106
185	0xbd2359e4	-0.03988065
186	0xbc36ccc4	-0.011157218
187	0x3e365053	0.17804079
188	0x3cf26ae3	0.029591983
189	0xbd920d85	-0.07131485
190	0xbdef72d3	-0.11691823
191	0xbe8a2e12	-0.26988274
192	0xbd441a6e	-0.047876768
193	0x3e0ab886	0.13546953
194	0xba69db5b	-0.0008920931
195	0x3e85714b	0.26062998
196	0x3d92019b	0.071292125
197	0xbd341101	-0.04396153
198	0x3cb73645	0.022364745
199	0xbe0744cb	-0.13209836
200	0xbce59098	-0.02802305
201	0x3b8943ad	0.004188976
202	0x3e51e114	0.20496017
203	0x3dbd0926	0.092302606
204	0x3d90b728	0.07066184
205	0xbe4073c9	-0.18794169
206	0xbd972f95	-0.073821224
207	0x3db08398	0.086188495
208	0x3dbb7523	0.091532014
209	0x3eaecc7f	0.34140393
210	0xbcbd1184	-0.023079641
211	0xbd3b9113	-0.04579265
212	0xbecd6ff2	-0.4012447
213	0xbc5feee0	-0.013667792
214	0xbdf093b4	-0.11746922
215	0xbc7985ef	-0.015229686
216	0x3d08f331	0.03343505
217	0x3e800350	0.25002527
218	0xbddcbe5d	-0.107784964
219	0xbcb2fbab	-0.02184852
220	0x3c1845d1	0.009293989
221	0x3d9f8db2	0.07790698
222	0xbe42ee63	-0.1903625
223	0x3d8045d2	0.06263317
224	0x3eb86947	0.3601782
225	0xbd0313c5	-0.032001276
226	0x3ed846ab	0.42241415
227	0x3dca0569	0.09864313
228	0xbe16f6e9	-0.14742626
229	0xbdc7ecfc	-0.09761998
230	0x3c768f5a	0.015048826
231	0x3e304d26	0.1721693
232	0x3e72bb73	0.23704319
233	0x3ed1472a	0.40874606
234	0x3de51de5	0.111873426
235	0xbc18395b	-0.009291018
236	0xbe700fd3	-0.23443536
237	0x3c9aa8e4	0.018879361
238	0xbe848873	-0.25885352
239	0x3d800d55	0.06252543
240	0x3db1b386	0.086768195
241	0x3e7268a5	0.23672731
242	0xbcad224f	-0.021134524
243	0xbe25aeab	-0.16179912
244	0x3cfd1e4c	0.030898236
245	0xbd24f89c	-0.040276155
246	0xbb27511b	-0.002553052
247	0x3e8026a7	0.2502949
248	0xbe14db18	-0.14536703
249	0x3e4ca5d7	0.19985138
250	0x3d53cc60	0.05170858
251	0x3e1c77d5	0.15280087
252	0xbe3ceadc	-0.18448967
253	0x3cb48b44	0.022039063
254	0x3d41d5c9	0.047323022
255	0xbe8621c3	-0.26197633

lin1.bias f4 [200]
0	0xbeb9a1fa	-0.3625639
1	0xbd53b115	-0.05168255
2	0x3dac97f0	0.08427417
3	0xbe04dcbe	-0.12974831
4	0xbe1e8f2d	-0.15484305
5	0x3eb33c50	0.35006952
6	0x3cd7f491	0.026361736
7	0x3eccce1c	0.40001
8	0x3e838f2c	0.2569517
9	0xbdec1f35	-0.1152939
10	0x3e5f8758	0.21828973
11	0xbeb831f6	-0.35975617
12	0x3e6ea6d2	0.23305824
13	0x3cafe8d4	0.021473326
14	0xbd3c4403	-0.0459633
15	0x3e5a3f30	0.21313167
16	0xbefcd3d9	-0.49380377
17	0xbe382078	-0.17981136
18	0x3e6afce5	0.22948034
19	0xbe06c2ca	-0.13160244
20	0x3d6f7d7f	0.05846929
21	0x3e1fd870	0.15609908
22	0x3d9d81ff	0.076908104
23	0xbed8c598	-0.42338252
24	0xbe036bfc	-0.12834162
25	0xbdaf77ff	-0.08567809
26	0xbc608e45	-0.013705795
27	0xbdc38ab0	-0.09547937
28	0xbe0d1662	-0.1377807
29	0x3e75d909	0.24008574
30	0x3caba60d	0.020953203
31	0xbe41f055	-0.18939336
32	0xbea91140	-0.33020973
33	0xbe1e2550	-0.15443921
34	0x3cdde18f	0.027085094
35	0x3e94d025	0.29065052
36	0x3c77208e	0.015083445
37	0x3e2f86f1	0.1714132
38	0xbe08aabb	-0.13346379
39	0xbe7fb920	-0.24972963
40	0xbe7f5f92	-0.24938801
41	0xbe3b514e	-0.18292734
42	0xbddb6e32	-0.107143775
43	0xbe8a9a3d	-0.270708
44	0xbe48a352	-0.19593552
45	0xbdfb9461	-0.122841604
46	0x3ddb1114	0.10696617
47	0xbddca26e	-0.107731685
48	0x3c50d2fb	0.012745614
49	0xbe93663d	-0.2878894
50	0x3da0a49c	0.07843897
51	0x3d6c3f3a	0.057677485
52	0x3dba4e96	0.0909702
53	0xbdfbe4ad	-0.12299476
54	0x3eacdc02	0.33761603
55	0x3d599f4a	0.053130426
56	0x3d2913f0	0.04127878
57	0x3e7407bb	0.23831074
58	0xbefedad1	-0.4977632
59	0xbe9cd27d	-0.3062934
60	0x3e907762	0.28216082
61	0xbe5908c9	-0.21194758
62	0x3e2125b0	0.15737033
63	0xbe17fc28	-0.14842284
64	0x3ec81ea6	0.39085883
65	0x3e456286	0.19275865
66	0xbc98cf41	-0.018653514
67	0x3e194c02	0.14970401
68	0x3e6e58e3	0.23276095
69	0x3d9744b5	0.07386152
70	0xbe032977	-0.12808786
71	0xbe97926f	-0.29603907
72	0x3db213b6	0.08695166
73	0x3dfbc38f	0.12293159
74	0xbe92906f	-0.2862582
75	0xbe1fbd0c	-0.1559946
76	0x3e5e2b5b	0.21696226
77	0xbead7fd0	-0.33886576
78	0xbe1583d8	-0.14601076
79	0x3eb61afa	0.35567456
80	0xbcf9053f	-0.03039801
81	0x3e6ceb62	0.23136666
82	0x3d84baa5	0.06480912
83	0x3ea611f1	0.32435563
84	0xbe715f28	-0.23571455
85	0x3d68c4d2	0.056828327
86	0x3e1d0afc	0.15336221
87	0x3d4e126a	0.05031053
88	0x3de06f76	0.109587595
89	0x3e3e16cc	0.18563384
90	0xbe98d183	-0.29847345
91	0xbd547358	-0.051867813
92	0xbea6eaaf	-0.32600924
93	0x3dce1770	0.10063064
94	0x3d58a3f6	0.05289074
95	0x3d74feff	0.059813496
96	0x3e4e78b1	0.20163228
97	0xbf5b1bef	-0.855895
98	0x3f20ac48	0.6276288
99	0x3dc25b5e	0.09490083
100	0xbdd36a05	-0.10322956
101	0x3e572906	0.21011743
102	0xbb9ee06b	-0.00484853
103	0xbddff8ca	-0.109361246
104	0x3ed68648	0.41899323
105	0xbe267939	-0.1625718
106	0xbe261965	-0.16220625
107	0x3e343d56	0.17601523
108	0xbd920133	-0.07129135
109	0x3d8e1e1f	0.06939339
110	0xbdc0e3f6	-0.0941848
111	0x3e072e9b	0.13201372
112	0xbc84bb8e	-0.016202714
113	0x3e1ed930	0.15512538
114	0x3ebebf6d	0.3725542
115	0x3d0b04d9	0.03394017
116	0xbc44c8ec	-0.012010794
117	0xbec032fe	-0.37538904
118	0x3e0fbe3a	0.1403741
119	0x3e0a1231	0.13483502
120	0x3e8d631d	0.2761468
121	0xbdace012	-0.084411755
122	0x3cce26ae	0.025164928
123	0xbe7fcaa8	-0.24979651
124	0xbeaf600c	-0.34252965
125	0x3bfbd16c	0.007684877
126	0x3e9ff2b4	0.31239855
127	0x3e85beff	0.2612228
128	0xbf000b2f	-0.50017065
129	0xbee6589a	-0.44989473
130	0x3e04ffcc	0.12988204
131	0x3b5ca3e4	0.0033667022
132	0xbeba544d	-0.3639244
133	0xbe810ff6	-0.2520749
134	0x3b1c64d2	0.0023863805
135	0xbe018012	-0.12646511
136	0x3dc5d149	0.096590586
137	0x3ece199e	0.4025392
138	0xbcb72f3f	-0.022361396
139	0x3deb3a15	0.11485688
140	0xbe5f1c1a	-0.21788064
141	0x3e0eb1a8	0.13934958
142	0xbd8f0bbd	-0.06984661
143	0xbeaf1810	-0.34198046
144	0xbdcb907e	-0.09939669
145	0x3d869fbb	0.06573435
146	0xbdabcb19	-0.08388347
147	0x3d1a5ed2	0.037688084
148	0x3e719451	0.23591734
149	0xbc8415d9	-0.016123699
150	0xbd61df45	-0.055144567
151	0xbe13b19b	-0.1442322
152	0xbe6ab440	-0.22920322
153	0xbd8ee315	-0.06976906
154	0x3ec2abb7	0.38021633
155	0x3de3a4a0	0.11115384
156	0xbe162275	-0.14661582
157	0x3ea51a87	0.322468
158	0xbddc56fb	-0.10758778
159	0xbed6c0ce	-0.41943973
160	0x3d4b8629	0.049688492
161	0x3cb45f3c	0.022018068
162	0xbe185290	-0.14875245
163	0xbe529748	-0.20565522
164	0xbc7efd8b	-0.015563379
165	0x3db6af10	0.08920109
166	0xbe857fec	-0.2607416
167	0x3d9e2698	0.07722205
168	0xbef5b9d7	-0.47993347
169	0xbc867575	-0.01641343
170	0x3e8d98c1	0.27655604
171	0xbd6016f9	-0.05470941
172	0x3e8f8ded	0.28037968
173	0xbeab24fc	-0.33426654
174	0xbdd927e0	-0.10603309
175	0x3f0de163	0.5542204
176	0xbefa9bce	-0.48946995
177	0xbf1457da	-0.5794655
178	0xbd70d66a	-0.05879823
179	0xbe18e0ca	-0.149295
180	0xbeb91566	-0.36149138
181	0xbe44e69f	-0.192286
182	0xbe1dc062	-0.1540542
183	0xbdd6c38d	-0.10486517
184	0x3d3232d8	0.04350552
185	0xbeec8b36	-0.4619996
186	0x3efa909b	0.4893845
187	0x3dae8a95	0.08522526
188	0x3f349202	0.7053529
189	0x3dbb0b6e	0.091330394
190	0xbe5820af	-0.21106218
191	0xbe4b7b81	-0.19871332
192	0xbe0c0bc9	-0.1367637
193	0x3e085f08	0.13317502
194	0xbe057971	-0.13034607
195	0x3eb287a5	0.34869114
196	0x3dd7bd13	0.1053411
197	0x3f3a8073	0.7285225
198	0xbf09fe61	-0.53903776
199	0xbea7417c	-0.32667148

lin2.weight f4 [200, 200]
0	0xbccabdc0	-0.024748683
1	0x3e03f472	0.12886217
2	0xbd32163d	-0.04347824
3	0xbd6b34a9	-0.057423268
4	0xbccee040	-0.025253415
5	0xbea297f4	-0.31756556
6	0x3dfd2a47	0.123615794
7	0xbc40d66c	-0.011769872
8	0x3ebe5e4a	0.37181312
9	0x3e3d32a0	0.18476343
10	0x3d43a183	0.04776145
11	0xbe30139a	-0.17194977
12	0xbd805923	-0.062670015
13	0x3d0ea394	0.03482397
14	0xb9e8f17d	-0.0004443041
15	0x3b11a49e	0.0022223364
16	0x3dc177d3	0.09446683
17	0xbe7954e4	-0.2434879
18	0x3dd42c85	0.10360054
19	0xbe60f778	-0.21969402
20	0x3c8e244e	0.017351296
21	0xbe2f420d	-0.1711504
22	0x3ebb5c3f	0.36593816
23	0x3d40380a	0.046928443
24	0x3cf12c85	0.029440174
25	0x3bde01e5	0.006775128
26	0x3d23f767	0.040030863
27	0x3ce70145	0.028198848
28	0x3d488eeb	0.048964422
29	0x3e9c81c0	0.3056774
30	0x3e02d4e0	0.12776518
31	0xbd160f50	-0.036635697
32	0xbe2c6bb3	-0.16837959
33	0x3dd72868	0.10505754
34	0xbd68cec4	-0.056837812
35	0x3bdbf626	0.006712693
36	0xbd4eaa34	-0.050455287
37	0xbe8beda0	-0.2732973
38	0xbe869edc	-0.26293075
39	0x3c68b60e	0.0142035615
40	0xbeb43716	-0.35198277
41	0xbd85b1ce	-0.06528054
42	0xbeae6244	-0.34059346
43	0xbddf2936	-0.10896532
44	0x3ceaee05	0.02867795
45	0x3bc9abcc	0.006154513
46	0x3eb09f8f	0.34496734
47	0xbe8c8b03	-0.27449808
48	0x3e375bfe	0.17906186
49	0x3dc5ffb5	0.09667913
50	0x3e08d7af	0.13363527
51	0x3e3b62ea	0.18299451
52	0x3d1fa7cc	0.038978383
53	0xbc757e40	-0.014983714
54	0x3de4a958	0.11165112
55	0xbdc350fe	-0.095369324
56	0x3dedc586	0.1160994
57	0x3cd3b71b	0.025844147
58	0x3d9050bd	0.070466496
59	0x3e07df1a	0.132687
60	0xbc36a70d	-0.011148226
61	0x3d577ab6	0.05260726
62	0x3dfb02fe	0.1225643
63	0xbd196d3b	-0.037457686
64	0x3de04f26	0.10952596
65	0xbe5ecabe	-0.21757028
66	0xbe574668	-0.21022952
67	0xbe7a8e39	-0.24468316
68	0x3dfe2a13	0.12410369
69	0x3c762bf9	0.015025132
70	0x3dc63c90	0.0967952
71	0x3dd69f4a	0.10479601
72	0x3d99ecfa	0.07515903
73	0x3d32dd1c	0.043667898
74	0xbdd7d260	-0.10538173
75	0x3e1ed60e	0.15511343
76	0xbdbe71b7	-0.09299033
77	0xbe232c90	-0.15934968
78	0x3c6716dc	0.014104571
79	0x3e0f64f7	0.14003359
80	0xbd8861c8	-0.06659275
81	0xbe7729dc	-0.24137062
82	0xbd90150e	-0.07035266
83	0x3e038195	0.128424
84	0x3d1aafa6	0.037765168
85	0x3c5fa912	0.013651149
86	0x3d23ec34	0.040020183
87	0xbe7e16d2	-0.24813393
88	0xbce30979	-0.027714478
89	0xbe3407d8	-0.17581117
90	0x3d48b431	0.04899997
91	0xbd55a6ee	-0.05216115
92	0xbe0888a9	-0.13333382
93	0xbd86d255	-0.065830864
94	0x3d7822a0	0.060579896
95	0x3e834a39	0.25642565
96	0x3e1dbc00	0.15403748
97	0xbe529796	-0.20565638
98	0xbda63e60	-0.08117366
99	0x3e95c15b	0.2924908
100	0xbd8291bc	-0.06375453
101	0x3dd3082f	0.10304295
102	0xbe5ab89d	-0.21359487
103	0xbe8d37cc	-0.27581632
104	0x3de82735	0.11335603
105	0x3dc84ca8	0.09780246
106	0xbdbe255d	-0.0928447
107	0xbe37d037	-0.17950521
108	0xbdd1d11a	-0.10244961
109	0xbdde958b	-0.10868367
110	0xbd68d7ec	-0.056846544
111	0xbe5627a7	-0.20913564
112	0x3d14aa60	0.036295295
113	0x3e5474d1	0.20747687
114	0x3d3c20cd	0.04592972
115	0xbdba6380	-0.09101009
116	0xbd973727	-0.07383566
117	0xbef82666	-0.48466796
118	0x3df60aad	0.12013755
119	0x3e544730	0.20730281
120	0x3e8ae431	0.2712722
121	0x3e6b7f17	0.229977
122	0xbe42395d	-0.18967195
123	0xbd7a3444	-0.061085
124	0x3d820afe	0.06349753
125	0xbe947972	-0.28998905
126	0x3c6fd063	0.014637086
127	0x3d1fce89	0.039015327
128	0x3d1230d4	0.035691097
129	0x3c327ab3	0.010893512
130	0x3e080c10	0.13285851
131	0xbdbf0008	-0.09326178
132	0x3d5e3280	0.05424738
133	0xbe2f8972	-0.17142275
134	0xbd81acd9	-0.06331796
135	0xbe1773e7	-0.14790307
136	0x3dd967e7	0.10615521
137	0x3e204e73	0.15654926
138	0x3bf2ed74	0.0074135605
139	0xbe0473be	-0.12934777
140	0xbd9e838a	-0.07739933
141	0x3cfd55d0	0.030924708
142	0x3d88370e	0.06651126
143	0x3e9622e4	0.29323494
144	0xbe6b448a	-0.22975364
145	0x3e5dda34	0.21665269
146	0xbd564332	-0.052310176
147	0x3a869ab8	0.0010269498
148	0x3de89db7	0.11358207
149	0xbdcd50af	-0.10025155
150	0x3d284e5c	0.041090354
151	0xbc9c5b5f	-0.019086538
152	0x3d12fffd	0.03588866
153	0xbdd873c4	-0.105689555
154	0x3e49405a	0.19653454
155	0xbe34bfe0	-0.1765132
156	0x3e4f8139	0.20264138
157	0x3df6b712	0.12046637
158	0x3e0e4d21	0.1389661
159	0xbd483137	-0.04887506
160	0x3d2d9a21	0.042383317
161	0xbe43dd97	-0.19127499
162	0x3e02ad98	0.12761533
163	0x3d9b95de	0.07596944
164	0x3dbc7cd9	0.092035
165	0x3d2e8da7	0.04261556
166	0x3e117166	0.14203414
167	0x3d3e5610	0.046468794
168	0xbe4609af	-0.19339631
169	0x3e850f32	0.25988156
170	0x3e1eff3b	0.1552705
171	0xbd39bed6	-0.04534801
172	0x3d05ce54	0.032667473
173	0xbf0d69e3	-0.55239695
174	0x3d5a7efb	0.053343754
175	0xbe029604	-0.12752539
176	0xbe1b6c2a	-0.1517798
177	0xbe757556	-0.23970541
178	0xbdac1cd6	-0.084039375
179	0xbc205409	-0.009785661
180	0xbb86e442	-0.004116566
181	0x3d8348a7	0.06410342
182	0xbe1d3976	-0.15353951
183	0xbe3230bb	-0.17401402
184	0xbd93c733	-0.072157286
185	0x3d9c7d7e	0.07641123
186	0x3c6041d8	0.013687573
187	0xbcd0b48b	-0.025476715
188	0x3dd1ac40	0.10237932
189	0xbd84b190	-0.0647918
190	0xbe4849d2	-0.1955941
191	0x3ec7b8f0	0.39008284
192	0x3d0dbf7a	0.034606434
193	0x3dc33092	0.095307484
194	0xbe961202	-0.29310614
195	0xbd44feac	-0.048094437
196	0x3dedf150	0.11618292
197	0xbe3d67c6	-0.18496618
198	0x3e049e0b	0.12950914
199	0xbd022a87	-0.03177884
200	0xbcc92507	-0.024553789
201	0x3cfdf455	0.031000296
202	0xbd29a56f	-0.041417535
203	0xbd5c16ab	-0.053732555
204	0x3e75f903	0.24020772
205	0x3e0eb3fa	0.13935843
206	0xbe1ea227	-0.15491544
207	0xbdc11a9e	-0.09428905
208	0x3e9cb650	0.30607843
209	0x3e2138ee	0.15744373
210	0xbc8122c4	-0.015763648
211	0xbdb708e2	-0.08937241
212	0x3dccf37a	0.10007377
213	0xbc48caee	-0.012255413
214	0x3be0c28a	0.0068591284
215	0x3e008da5	0.12554033
216	0x3c4e59d4	0.012594659
217	0x3dd5b925	0.10435704
218	0xbdbfd9da	-0.09367724
219	0x3c518e73	0.01279031
220	0xbe69e2b5	-0.22840388
221	0xbb71df91	-0.0036906938
222	0xbec86136	-0.39136666
223	0xbbe4274b	-0.006962692
224	0xbe2e5d8d	-0.17027874
225	0x3e00af57	0.12566887
226	0x3c0d17cd	0.008611632
227	0xbee55ee9	-0.44798973
228	0xbd313ca7	-0.043270733
229	0xbb675abf	-0.0035301892
230	0xbdecdd57	-0.11565655
231	0x3c5b7c52	0.0133963395
232	0xbe29775c	-0.16549438
233	0x3e833ab6	0.2563073
234	0x3e40100b	0.1875612
235	0x3dc86fff	0.097869866
236	0x3e6aed85	0.22942169
237	0x3e358c34	0.17729264
238	0x3e0df0af	0.13861345
239	0x3e54c16d	0.20776911
240	0x3e2cda59	0.16880168
241	0xbd44520c	-0.04792981
242	0xbbac6d0a	-0.005262022
243	0x3dd2bbe6	0.10289745
244	0x3e68d647	0.2273799
245	0xbe1c38ff	-0.15256117
246	0x3e3de7a9	0.18545403
247	0xbe0bb23b	-0.13642208
248	0xbb3878b3	-0.0028148114
249	0x3d16c55b	0.036809307
250	0xbe4b8d9d	-0.1987824
251	0x3d33a4ed	0.043858457
252	0xbd43fc74	-0.04784818
253	0xbe2d5b75	-0.1692942
254	0x3d0d6204	0.034517303
255	0xbdc8119b	-0.09768983

lin2.bias f4 [200]
0	0x3e04c7dd	0.12966867
1	0x3c8159a0	0.015789807
2	0xbeb8582a	-0.36004764
3	0xbeed5c9e	-0.46359724
4	0xbe0da5d0	-0.13832784
5	0xbe2da0f1	-0.16955926
6	0x3dbeda83	0.093190216
7	0xbe59a7f2	-0.21255472
8	0x3e000916	0.12503466
9	0x3df446f3	0.11927595
10	0xbe5550a0	-0.20831537
11	0xbd14ee99	-0.036360357
12	0xbd0aa47e	-0.03384828
13	0xbc7bef49	-0.015376874
14	0x3e725712	0.23666027
15	0xbe87ef01	-0.26549533
16	0xbcde6478	-0.027147517
17	0xbd3a1bc6	-0.045436643
18	0x3e506b37	0.20353399
19	0xbe3de721	-0.185452
20	0x3e08b3ce	0.1334984
21	0x3e1bf3d3	0.1522973
22	0xbd2c1f7a	-0.042022206
23	0x3e2124cc	0.15736693
24	0x3dcf1bdd	0.101127364
25	0xbe01b975	-0.12668402
26	0x3b89db4b	0.00420705
27	0x3d7db036	0.061935626
28	0xbd1eda22	-0.038782246
29	0x3e61c215	0.22046693
30	0x3ef90e67	0.486438
31	0xbece9071	-0.40344575
32	0x3dc209bb	0.09474512
33	0x3d9a4551	0.07532752
34	0x3cad9b25	0.021192143
35	0x3e4acba6	0.19804248
36	0xbe2695df	-0.16268109
37	0xbe1a5852	-0.15072754
38	0xbe8b4cc6	-0.2720701
39	0x3e4c1994	0.19931632
40	0xbe804b0b	-0.25057253
41	0xbe86d598	-0.26334834
42	0xbdcc1759	-0.09965391
43	0x3e0f38f1	0.13986565
44	0xbcbf2c2d	-0.023336494
45	0x3e4e4563	0.20143656
46	0xbdb77401	-0.08957673
47	0xbca268b6	-0.01982532
48	0xbe55bd26	-0.20872936
49	0x3e48cb0a	0.19608703
50	0x3e3dcc0a	0.18534866
51	0xbc9d002e	-0.019165125
52	0xbd1430f3	-0.036179494
53	0xbe92c8a7	-0.2866871
54	0xbcb384d0	-0.021913916
55	0xbce8437a	-0.028352488
56	0x3d0fb59e	0.035085313
57	0xbeb664c5	-0.35623756
58	0xbe851757	-0.2599437
59	0x3e3ad783	0.18246274
60	0x3ca34fbe	0.019935485
61	0x3db3ad21	0.08773256
62	0xbe9c1be0	-0.30490017
63	0xbdc0317d	-0.09384439
64	0x3e060ca4	0.1309076
65	0xbc94a9f3	-0.018147444
66	0xbe7e306c	-0.24823159
67	0xbd1937d1	-0.037406746
68	0x3ec7f341	0.39052776
69	0xbd076211	-0.033052508
70	0x3dfd17d8	0.123580635
71	0xbd509ccf	-0.050930794
72	0x3eb21b75	0.34786573
73	0xbe69e599	-0.22841491
74	0xbe500aa1	-0.20316555
75	0x3dfdd7da	0.12394686
76	0xbe130b62	-0.14359811
77	0x3dde51f1	0.10855473
78	0x3d58b1f0	0.05290407
79	0xbc85d806	-0.01633836
80	0xbe18c596	-0.14919123
81	0xbe229e38	-0.15880668
82	0x3d2c5a06	0.04207804
83	0xbcf0f8d4	-0.029415525
84	0x3dc056b1	0.09391535
85	0xbe6db6f6	-0.23214325
86	0x3dc31184	0.09524825
87	0x3d805d22	0.06267764
88	0x3e9a322e	0.3011641
89	0xbc077b6d	-0.008269173
90	0x3dcb59e7	0.09929257
91	0xbe2f199d	-0.17099614
92	0x3e655e67	0.22399293
93	0x3e270667	0.16311036
94	0x3e2eb9aa	0.17063013
95	0xbe309820	-0.17245531
96	0xbc006048	-0.007835455
97	0xbdcf4cd4	-0.10122076
98	0x3d8d2ac4	0.068929225
99	0xbd5f3a1b	-0.054498773
100	0x3e1e837d	0.15479846
101	0xbe71caa5	-0.23612459
102	0x3e88d5a1	0.26725486
103	0xbd24cb51	-0.04023296
104	0xbe612dd7	-0.21990143
105	0x3d9ec6de	0.07752775
106	0xbd088d1e	-0.033337705
107	0x3e2a421b	0.1662678
108	0xbec5efeb	-0.38659605
109	0xbe0ac021	-0.13549854
110	0xbdf1bd34	-0.11803666
111	0x3d910867	0.07081681
112	0x3d984ee9	0.07436926
113	0x3b404d0c	0.0029342799
114	0xbe5d0221	-0.21582843
115	0xbe89e04e	-0.26928943
116	0x3e63b477	0.2223681
117	0x3ddde1c4	0.10834077
118	0xbddf6655	-0.1090819
119	0x3e9e5e5b	0.30931363
120	0xbeac6d8f	-0.33677337
121	0xbef85daa	-0.4850896
122	0x3dfbf522	0.12302615
123	0xbd4aed6b	-0.049542826
124	0xbe3fa006	-0.18713388
125	0xbd18a13f	-0.03726315
126	0xbe5e2c05	-0.2169648
127	0xbde67848	-0.112534106
128	0xbe8fdcb2	-0.28098065
129	0xbc28b4f2	-0.010297047
130	0xb9730ae8	-0.00023178349
131	0xbe2e2a2c	-0.17008275
132	0x3d859d55	0.06524149
133	0xbe819aff	-0.25313565
134	0x3d9188ff	0.07106208
135	0x3dfe8a74	0.124287516
136	0xbe11206c	-0.14172524
137	0xbe719703	-0.23592763
138	0xbebc17da	-0.36736947
139	0xbd9e9757	-0.077437095
140	0xbe86aa58	-0.26301837
141	0xbd0ed794	-0.03487356
142	0xbd810851	-0.06300414
143	0x3ce4fe3a	0.027953256
144	0xbe9195e4	-0.2843467
145	0x3e60065f	0.2187743
146	0xbd66cdc4	-0.056348577
147	0x3dca0ba6	0.09865503
148	0xbdc99aec	-0.09844002
149	0x3e0f5f17	0.14001118
150	0x3dd72413	0.105049275
151	0xbea15c4e	-0.31515735
152	0x3d8de907	0.06929212
153	0x3e733116	0.23749194
154	0x3e23e93e	0.16006944
155	0xbe5ee4f5	-0.21767028
156	0x3e4b4e6c	0.19854134
157	0x3d4da96b	0.050210398
158	0xbce254f9	-0.027628409
159	0xbe11b6f9	-0.14229955
160	0xbd61423f	-0.054994818
161	0xbea289e9	-0.31745842
162	0x3dcc94f3	0.09989347
163	0xbe5a3ebf	-0.21312998
164	0x3d762865	0.060097117
165	0xbe539567	-0.20662461
166	0xbceeded8	-0.029158995
167	0xbe6c8f6e	-0.23101589
168	0xbdd913f2	-0.105995074
169	0xbdc7e906	-0.097612426
170	0x3bb26192	0.00544376
171	0x3e0f5c6e	0.14000103
172	0x3e362580	0.17787743
173	0x3e823b75	0.25435987
174	0x3dec829d	0.1154835
175	0xbe9f6121	-0.3112879
176	0xbda67ed5	-0.0812966
177	0xbd6f8f10	-0.058486044
178	0xbd9beb02	-0.076131836
179	0xbea15f65	-0.31518093
180	0x3e64ed42	0.22356132
181	0xbea6c080	-0.3256874
182	0x3d26e41a	0.04074488
183	0x3e69bab3	0.22825126
184	0x3caba2d5	0.020951668
185	0x3e45aab8	0.19303405
186	0x3e03343a	0.12812892
187	0x3e1b9bb0	0.15196109
188	0xbcbedd5c	-0.023298912
189	0xbe778ff4	-0.24176008
190	0xbe48a711	-0.19594981
191	0x3e41ec1d	0.18937726
192	0xbe033416	-0.12812838
193	0x3e4c4891	0.19949557
194	0x3c021280	0.007938981
195	0xbd5c5327	-0.053790238
196	0xbe1c8ba9	-0.15287651
197	0x3daceaa2	0.0844319
198	0xbcb73b95	-0.022367278
199	0xbdbd7137	-0.0925011

lin3.weight f4 [200, 200]
0	0x3c7950cb	0.015217016
1	0x3d270652	0.040777512
2	0x3d6d55d4	0.05794318
3	0xbe71e9a4	-0.23624283
4	0x3e680d6e	0.22661373
5	0x3e6f78cb	0.23385923
6	0xbea43e46	-0.3207876
7	0xbc774fb2	-0.015094684
8	0xbe03b588	-0.12862217
9	0xbd56d057	-0.052444782
10	0x3e999646	0.29997462
11	0x3db09cfc	0.086236924
12	0xbdc494e5	-0.09598712
13	0x3e67b98f	0.22629379
14	0xbd8db680	-0.06919575
15	0x3d944031	0.07238806
16	0xbe1572c1	-0.14594556
17	0x3cda9530	0.026682466
18	0x3d2e4f36	0.04255601
19	0x3d9b8ca7	0.07595187
20	0xbd997542	-0.07493068
21	0xbdfd3fc9	-0.12365682
22	0xbd8f6afd	-0.07002828
23	0xbea780a7	-0.3271534
24	0xbe318d34	-0.17339021
25	0x3e5c4256	0.2150968
26	0xbe1b0335	-0.15137942
27	0xbe82110d	-0.25403634
28	0x3d05c817	0.032661524
29	0x3da49417	0.080360584
30	0x3e6b0757	0.22952019
31	0xbe1d8e83	-0.15386395
32	0xbda61f3f	-0.081114285
33	0xbdbf893c	-0.09352347
34	0x3d5c4a79	0.05378196
35	0x3dd7a362	0.1052921
36	0x3e174622	0.14772847
37	0x3e55f610	0.20894647
38	0xbe5daf78	-0.21648967
39	0x3d4a4d45	0.049390096
40	0x3e13018b	0.14356057
41	0x3e5046aa	0.20339456
42	0xbec87e2c	-0.39158762
43	0xbe4a933f	-0.19782732
44	0xbe230090	-0.15918183
45	0x3de2ca38	0.110737264
46	0x3c05ad5b	0.008159007
47	0xbd976f47	-0.07394271
48	0xbd13a956	-0.036050163
49	0x3e26f4a6	0.16304263
50	0xbef47330	-0.4774413
51	0x3c8cdb01	0.017194273
52	0x3e177576	0.14790902
53	0x3eac2dab	0.33628592
54	0x3e7b77a0	0.24557352
55	0xbc5bc73c	-0.0134142
56	0x3ec65b99	0.38741758
57	0xbd89dac4	-0.06731179
58	0xbe3e923d	-0.18610473
59	0x3e554bad	0.2082965
60	0xbec090ff	-0.37610623
61	0xbe21eb6e	-0.15812466
62	0xbdee40db	-0.11633464
63	0x3e071879	0.1319293
64	0xbe5c3e74	-0.21508199
65	0x3e48d955	0.19614156
66	0xbe1437a9	-0.14474358
67	0xbe6a0325	-0.22852762
68	0xbe38cbe7	-0.18046533
69	0x3d0ee9d5	0.03489097
70	0x3d0b031a	0.033938505
71	0x3ea03460	0.3128996
72	0xba0a3f5a	-0.00052737223
73	0xbe90abc1	-0.28256038
74	0x3d432348	0.04764107
75	0x3ea4bc25	0.32174793
76	0x3db42202	0.08795549
77	0x3d86436e	0.0655583
78	0x3e5d609b	0.21618883
79	0x3e1c8ca3	0.15288024
80	0x3d5d5738	0.054038256
81	0x3d544a0c	0.05182843
82	0xbda255f5	-0.07926551
83	0xbdf8d7b8	-0.1215052
84	0xbc4d3b04	-0.012526277
85	0x3dfa036a	0.122076824
86	0xbdbbbaf5	-0.091665186
87	0xbcb8c9b9	-0.022557126
88	0x3e449d0a	0.1920053
89	0x3ddb5bcd	0.10710869
90	0xbe1e4021	-0.1545415
91	0x3e80ed6a	0.25181133
92	0x3e5a9335	0.21345218
93	0x3e15c291	0.14625002
94	0xbe800c05	-0.2500917
95	0xbea1ab59	-0.3157604
96	0xbcc8891c	-0.024479441
97	0x3d8f1ebf	0.06988286
98	0x3e86e4cc	0.26346433
99	0xbe27216c	-0.16321343
100	0x3e5a59b8	0.21323287
101	0x3edb19ac	0.42793024
102	0xbe558b08	-0.20853817
103	0x3d39ca23	0.04535879
104	0xbc080028	-0.0083008185
105	0x3ea0e288	0.3142283
106	0xbc722fde	-0.01478192
107	0x3e4926f0	0.1964376
108	0x3e194978	0.14969432
109	0x3d1f2534	0.03885384
110	0xbe375282	-0.17902568
111	0xbdaab092	-0.08334459
112	0xbe9ccdb7	-0.30625698
113	0x3be384bc	0.0069433134
114	0x3da7fe01	0.08202744
115	0x3b74d1be	0.0037356461
116	0x3e3ccae1	0.18436767
117	0xbeaf239a	-0.3420685
118	0x3da89ab1	0.0823263
119	0x3d27d054	0.04097016
120	0xbcfd0fe4	-0.030891366
121	0x3ec4e49e	0.3845567
122	0x3e5fcd13	0.21855573
123	0x3e7f27df	0.24917553
124	0x3d7fb103	0.06242467
125	0xbdd7d4f5	-0.10538665
126	0xbc5f9155	-0.01364549
127	0x3be09bcd	0.0068545104
128	0x3e334616	0.17507204
129	0xbd9f047e	-0.07764529
130	0xbddd77c5	-0.1081386
131	0x3ec78c4c	0.38974226
132	0xbd17a821	-0.037025575
133	0xbdd836ff	-0.10557365
134	0xbcf82637	-0.03029166
135	0xbe0d791d	-0.13815732
136	0xbe0a06f5	-0.13479216
137	0x3d97ce78	0.07412428
138	0xbe47515b	-0.19464628
139	0xbdc5104a	-0.096222475
140	0x3da642d1	0.08118213
141	0xbeb27e81	-0.3486214
142	0x3d4942ed	0.04913609
143	0xbebfe316	-0.3747794
144	0x3e3d9534	0.18513948
145	0xbe89fac0	-0.2694912
146	0xbd9c198f	-0.076220624
147	0xbe5d9093	-0.21637182
148	0xbe45fe2b	-0.19335239
149	0xbe4c0662	-0.1992431
150	0xbd4b4d36	-0.04963418
151	0xbcd9145e	-0.02649897
152	0xbe42cc90	-0.19023347
153	0xbcf0e3a0	-0.029405415
154	0xbc7dc410	-0.0154886395
155	0x3de08b6e	0.10964094
156	0xbe37d9af	-0.17954133
157	0xbdea36ba	-0.114362195
158	0xbe0c8d0c	-0.1372568
159	0x3ed2079b	0.41021428
160	0xbe05fdc4	-0.13085085
161	0x3e0b3f88	0.13598454
162	0x3e1bd090	0.15216279
163	0xbece6007	-0.40307638
164	0x3da72069	0.081604786
165	0xbdd76673	-0.105175875
166	0x3ef2138b	0.47280535
167	0xbe157fb9	-0.14599504
168	0x3dd33037	0.103119306
169	0x3e61cd2b	0.22050922
170	0xbdde6d10	-0.10860646
171	0xbe554b14	-0.20829421
172	0x3e15f0b0	0.14642596
173	0xbec5ce0c	-0.38633764
174	0x3e4025fc	0.1876449
175	0xbe4e3eaa	-0.20141092
176	0xbda66e5a	-0.08126517
177	0xbd246016	-0.040130697
178	0xbddaab3d	-0.10677192
179	0x3ebacf4f	0.3648629
180	0xbe078752	-0.13235214
181	0xbddd2e4f	-0.10799848
182	0xbd4c3f31	-0.04986495
183	0x3e659663	0.22420649
184	0x3e3aeca6	0.18254337
185	0xbe161daa	-0.14659753
186	0xbe4eb769	-0.20187153
187	0xbd8ca2d6	-0.06866996
188	0x3df3abdb	0.11898013
189	0xbdaaab1f	-0.0833342
190	0x3e99d9c6	0.3004896
191	0xbd542f19	-0.05180273
192	0x3e52edd5	0.20598538
193	0xbe2aac11	-0.166672
194	0x3e4ebcd5	0.20189221
195	0xbba2465c	-0.004952235
196	0xbcfec692	-0.031100545
197	0x3d36742d	0.044544388
198	0xbe86b146	-0.26307124
199	0xbd84b6c0	-0.06480169
200	0xbced4537	-0.028963668
201	0xbcc8d975	-0.024517754
202	0x3dcf5fa7	0.10125666
203	0xbe507e0c	-0.20360583
204	0x3dcb67a6	0.09931879
205	0x3d1a7470	0.0377087
206	0x3e92f661	0.28703597
207	0x3e82c365	0.255397
208	0x3e68af06	0.22723016
209	0x3bba7ae4	0.0056909192
210	0xbcae4375	-0.0212724
211	0xbeca99d7	-0.39570495
212	0x3df810b5	0.121125616
213	0xbe9273c3	-0.28603944
214	0xbe0211b4	-0.12702066
215	0xba9c48a7	-0.0011923508
216	0x3eaff039	0.34362963
217	0xbdbd732b	-0.09250482
218	0xbe07da46	-0.13266858
219	0x3ea30767	0.31841585
220	0xbe8f865f	-0.28032205
221	0x3d6f0efe	0.058363907
222	0xbe61d9bf	-0.2205572
223	0x3d1d3cc3	0.038388025
224	0x3c070797	0.008241556
225	0x3d99f3d5	0.075172104
226	0x3c236a38	0.009974055
227	0xbe36afc4	-0.17840487
228	0xbe262eb6	-0.16228756
229	0x3d357f2b	0.04431073
230	0xbcc66d6f	-0.024222104
231	0xbcd3dac2	-0.025861148
232	0xbe195f2c	-0.14977711
233	0xbe4d7f75	-0.20068152
234	0xbdb33705	-0.087507285
235	0xbca12f27	-0.019675804
236	0xbe32c2ac	-0.17457074
237	0xbe094c33	-0.13407974
238	0x3e2368ae	0.15957901
239	0xbe883d19	-0.26609114
240	0xbced72d6	-0.028985422
241	0xbdbe793e	-0.09300469
242	0x3c95c95e	0.018284496
243	0x3e795837	0.24350058
244	0xbe032bb0	-0.12809634
245	0x3df67778	0.120345056
246	0x3c0ebbf0	0.0087118
247	0x3d954cd1	0.07290042
248	0xbe28e495	-0.16493447
249	0x3caf20c2	0.021377925
250	0xbdde6ea8	-0.1086095
251	0x3e1a716c	0.1508233
252	0x3dfad285	0.12247185
253	0x3c18d586	0.009328252
254	0x3dde421d	0.10852454
255	0xbe76a48f	-0.24086212

lin3.bias f4 [200]
0	0xbe8c8395	-0.2744414
1	0x3e5efecd	0.21776886
2	0xbb88b44b	-0.004171883
3	0x3dc6dab0	0.0970968
4	0x3e8887a2	0.2666598
5	0x3e278169	0.1635796
6	0xbea9497f	-0.33063886
7	0xbe78266b	-0.24233405
8	0xbd7a2427	-0.061069634
9	0x3ea6a330	0.32546377
10	0x3d903cd5	0.07042853
11	0xbe99b730	-0.30022573
12	0xbe29efe1	-0.16595413
13	0xbd1af909	-0.037835155
14	0x3e9988f0	0.29987288
15	0xbcdd82a3	-0.027039832
16	0x3e8ab46e	0.27090782
17	0x3d9493d9	0.07254762
18	0xbe0511c0	-0.12995052
19	0x3ed9db5f	0.4255018
20	0x3e1ce7c1	0.15322782
21	0xbe0c87ee	-0.13723728
22	0xbdfdcffa	-0.12393184
23	0xbe2a68b9	-0.16641511
24	0xbe7c47ce	-0.24636766
25	0xbe2a0acd	-0.16605683
26	0x3ecee5a7	0.40409586
27	0xbdd80719	-0.10548229
28	0xbd753c25	-0.05987181
29	0xbf06f8b0	-0.52723217
30	0x3d54d19e	0.05195772
31	0x3e80a648	0.25126863
32	0x3ddeb7b2	0.10874881
33	0xbd1a457a	-0.037663914
34	0x3e295689	0.16536917
35	0x3e11bbc2	0.1423178
36	0x3d8e3d9c	0.06945345
37	0xbcbade3d	-0.02281105
38	0x3e25ce38	0.16191947
39	0x3b423269	0.0029632098
40	0xbe9258fc	-0.28583515
41	0xbe73760d	-0.23775502
42	0x3e97ac4b	0.29623637
43	0x3e15f9a9	0.14646019
44	0x3cecea17	0.028920216
45	0xbe920b04	-0.2852403
46	0x3ef026d3	0.4690462
47	0x3eb3fdd5	0.35154596
48	0xbe12c793	-0.14333944
49	0x3e819c0e	0.25314373
50	0x3d9c21d8	0.07623643
51	0x3cb5e78e	0.02220514
52	0x3dd35342	0.103186145
53	0x3d0163ef	0.031589445
54	0xbda6ba46	-0.081409976
55	0xbeb1b026	-0.34704703
56	0xbcab43a6	-0.02090628
57	0x3dd435fd	0.1036186
58	0xbda67f61	-0.08129764
59	0xbe0a449b	-0.13502733
60	0xbd1a962b	-0.037740868
61	0xbc8d8c8c	-0.017278932
62	0xbe5fd574	-0.2185877
63	0xbe700024	-0.23437554
64	0xbdff7f6f	-0.12475478
65	0x3daa6d9d	0.08321688
66	0x3ed3d4b6	0.41373223
67	0x3e4476aa	0.19185892
68	0x3dab0872	0.0835122
69	0xbec0cd60	-0.3765669
70	0xbdf185f4	-0.11793128
71	0xbe19f571	-0.15035035
72	0xbeb2b95d	-0.34907046
73	0x3e06ec98	0.13176191
74	0xbe12ab46	-0.14323148
75	0x3eab458a	0.33451492
76	0x3e9196aa	0.2843526
77	0xbe674e42	-0.22588447
78	0xbdf26992	-0.11836542
79	0x3e8ab681	0.27092364
80	0xbe39f072	-0.18158129
81	0x3e501bfb	0.20323174
82	0xbe2833ab	-0.1642596
83	0xbdc587b2	-0.096450225
84	0xbd25d295	-0.04048403
85	0xbe1f0f9b	-0.15533297
86	0xbea467fd	-0.32110587
87	0xbe239b29	-0.15977158
88	0xbe9317f4	-0.28729212
89	0xbe04d841	-0.1297312
90	0x3d8d41a5	0.06897286
91	0xbe428c3a	-0.18998805
92	0xbe449b15	-0.19199784
93	0x3ed22c5b	0.41049466
94	0xbe1922ac	-0.14954633
95	0x3ceacba2	0.028661553
96	0xbe392e0a	-0.18083969
97	0x3e8f5f1f	0.2800226
98	0xbe316324	-0.17322975
99	0x3e09fbd4	0.13474971
100	0xbebb51c4	-0.3658582
101	0x3e1c5645	0.15267284
102	0x3e4d82d8	0.20069444
103	0xbd608fe8	-0.05482474
104	0x3e3646ce	0.17800447
105	0xbe047338	-0.12934577
106	0x3d384a34	0.04499264
107	0xbe167fff	-0.14697264
108	0xbd949ed7	-0.07256859
109	0xbe4833e0	-0.19551039
110	0x3e029bdf	0.12754773
111	0xbd41f2d8	-0.047350734
112	0x3de41bfc	0.1113815
113	0x3db8be68	0.09020692
114	0xbdf8dbf3	-0.12151327
115	0x3df3cc7f	0.11904239
116	0xbe40aee1	-0.18816711
117	0xbdab69db	-0.083698
118	0xbe87271f	-0.26397035
119	0x3e825a0e	0.2545933
120	0xbd888652	-0.066662446
121	0xbe999a74	-0.3000065
122	0xbeaccaf3	-0.33748588
123	0xbce92788	-0.028461233
124	0x3d2423fa	0.040073372
125	0xbe8a95f9	-0.27067545
126	0xbe2ef402	-0.17085269
127	0x3cfe545d	0.031046087
128	0x3ed5ebd6	0.4178149
129	0x3f057c7a	0.5214306
130	0x3ebc7f75	0.36815992
131	0xbec9120c	-0.3927158
132	0x3ce9c397	0.028535647
133	0xbd21cdaa	-0.039502777
134	0x3e9a6fea	0.3016351
135	0x3e0e06b4	0.13869745
136	0x3ee9b442	0.45645338
137	0xbda8fb5c	-0.08251068
138	0xbe69c65d	-0.22829576
139	0xbe6b65bd	-0.22988029
140	0x3e398b0f	0.18119453
141	0xbd2c48cc	-0.042061612
142	0xbd8dcab7	-0.069234304
143	0x3e36c244	0.17847544
144	0xbe71352c	-0.2355544
145	0xbbc0353c	-0.005865721
146	0xbc647121	-0.013942988
147	0x3c8b0ad6	0.01697294
148	0xbe21af30	-0.15789485
149	0x3c9ff19a	0.019524384
150	0x3e541dfb	0.20714562
151	0xbe9f187a	-0.31073362
152	0x3d100694	0.035162523
153	0x3e920311	0.28517964
154	0x3d9a8d73	0.075465105
155	0xbe6a35be	-0.22872064
156	0xbeb82590	-0.35966158
157	0xbea8b7c4	-0.32952702
158	0xbda00939	-0.07814259
159	0xbcf1c4ff	-0.02951288
160	0x3e8b9b5d	0.2726697
161	0xbf028cb0	-0.5099592
162	0x3d5ed3bb	0.05440114
163	0x3e6f0903	0.23343281
164	0xbdc56a84	-0.09639457
165	0x3f062ae2	0.52409184
166	0xbd51339a	-0.0510746
167	0xbde4a817	-0.11164873
168	0x3d72a199	0.059236143
169	0xbd7d3caa	-0.061825432
170	0x3e3379e7	0.17526971
171	0x3d11d31a	0.035601713
172	0x3dbe5eea	0.09295447
173	0xbea41256	-0.3204524
174	0x3e6a99dd	0.22910257
175	0xbd6e6154	-0.058198288
176	0x3e476466	0.19471893
177	0x3c1eee98	0.00970044
178	0x3d2dc9c9	0.042428765
179	0x3ea0f08b	0.3143352
180	0xbe74a44d	-0.23890801
181	0x3e8f9b37	0.28048107
182	0xbf0d1485	-0.55109435
183	0xbea378fe	-0.31928247
184	0x3eacd615	0.33757082
185	0x3e6c00c3	0.23047166
186	0x3e54745f	0.20747517
187	0xbd9b691b	-0.07588407
188	0xbe562943	-0.20914178
189	0xbd370eb3	-0.044691753
190	0x3e619552	0.22029617
191	0xbe178dac	-0.14800137
192	0xbe085eaa	-0.13317361
193	0xbe7be755	-0.24599965
194	0xbc0c20e9	-0.008552768
195	0x3e842070	0.25805998
196	0xbd7ee78e	-0.062232547
197	0x3ecc7793	0.39934978
198	0xbc99138c	-0.018686078
199	0x3e8d0e43	0.27549943

lin4.weight f4 [62, 200]
0	0xbd327f7c	-0.04357861
1	0x3ee5f9df	0.449172
2	0xbfcf9e07	-1.6220101
3	0xbfd8efb5	-1.6948153
4	0xbeb3f702	-0.3514939
5	0x3f45bea6	0.7724403
6	0xbf9a3c15	-1.2049586
7	0x3c184b9c	0.00929537
8	0x3eb5d220	0.35511875
9	0xbf4fea51	-0.81216913
10	0xbfd8e61f	-1.6945227
11	0xbdfa8bfa	-0.1223373
12	0x3f51e227	0.81985706
13	0x3e622765	0.2208534
14	0xbfabc7a4	-1.34203
15	0x3f3ca6fd	0.73692304
16	0x3f43c564	0.7647307
17	0x3e7e6f40	0.24847126
18	0x3f09b21b	0.5378739
19	0xbfd51298	-1.6646299
20	0x3e78a31d	0.24280973
21	0xbeaf7f62	-0.34276873
22	0x3e7a5722	0.24447301
23	0xbe957eec	-0.29198396
24	0xbfb0fa1c	-1.3826327
25	0x3f5355a4	0.8255255
26	0x3e689405	0.22712715
27	0x3f6f4f89	0.93480736
28	0x3f042d95	0.5163205
29	0x3e5d7f26	0.21630535
30	0x3e3a8bda	0.18217412
31	0x3ee2d296	0.4430129
32	0xbf04871d	-0.51768667
33	0x3e8c69da	0.27424508
34	0x3f7d72e5	0.9900344
35	0x3f255b36	0.645923
36	0xbf36b7ba	-0.71374094
37	0x3fe8af8c	1.8178573
38	0x3f508bfe	0.8146361
39	0xbfacfb31	-1.3514158
40	0xbef8d827	-0.4860241
41	0x3be79bbb	0.007068125
42	0x3e4dec7e	0.20109746
43	0x3fd39474	1.6529679
44	0xbfa4e92e	-1.2883661
45	0x3e340a37	0.17582022
46	0x3f7ca2fe	0.98686206
47	0x3fa230af	1.2671107
48	0x3f918866	1.136975
49	0xbea1a812	-0.3157354
50	0xbf9404fb	-1.156402
51	0xbe678f72	-0.22613314
52	0x3f0fcad7	0.56168884
53	0xbdfadad5	-0.1224877
54	0x3f689fe8	0.90869
55	0x3f84210a	1.0322583
56	0x3eec8bff	0.4620056
57	0x3f641b9b	0.8910462
58	0x3f2790e7	0.6545548
59	0xbea050d0	-0.31311655
60	0x3f18c70c	0.5967872
61	0xbefb778e	-0.4911465
62	0xbf10e425	-0.5659812
63	0xbf0158b2	-0.50525963
64	0x3fc2905e	1.5200307
65	0xbf30a06c	-0.68994784
66	0xbc0a16bf	-0.008428275
67	0x3e3667e2	0.17813066
68	0xbfa19d79	-1.2626182
69	0x3f51072a	0.81651556
70	0xbf98723c	-1.1909862
71	0x3e925d6f	0.2858691
72	0xbc4b337a	-0.01240241
73	0x3f164fb2	0.58715355
74	0xbf2ff881	-0.6873856
75	0x3ed326a4	0.41240418
76	0x3ef61fae	0.48071045
77	0x3f2331ae	0.6374768
78	0xbed65fc5	-0.4186994
79	0x3e515698	0.20443189
80	0x3ed3fb11	0.41402486
81	0x3e199b1d	0.15000577
82	0x3d8f4b79	0.06996817
83	0x3e4a1e02	0.1973801
84	0xbfa80113	-1.3125328
85	0xbfcfa126	-1.6221054
86	0x3ff9f07c	1.9526515
87	0x3f3a58e0	0.7279186
88	0x3ed8926e	0.42299217
89	0x3f6481dd	0.89260656
90	0xbd7683c9	-0.060184274
91	0xbf3a2af6	-0.72721803
92	0x3cea7f14	0.028625049
93	0xbfec5a66	-1.8465087
94	0x3ea28a04	0.31745923
95	0xbc2d57b3	-0.010579991
96	0xbf001b3e	-0.5004157
97	0x3e40d597	0.18831478
98	0x3ec2cef1	0.3804851
99	0x3f0980c0	0.5371208
100	0xbf5975ba	-0.8494526
101	0xbfa1846f	-1.261854
102	0x3f313480	0.69220734
103	0xbef22b74	-0.47298777
104	0xbf6524ab	-0.89509076
105	0x3cb09beb	0.021558722
106	0xbf1c4aa4	-0.6105139
107	0x3da5801c	0.080810755
108	0xbf0101da	-0.5039345
109	0xbf9ef209	-1.2417613
110	0xbf108db5	-0.5646623
111	0xbf986f09	-1.1908885
112	0xbfec5f77	-1.8466634
113	0x3f66152e	0.8987607
114	0xbfcb5bd6	-1.5887401
115	0x3e255ce2	0.16148713
116	0x3f89498c	1.072557
117	0xbe843935	-0.25824896
118	0xbe1d43ac	-0.15357846
119	0x3f10372a	0.56334174
120	0x3d451000	0.048110962
121	0xbf902cf6	-1.1263721
122	0xbf363321	-0.71171767
123	0x3fcc2216	1.5947902
124	0x3f56586b	0.83728665
125	0x3b144171	0.0022622014
126	0xbf473c1c	-0.77826095
127	0x3ed2ad68	0.41147923
128	0xbf2c8624	-0.6739218
129	0xbe9893f2	-0.29800373
130	0xbf308972	-0.68959725
131	0x3d186d15	0.037213404
132	0x3fa3044e	1.2735689
133	0x3f83171b	1.0241426
134	0xbe644ae2	-0.2229419
135	0x3f87aa02	1.0598757
136	0xbf3de71b	-0.74180764
137	0xbf112430	-0.5669584
138	0x3eff0ca9	0.49814346
139	0xbe9e36c0	-0.30901146
140	0xbf32f535	-0.69905406
141	0x3f9179c6	1.1365287
142	0x3fd0bf60	1.6308403
143	0x3f8c0fab	1.0942281
144	0xbe55f281	-0.20893289
145	0xbf92a1a4	-1.1455579
146	0xbf74e72e	-0.9566525
147	0x3fc0567d	1.5026394
148	0xbf8e9caa	-1.114156
149	0xbfc977ac	-1.5739646
150	0x3fb4c8bd	1.412376
151	0xbe3f74d5	-0.18696912
152	0xbf81afdb	-1.0131792
153	0x3f97a03d	1.1845776
154	0x3ee3a4cc	0.44461668
155	0xbf19d3b4	-0.6008866
156	0x3f879530	1.0592403
157	0x3ecc3aa7	0.39888498
158	0x3e1c8357	0.15284477
159	0x3e35bcbb	0.17747776
160	0x3f4f7fbf	0.810543
161	0x3f39cede	0.7258128
162	0x3f0fe2d6	0.562055
163	0xbf9c6586	-1.2218482
164	0xbf17d25f	-0.59305376
165	0x3dbc6771	0.091994174
166	0x3fb1a622	1.3878825
167	0xbf44161a	-0.76596224
168	0x3e07b477	0.13252436
169	0xbf885dca	-1.0653622
170	0xbf000a7a	-0.50015986
171	0x3f5006b7	0.81260246
172	0xbee9e3ea	-0.45681697
173	0xbe1f82f7	-0.15577303
174	0xbfd21764	-1.6413388
175	0x3e0ee1df	0.1395335
176	0x3e004127	0.12524854
177	0x3f9b2beb	1.2122778
178	0x3ef4a4df	0.47782037
179	0xbf45ddcc	-0.7729156
180	0xbf75ad9d	-0.9596804
181	0xbf6afc05	-0.917908
182	0x3ead2422	0.3381663
183	0xbeb28bfb	-0.34872422
184	0xbf1b1cd6	-0.60590875
185	0xbf152943	-0.58266085
186	0x3d0e0d9c	0.034680948
187	0xbe962665	-0.29326168
188	0x3fa93fa5	1.3222548
189	0x3fbf6003	1.4951175
190	0xbf782560	-0.9693203
191	0x3f67cf03	0.9055025
192	0x3e60f730	0.21969295
193	0x3f7fb23d	0.99881345
194	0xbfb63c1a	-1.4237092
195	0x3ed16a13	0.4090124
196	0x3ce27893	0.027645385
197	0xbf82c331	-1.0215818
198	0x3f21b1b9	0.6316181
199	0xbf9485b7	-1.1603307
200	0xbf6377a5	-0.8885444
201	0x3f7e4adf	0.99332994
202	0xbf1e6b0b	-0.61882085
203	0xbfbc9a89	-1.473466
204	0xbf37de26	-0.71823347
205	0x3f080e46	0.5314678
206	0x3fa8bd69	1.3182803
207	0x3f05be57	0.5224356
208	0xbfb8c083	-1.443375
209	0xbff12429	-1.883916
210	0xbf347603	-0.7049257
211	0x3fb39894	1.4030938
212	0x3f074cc3	0.52851504
213	0xbf97eee6	-1.1869781
214	0xbfff289c	-1.9934268
215	0x3fd6c653	1.6779274
216	0xbf07c299	-0.5303131
217	0x3fac1d46	1.3446434
218	0xbec4af70	-0.38415098
219	0x3df7c55b	0.120981894
220	0x3f7fd7ab	0.9993846
221	0xbf851097	-1.0395688
222	0x3ea83bb2	0.32858044
223	0xbfbbd168	-1.4673281
224	0xbfe244c9	-1.7677242
225	0x3eff4041	0.4985371
226	0xbd91518b	-0.07095631
227	0x3f29abd2	0.662778
228	0x3f3233aa	0.69610083
229	0x3f35141c	0.7073381
230	0x3f356507	0.7085728
231	0xbf52c333	-0.823291
232	0x3f90d01b	1.1313509
233	0x3eceb04d	0.40368882
234	0xbea73c44	-0.32663167
235	0xbf46e9b2	-0.7770034
236	0xbf964030	-1.1738338
237	0x3faf1ca3	1.3680614
238	0x3e9bce62	0.30430895
239	0x3ed6966c	0.41911638
240	0x3f3fc18a	0.7490469
241	0xbf51283b	-0.8170201
242	0x3efbdf6b	0.49193892
243	0x3e412d40	0.18864918
244	0x3f96ebd3	1.1790718
245	0xbf57f79c	-0.84362197
246	0xbf59eb5b	-0.8512475
247	0x3fa6c5a9	1.3029071
248	0xc000bd9b	-2.0115726
249	0x3d25eeb3	0.040510844
250	0x3f85876c	1.0431952
251	0x3f9d6ad6	1.2298229
252	0x3e0edda1	0.13951732
253	0xbb928636	-0.0044715656
254	0xbed5f16a	-0.41785747
255	0x3f360d8a	0.7111441
