qn1/weights/model_weights_b10_em5.pth (torch, 417074 bytes, 9 tensors)

emb.weight f4 [62, 5]
0	0xbf4915a6	-0.7854866
1	0xbf86e763	-1.0539364
2	0xbe49c761	-0.19704963
3	0x3ed6721f	0.41883942
4	0x3f837f21	1.0273172
5	0xbf8d7b45	-1.1053244
6	0x3e67d5a2	0.22640088
7	0xbfadba14	-1.3572412
8	0xbdf80d30	-0.1211189
9	0xbf4fb7f2	-0.81140053
10	0xbe89fca2	-0.26950556
11	0xbf3231ff	-0.6960754
12	0xbef56cfa	-0.47934705
13	0x3fa6d133	1.3032593
14	0xbe9c0bcb	-0.30477747
15	0x3e34f2f2	0.17670801
16	0xbf8ff28b	-1.1245893
17	0xbde39255	-0.11111895
18	0x3f8366bc	1.0265727
19	0xbe0eda26	-0.13950405
20	0x3e41d307	0.18928157
21	0x3d168a0f	0.036752757
22	0xbeb3daf0	-0.35127974
23	0x3e925def	0.2858729
24	0xbf5e5148	-0.86842775
25	0x3f27087c	0.6524732
26	0x3e5f71d5	0.21820767
27	0x3f3904e7	0.72273105
28	0x3f081d4d	0.5316971
29	0xbf5ec188	-0.87014055
30	0x3f80d852	1.0066016
31	0x3e747228	0.23871672
32	0xbf386169	-0.72023636
33	0x3fc75fce	1.5576112
34	0x3f813022	1.0092814
35	0xbf0f6bbc	-0.56023765
36	0xbf3a8b3d	-0.7286871
37	0xbd87eaee	-0.06636606
38	0x3ef17a2a	0.47163516
39	0xbf364c0c	-0.7120979
40	0xbe8a1e6a	-0.2697633
41	0xbef32cc4	-0.4749509
42	0xbf912b64	-1.1341367
43	0x3f2d8fd4	0.6779759
44	0xbec2bef6	-0.38036317
45	0xbf3da3aa	-0.74077857
46	0xbe2c5f55	-0.16833241
47	0x3eca0ee9	0.394645
48	0x3fd1f1cf	1.6401919
49	0xbdc64e24	-0.09682873
50	0x3f5b1b8c	0.8558891
51	0xbfa6996f	-1.3015574
52	0xbf53c7b9	-0.8272663
53	0x3eddd5c3	0.4332715
54	0xbeb2a383	-0.34890375
55	0x3e6954ac	0.22786206
56	0x3fa459e3	1.2839931
57	0xbdce2571	-0.10065735
58	0x3e121845	0.1426707
59	0xbf09cddb	-0.53829736
60	0xbf0e2ead	-0.5553997
61	0xbd02bc66	-0.031917952
62	0x3d9ab9a4	0.075549394
63	0x3f8be615	1.092959
64	0x3f51fb53	0.82024115
65	0x3f6b5e31	0.919406
66	0xbf8872c6	-1.0660026
67	0xbe8a9e62	-0.27073961
68	0x3f1ccab9	0.6124683
69	0xbe04f5ec	-0.12984437
70	0x3f1aa1d1	0.6040316
71	0xbf663e75	-0.8993905
72	0xbf940df1	-1.1566755
73	0x3eb48d29	0.35263947
74	0xbeb83352	-0.35976654
75	0x3f40bc0d	0.7528694
76	0xbe9e038b	-0.30862078
77	0x3d53213b	0.051545363
78	0x3f86da84	1.0535436
79	0xbe2083e9	-0.1567532
80	0x3f5d389f	0.8641452
81	0xbf1a09b7	-0.60171074
82	0xbf0d74cc	-0.5525634
83	0x3f37b0b7	0.7175402
84	0x3d0d5744	0.03450705
85	0xbd879b26	-0.06621389
86	0x3fbe761d	1.4879795
87	0x3e89ff20	0.26952457
88	0x3fa2f84c	1.2732024
89	0x3eadbbad	0.33932248
90	0x3f9c74be	1.2223127
91	0xbfba9922	-1.4577982
92	0xbf4c1365	-0.79717094
93	0x3f8975f0	1.0739117
94	0xbf9c62bd	-1.2217633
95	0x3f63c708	0.8897557
96	0xbda5311f	-0.0806601
97	0xbd961865	-0.07328872
98	0x3d0bb6b6	0.034109794
99	0xbf4e06c9	-0.80479103
100	0x3e37b51a	0.17940179
101	0xbf9ac6ae	-1.2091882
102	0xbeaa0d06	-0.3321306
103	0xbe2f4830	-0.17117381
104	0x3e054ba9	0.13017143
105	0x3f4db82f	0.80359167
106	0xbe1863f3	-0.14881878
107	0xbf061109	-0.52369744
108	0x3ee8c31e	0.45461363
109	0xbe147563	-0.14497904
110	0xbda94bb8	-0.08266395
111	0x3e26af8f	0.16277908
112	0xbdaad433	-0.08341255
113	0x3f23873f	0.63878244
114	0x3f8be096	1.0927913
115	0xbe275ee9	-0.16344799
116	0xbf864d40	-1.0492325
117	0xbf4d6dac	-0.8024547
118	0x3f178456	0.59186304
119	0xbe768117	-0.24072681
120	0x3fae70fd	1.3628231
121	0x3f3587ed	0.7091053
122	0x3f499203	0.7873842
123	0x3f9fe374	1.2491288
124	0xbecbf2bc	-0.3983363
125	0x3e8635e0	0.26212978
126	0xbf1a42d0	-0.602582
127	0xbe54b754	-0.20773059
128	0x3ef5b054	0.4798609
129	0xbe4bd0b9	-0.1990384
130	0x3f64933c	0.8928716
131	0x3eb23eb1	0.34813455
132	0x3f1aa832	0.60412896
133	0x3ecd9e85	0.40160003
134	0xbfc19909	-1.5124828
135	0xbfa6e2fc	-1.303802
136	0xbeb9be01	-0.36277774
137	0x3f18b894	0.59656644
138	0x3e64acee	0.22331592
139	0xbdf349da	-0.118793204
140	0xbf5ccd0d	-0.8625038
141	0xbee02a95	-0.43782488
142	0xbcfe6e19	-0.031058358
143	0xbf179df2	-0.5922538
144	0x3ee85ed9	0.45384863
145	0x3f6e0479	0.92975575
146	0x3fcbe80d	1.5930191
147	0xbf5d0ef4	-0.8635094
148	0x3ed508a9	0.4160817
149	0x3ea7858e	0.32719082
150	0xbf1b80e1	-0.6074353
151	0x3f149e84	0.58054376
152	0xbf20dcc4	-0.6283686
153	0x3f1a355e	0.6023768
154	0x3fbc6462	1.4718134
155	0xbe4e0ae3	-0.2012134
156	0x3f5e17c1	0.86754996
157	0xbead3644	-0.33830464
158	0x3f09b267	0.53787845
159	0x3eca9c9c	0.39572608
160	0x3d94d07e	0.07266329
161	0x3f80dca7	1.0067338
162	0xbe9beabd	-0.3045253
163	0x3e3c4dbe	0.18389031
164	0x3fda69db	1.7063555
165	0x3f804bbd	1.0023113
166	0x3f0240ac	0.5087993
167	0xbed22bca	-0.41049033
168	0x3e01bc1b	0.12669413
169	0xbe85b209	-0.26112393
170	0x3f5984e3	0.84968394
171	0xbf050fc2	-0.5197717
172	0xbd4e0f11	-0.050307337
173	0x3f6034f7	0.8758082
174	0xbfa849f8	-1.3147573
175	0xbe9e3bed	-0.30905095
176	0x3e153924	0.14572579
177	0xbf638dea	-0.8888842
178	0x3ebe83bf	0.3720989
179	0x3fd07478	1.6285543
180	0xbf1e6de6	-0.6188644
181	0x3f4c032f	0.7969236
182	0xbe6c85b4	-0.23097879
183	0xbd26df4c	-0.040740296
184	0x3f581d59	0.8441978
185	0x3f964b1c	1.1741672
186	0x3eb8fc10	0.36129808
187	0x3ddf7714	0.10911384
188	0x3f6303b7	0.88677543
189	0x3ecb1241	0.39662364
190	0xbf2a85d4	-0.66610456
191	0xbf40ca42	-0.7530862
192	0x3fcc8e15	1.598086
193	0xbf5f091e	-0.87123287
194	0xbf81ddcb	-1.0145811
195	0x3f9f14b9	1.2428199
196	0x3f53b47d	0.8269728
197	0x3e9d2134	0.30689394
198	0xbf1b06b2	-0.6055709
199	0x3e8e6514	0.2781149
200	0x3f33f58b	0.70296544
201	0xbf314cec	-0.69258
202	0xbe41af59	-0.18914546
203	0xbf21b0ad	-0.6316021
204	0x3e48d43f	0.19612215
205	0xbcb5a6b3	-0.022174215
206	0x3db4440a	0.0880204
207	0xbed3bfb0	-0.41357183
208	0x3eb52820	0.35382175
209	0x3b8ff90a	0.0043937014
210	0x3dcd29fd	0.10017774
211	0xbed260cf	-0.41089484
212	0x3efc8d3b	0.493265
213	0xbe85a2f2	-0.2610088
214	0x3f3f3627	0.74692005
215	0xbdb55ad3	-0.08855214
216	0x3edc5765	0.43035427
217	0x3fb8dcb7	1.4442357
218	0xbeabf544	-0.3358556
219	0x3f439f9b	0.76415414
220	0x3f5d1e3e	0.8637427
221	0xbf567e53	-0.83786505
222	0x3fac7dd8	1.3475904
223	0x3deda176	0.11603062
224	0xbf2400d2	-0.6406375
225	0x3f6b5408	0.91925097
226	0xbf3d80bb	-0.7402455
227	0xbf94e447	-1.1632165
228	0xbc3d921f	-0.0115704825
229	0x3f71c5c9	0.9444242
230	0xbe3fe37b	-0.1873912
231	0x3ed40898	0.41412807
232	0x3c8ffa0a	0.017575283
233	0x3dbbd2b8	0.09171051
234	0x3fe7d4d9	1.8111831
235	0x3f3df32a	0.74199164
236	0x3f17d532	0.59309685
237	0xbf6f0137	-0.9336123
238	0xbe814c89	-0.25253704
239	0x3f9655b9	1.174491
240	0xbf03e462	-0.5152036
241	0x3fb29f41	1.395485
242	0x3f1b2168	0.6059785
243	0xbdcec7a5	-0.10096673
244	0x3d8651ab	0.06558546
245	0x3f8d62cd	1.1045777
246	0x3cd27b66	0.025693607
247	0xbe82e735	-0.25567022
248	0xbf47630b	-0.778855
249	0xbea940b9	-0.33057192
250	0x3c39bc62	0.011336418
251	0xbf942826	-1.1574752
252	0x3f1404e1	0.57819945
253	0xbf975979	-1.182418
254	0x3f2a0305	0.6641086
255	0x3df7b81d	0.12095664

lin1.weight f4 [200, 50]
0	0xbe3fa821	-0.1871648
1	0x3c7e9941	0.015539468
2	0x3e5d9fcc	0.21642989
3	0x3e0275d2	0.12740257
4	0x3cdd8a48	0.027043477
5	0x3dfc4540	0.12317896
6	0xbc9c5331	-0.019082638
7	0x3df734ee	0.120706424
8	0xbdd92db3	-0.106044196
9	0x3e4420c6	0.19153127
10	0x3d17d6bb	0.037070017
11	0x3e10416f	0.14087461
12	0x3ebd534c	0.36977613
13	0xbdb6d42f	-0.089271896
14	0xbe3f904d	-0.1870739
15	0x3e1029c9	0.1407844
16	0xbe109d65	-0.14122541
17	0x3bbdb222	0.0057890574
18	0xbd1543ab	-0.036441486
19	0x3dddaad9	0.10823602
20	0x3dcf6c62	0.10128094
21	0xbe1cf8b2	-0.15329245
22	0xbdb7be93	-0.08971896
23	0xbe1da417	-0.15394627
24	0x3e716285	0.23572738
25	0x3e7e20ac	0.24817151
26	0x3cc728b1	0.024311395
27	0x3e16ac92	0.14714268
28	0x3ca8179b	0.020519068
29	0x3c86538c	0.01639726
30	0xbe179ea9	-0.14806618
31	0x3bb19631	0.0054195155
32	0x3e8f77cf	0.28021094
33	0x3ec3e32d	0.3825926
34	0xbf03c915	-0.514787
35	0x3eb0e7f5	0.3455197
36	0xbe5c408c	-0.21508998
37	0xbe696d2a	-0.22795549
38	0xbe3d0893	-0.18460302
39	0x3eae51f5	0.34046903
40	0x3d071de9	0.03298751
41	0xbe7b1425	-0.24519403
42	0x3dacd78e	0.08439551
43	0x3e37cf55	0.17950185
44	0xbe5169e5	-0.20450552
45	0xbe4fece6	-0.20305213
46	0x3f161128	0.5861993
47	0x3ea677f3	0.3251339
48	0xbea372ba	-0.31923467
49	0xbdfa14f2	-0.12211026
50	0xbc6473f6	-0.013943663
51	0x3e0fb269	0.14032902
52	0x3c0482cc	0.008087825
53	0xbdc19233	-0.094517134
54	0x3d16ea51	0.036844555
55	0x3eb3cfdb	0.3511952
56	0x3d028eba	0.031874396
57	0x3b64b6c6	0.003489898
58	0x3ededa14	0.43525755
59	0x3d8c2899	0.06843681
60	0xbdf83a5f	-0.121205084
61	0xbd36f276	-0.044664823
62	0x3df76a4c	0.120808214
63	0x3e644392	0.22291401
64	0x3e315acf	0.17319797
65	0xbd4ea733	-0.050452422
66	0xbe98cb66	-0.2984268
67	0x3e2fd7d2	0.17172173
68	0x3c917275	0.017754773
69	0x3e162bfc	0.14665216
70	0x3c8d8ae2	0.017278139
71	0xbe873992	-0.2641111
72	0xbdafd848	-0.08586174
73	0xbd59f5e0	-0.053213
74	0x3ebc3246	0.36757106
75	0xbcfb95aa	-0.030711014
76	0x3e38b344	0.18037134
77	0x3e28abc8	0.1647178
78	0xbe4b0676	-0.19826683
79	0x3c454f0f	0.012042775
80	0x3e9a40ca	0.30127555
81	0x3e16d849	0.14730944
82	0x3d9efc76	0.07762997
83	0xbe1c9e50	-0.15294766
84	0x3e94782c	0.28997934
85	0xbcb885d8	-0.02252476
86	0x3e9414e6	0.28922194
87	0x3e8af1ae	0.27137512
88	0x3db653a9	0.08902676
89	0x3e16c293	0.14722662
90	0x3f0a7f57	0.54100555
91	0x3e881efd	0.26586142
92	0xbe409996	-0.18808588
93	0x3d9ba161	0.0759914
94	0x3e03fb6d	0.1288888
95	0x3f0be455	0.5464528
96	0xbd1c9ac6	-0.03823354
97	0x3f0cc302	0.5498506
98	0x3eb6a20a	0.356705
99	0x3e99ce72	0.30040318
100	0x3df425b6	0.11921255
101	0x3db9c57f	0.090708725
102	0xbe1dd5f4	-0.15413648
103	0x3e254ef9	0.16143407
104	0x3e23d7af	0.16000246
105	0x3dcd7423	0.10031917
106	0x3d3eab5d	0.046550144
107	0xbd97a549	-0.074045725
108	0x3d71b1b6	0.05900737
109	0x3eb68cc2	0.35654265
110	0xbd3e9b9f	-0.04653513
111	0x3c6221be	0.01380199
112	0x3ebb38be	0.36566728
113	0xbdeb7bcd	-0.114982225
114	0x3e3d48f1	0.18484856
115	0xbd94a6ef	-0.072584026
116	0xbdea27e4	-0.1143339
117	0xbc66b789	-0.014081844
118	0x3e23a72f	0.15981744
119	0xbcbeb6a5	-0.023280451
120	0xbe241526	-0.16023692
121	0xbe22cf4c	-0.1589939
122	0x3b8346fe	0.0040062657
123	0x3e3e54dd	0.1858706
124	0xbe2e068e	-0.16994688
125	0xbdc26f61	-0.094939
126	0xbd07eda6	-0.033185624
127	0xbdc928ea	-0.09822257
128	0xbda7716c	-0.081759304
129	0xbe73d5f7	-0.2381209
130	0x3e98cbbc	0.29842937
131	0xbeb347c3	-0.35015687
132	0x3e430941	0.19046499
133	0x3d885b4c	0.066580385
134	0x3e37b3ad	0.17939635
135	0x3de2aeef	0.11068522
136	0x3e91bf52	0.28466278
137	0x3e8e6acf	0.27815863
138	0x3d62a17f	0.055329796
139	0xbe0d4867	-0.1379715
140	0x3ed26ab8	0.41097045
141	0xbef98b35	-0.4873902
142	0xbe8ff31f	-0.28115174
143	0x3ea1c712	0.3159719
144	0xbebc62fb	-0.36794266
145	0xbed97c59	-0.42477682
146	0xbed9e42a	-0.42556888
147	0xbeacf857	-0.33783218
148	0x3c802d84	0.015646704
149	0xbce83dcb	-0.028349778
150	0x3e6c8984	0.23099333
151	0x3dc13b89	0.094351836
152	0xbde6c29c	-0.112675875
153	0x3e8cf53f	0.27530858
154	0xbdb1e646	-0.08686499
155	0x3daa2f6b	0.083098255
156	0x3dbe37b4	0.09287968
157	0x3e18ff06	0.14941034
158	0x3cff2100	0.031143665
159	0x3dd0b5ea	0.10190947
160	0xbe0ccf48	-0.13750947
161	0xbd59ba6c	-0.0531563
162	0x3d09d0bb	0.033646327
163	0x3cba1ca9	0.022718744
164	0x3d65297d	0.05594777
165	0x3d4e71e2	0.050401576
166	0x3df357f9	0.11882014
167	0x3e16dd82	0.14732936
168	0x3dcca1bc	0.09991786
169	0xbe2b9e9b	-0.16759722
170	0x3e8bbedb	0.2729405
171	0xbec62601	-0.3870087
172	0xbd2c37ee	-0.042045526
173	0x3e13352a	0.14375749
174	0xbe721cf1	-0.23643853
175	0xbe9214af	-0.28531405
176	0x3cf7abae	0.03023323
177	0xbe83afa1	-0.25719932
178	0xbef3f61c	-0.47648704
179	0xbe322546	-0.17397031
180	0x3deda2c2	0.11603309
181	0xbeca5077	-0.39514515
182	0xbdf99577	-0.12186711
183	0xbde0e5b5	-0.10981313
184	0xbdc6dae4	-0.09709719
185	0x3c980682	0.01855779
186	0x3d9dab13	0.076986454
187	0xbd122186	-0.0356765
188	0x3caaea9f	0.02086383
189	0xbe0a869b	-0.1352791
190	0xbe0fe191	-0.1405089
191	0xbe6dd57e	-0.23225972
192	0x3e3aa748	0.18227875
193	0x3d8acf6d	0.067778446
194	0xbe507e96	-0.20360789
195	0x3efe246e	0.4963717
196	0x3eb0fab5	0.34566274
197	0xbebbbd35	-0.3666779
198	0xbc6539f3	-0.013990867
199	0xbf05269f	-0.52012056
200	0x3e042875	0.12906058
201	0x3b24a482	0.0025122468
202	0x3d7f54c8	0.062336713
203	0xbdd48e1a	-0.10378666
204	0x3dd23f09	0.10265929
205	0x3dfc0a37	0.12306636
206	0xbdc98328	-0.09839469
207	0xbe9c60e8	-0.30542684
208	0xbe7fd1d0	-0.24982381
209	0xbe15af68	-0.14617693
210	0xbbd1c24c	-0.006401336
211	0xbe6c75ef	-0.23091863
212	0x3dd7a68e	0.10529815
213	0x3c98b01b	0.018638661
214	0x3e01a776	0.12661538
215	0x3d9f8984	0.07789901
216	0xbeafe6b7	-0.3435571
217	0x3e02a3f1	0.12757851
218	0x3e839d88	0.25706124
219	0xbdde4b54	-0.108542114
220	0xbe98cc9f	-0.29843614
221	0x3ddec6be	0.10877751
222	0x3db4f4e9	0.088357754
223	0x3e94be29	0.2905133
224	0x3cc3fbf2	0.023923848
225	0xbef91c97	-0.48654625
226	0x3ef0cc83	0.4703103
227	0x3e441629	0.19149078
228	0xbe90eee1	-0.2830725
229	0xbe342a61	-0.17594291
230	0xbedd6589	-0.43241528
231	0x3d2c7bed	0.042110372
232	0xbf177686	-0.5916523
233	0xbe7ac210	-0.24488091
234	0xbf1eec10	-0.6207895
235	0xbebbfbde	-0.36715597
236	0x3db9e5b9	0.09077019
237	0xbdcd0666	-0.10010986
238	0xbe9fab72	-0.3118549
239	0x3e132019	0.14367713
240	0xbed0927e	-0.40736765
241	0xbc8cfee2	-0.017211381
242	0xbccb3a95	-0.024808208
243	0x3e35b0b3	0.17743187
244	0x3d3b3127	0.045701172
245	0xbdc959e3	-0.09831598
246	0xbeb4643d	-0.35232726
247	0x3e943008	0.28942895
248	0xbdf78f2b	-0.12087854
249	0xbecdecc1	-0.4021969
250	0x3c678977	0.014131895
251	0xbd0e9d5c	-0.03481804
252	0xbe96b5b1	-0.29435495
253	0x3e330122	0.17480901
254	0x3c3cc2b2	0.011521028
255	0x3bf596cb	0.0074947826

lin1.bias f4 [200]
0	0xbd082973	-0.033242654
1	0xbe74954b	-0.23885076
2	0x3d1f2da7	0.038861897
3	0x3dec4d90	0.115382314
4	0x3e80f826	0.25189322
5	0x3de1c6eb	0.11024269
6	0xbe82eaa2	-0.25569636
7	0xbc6de55d	-0.0145200165
8	0x3e8a149f	0.26968858
9	0x3ea1d8e4	0.31610787
10	0xbdb96bb2	-0.090537444
11	0xbf389bfc	-0.72113013
12	0xbeed3346	-0.4632818
13	0x3ebef596	0.37296742
14	0xbec88bd7	-0.3916919
15	0xbea7778f	-0.32708403
16	0x3ec080f2	0.37598377
17	0x3cf5a0b4	0.029983856
18	0x3d681ea5	0.05666985
19	0xbe321874	-0.1739214
20	0x3d757b8d	0.05993228
21	0x3e981ab5	0.29707876
22	0x3e1e533b	0.15461437
23	0xbe6fd477	-0.23420893
24	0xbef1c1ae	-0.47218078
25	0xbcb919b9	-0.022595273
26	0x3e921f86	0.28539675
27	0xbede3990	-0.43403292
28	0x3cb089d7	0.021550102
29	0xbe1dda38	-0.15415275
30	0x3e281da6	0.1641756
31	0x3e9dbee5	0.30809703
32	0x3e566d81	0.2094021
33	0x3eafdf9e	0.34350294
34	0xbdefc639	-0.1170773
35	0xbd0b8af3	-0.03406806
36	0x3d9da2c7	0.07697063
37	0x3e6692f4	0.22516996
38	0xbf1f383f	-0.621952
39	0xbea19175	-0.31556287
40	0xbd7b173c	-0.061301455
41	0x3ef521e2	0.47877413
42	0x3d6c4d79	0.05769107
43	0xbe42c1b7	-0.19019209
44	0xbeaa376d	-0.33245412
45	0xbe68e872	-0.22744921
46	0xbeda47f5	-0.42633024
47	0x3d986711	0.07441533
48	0xbd834552	-0.06409706
49	0x3e835151	0.25647977
50	0xbd8663d2	-0.06562008
51	0x3ead01f8	0.33790565
52	0xbd71a253	-0.058992695
53	0x3ed26fc0	0.41100883
54	0xbdc6437f	-0.096808426
55	0xbe1fa7b2	-0.15591314
56	0x3e0d4a75	0.13797934
57	0x3dcaa441	0.0989461
58	0x3ea7e03f	0.32788274
59	0x3cb0407f	0.02151513
60	0xbd9eb732	-0.077497855
61	0x3e765d59	0.24059047
62	0x3e9b4a32	0.30330044
63	0x3f1059ef	0.5638723
64	0xbea8f625	-0.33000293
65	0x3e80648f	0.2507672
66	0xbe442354	-0.19154102
67	0x3e718de1	0.23589279
68	0xbe9281ef	-0.28614756
69	0x3dcd52ab	0.10025533
70	0x3ed22475	0.4104344
71	0xbd508783	-0.050910484
72	0x3d95e716	0.07319467
73	0xbbb64aa0	-0.005563095
74	0x3eeba18f	0.46021697
75	0x3ecce601	0.4001923
76	0xbe050fd4	-0.12994319
77	0xbc75c9d1	-0.01500173
78	0xbe959809	-0.29217556
79	0xbe13fa68	-0.14450991
80	0x3daa8bdf	0.083274595
81	0xbe9421ec	-0.2893213
82	0xbe93fa9a	-0.2890213
83	0x3ddd92d4	0.10819021
84	0xbe84534c	-0.258448
85	0x3e90ae6e	0.2825808
86	0xbe108100	-0.1411171
87	0x3e0b112a	0.13580766
88	0x3dc0228c	0.09381589
89	0xbe69dc8c	-0.22838038
90	0xbe9c11c8	-0.30482316
91	0x3c0176d9	0.007901871
92	0x3dcba0e3	0.09942796
93	0x3dec45ca	0.11536749
94	0x3dced6cb	0.10099562
95	0xbe346f7e	-0.17620656
96	0xbe9781aa	-0.29591113
97	0xbe8241f5	-0.25440946
98	0x3e492e14	0.19646484
99	0xbe8aea1a	-0.2713173
100	0xbdaf907e	-0.085724816
101	0x3e674b4b	0.22587316
102	0xbe06c189	-0.13159765
103	0x3e966b86	0.2937891
104	0x3e95a7c5	0.2922956
105	0xbd881f7e	-0.06646632
106	0xbf5e48b5	-0.8682969
107	0x3e2de1f5	0.16980727
108	0xbe82a170	-0.25513792
109	0x3e9275bf	0.28605458
110	0xbdd7bd9f	-0.10534214
111	0xbcf8e766	-0.030383777
112	0xbda41a62	-0.080128446
113	0x3d978a15	0.07399384
114	0xbef8bb6d	-0.48580495
115	0x3ce5450b	0.027987024
116	0xbd1e576c	-0.03865759
117	0x3dc4593b	0.09587332
118	0xbee687ab	-0.4502538
119	0x3e46e4b6	0.19423184
120	0xbc78ffe9	-0.0151977325
121	0x3ea90e7e	0.3301887
122	0xbd3963cc	-0.04526119
123	0x3e9f1951	0.31074002
124	0xbea39055	-0.31946054
125	0x3e7f9deb	0.24962585
126	0x3c716e99	0.014735841
127	0xbd54eead	-0.05198543
128	0x3ea4d6dd	0.32195178
129	0xbe8b2e19	-0.27183607
130	0x3e0bb44c	0.13642997
131	0x3d16454c	0.03668718
132	0xbd1b7bfe	-0.037960045
133	0xbe0aec88	-0.13566792
134	0x3e398749	0.18118013
135	0xbe6bda04	-0.23032385
136	0x3e9a493b	0.30133995
137	0x3e93f50e	0.288979
138	0x3de8d9a7	0.11369639
139	0x3e4bc309	0.19898619
140	0xbeb261f8	-0.3484037
141	0xbce5eb92	-0.02806643
142	0x3d8ccbcf	0.06874811
143	0x3e875588	0.26432443
144	0xbe85b960	-0.26117992
145	0xbd919759	-0.071089454
146	0xbd059d0e	-0.032620482
147	0xbd290b58	-0.041270584
148	0x3f1b46c2	0.6065484
149	0x3c638e7d	0.013888952
150	0x3e45f7fb	0.19332878
151	0xbd14ac0d	-0.036296893
152	0xbf0f0ce3	-0.5587904
153	0x3e71f941	0.23630239
154	0x3ee1afa5	0.4407932
155	0x3e77d9c0	0.24204159
156	0x3e001403	0.12507634
157	0x3e8f5abb	0.2799891
158	0xbe8095df	-0.25114343
159	0x3ccca78c	0.024982236
160	0xbc3fb1cf	-0.011700108
161	0xbea0b383	-0.31386957
162	0xbdb86799	-0.09004135
163	0x3eb0f365	0.34560695
164	0x3e86f162	0.26356035
165	0xbf11d73f	-0.56969064
166	0x3e8ac237	0.271013
167	0xbccd4a98	-0.025059983
168	0x3ca64ba7	0.020299746
169	0x3c172773	0.009225714
170	0x3f05d388	0.52275896
171	0x3e77ed73	0.24211673
172	0xbd3db17d	-0.046311844
173	0xbd7ed2c2	-0.062212713
174	0xbeaac1b6	-0.33350915
175	0x3e1d2dc6	0.15349492
176	0x3c92c43d	0.01791584
177	0xbedabb8d	-0.42721215
178	0x3e596765	0.21230848
179	0x3ea20d4c	0.3165077
180	0x3eb13439	0.34610155
181	0xbf1312f1	-0.5745078
182	0xbea3f988	-0.32026315
183	0xbdefec4b	-0.11714991
184	0xbebb9c43	-0.36642656
185	0xbee0e684	-0.4392587
186	0xbe483682	-0.19552043
187	0xbee29167	-0.44251558
188	0x3ed24913	0.41071376
189	0xbdf2cb43	-0.11855175
190	0x3e900a21	0.28132728
191	0xbe780cfb	-0.24223702
192	0xbe81e091	-0.25366643
193	0xbefa98ef	-0.48944804
194	0x3e569308	0.20954525
195	0x3e072a3f	0.1319971
196	0xbe8ed1e2	-0.27894503
197	0xbe8bf3cf	-0.2733445
198	0x3e1f22e4	0.15540653
199	0xbef21f5b	-0.47289547

lin2.weight f4 [200, 200]
0	0x3b8776ca	0.004134034
1	0x3dfc0a36	0.12306635
2	0xbdcc53ce	-0.09976922
3	0x3e30875c	0.17239136
4	0x3dbaaf38	0.091154516
5	0x3e4f98a1	0.20273067
6	0x3e5ec9eb	0.21756713
7	0xbe3ec2a5	-0.18628938
8	0x3dfe21b3	0.12408771
9	0xbe054ce8	-0.13017619
10	0x3dccfdb6	0.10009329
11	0x3e761687	0.24032031
12	0xbd2d2c4b	-0.04227857
13	0x3e11112d	0.14166708
14	0x3d4574a3	0.048206937
15	0xbe4a9829	-0.19784607
16	0x3e7b0514	0.24513656
17	0xbe447fa9	-0.19189323
18	0xbaf9150f	-0.0019003468
19	0x3c17fb78	0.009276263
20	0x3e8e085c	0.27740753
21	0x3e10e869	0.14151157
22	0x3df5ef6c	0.12008557
23	0x3ea55d35	0.32297674
24	0x3e31ead2	0.17374733
25	0x3cfb8525	0.030703137
26	0xbe9e8b08	-0.30965447
27	0xbe22b176	-0.15888008
28	0xbe5462d6	-0.20740828
29	0xbe612306	-0.21986017
30	0x3e52da9a	0.20591202
31	0x3d116087	0.035492446
32	0x3d86fe89	0.065915175
33	0xbe0f827d	-0.14014621
34	0x3d09954a	0.03358964
35	0x3e568998	0.20950925
36	0x3e3f12a3	0.18659453
37	0x3bb7816b	0.0056001446
38	0x3d71af95	0.05900534
39	0x3e19b254	0.15009433
40	0x3dc4c819	0.09608478
41	0xbe00f270	-0.12592483
42	0xbe938a1f	-0.28816316
43	0x3d85fdd0	0.065425515
44	0x3e87e1eb	0.2653955
45	0x3d97f37b	0.07419487
46	0x3dbda5bc	0.09260127
47	0xbeb04661	-0.34428695
48	0x3d6301c6	0.055421613
49	0x3e3540e2	0.17700532
50	0x3c4e885e	0.012605755
51	0x3df52310	0.11969578
52	0x3e05ff61	0.130857
53	0xbc970900	-0.018436909
54	0xbdb3e13d	-0.08783195
55	0x3d0b4ecc	0.034010693
56	0x3e40ffa8	0.18847525
57	0xbc8e0e22	-0.017340723
58	0x3e870ea6	0.26378363
59	0xbe7cbaf5	-0.24680693
60	0xbce668f6	-0.028126221
61	0xbe13c1d7	-0.14429413
62	0x3e13cdc2	0.14433959
63	0x3d07d94f	0.033166226
64	0x3eeabf6e	0.45849174
65	0xbd60a9cf	-0.054849442
66	0xbe242bd4	-0.16032344
67	0x3e8757d3	0.26434192
68	0xbdebccd3	-0.115136765
69	0x3dcca3b4	0.099921614
70	0xbc2dc4ff	-0.01060605
71	0x3e3f0bba	0.18656817
72	0x3e905fe7	0.28198168
73	0x3d217c9b	0.039425474
74	0x3daa415f	0.0831325
75	0xbd09e224	-0.03366293
76	0x3bf5616b	0.00748842
77	0x3e366942	0.1781359
78	0x3d81b00b	0.06332406
79	0xbdeb36ae	-0.11485039
80	0xbd8d5470	-0.06900871
81	0x3d32658c	0.043553874
82	0xbe8f9ab7	-0.28047726
83	0xbdbada08	-0.091236174
84	0xbd9474b8	-0.07248825
85	0xbd216ce3	-0.039410483
86	0xbc472295	-0.012154241
87	0x3e206d94	0.156668
88	0xbd99cc2a	-0.07509644
89	0x3cecb78c	0.028896116
90	0xbd8ffbe1	-0.07030464
91	0x3d62c08f	0.05535942
92	0x3d09e381	0.03366423
93	0xbf01e4fb	-0.5074002
94	0x3d99e9d7	0.075153045
95	0x3c3d0593	0.0115369735
96	0x3e9688e9	0.2940133
97	0x3e6c9ed4	0.23107463
98	0x3e06cc26	0.13163814
99	0x3dd9798d	0.10618887
100	0xbe06ac5a	-0.13151684
101	0x3e5d227f	0.2159519
102	0xbd368a65	-0.044565577
103	0x3e4f9050	0.20269895
104	0xbd7204a6	-0.059086464
105	0x3dbf81d3	0.09350934
106	0x3e68ad3b	0.22722332
107	0x3eb4afce	0.35290378
108	0xbe350e36	-0.17681202
109	0xbcc6e690	-0.024279863
110	0x3e28848d	0.16456814
111	0x3dc1af39	0.09457249
112	0xbdc58ea0	-0.09646344
113	0xbe5f7cce	-0.21824953
114	0x3d7abdc2	0.061216123
115	0x3e24873d	0.16067214
116	0xbda32f26	-0.07967977
117	0x3d4d2ad2	0.050089665
118	0xbde4eb1d	-0.11177657
119	0x3e48c145	0.19604976
120	0x3e6e2c67	0.23259126
121	0xbe151b8e	-0.14561293
122	0x3df43596	0.11924283
123	0xbd1dce77	-0.03852698
124	0x3d1c3929	0.03814045
125	0x3d9532fb	0.072851144
126	0xbdfc38bb	-0.12315508
127	0xbdcf14b6	-0.10111372
128	0x3dbe4bc6	0.092917964
129	0x3c17eb0e	0.00927235
130	0x3e106814	0.14102203
131	0xbe7da6a0	-0.24770594
132	0xbe590f71	-0.21197297
133	0x3d91db5d	0.07121918
134	0x3d9bfa16	0.076160595
135	0x3e324333	0.17408447
136	0xbe2bd8b5	-0.16781886
137	0x3bc2b46f	0.0059419195
138	0x3bbc268b	0.0057418994
139	0xbd144bfa	-0.03620527
140	0x3dae392e	0.08507
141	0xbe1a2b9c	-0.15055698
142	0x3d70dc8e	0.058804087
143	0xbdc4d9a2	-0.09611823
144	0x3e95de3f	0.29271123
145	0x3d73cef3	0.059523534
146	0x3e3cb0e4	0.18426853
147	0xbe0faf4e	-0.14031717
148	0xbdebc00d	-0.1151124
149	0x3e08664d	0.13320275
150	0xbe6b1d73	-0.22960453
151	0xbd5f271f	-0.05448067
152	0xbc3c30d1	-0.011486248
153	0xbc30bd1b	-0.010787274
154	0x3e1ec116	0.15503344
155	0xbdea52f4	-0.11441603
156	0xbe4f7c5c	-0.20262283
157	0xbd7484f4	-0.059697106
158	0xbd147d2c	-0.036252186
159	0x3e1d7086	0.15374956
160	0x3e0e7a79	0.13913907
161	0x3da83994	0.08214107
162	0xbddbad7f	-0.10726451
163	0x3d4e5967	0.05037823
164	0xbcbd0410	-0.023073226
165	0x3e7f760d	0.24947377
166	0xbe0c8386	-0.13722047
167	0x3ea8d1f8	0.32972693
168	0x3e28b893	0.1647666
169	0x3e738d3f	0.2378435
170	0xbda708fc	-0.081560105
171	0x3d7783ce	0.060428433
172	0x3e93ff00	0.28905487
173	0xbca8cc7b	-0.020605316
174	0x3d0f13c5	0.034930963
175	0xbe850d5c	-0.25986755
176	0x3d49362d	0.04912393
177	0xbd818590	-0.06324303
178	0xbd024985	-0.031808395
179	0x3e0703a1	0.13184978
180	0xbe1b0c51	-0.15141417
181	0xbcd4272e	-0.025897589
182	0x3e64bc7d	0.22337528
183	0x3b87ac9e	0.0041404506
184	0x3d68be69	0.056822214
185	0x3edc2d7f	0.4300346
186	0xbcd7f209	-0.026360529
187	0xbe1f384c	-0.1554882
188	0xbdbb625f	-0.09149622
189	0x3e961afe	0.29317468
190	0x3e7c5f21	0.24645664
191	0xbd88369c	-0.06651041
192	0x3e0707f8	0.13186634
193	0xbdebbddf	-0.115108244
194	0x3e3bf348	0.18354523
195	0xbe73fda4	-0.23827225
196	0xbe548b42	-0.20756248
197	0x3ea4dfc0	0.32201958
198	0x3e56943d	0.20954986
199	0x3da4641a	0.08026905
200	0x3d33db9f	0.04391062
201	0x3d8289dd	0.063739516
202	0xbd63db54	-0.05562909
203	0x3e37f247	0.17963515
204	0x3e29f043	0.16595559
205	0xbd1c4ac8	-0.038157254
206	0xbe62e847	-0.2215892
207	0xbe2b5d11	-0.16734721
208	0xbe1afaaa	-0.15134683
209	0xbe148cd4	-0.14506847
210	0xbe19c6d0	-0.15017247
211	0x3d6afa98	0.05736789
212	0xbde9ec5d	-0.11422036
213	0xbc25dc04	-0.010123257
214	0xbe788ba8	-0.24272025
215	0x3dc68341	0.096930034
216	0xbd8e760c	-0.069561094
217	0x3de3f379	0.11130423
218	0xbe7526e3	-0.23940615
219	0x3dc1619c	0.09442446
220	0xbea47258	-0.32118487
221	0x3ccd1d89	0.025038498
222	0x3e096061	0.13415672
223	0x3e3579ce	0.17722246
224	0xbd8f406c	-0.06994709
225	0xbcc0ea54	-0.023549236
226	0xbbecd91e	-0.007228031
227	0x3dc0efe5	0.09420756
228	0x3de8b349	0.11362321
229	0x3d0100e8	0.031495005
230	0x3dd572bf	0.10422277
231	0x3d503513	0.050831866
232	0x3e9e4b70	0.3091693
233	0xbcfe3e86	-0.031035673
234	0x3cb88c79	0.02252792
235	0xbe410ee8	-0.18853343
236	0x3e0f177d	0.13973804
237	0xbd4531e0	-0.048143268
238	0x3e653c95	0.22386391
239	0xbe557f72	-0.20849398
240	0x3d616fcc	0.05503826
241	0xbc0eb1a6	-0.008709347
242	0x3d9918de	0.07475446
243	0xbdf2340f	-0.11826336
244	0x3e231536	0.1592606
245	0xbd83a3dd	-0.06427739
246	0xbdd7a695	-0.1052982
247	0xbe3ab2c3	-0.18232255
248	0xbd05fdc7	-0.032712724
249	0x3d81040e	0.062996015
250	0xbd582070	-0.05276531
251	0xbd94aa87	-0.07259088
252	0x3e630abd	0.22172065
253	0xbe0462dc	-0.12928337
254	0x3dec6a08	0.11543661
255	0x3e2602e1	0.16212036

lin2.bias f4 [200]
0	0xbe2c1b62	-0.1680732
1	0x3d58a500	0.05289173
2	0x3e377d88	0.1791898
3	0xbe380f7e	-0.1797466
4	0xbe274661	-0.16335441
5	0xbeb0fbd1	-0.3456712
6	0x3da25523	0.07926395
7	0x3e1515a7	0.14559041
8	0x3e9fa7e9	0.31182793
9	0xbc3a3d2a	-0.011367122
10	0x3e25e38d	0.16200085
11	0x3b2c6c40	0.002630964
12	0x3dc8b14d	0.097994424
13	0xbb88abc8	-0.0041708685
14	0xbde840dc	-0.11340496
15	0xbe60afda	-0.21942082
16	0xbe996c2d	-0.29965344
17	0xbdc1b88a	-0.09459026
18	0xbd5162aa	-0.051119484
19	0xbe36941f	-0.17829941
20	0xbe594fc1	-0.2122183
21	0xbe0eafd8	-0.13934267
22	0x3ea14cd0	0.31503916
23	0xbe0d557e	-0.13802144
24	0x3e0c4150	0.1369679
25	0xbe179d44	-0.14806086
26	0x3db2d44a	0.08731897
27	0x3cda43b2	0.026643608
28	0x3de7a633	0.11310997
29	0xbd6d6426	-0.057956837
30	0x3dfd83da	0.12378664
31	0x3d430df6	0.047620736
32	0x3e468e84	0.19390303
33	0x3e776395	0.24159081
34	0xbedd2c6a	-0.43197948
35	0xbd96eae3	-0.0736902
36	0xbe404078	-0.18774593
37	0xbdec27e6	-0.115310475
38	0x3e88ef19	0.26744917
39	0x3dbdeec7	0.09274059
40	0xbcdd616c	-0.027023993
41	0x3f0d2eb9	0.5514942
42	0xbeb2dea2	-0.3493548
43	0xbcbf6597	-0.023363871
44	0x3d63091a	0.0554286
45	0xbe40b3e5	-0.18818624
46	0x3e505845	0.20346172
47	0xbe8b6ff2	-0.27233845
48	0xbd7ba7f4	-0.06143947
49	0x3e7e57f0	0.24838233
50	0x3e7ed34d	0.24885292
51	0x3daba7dd	0.08381627
52	0x3d5b50f7	0.05354401
53	0xbda2d6d5	-0.07951132
54	0x3e0e1fd8	0.13879335
55	0xbe535832	-0.20639113
56	0x3c240014	0.010009784
57	0xbe226df8	-0.15862262
58	0x3d66333e	0.056201212
59	0xbe03fbbc	-0.12888998
60	0xbe9d3191	-0.3070188
61	0x3e649dd7	0.22325836
62	0x3cbcecd2	0.023062143
63	0x3d884d4a	0.06655367
64	0x3e6da461	0.23207237
65	0x3e35bfcd	0.17748947
66	0xbe64e94d	-0.22354622
67	0xbe3a3c1d	-0.18186994
68	0xbe9a99e2	-0.30195528
69	0x3e254871	0.16140915
70	0x3ca1385f	0.0196802
71	0xbc07acc9	-0.008280941
72	0xbe3096ee	-0.17245075
73	0x3e4e779c	0.20162815
74	0xbe5d6e39	-0.21624078
75	0x3db84162	0.08996846
76	0x3e80bca7	0.2514393
77	0xbe681c4a	-0.22667041
78	0x3d9f5d54	0.07781473
79	0xbe87f088	-0.26550698
80	0x3d8c855f	0.06861376
81	0x3e5c83be	0.2153463
82	0xbe47bdea	-0.1950604
83	0x3ed43bcd	0.41451874
84	0xbce47473	-0.027887559
85	0xbd89f328	-0.067358315
86	0x3ecfb5d2	0.40568405
87	0xbdcf7e02	-0.10131456
88	0xbe6b5c45	-0.22984417
89	0x3ec37215	0.38172975
90	0xbe8a7db0	-0.27049017
91	0xbd8924c0	-0.06696463
92	0x3dc5e451	0.096626885
93	0x3eae5082	0.34045798
94	0x3e5c83f0	0.21534705
95	0x3cd3fce6	0.025877427
96	0x3e82aea4	0.25523865
97	0x3d808883	0.062760375
98	0x3d5228d3	0.051308464
99	0x3d3711d6	0.044694744
100	0x3c9bdc6a	0.019026
101	0x3e74fa53	0.23923616
102	0xbd72c5d5	-0.0592707
103	0x3e8acf48	0.27111268
104	0x3d165ff8	0.036712617
105	0x3d1f1d63	0.038846385
106	0x3d984efa	0.074369386
107	0x3d75aa29	0.05997673
108	0xbd89dc4a	-0.0673147
109	0x3ec36844	0.38165486
110	0x3e2a140d	0.16609211
111	0xbe465639	-0.19368829
112	0x3e4403ec	0.19142121
113	0x3dde4023	0.10852077
114	0x3e9394ba	0.28824407
115	0x3e83bdde	0.25730795
116	0xbe1c975d	-0.15292116
117	0xbdefd565	-0.11710624
118	0x3cbc6272	0.022996161
119	0x3e13727a	0.14399138
120	0x3e813157	0.25232956
121	0x3d950b94	0.07277599
122	0x3d6cea22	0.057840474
123	0x3d6ee8ae	0.05832737
124	0x3e746256	0.23865637
125	0xbe520713	-0.20510511
126	0xbcd54691	-0.026034625
127	0xbe1a892e	-0.15091392
128	0xbe476652	-0.19472626
129	0xbe0061cd	-0.12537308
130	0x3ea0acb6	0.31381768
131	0xbe338a8a	-0.17533317
132	0xbdea2931	-0.11433638
133	0xbe9c16be	-0.304861
134	0xbd8ac81a	-0.067764476
135	0x3e136623	0.14394431
136	0x3e6c6791	0.23086382
137	0x3e172167	0.14758836
138	0xbeb1db34	-0.3473755
139	0x3d12cf33	0.03584213
140	0xbda4b6a8	-0.080426514
141	0x3e2f8cf9	0.1714362
142	0xbdfa978e	-0.12235938
143	0x3dc13793	0.09434428
144	0xbd2172ee	-0.039416246
145	0xbe7bca02	-0.24588779
146	0xbdd18857	-0.10231083
147	0x3e15dc8b	0.14634912
148	0x3e9e6547	0.30936643
149	0x3e1da3c7	0.15394507
150	0xbd3ef030	-0.04661578
151	0xbe3f4fc7	-0.18682776
152	0x3e3f4700	0.18679428
153	0x3d92954b	0.071573816
154	0xbe9f1bcb	-0.31075892
155	0xbe3a8705	-0.18215568
156	0x3da2adb1	0.07943285
157	0x3d7022d8	0.05862698
158	0xbe8804e3	-0.26566228
159	0x3f003672	0.50083077
160	0x3e46c032	0.19409254
161	0x3de6bd43	0.112665676
162	0x3e72c264	0.23706967
163	0x3e54648c	0.2074148
164	0xbe89223c	-0.2678393
165	0xbe0ac337	-0.13551031
166	0xbe3d0e3a	-0.18462458
167	0x3c932638	0.01796256
168	0xbda30476	-0.07959835
169	0x3e1051d6	0.14093718
170	0x3c613688	0.013745911
171	0x3e0a5c2a	0.1351172
172	0x3ec0ff26	0.37694663
173	0xbe1d0bde	-0.15336558
174	0x3eae710f	0.34070632
175	0x3ebc886c	0.36822832
176	0xbc3046c5	-0.01075906
177	0x3e225ec6	0.15856466
178	0x3e1e1773	0.15438633
179	0x3e14737c	0.14497179
180	0xbe93e5d3	-0.2888628
181	0xbd933405	-0.07187656
182	0x3c0c3fe6	0.008560156
183	0xbd9c295c	-0.07625076
184	0xbeb99751	-0.36248258
185	0xbcf8b0a7	-0.030357672
186	0x3d2e3600	0.042531967
187	0x3e229393	0.15876608
188	0xbe30be1a	-0.17260018
189	0xbd0f6191	-0.035005156
190	0x3e8517ce	0.25994724
191	0xbd8aeb6b	-0.06783184
192	0x3e7ef24f	0.24897121
193	0x3e7147e9	0.23562588
194	0xbdd04cb2	-0.101708785
195	0x3e505f07	0.2034875
196	0xbd8a94bc	-0.0676665
197	0x3d3df9fa	0.046380974
198	0x3e71a55e	0.23598239
199	0xbd5a58b2	-0.053307243

lin3.weight f4 [200, 200]
0	0x3e028226	0.1274496
1	0xbd9bf95b	-0.0761592
2	0xbd8e0a7f	-0.06935596
3	0xbe67a00d	-0.22619648
4	0x393ae4a5	0.00017823519
5	0xbbf5a228	-0.007496137
6	0xbdbfac85	-0.09359077
7	0x3e9eb53c	0.30997646
8	0x3be8c911	0.007104047
9	0x3df270b8	0.11837906
10	0x3db832fa	0.08994098
11	0xbe0f10cc	-0.13971251
12	0x3e490eb8	0.19634521
13	0x3d964714	0.07337776
14	0xbe9b2673	-0.30302772
15	0x3cf98337	0.030458076
16	0xbe5228de	-0.20523402
17	0xbd41fefc	-0.047362313
18	0xbe7b9110	-0.24567056
19	0x3c7ea233	0.015541601
20	0x3ea9ee40	0.33189583
21	0xbe5e6291	-0.21717288
22	0x3d8b0e90	0.06789887
23	0xbe4d47f5	-0.2004698
24	0x3de95411	0.113929875
25	0x3d8ee6b1	0.06977595
26	0x3ece2bdf	0.40267846
27	0x3d923b96	0.07140271
28	0x3e685063	0.22686915
29	0x3e322823	0.17398123
30	0x3e0485ad	0.12941618
31	0x3e1faedf	0.15594052
32	0x3de669e3	0.11250665
33	0x3bb24433	0.005440259
34	0xbebaf2af	-0.36513278
35	0x3d26f122	0.040757306
36	0x3d07a2fb	0.033114415
37	0x3e573d3f	0.21019457
38	0xbeaf3043	-0.34216508
39	0x3e1d07be	0.15334985
40	0xbd81540e	-0.0631486
41	0xbd2d2ecd	-0.04228096
42	0x3cb75a4a	0.02238192
43	0xbe01888b	-0.12649743
44	0xbe471319	-0.19440879
45	0xbe094e6b	-0.1340882
46	0x3e3d8f57	0.18511711
47	0x3c8d667c	0.017260782
48	0x3e1d28bb	0.15347569
49	0xbc1b5c1d	-0.009482411
50	0xbe0ceca6	-0.13762149
51	0xbe46dedc	-0.19420952
52	0xbd581e8b	-0.052763503
53	0x3d59b3b1	0.053149883
54	0x3da13480	0.07871342
55	0x3d90f60d	0.070781805
56	0x3d2e8b37	0.042613234
57	0xbefe686b	-0.4968904
58	0x3e70f35f	0.23530339
59	0xba1e6f15	-0.0006043774
60	0x3df4f578	0.11960882
61	0x3ea3e7b7	0.32012722
62	0x3e5cf804	0.21578985
63	0x3e19b7a6	0.15011463
64	0xbde5d21f	-0.11221718
65	0x3cf73808	0.030178085
66	0xbc825ac6	-0.015912425
67	0xbe73f32e	-0.23823234
68	0x3e21829d	0.15772481
69	0x3e036853	0.12832765
70	0x3df4b5a7	0.1194871
71	0x3df5dab4	0.12004605
72	0x3c874bee	0.016515698
73	0xbe5b922b	-0.21442477
74	0x3d8dab17	0.069173984
75	0xbdcdf605	-0.1005669
76	0xbe8a88ee	-0.27057594
77	0x3e78086f	0.24221967
78	0x3e4aae68	0.19793093
79	0xbe3e781f	-0.1860051
80	0xbe1f43c0	-0.15553188
81	0xbd59aac9	-0.05314139
82	0xbd240f75	-0.040053803
83	0xbe17f9a9	-0.14841332
84	0xbe602284	-0.21888167
85	0xbdd17e92	-0.102292195
86	0x3d419745	0.047263402
87	0xbe5fc626	-0.21852931
88	0xbe598a6e	-0.21244213
89	0x3d999ecb	0.075009905
90	0xbe71c88e	-0.23611662
91	0x3e49a4a6	0.19691715
92	0x3dc4e827	0.09614592
93	0x3ebe23cb	0.37136683
94	0xbbf153d6	-0.0073647304
95	0xbc3842e4	-0.011246417
96	0x3e248beb	0.16069
97	0xbbfbf160	-0.0076886863
98	0x3db85fa2	0.090026155
99	0x3eb67144	0.3563329
100	0xbe240779	-0.16018476
101	0x3e1cf4ae	0.15327713
102	0x3d487130	0.04893607
103	0x3de8ae8f	0.113614194
104	0x3ddc1beb	0.107475124
105	0xbeacf727	-0.33782312
106	0x3da93bf6	0.0826339
107	0x3c6ec8d4	0.014574248
108	0x3e7171a0	0.23578501
109	0x3ed09fbb	0.40746865
110	0xbd7d26cb	-0.061804574
111	0xbe63387c	-0.22189516
112	0x3e95646b	0.29178175
113	0x3eadd867	0.33954164
114	0x3e3522e5	0.17689092
115	0x3ed8bfc6	0.42333812
116	0xbd24e5b4	-0.040258124
117	0xbe8f8304	-0.28029644
118	0x3d481bda	0.048854686
119	0x3d21c2ff	0.039492603
120	0x3bb42279	0.0054972735
121	0x3e6b39f8	0.22971332
122	0x3c983c95	0.018583575
123	0x3e9e9672	0.30974156
124	0x3c53a6ac	0.012918156
125	0x3ea9e350	0.33181238
126	0x3d46010e	0.04834085
127	0x3e0dadba	0.13835803
128	0xbe7d2234	-0.24720079
129	0x3f11c755	0.5694478
130	0xbe78800a	-0.24267593
131	0x3de61e3a	0.11236234
132	0xbc16fd21	-0.009215624
133	0xbe74ff82	-0.23925593
134	0xbe5b2e7e	-0.21404454
135	0xbd3002d0	-0.042971432
136	0x3dbf0a8b	0.09328183
137	0xbe503bfc	-0.20335382
138	0x3c4c0c87	0.012454159
139	0xbe4c183e	-0.19931123
140	0xbc954c4f	-0.018224863
141	0xbeac807a	-0.3369177
142	0x3e398f1a	0.18120995
143	0xbd825ed4	-0.06365743
144	0x3e3171aa	0.17328516
145	0x3da74070	0.08166587
146	0xbdc1e6ef	-0.09467875
147	0xbd7da908	-0.06192878
148	0xbc017cf4	-0.007903326
149	0x3e872552	0.2639566
150	0x3c9c9a73	0.019116616
151	0x3eb7586f	0.35809657
152	0x3e3b08e6	0.18265113
153	0x3e86deda	0.26341897
154	0xbd480767	-0.048835184
155	0xbd119974	-0.035546735
156	0xbe831710	-0.25603533
157	0xbd1de873	-0.03855176
158	0x3e2401e3	0.16016345
159	0x3e42a91a	0.1900982
160	0xbd88bb05	-0.06676296
161	0x3c6d234d	0.014473748
162	0x3df74f0e	0.12075625
163	0xbe3ab7c6	-0.18234167
164	0xbe102a16	-0.14078555
165	0xbc74dcd6	-0.0149452295
166	0xbe70805f	-0.2348647
167	0xbd41b289	-0.047289405
168	0xbe4a6b0a	-0.19767395
169	0x3dc6a5a0	0.09699559
170	0xbe606f31	-0.21917416
171	0xbe33c0a1	-0.17553951
172	0xbe2a9fad	-0.16662474
173	0xbe822999	-0.25422361
174	0x3e04a44a	0.12953296
175	0x3deb2598	0.1148178
176	0xbe1d1247	-0.15339004
177	0x3e3695f5	0.17830642
178	0xbe8e25f1	-0.27763322
179	0x3d87a3f8	0.066230714
180	0xbe81c23c	-0.25343502
181	0x3e759249	0.23981585
182	0x3e1e3312	0.1544917
183	0xbe52859b	-0.20558779
184	0x3cfa1f76	0.03053258
185	0xbc6ea94f	-0.0145667335
186	0x3e069098	0.13141096
187	0x3dfe238a	0.12409122
188	0x3e186ff4	0.14886457
189	0xbe88ecb1	-0.2674308
190	0x3d97851f	0.07398438
191	0x3dec266b	0.11530765
192	0xbe093c3c	-0.13401884
193	0xbd2b0732	-0.04175491
194	0xbaa871e8	-0.001285133
195	0xbd7fdfb0	-0.062469184
196	0x3e576a00	0.2103653
197	0xbde954ac	-0.11393103
198	0x3dcfdba1	0.10149313
199	0xbdfd9cd3	-0.123834275
200	0xbe00e235	-0.12586291
201	0x3d8f20ad	0.06988654
202	0x3d9efdfc	0.077632874
203	0x3ddfd546	0.109293506
204	0x3df1d227	0.118076615
205	0x3e7f67bf	0.2494192
206	0x3e8682d3	0.26271686
207	0xbdcf225f	-0.10113978
208	0xbe39c32a	-0.18140855
209	0x3e6a40fe	0.22876355
210	0x3e78ed4c	0.24309272
211	0x3df72d19	0.120691486
212	0xbea1bbd3	-0.3158861
213	0x3e3ac2fa	0.1823844
214	0xbe5753e8	-0.21028101
215	0xbd77d437	-0.06050512
216	0x3e3ab384	0.18232542
217	0xba10f887	-0.00055301975
218	0xbe835743	-0.25652513
219	0x3ca8fccf	0.020628361
220	0xbdc1654a	-0.094431475
221	0x3cb8a9dc	0.022541933
222	0x3ea2f17e	0.3182487
223	0x3e73e79b	0.23818819
224	0x3deae008	0.11468512
225	0x3e596f72	0.2123392
226	0x3e169ad1	0.14707495
227	0xbe9de2b5	-0.30837026
228	0xbea43813	-0.3207403
229	0xbe6e5897	-0.23275982
230	0x3e78ea3e	0.24308106
231	0x3e9a3d11	0.30124715
232	0xbe50d784	-0.20394713
233	0x3ca665a5	0.02031214
234	0xbdf0a0aa	-0.11749394
235	0xbea5728d	-0.32313958
236	0x3c6b3b73	0.0143574355
237	0x3da3766b	0.07981571
238	0xbe60a4b3	-0.21937828
239	0xbd86ee28	-0.065883934
240	0xbca4a96d	-0.02010032
241	0x3e718736	0.23586735
242	0x3dd2d919	0.10295314
243	0xbd51ac25	-0.05118956
244	0x3d6cc787	0.05780747
245	0x3d998315	0.07495705
246	0x3e45d55e	0.19319674
247	0x3e27973d	0.16366287
248	0x3d094949	0.033517156
249	0x3cbbff89	0.022948997
250	0xbdf324fc	-0.118722886
251	0x3de13a07	0.10997396
252	0xbd9bf12b	-0.076143585
253	0xbdbe13dc	-0.092811316
254	0xbdb2d2fd	-0.08731649
255	0xbe31b316	-0.17353472

lin3.bias f4 [200]
0	0x3d84daae	0.06487022
1	0xbe76db64	-0.24107128
2	0x3e45c570	0.19313598
3	0xbe52e113	-0.20593672
4	0x3ec052b0	0.37563086
5	0xbef0b3eb	-0.47012267
6	0xbe014dda	-0.12627354
7	0xbd90f68e	-0.070782766
8	0xbe2f3e37	-0.17113577
9	0xbd1bfaca	-0.038080968
10	0x3c176a35	0.00924163
11	0xbf135c41	-0.57562643
12	0x3e4049a4	0.18778092
13	0xbe48301f	-0.19549607
14	0xbe36091a	-0.1777691
15	0xbe5fe262	-0.21863702
16	0xbdd19bc2	-0.102347866
17	0x3cc7f785	0.024410019
18	0xb9dd702a	-0.00042235974
19	0x3e2914fd	0.16511913
20	0x3f0017dd	0.5003641
21	0x3e5deaba	0.21671572
22	0x3f0291cb	0.5100371
23	0xbe9b9194	-0.30384505
24	0xbe91da38	-0.284868
25	0x3e99030c	0.29885137
26	0xbe1c436e	-0.15260097
27	0xbe212b5a	-0.15739194
28	0x3e0c096f	0.13675474
29	0xbe4d5450	-0.20051694
30	0xbe0d009e	-0.13769767
31	0xbe5e0684	-0.21682173
32	0x3e2ce75a	0.16885129
33	0xbdb90cdf	-0.09035658
34	0x3e27396c	0.16330498
35	0x3eafbcb2	0.3432365
36	0xbe2a9ca2	-0.16661313
37	0xbd991db1	-0.07476366
38	0xbe29fef3	-0.16601162
39	0x3e87fa1a	0.26558
40	0x3dadfd45	0.08495573
41	0x3e204527	0.1565138
42	0xbe44d975	-0.19223578
43	0x3e96d7f1	0.29461625
44	0xbec82454	-0.39090216
45	0x3e21f96f	0.15817808
46	0xbe5e0b64	-0.21684033
47	0x3df0a6bf	0.11750554
48	0x3dd2f477	0.10300534
49	0xbe73c926	-0.23807201
50	0x3e2e6b70	0.17033172
51	0x3eb21389	0.3478053
52	0xbf02305d	-0.50855047
53	0xbec075cf	-0.3758988
54	0x3db1e88e	0.086869344
55	0x3bf98324	0.00761451
56	0x3e19d0a7	0.15021001
57	0x3dc83d03	0.09777262
58	0xbe38f9ce	-0.18064043
59	0x3d7c2342	0.061557062
60	0xbd9a6c22	-0.07540156
61	0xbe878ad6	-0.2647311
62	0x3d4f345d	0.050587047
63	0x3e74867b	0.23879425
64	0xbe79fec5	-0.24413593
65	0xbd9251be	-0.07144497
66	0xbda8a00c	-0.082336515
67	0xbe4f935d	-0.20271058
68	0xbd97b0cf	-0.074067704
69	0xbefc2af0	-0.4925151
70	0xbe28075e	-0.1640906
71	0x3eebfe16	0.4609229
72	0x3eabf440	0.33584785
73	0xbd6ea8a5	-0.0582663
74	0xbea6bbfb	-0.32565293
75	0xbeaf7370	-0.3426776
76	0xbedc7e1a	-0.43064958
77	0xbeb7ce57	-0.35899612
78	0xbed72eb8	-0.4202783
79	0x3e8eefdf	0.27917382
80	0xbe24ff39	-0.16112985
81	0xbd85c166	-0.065310284
82	0xbe536a2a	-0.20645967
83	0xbd88c030	-0.06677282
84	0x3eb5c007	0.35498068
85	0x3e0308db	0.12796347
86	0xbb936ebe	-0.0044992855
87	0xbe746d99	-0.23869933
88	0xbe8e0181	-0.27735522
89	0xbe1780c3	-0.14795212
90	0x3d2362f0	0.039889276
91	0x3e9197e6	0.28436202
92	0xbdea62d7	-0.114446335
93	0xbc1c2512	-0.009530323
94	0x3c654695	0.013993879
95	0x3ec79cf3	0.3898693
96	0xbe7eb876	-0.24875054
97	0xbe8702fb	-0.2636946
98	0x3e94d95e	0.29072088
99	0xbddf88ad	-0.10914741
100	0xbed470ac	-0.41492212
101	0x3f0b59c3	0.5443384
102	0xbe595145	-0.21222408
103	0xbe5f7a70	-0.2182405
104	0x3e84192b	0.25800452
105	0x3d670e2d	0.056410003
106	0xbb5f61c6	-0.0034085377
107	0xbe844c57	-0.25839493
108	0xbd8afa8f	-0.067860715
109	0x3ca15642	0.019694451
110	0xbf02f79a	-0.5115906
111	0x3d84782a	0.06468232
112	0x3bc2ab6e	0.005940846
113	0x3eae6bb1	0.34066537
114	0x3e991d56	0.29905194
115	0xbdc0b973	-0.09410372
116	0x3d4ecd6c	0.050488874
117	0xbd29fe61	-0.04150236
118	0x3ccafef7	0.02477978
119	0xbe90c798	-0.28277278
120	0x3eef9b11	0.46797994
121	0xbe9127b1	-0.28350595
122	0x3e87714c	0.26453626
123	0xbe999ae7	-0.30000994
124	0x3ed198e8	0.4093697
125	0xbe9a75fe	-0.30168146
126	0x3e81a0df	0.25318047
127	0x3e7ba552	0.24574783
128	0x3e76767d	0.24068637
129	0x3e38ad04	0.1803475
130	0x3da82e66	0.08211975
131	0x3ea296e7	0.31755754
132	0xbde7c421	-0.113167055
133	0xbde1c1c3	-0.11023285
134	0xbe9121f7	-0.28346226
135	0x3eb24d96	0.34824818
136	0xbefdc97b	-0.4956778
137	0xbd8a4d18	-0.06752986
138	0x3cad9fa9	0.021194296
139	0x3dd358af	0.103196494
140	0xbe8abbc1	-0.2709637
141	0x3e9a54fe	0.3014297
142	0xbe597314	-0.21235305
143	0xbe967454	-0.29385626
144	0xbed3da43	-0.41377458
145	0xbe927b41	-0.2860966
146	0xbe1dbd0d	-0.15404148
147	0xbe5ca67a	-0.21547881
148	0x3e899c78	0.2687719
149	0xbeeb9d66	-0.46018523
150	0x3e0ea59b	0.13930361
151	0x3f215938	0.6302676
152	0x3d9c0874	0.076188
153	0x3e4d9ef4	0.20080167
154	0x3e878113	0.26465663
155	0xbe316a19	-0.1732563
156	0x39a8177a	0.00032060948
157	0x3e600ccd	0.21879883
158	0x3f0c4541	0.54793173
159	0x3e0dd335	0.138501
160	0xbdd92fbc	-0.10604808
161	0xbe308758	-0.1723913
162	0xbdeb034a	-0.11475237
163	0x3e218737	0.15774237
164	0x3e07b41a	0.13252297
165	0xbeb84991	-0.35993627
166	0x3eb3292b	0.34992346
167	0x3e8c6e3b	0.2742785
168	0x3e909de3	0.28245458
169	0x3f17d756	0.5931295
170	0x3eadacb3	0.33920822
171	0xbe7899fd	-0.24277492
172	0xbe1ac290	-0.15113282
173	0x3db42c31	0.08797491
174	0xbe847a22	-0.2587443
175	0xbe2fc166	-0.1716362
176	0xbf0ee83f	-0.5582313
177	0x39786ddb	0.00023692047
178	0x3eaab32a	0.33339816
179	0x3dbeed82	0.09322645
180	0xbe8740ff	-0.26416776
181	0x3e5e81fe	0.21729276
182	0x3e0997c3	0.13436799
183	0x3e808a55	0.2510554
184	0xbec73737	-0.38909313
185	0xbee6de54	-0.45091498
186	0xbe7f500d	-0.2493288
187	0x3f00faae	0.50382507
188	0x3e81c5d6	0.2534625
189	0xbd278aa4	-0.040903702
190	0x3ec25534	0.3795563
191	0x3e21adb0	0.15788913
192	0xbe89d04b	-0.26916727
193	0x3f281c27	0.6566796
194	0xbe505b4c	-0.20347327
195	0xbe8291b9	-0.25501803
196	0x3dada26a	0.08478244
197	0x3e8df64e	0.27726978
198	0x3f08e790	0.53478336
199	0x3ea567f2	0.32305866

lin4.weight f4 [62, 200]
0	0x3f287e5c	0.6581781
1	0xc003e2c2	-2.0607152
2	0x3c1def64	0.009639595
3	0xbf1c466a	-0.61044943
4	0x3f8527de	1.0402792
5	0x3f6a9a4b	0.9164168
6	0xbfa360b3	-1.2763885
7	0xc00a71c2	-2.1631932
8	0xbf669b5a	-0.900808
9	0x3efb94fc	0.49137104
10	0x3e8a6ec1	0.27037624
11	0xbf3e4e87	-0.74338573
12	0x3fd74231	1.6817075
13	0xbf5e46c3	-0.86826724
14	0xbe5ee8c3	-0.21768479
15	0xbecbc53a	-0.3979891
16	0xbf794241	-0.9736672
17	0xbfbfdf9e	-1.4990118
18	0xbee6bcfc	-0.4506606
19	0xbdef825a	-0.116947845
20	0xbe213e2c	-0.15746373
21	0xbf1ceb2e	-0.61296356
22	0x3f2dcaae	0.6788739
23	0xbf40c673	-0.7530281
24	0xbeae063b	-0.33989128
25	0x3f2ab220	0.6667805
26	0xbe177782	-0.14791682
27	0x3f15bd56	0.5849203
28	0x3ea4ee4a	0.3221305
29	0xbc9f4595	-0.019442359
30	0x3da79039	0.08181805
31	0x3f3423cb	0.70367116
32	0xbf9f10a6	-1.2426956
33	0xbee085a6	-0.43851966
34	0x3d82f2dc	0.06393978
35	0x3ecf291a	0.40461046
36	0x3db1d347	0.08682876
37	0xbc356351	-0.011071042
38	0xbf39ed94	-0.7262814
39	0xbff1e58d	-1.8898178
40	0x3f3456f4	0.7044518
41	0x3fc91277	1.570876
42	0xbe3cda9d	-0.1844277
43	0xc0115251	-2.2706492
44	0xbf752bcf	-0.9576997
45	0x3f9946aa	1.197469
46	0xbf29affa	-0.66284144
47	0x3e8ed1ad	0.27894345
48	0x3f604a80	0.8761368
49	0xbeb9340e	-0.36172527
50	0x3f8f8fb3	1.1215729
51	0xbf52442c	-0.8213527
52	0xbf1ea39d	-0.61968404
53	0xbfd38afa	-1.6526787
54	0x3f9f67a2	1.2453501
55	0xbebbe250	-0.366961
56	0x3eb90edb	0.36144146
57	0xbec0bba4	-0.37643158
58	0x3ed645b7	0.41850063
59	0x3fc385f4	1.5275254
60	0x400e539b	2.2238529
61	0xbf85b0c3	-1.0444568
62	0xbf66a58b	-0.9009635
63	0x3f58be9e	0.8466586
64	0x3fc7a397	1.5596799
65	0x3efd1ab4	0.49434435
66	0xbec1c694	-0.37846816
67	0x3f59f4a4	0.85138917
68	0xc00a3d64	-2.159997
69	0xbf137735	-0.5760377
70	0xbf608bc1	-0.8771325
71	0x3ec4be20	0.38426304
72	0xbf989315	-1.1919886
73	0x3f808a7c	1.0042262
74	0xbf905ffa	-1.127929
75	0xbf46e69e	-0.77695644
76	0xbfb66bb6	-1.4251621
77	0xbfb0bc34	-1.3807435
78	0xbfc48faa	-1.5356343
79	0x3d7f9b0a	0.062403716
80	0x3f1ba6cb	0.6080138
81	0x3e70ddcb	0.23522107
82	0x3fc95f01	1.5732118
83	0x3c5bd42b	0.013417284
84	0x3edf9f5d	0.43676272
85	0xbf61bc4c	-0.88177943
86	0xba997f66	-0.0011710941
87	0xbeb72412	-0.35769707
88	0x3f36e28b	0.7143943
89	0xbe3d016d	-0.18457575
90	0x3ec9bb10	0.3940053
91	0xbeb29d44	-0.3488561
92	0x3f8ae0d2	1.084986
93	0x3f80de4f	1.0067843
94	0xbedd7c96	-0.43259114
95	0x3f8da54d	1.1066071
96	0x3fdd85aa	1.7306416
97	0x3f52aab9	0.8229175
98	0x3f3f1cfe	0.74653614
99	0x3f119071	0.56861025
100	0x3f2f27ba	0.6841999
101	0x3f6ca0fe	0.92433155
102	0xbf9ce2bd	-1.2256695
103	0x3f210e4c	0.6291244
104	0x3fd8903a	1.6919014
105	0x3f209e30	0.62741375
106	0x3f3fef2e	0.74974334
107	0x3f47ba35	0.78018504
108	0x3df48bc8	0.11940724
109	0xbf8bd590	-1.0924549
110	0xbd1e792e	-0.038689785
111	0xc01060e9	-2.255915
112	0xbfe14b12	-1.7601035
113	0xbbc6d1ae	-0.0060674762
114	0x3d096e6d	0.033552576
115	0xbb31aa97	-0.0027109736
116	0xbfbc5b39	-1.4715339
117	0xbfeb6a02	-1.8391726
118	0xbfe2ea52	-1.7727759
119	0xbecc8314	-0.39943755
120	0xbea1cd23	-0.3160182
121	0x3a5b072d	0.0008355256
122	0xbf7e2db0	-0.99288464
123	0x3f1735e4	0.59066606
124	0x3fb1d5a8	1.3893328
125	0xbf5809af	-0.84389776
126	0x3f830f37	1.0239018
127	0x3f4dc26f	0.8037481
128	0x3fe9821e	1.8242834
129	0xbf8c5dd3	-1.0966133
130	0xbf56bbf1	-0.83880526
131	0x3f7a969d	0.9788607
132	0x3f8cc96a	1.0998967
133	0x3e8f89c1	0.28034785
134	0xbf0a7e05	-0.5409854
135	0xbfaf1a93	-1.3679985
136	0xbe96a7d2	-0.29424912
137	0x3f014f9c	0.505121
138	0xbf5cb4ce	-0.86213386
139	0xbef56e23	-0.4793559
140	0x400b3379	2.1750166
141	0x3fe055b6	1.7526157
142	0xbe2c766f	-0.16842054
143	0xc007d7d4	-2.122548
144	0xbf86b1a4	-1.0522962
145	0xbdf211dd	-0.118198134
146	0xbc413ce5	-0.011794304
147	0xbf5c311a	-0.86012423
148	0x3f40f374	0.7537148
149	0xbd6dd563	-0.05806483
150	0x3fc3a7a5	1.5285536
151	0x4033207d	2.798858
152	0x3f8c66d1	1.0968877
153	0xbf3ba029	-0.7329126
154	0x3f236a08	0.63833666
155	0x3fc15705	1.5104681
156	0xbf473019	-0.77807766
157	0x3f92fa0c	1.1482558
158	0x3fb794c6	1.4342277
159	0x3e9a4451	0.30130246
160	0xbf34d2c2	-0.7063409
161	0xbf16d476	-0.5891794
162	0xbf5eaeba	-0.8698536
163	0x3e8049b0	0.2505622
164	0x3ece5df4	0.40306056
165	0xbe90f72c	-0.28313577
166	0xbec05422	-0.37564188
167	0xbe8ab410	-0.27090502
168	0xbe877275	-0.2645451
169	0x401882d9	2.3829863
170	0x400f2f1d	2.2372506
171	0x3f03e23d	0.5151709
172	0xbf9c6b40	-1.222023
173	0x3f4e094f	0.80482954
174	0xbeca21d2	-0.39478928
175	0x3f9b7fc9	1.2148372
176	0xbfc0bfc4	-1.5058522
177	0x3deb6ddf	0.114955656
178	0xbeed315a	-0.46326715
179	0x3f6b4d99	0.9191528
180	0xbf7a52b8	-0.9778247
181	0x3f9ba9f1	1.2161237
182	0x3fb05dc0	1.377861
183	0xbed33d78	-0.41257834
184	0x3fd318c0	1.6491928
185	0xbfa969bd	-1.3235394
186	0xbee691ba	-0.45033056
187	0x3f088809	0.53332573
188	0xbf2a37e5	-0.6649154
189	0xbc2fc920	-0.010729104
190	0xbfd74183	-1.6816868
191	0x3f00c687	0.5030293
192	0xbe3e9f28	-0.18615401
193	0x3faf8fe3	1.3715786
194	0xbef918b6	-0.48651665
195	0xbfb5f058	-1.4213972
196	0x3e34d87a	0.17660704
197	0xbf64bd7a	-0.8935162
198	0xbf111474	-0.56671834
199	0x3f312d8f	0.6921014
200	0x3fb31de2	1.3993495
201	0xbfdef86c	-1.7419562
202	0xbec43293	-0.38319835
203	0x3f33856c	0.7012546
204	0x3fdb0654	1.7111306
205	0xbeab8775	-0.33501783
206	0x3f944ad1	1.1585332
207	0xbf8f81bf	-1.121147
208	0x3f81d1c6	1.0142143
209	0xbfcdb1a1	-1.6069833
210	0x3f83f7ac	1.0309958
211	0xbf80d8b6	-1.0066135
212	0x3fca50e4	1.5805936
213	0xbf4483cd	-0.7676361
214	0xbf4227be	-0.7584189
215	0xbf7cf512	-0.9881145
216	0xbf9f61b0	-1.2451687
217	0xbfb5361b	-1.4157137
218	0xbfaa545a	-1.3306992
219	0xbf61e4d9	-0.8823982
220	0x3ded4d4e	0.1158701
221	0x3fc854d0	1.5650883
222	0x3fb2d862	1.3972285
223	0xbe87142f	-0.26382586
224	0x3f5340df	0.8252086
225	0x3ea4ec6e	0.32211632
226	0xbeb4091f	-0.3516321
227	0x3f0f9a2c	0.5609462
228	0x3f99b4b6	1.2008274
229	0xbf0c3b15	-0.5477765
230	0xbfc57b4a	-1.542825
231	0x3f2b6f75	0.66966945
232	0xbf64fb51	-0.8944598
233	0x3fa74b53	1.3069862
234	0x3e3c7a81	0.18406107
235	0x3fa14492	1.2599051
236	0x3f6ed249	0.9328962
237	0xbe231697	-0.15926586
238	0xbff0c4b3	-1.8810028
239	0xbf767a9e	-0.9628085
240	0x3f3ce73f	0.73790354
241	0xbf3ac99b	-0.72963876
242	0xbfbff665	-1.4997069
243	0x3d9b2efa	0.075773194
244	0xbf759a9d	-0.95939046
245	0xbdcbc3a8	-0.09949428
246	0x3ec3b0cc	0.38220823
247	0x3fc39222	1.5278971
248	0xbd291bcb	-0.04128627
249	0xbf7d8d44	-0.9904368
250	0xbec47be7	-0.3837578
251	0x3d7260f6	0.0591745
252	0xbf8dc03d	-1.1074291
253	0xbfba2bab	-1.4544576
254	0xbf46cd93	-0.7765743
255	0x3efc0c07	0.49227926
