qn1/weights/model_weights_b5_em5.pth (torch, 397029 bytes, 9 tensors)

emb.weight f4 [62, 5]
0	0x3f7885bf	0.9707908
1	0x3aa20f3f	0.0012364163
2	0xbecb8f09	-0.39757565
3	0xbf7c7bbb	-0.986263
4	0x3f10faee	0.5663289
5	0x3f82af69	1.0209781
6	0x3ec3b9fe	0.38227838
7	0xbf4c6ec1	-0.798565
8	0x3f0310da	0.5119759
9	0x3e8788aa	0.26471454
10	0xbed45fd0	-0.4147935
11	0xbfcb08ed	-1.5862099
12	0xbf0a4120	-0.5400562
13	0xbfe54d8d	-1.7914292
14	0xbf832499	-1.0245544
15	0xbf1993b8	-0.59991026
16	0xbf7e7620	-0.99398994
17	0x3ec419f9	0.38301066
18	0x3ff5d208	1.9204721
19	0x3f095018	0.5363784
20	0xbf19717b	-0.5993878
21	0x3f54ebcc	0.831723
22	0xbf8ce0f9	-1.1006156
23	0xbfb4a167	-1.4111756
24	0xbf284d19	-0.6574264
25	0x3f88f25d	1.0698963
26	0x3b245550	0.0025075264
27	0x3e258fe8	0.16168177
28	0x3f9d22b6	1.2276218
29	0x3f7419c9	0.95351845
30	0x3f83dd47	1.0301903
31	0x3fa42a85	1.2825476
32	0xbf53d4d0	-0.827466
33	0xbe3073eb	-0.17231719
34	0x3fa9ce71	1.3266126
35	0x3f375394	0.71611905
36	0x3f94cc92	1.162493
37	0xc0161239	-2.3448622
38	0xbf4d0721	-0.80089
39	0xbf373378	-0.7156291
40	0xbe575ed7	-0.21032272
41	0x3e4d44c9	0.2004577
42	0xbf1334a7	-0.57502216
43	0x3f1d1ff8	0.61376905
44	0x3fa4b47a	1.2867577
45	0x3f88cee1	1.0688134
46	0x3dfa6955	0.12227122
47	0xc00f5b78	-2.2399578
48	0xbf8c8b34	-1.0979981
49	0x3f353865	0.70789176
50	0xbf19df56	-0.6010641
51	0x3f9d8d94	1.2308831
52	0x3f890445	1.0704428
53	0x3f750c32	0.95721734
54	0xbf283f77	-0.6572184
55	0x3ee671c6	0.45008677
56	0x3f331c8c	0.69965434
57	0x3fccfdd0	1.6014957
58	0x3e9267b9	0.2859476
59	0xbe83b435	-0.25723425
60	0xbf0c8eb7	-0.54905266
61	0xbf34f9b8	-0.7069354
62	0xbdb4b856	-0.08824222
63	0x3dfe2eb8	0.12411255
64	0x3fff4099	1.9941589
65	0x3ec2f31b	0.380761
66	0x3e085ced	0.13316698
67	0xbfa42975	-1.2825152
68	0xbd932f18	-0.07186717
69	0x3e9f6876	0.31134385
70	0xbe9adc9b	-0.30246434
71	0xbec8ae9a	-0.3919571
72	0x3fc5b785	1.5446631
73	0x3f7fac36	0.9987215
74	0x3da22ce9	0.07918722
75	0x3d897c1d	0.06713126
76	0x3e83043c	0.25589168
77	0x3ddec339	0.108770795
78	0xbf0ccfde	-0.5500468
79	0xbe43e887	-0.19131671
80	0x3f335aa8	0.70060205
81	0xbfa48815	-1.2854029
82	0x3daaaf42	0.08334209
83	0xbf55fa59	-0.83585125
84	0xbdd24084	-0.10266212
85	0x3e74a069	0.23889317
86	0x3f1f665e	0.62265575
87	0x3f201ff4	0.62548757
88	0xbfca6195	-1.581103
89	0xbf0e3b54	-0.5555928
90	0xbf4b16ce	-0.7933167
91	0x400192bd	2.0245812
92	0x3f36c626	0.713961
93	0xbf91f6e3	-1.1403469
94	0xbfcfe666	-1.6242187
95	0xbf284114	-0.657243
96	0xbfc010a0	-1.5005074
97	0x3ff12c3b	1.8841623
98	0xbd698833	-0.057014655
99	0x3f3e4f39	0.74339634
100	0x3e566afc	0.20939249
101	0x3f783a2a	0.9696375
102	0x3f397168	0.7243867
103	0xbd98b1a2	-0.07455756
104	0x3fcad86e	1.5847299
105	0xbd342a14	-0.04398544
106	0x3ebf2ddf	0.37339684
107	0xbf28f36c	-0.6599643
108	0xbe18e0d8	-0.14929521
109	0x3ec65ad4	0.3874117
110	0x3c39632e	0.01131515
111	0xbf139362	-0.57646763
112	0xbfe41b45	-1.7820822
113	0x3fab8d4d	1.3402497
114	0x3ddd9504	0.10819438
115	0xbed1410f	-0.40869948
116	0xbee50e1a	-0.4473732
117	0x3e347d06	0.17625818
118	0x3f0f179e	0.5589541
119	0xbff2f1ae	-1.8980005
120	0x3f4190e3	0.75611705
121	0x3f2e38b2	0.6805526
122	0xbfebe92b	-1.8430532
123	0x3e8191aa	0.25306445
124	0xbf10e466	-0.5659851
125	0xbeaa9707	-0.3331835
126	0xbead1a95	-0.33809343
127	0xbfed6c15	-1.8548609
128	0xbe19954b	-0.14998357
129	0xbf3e219f	-0.7427005
130	0x3f3fd33c	0.74931693
131	0x3f25d5c8	0.6477933
132	0xbe1503ec	-0.14552277
133	0xbfdfaf37	-1.7475346
134	0x3ee393f8	0.4444883
135	0x3ebd883a	0.37017995
136	0x3ef92829	0.48663452
137	0xbfca6a25	-1.5813643
138	0x3e87ef36	0.2654969
139	0x3f8e362c	1.1110282
140	0xbf3e091e	-0.7423266
141	0xbe8af214	-0.27137816
142	0x3faa5c06	1.3309333
143	0x3eaceba3	0.33773527
144	0xbff940d9	-1.9472915
145	0xbf29a463	-0.6626646
146	0x3f99870a	1.1994336
147	0xbf83a7d9	-1.0285598
148	0x3e8c6d00	0.2742691
149	0x3f5d0671	0.86337954
150	0x3e01bb4c	0.12669104
151	0x3f8e99f4	1.1140733
152	0xbf3d7b05	-0.7401584
153	0xbf304623	-0.6885702
154	0xbf8765c7	-1.0577935
155	0xbef97d1b	-0.4872826
156	0x3e832c9b	0.2561997
157	0xbfa73179	-1.3061973
158	0x3ca61784	0.020274885
159	0x3f896238	1.0733099
160	0x400917cc	2.1420774
161	0xbed363c1	-0.41287044
162	0xbf21bdcd	-0.6318024
163	0xbec4f02d	-0.3846449
164	0xbf80b7b0	-1.0056057
165	0x3c989870	0.018627375
166	0xbe9cb8d1	-0.30609754
167	0x3df7d2ad	0.1210073
168	0x3f3a0719	0.7266708
169	0x3fb1817a	1.3867638
170	0xbec9b362	-0.3939467
171	0xbf97a03d	-1.1845776
172	0xbf628a43	-0.8849222
173	0xbec9c340	-0.39406776
174	0x3f46fd06	0.77729833
175	0xbf8eefa5	-1.1166884
176	0xbcdc945f	-0.026926218
177	0xbf38c9e8	-0.72183084
178	0xbc0730c4	-0.008251373
179	0x3dee3263	0.11630704
180	0x3f9059fa	1.1277459
181	0x3f35492c	0.70814776
182	0x3f5dc6b2	0.8663131
183	0x3e18aaf0	0.14908957
184	0xbfe7bd14	-1.8104577
185	0x3f2d329b	0.6765534
186	0x3f536c0a	0.8258673
187	0x3fe57015	1.792483
188	0xbf35fae3	-0.7108595
189	0x3f848170	1.0352001
190	0x3f90b201	1.1304322
191	0xbf800963	-1.0002865
192	0xbf02fa4d	-0.5116318
193	0xbf485bf0	-0.78265285
194	0xbf15484f	-0.5831346
195	0xbf6cf374	-0.9255898
196	0xbf2f66e5	-0.6851638
197	0x3e0056a0	0.12533045
198	0xbfabbcf7	-1.3417042
199	0x3f31869d	0.6934603
200	0xbebedbc1	-0.37277034
201	0xbd532186	-0.051545642
202	0x3f7ef398	0.99590445
203	0xbd1835d0	-0.037160695
204	0xbf0e8d21	-0.55684096
205	0x3f0f11ae	0.5588635
206	0xbec7c8ba	-0.3902033
207	0x3fa9f0c0	1.3276596
208	0xbfb530c4	-1.4155507
209	0x3e3491bd	0.1763372
210	0xbf90e1ec	-1.1318946
211	0x3f409eef	0.75242513
212	0xbd329f5a	-0.043609
213	0x3fa9f9d8	1.3279371
214	0x3f8bc224	1.0918622
215	0xbf0ca9a4	-0.5494635
216	0xbfe824bc	-1.813621
217	0x3f061f29	0.52391297
218	0xbf4372bf	-0.76346964
219	0xbe68a57c	-0.22719377
220	0x3f2faac5	0.6861995
221	0xbf9ccfe1	-1.225094
222	0x3d36adcc	0.04459934
223	0x3eb81c8d	0.35959283
224	0xbfaf0458	-1.3673201
225	0x3cb04660	0.021517932
226	0xbe6f3d5c	-0.2336325
227	0xbf0763d5	-0.52886707
228	0x3dd247af	0.10267579
229	0x3d902b3f	0.070394985
230	0xbea0f59a	-0.3143738
231	0xbf8de420	-1.1085243
232	0xbf105822	-0.5638448
233	0x3fcea901	1.6145326
234	0x3f656cac	0.89618945
235	0xbf068889	-0.52552086
236	0x3f8f0ab8	1.1175146
237	0xbefc2c57	-0.4925258
238	0x3e866fcc	0.2625717
239	0xbe25eb4f	-0.16203044
240	0xbfc7638f	-1.5577258
241	0x3f013f71	0.5048743
242	0x3fc5d95b	1.5456957
243	0xbcd27776	-0.025691729
244	0x3e95116e	0.2911486
245	0xbfd4f8bd	-1.6638409
246	0xbf94c3fe	-1.1622312
247	0xbf8b1a02	-1.0867312
248	0x3ba75ecf	0.0051077376
249	0xbf3dbb02	-0.74113476
250	0x3f8a6d4b	1.0814604
251	0xbf6b01d0	-0.9179964
252	0x3f8a3595	1.0797602
253	0x3e9a1827	0.30096552
254	0x3ea21ac0	0.31661034
255	0xbe788f76	-0.24273476

lin1.weight f4 [200, 25]
0	0x3d96c804	0.07362369
1	0xbecf24e8	-0.40457845
2	0x3e388d1e	0.18022582
3	0xbe96d82c	-0.294618
4	0xbf003d06	-0.50093114
5	0x3db0ed0a	0.086389616
6	0xbe915fda	-0.2839344
7	0x3f1107a9	0.56652313
8	0x3d4c5351	0.049884144
9	0xbd793b89	-0.060847793
10	0xbe082ab5	-0.13297541
11	0x3e82015c	0.25391662
12	0xbcfb6e81	-0.03069234
13	0xbbebefa5	-0.0072001987
14	0x3f07ab5f	0.52995867
15	0xbd616bf7	-0.055034604
16	0x3cd2d772	0.025737498
17	0x3ea16e37	0.315294
18	0x3e4fd429	0.20295776
19	0x3ee018f0	0.43769026
20	0xbf11ac27	-0.5690331
21	0x3d066eab	0.032820385
22	0x3dd616e3	0.10453584
23	0xbca7bb73	-0.020475125
24	0x3e984238	0.2973802
25	0xbe7a82be	-0.24463937
26	0xbe96241b	-0.2932442
27	0xbe05e026	-0.13073787
28	0xbe62726a	-0.22113958
29	0xbe4ed1d2	-0.20197228
30	0x3eac6842	0.33673292
31	0x3e977a40	0.29585457
32	0x3ed0ebfb	0.4080504
33	0xbe88d535	-0.26725164
34	0xbed7e068	-0.42163396
35	0x3e89bdff	0.26902768
36	0xbe87ae7d	-0.26500311
37	0xbe1f6470	-0.15565658
38	0x3d071016	0.032974325
39	0xbec1f8c8	-0.37885118
40	0xbe603e61	-0.21898796
41	0xbeba7dfc	-0.36424243
42	0x3d886d72	0.066615
43	0xbdde0cff	-0.108423226
44	0x3e8d98b3	0.27655563
45	0x3d8fb43d	0.070167996
46	0x3eaa3e1f	0.3325052
47	0xbe6b0a37	-0.22953115
48	0xbe1b3a75	-0.15159018
49	0x3e097938	0.13425148
50	0xbecc764f	-0.39934012
51	0xbe8a566e	-0.27019066
52	0x3eca94e5	0.39566723
53	0xbe1f2160	-0.15540075
54	0xbf1c1b8c	-0.60979533
55	0x3ec0f0ad	0.3768362
56	0xbec9095b	-0.3926495
57	0xbeb9df38	-0.36303115
58	0x3cb90f8c	0.022590421
59	0x3c9ff7ae	0.019527283
60	0x3d0621aa	0.03274695
61	0x3cb0258e	0.021502282
62	0xbd1548ab	-0.036446255
63	0xbdcc9f75	-0.099913515
64	0x3dd46fa2	0.10372855
65	0xbef532c5	-0.47890297
66	0x3f047bce	0.5175141
67	0x3ee4bb4a	0.4467414
68	0x3ecd61f1	0.40113786
69	0x3da2fd96	0.07958524
70	0xbe3ccf67	-0.18438493
71	0x3ef84131	0.48487237
72	0x3e2bee6a	0.16790166
73	0xbdf79f65	-0.12090949
74	0x3da6fecf	0.0815407
75	0xbee4ad1d	-0.44663325
76	0xbe0d7fc6	-0.13818273
77	0xbcb86144	-0.022507317
78	0xbe70dde7	-0.23522149
79	0x3e807768	0.250911
80	0x3d4256cc	0.047446057
81	0x3e883e43	0.26610002
82	0x3e3a12fb	0.18171303
83	0x3eb72fde	0.35778707
84	0xbe84587e	-0.25848764
85	0x3ebfa76d	0.37432423
86	0x3da81e20	0.08208871
87	0x3e0d9703	0.13827138
88	0xbeb57d8b	-0.35447344
89	0xbcb48e01	-0.022040369
90	0x3e4bcd27	0.19902478
91	0x3e1b5236	0.1516808
92	0x3c1e719c	0.009670641
93	0xbe6fc140	-0.23413563
94	0xbdaf0abc	-0.08546969
95	0x3ebed498	0.3727157
96	0x3ef23a01	0.47309878
97	0xbe25e2bf	-0.16199778
98	0xbe8b193f	-0.271677
99	0xbdc2e2b7	-0.09515899
100	0xbc9a2511	-0.018816503
101	0xbd7021b5	-0.058625896
102	0x3ef3ddb8	0.47630095
103	0xbe150b0f	-0.14555
104	0x3e061ba6	0.13096485
105	0xbe69e447	-0.22840987
106	0xbd711d03	-0.05886556
107	0xbe98ac59	-0.2981899
108	0x3e928ccb	0.28623042
109	0x3e94460c	0.28959692
110	0xbdb4cb43	-0.088278316
111	0xbc0fba9f	-0.008772521
112	0x3de52976	0.11189549
113	0x3e8234e6	0.25430983
114	0xbf082eeb	-0.5319659
115	0x3e172d71	0.14763428
116	0x3d8433aa	0.06455167
117	0xbd95125f	-0.07278895
118	0x3e887711	0.2665334
119	0x3de0f3a9	0.109839745
120	0x3e9140f5	0.2836987
121	0x3d9ec94b	0.07753237
122	0xbe6ddee7	-0.23229562
123	0xbf155f95	-0.5834897
124	0xbf0b2915	-0.5435956
125	0xbdab107d	-0.08352754
126	0x3ed7b80b	0.421326
127	0xbe615a34	-0.22007066
128	0x3e7c676c	0.24648827
129	0xbce7274e	-0.028216984
130	0xbbb9131d	-0.0056480304
131	0xbe954df8	-0.29161048
132	0xbe50e3a9	-0.20399345
133	0x3da24b1e	0.07924484
134	0xbe1f53ad	-0.15559264
135	0x3d5b4923	0.053536545
136	0xbde71ad1	-0.11284412
137	0xbe25f926	-0.16208324
138	0xbd2a7017	-0.041610803
139	0x3db42389	0.0879584
140	0x3ed50e39	0.41612414
141	0xbf04a427	-0.51812977
142	0x3ef22604	0.4729463
143	0xbeb14d0c	-0.34629095
144	0xbe2bd3fa	-0.16780081
145	0xbd5720fb	-0.052521687
146	0x3eb181b9	0.34669283
147	0x3e53849b	0.20656054
148	0x3e59017d	0.21191974
149	0x3e38eac8	0.18058312
150	0xbf0267d1	-0.5093966
151	0xbe5edfb2	-0.2176502
152	0x3ea1df1a	0.31615525
153	0x3e93154e	0.28727192
154	0x3ddfb003	0.109222434
155	0xbe1c57c3	-0.15267853
156	0x3daf7994	0.08568111
157	0x3e6505bd	0.2236547
158	0x3d74b700	0.059744835
159	0xbe476175	-0.1947077
160	0x3ece50b3	0.40295944
161	0xbe090958	-0.1338247
162	0x3e458089	0.19287314
163	0x3c20172d	0.009771151
164	0x3e97c9ea	0.29646236
165	0x3f1a1972	0.60195076
166	0xbe0b78f0	-0.13620353
167	0xbc8772c0	-0.01653421
168	0xbea9158c	-0.3302425
169	0xbe68b1de	-0.22724101
170	0x3eb6e453	0.35721073
171	0x3e8c17c7	0.2736189
172	0xbe5fd1bf	-0.21857356
173	0xbdb018ec	-0.085985035
174	0x3ea52252	0.32252747
175	0x3e62a95d	0.2213492
176	0x3e7cddcc	0.24693984
177	0x3e06f75f	0.13180302
178	0x3d90cd53	0.070704125
179	0x3ed522f9	0.41628245
180	0x3dee910c	0.11648759
181	0x3edd78de	0.43256277
182	0xbecbdcd5	-0.3981692
183	0x3e2c0103	0.16797261
184	0x3e9c6981	0.30549243
185	0x3e85b6b4	0.26115954
186	0xbcf8bcb7	-0.030363424
187	0xbeaf8f87	-0.3428919
188	0x3e325193	0.1741393
189	0xbe5ba745	-0.21450527
190	0xbebea49c	-0.37234962
191	0x3ece01e4	0.40235817
192	0x3e94c3d1	0.29055646
193	0x3ed291fd	0.41127005
194	0x3ebdb834	0.37054598
195	0xbef0b602	-0.4701386
196	0xbd93d6ee	-0.07218729
197	0x3d720dbd	0.059095133
198	0x3e38aec0	0.18035412
199	0xbe5fa709	-0.21841063
200	0x3dd61f92	0.1045524
201	0xbe6e2481	-0.23256113
202	0xbdeac363	-0.11463048
203	0x3dd788bf	0.10524129
204	0x3d8ca2bf	0.06866979
205	0xbc25cbf4	-0.010119427
206	0xbe47df59	-0.19518794
207	0x3e1cc34f	0.1530888
208	0xbe102c5d	-0.14079423
209	0x3ec191e3	0.37806615
210	0xbec15a73	-0.3776432
211	0x3e9718c8	0.29511094
212	0xbe316541	-0.17323782
213	0xbca7ed43	-0.020498877
214	0x3e81a7aa	0.2532323
215	0xbe9f0688	-0.3105967
216	0x3e67d0de	0.2263827
217	0x3dd6f38a	0.1049567
218	0x3c0168e1	0.00789854
219	0xbdf909e9	-0.12160093
220	0xbe57704d	-0.21038933
221	0x3f3733ed	0.7156361
222	0x3ddbeae7	0.107381634
223	0xbcc821da	-0.024430204
224	0x3e986db1	0.29771188
225	0xbeae9173	-0.34095344
226	0xbeb44238	-0.3520677
227	0xbdda0131	-0.106447585
228	0xbe838104	-0.2568437
229	0xbd173314	-0.036913946
230	0x3d6dcba1	0.058055524
231	0xbdbb8f95	-0.091582455
232	0x3e18ba88	0.14914906
233	0x3e32f328	0.17475569
234	0xbcb1d5d7	-0.021708412
235	0xbeb90218	-0.3613441
236	0xbe8d083d	-0.27545348
237	0x3e609e37	0.21935354
238	0xbf1c2e7f	-0.6100845
239	0x3df9d233	0.121982954
240	0xbe407c14	-0.18797332
241	0x3c9c9b74	0.019117095
242	0x3e60b09a	0.21942368
243	0xbf011802	-0.5042726
244	0xbe8519a8	-0.25996137
245	0x3d39ee3e	0.04539322
246	0x3ed0f553	0.40812168
247	0xbeaf6791	-0.34258702
248	0x3de171d9	0.11008043
249	0x3e3bae7c	0.1832828
250	0x3f298bab	0.6622874
251	0xbe76ff3f	-0.24120806
252	0xbe1dceed	-0.15410967
253	0x3e991b72	0.29903752
254	0xbf009be5	-0.50237876
255	0x3ea6e775	0.32598463

lin1.bias f4 [200]
0	0xbe67a7ce	-0.22622606
1	0x3eade1d9	0.3396137
2	0xbd976d81	-0.07393933
3	0xbeee0390	-0.46487093
4	0xbe71506d	-0.23565836
5	0xbe47b2e6	-0.19501838
6	0x3db741a7	0.08948069
7	0xbda90052	-0.08252014
8	0xbe39d269	-0.18146671
9	0xbecf21bf	-0.40455434
10	0xbde55d35	-0.111994185
11	0x3eb430fe	0.35193628
12	0xbe77ee36	-0.24211964
13	0x3ecdec34	0.4021927
14	0x3ebc40ef	0.3676829
15	0x3e706e9f	0.23479699
16	0x3daec73e	0.08534096
17	0xbe5c53b5	-0.21516307
18	0x3d8fb234	0.070164114
19	0xbe7943e4	-0.24342304
20	0xbdb0981b	-0.08622762
21	0x3ed10c6d	0.40829793
22	0x3e0031ae	0.12518951
23	0xbef00ba0	-0.4688387
24	0x3f06dca7	0.5268044
25	0x3e38958f	0.18025802
26	0x3ea644a1	0.32474235
27	0xbd4e6b76	-0.05039545
28	0xbe8eddea	-0.27903682
29	0x3d513640	0.051077127
30	0x3d6fc5b7	0.058538165
31	0xbe5a94c7	-0.21345817
32	0x3ebd9d43	0.37034044
33	0x3ea077fd	0.31341544
34	0xbe4688c1	-0.19388105
35	0xbe03f999	-0.12888183
36	0xbe827960	-0.25483227
37	0x3e26fbdc	0.16307014
38	0xbed3ad0a	-0.41342956
39	0xbe2d1cd4	-0.16905528
40	0xbe1c873a	-0.1528596
41	0x3e5e328a	0.21698967
42	0xbd8b1867	-0.06791764
43	0x3e8de6ff	0.277153
44	0x3e6344ae	0.22194168
45	0x3b195135	0.002339435
46	0xbea9c911	-0.33161214
47	0x3e9c2d1a	0.3050316
48	0x3e856467	0.26053163
49	0xbd4063ab	-0.04697005
50	0xbf18deff	-0.59715265
51	0x3d9e3a4f	0.07725965
52	0xbe9dd8fc	-0.30829608
53	0x3eac425f	0.33644387
54	0x3e3be7b1	0.18350102
55	0x3e745a93	0.23862676
56	0xbdc4365c	-0.09580681
57	0x3d84e7bb	0.064895116
58	0x3ddc8d65	0.10769156
59	0x3e8fcd72	0.2808643
60	0x3e669cff	0.22520827
61	0xbe695a6d	-0.22788401
62	0x3e81d065	0.25354305
63	0xbe80167c	-0.25017154
64	0x3edd4391	0.43215612
65	0xbdc750ce	-0.09732209
66	0xbe54a852	-0.20767334
67	0xbb4b2bbd	-0.0031001412
68	0xbe4bbe40	-0.19896793
69	0xbdbd109f	-0.09231686
70	0xbe7f3d20	-0.24925661
71	0x3e46003e	0.1933603
72	0x3d4640f2	0.04840178
73	0x3d82f931	0.06395186
74	0xbe04f370	-0.12983489
75	0xbf28fc18	-0.66009665
76	0x3eb629dc	0.3557881
77	0xbb05b481	-0.0020401778
78	0xbe46b131	-0.1940353
79	0xbd250e56	-0.040296875
80	0xbd09e250	-0.033663094
81	0xbe186c9e	-0.14885184
82	0xbedb09d1	-0.42780927
83	0x3e23c7b8	0.15994155
84	0xbe21a615	-0.15786012
85	0x3da30086	0.07959084
86	0xbe723d44	-0.23656183
87	0x3eac3186	0.33631533
88	0x3e517c12	0.20457485
89	0xbe833e69	-0.25633553
90	0x3db97b85	0.090567626
91	0x3cbe0c59	0.023199247
92	0x3e5fe387	0.21864139
93	0x3c3d06a6	0.01153723
94	0x3ddf4cdf	0.10903334
95	0xbeb1a32f	-0.34694812
96	0xbdaeaf84	-0.08529571
97	0x3e02a00e	0.12756369
98	0x3d38ffeb	0.045165937
99	0xbe2fd30b	-0.1717035
100	0xbe0b5b12	-0.1360896
101	0x3dbdeb06	0.09273343
102	0xbece6cbc	-0.40317333
103	0xbe05fb33	-0.13084106
104	0xbdd2fe5e	-0.10302423
105	0xbd7c7399	-0.06163368
106	0xbeaf55a4	-0.34245026
107	0xbe700273	-0.23438434
108	0x3e05db8c	0.13072032
109	0xbe86ea17	-0.2635047
110	0x3d818725	0.06324605
111	0xbe44abc6	-0.19206151
112	0xbd64d0fe	-0.055863373
113	0x3df1f779	0.1181478
114	0x3d5cdd00	0.0539217
115	0x3e4f06ce	0.2021744
116	0xbec1163f	-0.37712285
117	0xbcc1f06e	-0.023674216
118	0xbda72463	-0.08161237
119	0x3eb9c333	0.36281738
120	0x3e8813ee	0.26577705
121	0x3dc56a5a	0.096394256
122	0x3ebab4fa	0.364662
123	0xbe846244	-0.2585622
124	0x3eff8847	0.4990866
125	0x3e88b877	0.26703236
126	0x3f1b4f34	0.6066773
127	0x3edc89fa	0.43074018
128	0x3ed585c8	0.4170363
129	0xbe770d2b	-0.24126117
130	0xbdebd23f	-0.11514711
131	0x3d999fa0	0.07501149
132	0x3da577de	0.080795035
133	0xbd985831	-0.07438696
134	0xbc4f88f9	-0.012666934
135	0x3eccb9c9	0.39985493
136	0xbcba7679	-0.02276157
137	0x3eab7b8d	0.334927
138	0xbe84d465	-0.25943294
139	0x3e25e286	0.16199693
140	0x3e9df07c	0.30847538
141	0x3d62ef98	0.055404276
142	0x3e9221d0	0.28541422
143	0xbe01ec09	-0.12687697
144	0x3e3c2e22	0.18376973
145	0xbeda5ce2	-0.4264899
146	0x3e364037	0.17797934
147	0x3eaf5704	0.34246075
148	0xbe06525f	-0.1311736
149	0x3e5a2c87	0.21306048
150	0x3da9fd7e	0.08300303
151	0x3e4baa9d	0.19889303
152	0x3e80da49	0.25166538
153	0xbece1ef4	-0.4025799
154	0x3ea1a18b	0.3156856
155	0x3da2dd61	0.07952381
156	0x3f07bbf7	0.53021187
157	0xbebf611a	-0.3737877
158	0x3ebb4b81	0.36581042
159	0xbe76a271	-0.24085404
160	0x3e868de5	0.26280132
161	0x3e635138	0.22198951
162	0x3ed5a2fa	0.41725904
163	0xbe9baef0	-0.30406904
164	0xbeb91f17	-0.36156532
165	0xbe3d806c	-0.1850602
166	0xbde6ddc1	-0.11272765
167	0x3e69f90b	0.22848909
168	0xbd92995c	-0.07158157
169	0xbd6aa6ed	-0.0572881
170	0x3e9b51c9	0.30335835
171	0xbd54f805	-0.051994342
172	0x3ea7a58d	0.32743493
173	0xbc216e4c	-0.009852957
174	0x3e70bdf6	0.23509964
175	0xbeec2081	-0.4611855
176	0xbe1eeb16	-0.15519366
177	0xbe0883dd	-0.13331552
178	0xbe99e1f9	-0.30055216
179	0xbe7a3ede	-0.24438044
180	0xbe8cc846	-0.27496547
181	0x3ec7ea5b	0.39045987
182	0x3cab7297	0.020928664
183	0xbea3fed9	-0.3203037
184	0x3e048398	0.12940824
185	0xbd8cc314	-0.06873146
186	0x3d60961b	0.05483065
187	0x3e844499	0.25833586
188	0xbe8ab7b9	-0.27093294
189	0xbcc71de9	-0.024306254
190	0xbd6569a4	-0.05600895
191	0x3e028850	0.12747312
192	0x3e966843	0.2937642
193	0x3e4c5e1a	0.19957772
194	0xbdcacf93	-0.09902873
195	0x3e943d4e	0.28953022
196	0xbe05cf9c	-0.13067478
197	0x3e9570d2	0.29187638
198	0xbea6c983	-0.32575616
199	0xbe984ccc	-0.2974609

lin2.weight f4 [200, 200]
0	0xbde017b5	-0.10942022
1	0x3db78c38	0.089622915
2	0xbe4abdb4	-0.19798928
3	0x3da36c80	0.07979679
4	0x3e5996a9	0.21248879
5	0xbe0119e4	-0.12607533
6	0x3c3470ef	0.011013254
7	0xbdfed854	-0.12443605
8	0x3c79fb01	0.015257598
9	0x3e0a9605	0.1353379
10	0x3dbd8f8d	0.09255896
11	0x3e48f211	0.19623591
12	0xbe7ae02b	-0.24499576
13	0xbde0405d	-0.10949776
14	0xbe135cae	-0.14390823
15	0x3e35e701	0.17763902
16	0xbd0f2fbd	-0.034957636
17	0x3d7d5f4d	0.061858464
18	0xbcc5d458	-0.024149105
19	0xbcd0822d	-0.025452698
20	0x3e3c4d39	0.18388833
21	0x3a53cd0a	0.00080795644
22	0xbdd9895f	-0.106219046
23	0xbd939fe3	-0.0720823
24	0x3e52d795	0.2059005
25	0xbe1e14c7	-0.15437613
26	0x3e42c4dd	0.1902041
27	0xbd022916	-0.031777464
28	0xbda504e3	-0.08057573
29	0x3e3b65e3	0.18300585
30	0xbe678b1f	-0.22611664
31	0xbe37e551	-0.17958571
32	0x3e966e50	0.29381037
33	0xbdc12b58	-0.09432095
34	0x3de36644	0.1110349
35	0xbe10078a	-0.14065376
36	0xbe99cbf4	-0.30038416
37	0x3d434035	0.047668654
38	0xbc095d0b	-0.008384
39	0xbdc65549	-0.096842356
40	0xbd3bad6b	-0.04581968
41	0x3c6bbdda	0.014388526
42	0xbd135c0b	-0.03597645
43	0xbdf7505a	-0.12075873
44	0x3d8e2e38	0.06942409
45	0x3e438a1a	0.1909565
46	0x3d5a054b	0.053227704
47	0x3d0abd24	0.033871785
48	0x3d827ff6	0.06372063
49	0xbb9e39c4	-0.0048286635
50	0x3d8f5da2	0.07000281
51	0xbe598c2f	-0.21244882
52	0xbda09b11	-0.078420766
53	0x3e3be730	0.1834991
54	0x3e5d0e7d	0.21587558
55	0x3df33b3e	0.11876534
56	0x3e03e0f5	0.12878783
57	0xbe2ab982	-0.16672328
58	0x3d4671b9	0.048448298
59	0xbd29d7c3	-0.041465532
60	0x3caaf1ba	0.020867217
61	0x3bea4504	0.0071493406
62	0x3d7a889f	0.06116545
63	0x3cb38c6c	0.021917544
64	0xbe08f6cc	-0.13375396
65	0xbd7b4ddf	-0.06135356
66	0xbe407d40	-0.18797779
67	0x3ddb9c2f	0.10723149
68	0x3de935b9	0.113872
69	0xbe59f55a	-0.21285
70	0xbe36af32	-0.17840269
71	0x3e1c57a3	0.15267806
72	0x3ddc76d3	0.107648514
73	0x3dab53ae	0.0836557
74	0x3df3455e	0.11878465
75	0xbdb8cab9	-0.09023041
76	0xbda4ab19	-0.08040447
77	0xbd866d78	-0.06563848
78	0xbe8cdb94	-0.27511275
79	0xbcc8a75f	-0.024493871
80	0xbd55d03f	-0.052200552
81	0x3e1b56b2	0.1516979
82	0xbe318df9	-0.17339315
83	0xbdc44483	-0.0958338
84	0x3d557505	0.05211355
85	0x3dc60cf8	0.09670442
86	0x3c3d63b5	0.011559417
87	0x3dae5c68	0.08513719
88	0x3e27d5ed	0.163902
89	0xbe6b942b	-0.2300574
90	0xbddc9658	-0.10770863
91	0xbe608c96	-0.2192863
92	0x3d974029	0.073852845
93	0xbe13fbb8	-0.14451492
94	0xbd0df691	-0.034658972
95	0xbe81bbdf	-0.25338647
96	0x3d899746	0.06718306
97	0xbd683141	-0.056687597
98	0x3e83fecc	0.25780332
99	0xbd0ad4be	-0.033894293
100	0xbd47d1c3	-0.04878403
101	0xbdbaefea	-0.09127791
102	0xbcfe53f5	-0.031045893
103	0x3d7339e6	0.059381388
104	0xbe0edd00	-0.13951492
105	0x3e09c35f	0.13453434
106	0xbc1dd0db	-0.009632315
107	0x3de8a013	0.11358657
108	0xbdbdc95f	-0.09266924
109	0x3c95d437	0.018289668
110	0x3dd2294e	0.102617845
111	0xbac1e677	-0.0014793415
112	0xbd50e550	-0.05099994
113	0xbe173753	-0.14767198
114	0x3dc85396	0.09781568
115	0xbd16b151	-0.036790196
116	0xbc1ab963	-0.009443614
117	0x3d67fd55	0.05663808
118	0xbd02b23d	-0.031908263
119	0xbe002222	-0.1251302
120	0x3c9171d9	0.017754482
121	0x3e1bb922	0.15207341
122	0x3de2bbc0	0.11070967
123	0xbdc4b19d	-0.096041895
124	0x3d0005ee	0.031255655
125	0x3e8d4cd0	0.27597666
126	0xbdc6d118	-0.0970785
127	0xbe97df0f	-0.29662368
128	0x3e28328f	0.16425537
129	0xbea97937	-0.33100292
130	0x3e0c0923	0.1367536
131	0x3e1c4174	0.15259343
132	0x3e4d5d37	0.2005509
133	0xbd90ad9c	-0.07064363
134	0x3e2a6551	0.16640212
135	0x3b884994	0.004159162
136	0x3e0e9dc5	0.13927372
137	0x3d8fd691	0.07023347
138	0x3cce7dc8	0.025206462
139	0xbdd20ed7	-0.10256737
140	0xbbed20f0	-0.0072365925
141	0xbe44997e	-0.19199178
142	0xbd45623d	-0.04818939
143	0x3daacac5	0.083394565
144	0x3e6a8584	0.22902495
145	0x3c17e476	0.009270778
146	0x3d9f9fe2	0.07794167
147	0x3dfed0b0	0.12442148
148	0xbda8de31	-0.08245505
149	0x3c9ee8fe	0.019398209
150	0x3e826986	0.25471133
151	0xbdb301ba	-0.08740564
152	0x3c2f8d1d	0.010714796
153	0xbe4858aa	-0.19565073
154	0xbeda9d70	-0.4269824
155	0xbc8c6175	-0.017136315
156	0x3d8feacc	0.07027206
157	0x3cfc4bac	0.030797802
158	0xbdfdbb71	-0.12389267
159	0xbdbfe61e	-0.09370063
160	0xbd578756	-0.0526193
161	0xbd240d47	-0.040051725
162	0xbc5e9096	-0.013584277
163	0xbb16092c	-0.002289365
164	0xbd32a584	-0.04361488
165	0x3dae052d	0.08497081
166	0x3dfd7f7a	0.1237783
167	0x3daa8d1d	0.083276965
168	0xbcf999e2	-0.030468885
169	0xbd90f5ae	-0.0707811
170	0x3d24314f	0.040086087
171	0xbe2c0a92	-0.16800907
172	0x3e29cc11	0.16581751
173	0xbc953aaf	-0.01821646
174	0x3d348c5d	0.044079173
175	0x3c042db8	0.008067541
176	0xbe112dc3	-0.14177613
177	0xbd14b3f7	-0.03630444
178	0xbd4fbb5f	-0.0507158
179	0xbc0ffda6	-0.008788502
180	0xbe5c28c2	-0.21499923
181	0xbd528327	-0.051394608
182	0xbcc86fd8	-0.024467394
183	0x3d48cd47	0.049023893
184	0x3e546c55	0.2074445
185	0x3e2c818d	0.16846295
186	0x3ea46cba	0.32114202
187	0x3e8b4c7f	0.272068
188	0xbd37d9ac	-0.044885322
189	0x3db5f40b	0.08884438
190	0xbe0f9c69	-0.1402451
191	0xbd898f6b	-0.06716808
192	0x3e8465ad	0.25858822
193	0x3d4f8c68	0.05067101
194	0xbbdaba84	-0.0066750664
195	0xbda2c267	-0.079472356
196	0x3b67c19c	0.0035363203
197	0xbe1bc4a5	-0.15211733
198	0x3e544bf1	0.20732094
199	0xbcf0ad77	-0.02937959
200	0x3e4ae735	0.19814761
201	0x3c4a56f8	0.0123498365
202	0x3e2586d3	0.16164713
203	0xbe6b3c17	-0.22972141
204	0xbd36fa18	-0.0446721
205	0xbd43df6d	-0.047820497
206	0x3c9fadf5	0.019492129
207	0xbd05263e	-0.032507174
208	0x3ad73084	0.0016417657
209	0xbc6a4b12	-0.014300125
210	0xbddedc80	-0.10881901
211	0xbdb12871	-0.08650292
212	0xbd7cd166	-0.061723135
213	0x3e3c53f3	0.18391399
214	0xbe7d18c1	-0.24716474
215	0xbe979f47	-0.29613706
216	0x3d2df70d	0.042471934
217	0xbd8062cf	-0.06268846
218	0xbe99a45f	-0.30008218
219	0x3d29dc4e	0.041469865
220	0xbea19106	-0.31555957
221	0x3c299f0a	0.010352859
222	0xbdb2a533	-0.087229155
223	0x3e12f5a2	0.14351514
224	0x3d8b01d9	0.06787462
225	0x3c66a0f9	0.014076465
226	0x3e0b99f7	0.13632952
227	0x3d7e0e66	0.06202545
228	0x3e920e6f	0.28526637
229	0x3e16bffb	0.14721672
230	0xbd9af9e9	-0.07567198
231	0xbd8b3625	-0.067974366
232	0x3df6b802	0.120468155
233	0xbe102740	-0.14077473
234	0x3d25446f	0.040348466
235	0xbe5a5229	-0.21320404
236	0x3c14ef5d	0.009090272
237	0xbe064f05	-0.13116081
238	0xbdd90c1a	-0.10598011
239	0x3d9749cf	0.07387125
240	0x3ea0457e	0.31303018
241	0x3cb5f0ab	0.022209486
242	0xbd440bba	-0.047862746
243	0x3e265c8e	0.16246244
244	0x3d8e2c97	0.069420986
245	0xbe07373b	-0.13204663
246	0x3d94ba70	0.07262123
247	0x3e29d8b8	0.16586578
248	0x3e54a1ca	0.20764843
249	0xbc366e2d	-0.011134666
250	0x3e3bfb82	0.18357661
251	0x3e6e1169	0.23248829
252	0x3d9a6e35	0.075405516
253	0x3dded3a0	0.10880208
254	0xbd3d8835	-0.046272475
255	0xbda2f411	-0.07956708

lin2.bias f4 [200]
0	0x3e98ab89	0.2981837
1	0xbdae86ce	-0.08521806
2	0xbe0ccd30	-0.13750148
3	0x3e8a2733	0.26983032
4	0xbca49031	-0.020088287
5	0xbe628311	-0.2212031
6	0x3dff3ac1	0.12462378
7	0xbd71250c	-0.05887322
8	0xbe2a97d6	-0.16659483
9	0x3e0412f1	0.1289785
10	0x3e56dfc7	0.20983802
11	0xbea399c9	-0.31953266
12	0x3c8d83ca	0.017274756
13	0x3d9539db	0.07286426
14	0xbe2eeb28	-0.17081892
15	0x3e583120	0.2111249
16	0xbde6635b	-0.11249419
17	0xbe0f8239	-0.1401452
18	0xbdc51822	-0.096237436
19	0xbe895118	-0.26819682
20	0x3d2208e3	0.039559256
21	0x3e0ed9f7	0.13950334
22	0x3dfac6dc	0.12244961
23	0x3e07ecdb	0.13273947
24	0xbd8a5c9d	-0.06755946
25	0x3d849b04	0.064748794
26	0x3d70c7f4	0.05878444
27	0xbe4fe4dc	-0.20302147
28	0x3d87da8f	0.066334836
29	0xbde724f2	-0.11286344
30	0x3d8a03ad	0.06738982
31	0xbdea685e	-0.11445688
32	0xbcc09d44	-0.02351249
33	0xbec56bac	-0.3855871
34	0xbd0532d2	-0.03251917
35	0x3e3d7a18	0.18503606
36	0x3c2e3e08	0.010634907
37	0x3c0d17f3	0.008611667
38	0xbe145b96	-0.14488062
39	0xbe8aa196	-0.27076405
40	0xbc835697	-0.0160325
41	0xbd9eb8cd	-0.07750092
42	0x3c374947	0.011186904
43	0x3d8099f3	0.062793635
44	0xbe5a7004	-0.21331793
45	0xbbf1b829	-0.00737669
46	0x3e5418ee	0.20712635
47	0xbd5515e6	-0.052022837
48	0xbc965fbd	-0.018356198
49	0x3daa6bd2	0.08321346
50	0xbd9f9073	-0.077912234
51	0x3ec310bd	0.38098708
52	0x3b38d04c	0.0028200326
53	0xbe79b5db	-0.24385779
54	0xbdc1ecaf	-0.09468972
55	0xbeb1a896	-0.34698933
56	0xbd56d9a4	-0.052453652
57	0x3e09db77	0.13462625
58	0x3e1985f9	0.14992513
59	0x3db4e61d	0.08832953
60	0xbd4c5b89	-0.049891982
61	0xbe160f5e	-0.146543
62	0x3e1940ae	0.1496608
63	0xba6be8bb	-0.0008999218
64	0xbdbdd0dd	-0.09268353
65	0x3d490c33	0.0490839
66	0xbceed998	-0.029156491
67	0xbe2f5622	-0.17122701
68	0xbe2a8f1f	-0.16656159
69	0xbd424daa	-0.047437347
70	0x3d2aa557	0.041661587
71	0xbdefa683	-0.117016815
72	0xbdccbd7b	-0.09997078
73	0x3ab027c8	0.001343959
74	0xbd41dbeb	-0.04732887
75	0x3daa0d4a	0.08303316
76	0xbd4fa2a1	-0.050692204
77	0x3e27cabc	0.16385931
78	0x3d18a2a0	0.037264466
79	0x3e00139b	0.12507479
80	0xbe13310b	-0.14374177
81	0xbcd8a213	-0.02644447
82	0xbde55054	-0.11196962
83	0x3d35af23	0.044356477
84	0x3e2434c6	0.16035756
85	0x3e28f85f	0.16500996
86	0x3c6a4333	0.014298248
87	0x3e8728f5	0.26398435
88	0x3eb2dfb6	0.34936303
89	0x3d91b9ab	0.071154915
90	0xbe360313	-0.1777461
91	0xbe38fd3f	-0.18065356
92	0x3d072199	0.032991026
93	0x3e433e09	0.19066633
94	0x3d900c90	0.07033646
95	0x3e1ab8d3	0.15109567
96	0xbe558273	-0.20850544
97	0x3d32ec74	0.04368253
98	0x3dc96938	0.09834522
99	0xbd352265	-0.044222254
100	0xbca44fda	-0.020057607
101	0xbc7ba33b	-0.015358741
102	0xbd1f78fa	-0.03893373
103	0x3e1bb9b1	0.15207554
104	0x3e11cc2e	0.14238045
105	0xbe6c28e9	-0.23062481
106	0xbe171c61	-0.1475692
107	0xbe489d3d	-0.19591232
108	0x3e6d15d7	0.23152862
109	0xbd8571c4	-0.0651584
110	0x3daca9a0	0.08430791
111	0xbd21bc0c	-0.039485976
112	0x3d595c33	0.053066444
113	0xbe1ee666	-0.15517578
114	0x3dc8b03e	0.097992405
115	0x3e0422ac	0.12903851
116	0xbe4b0f4f	-0.19830059
117	0x3da39ab2	0.0798849
118	0xbc82980a	-0.015941638
119	0x3eb5ec60	0.35531902
120	0x3d801168	0.0625332
121	0xbe5f3994	-0.21799308
122	0xbac2aade	-0.0014851948
123	0x3db22733	0.08698883
124	0xbd9b2581	-0.07575513
125	0xbca0925e	-0.019601043
126	0x3e68d87d	0.22738834
127	0xbc57ecc9	-0.013179013
128	0x3e27d318	0.1638912
129	0x3daa1de6	0.08306484
130	0xbbfbee12	-0.0076882923
131	0xbccbac66	-0.02486248
132	0x3e2f6b32	0.17130736
133	0xbd2e7ad6	-0.042597614
134	0x3d457bc2	0.048213728
135	0xbdb5a0bc	-0.08868548
136	0x3de1add2	0.11019482
137	0x3eb8285b	0.3596829
138	0x3dd40c2b	0.10353883
139	0x3e4cb552	0.19991043
140	0x3e5023ff	0.20326231
141	0xbdbca020	-0.09210229
142	0x3daf2c50	0.08553374
143	0xbe388750	-0.18020368
144	0xbd235f63	-0.03988589
145	0xbeea5ac3	-0.4577237
146	0xbe58cae2	-0.21171144
147	0x3e0359eb	0.1282727
148	0xbe70bd0d	-0.23509617
149	0x3e534ebd	0.20635505
150	0xbdf0862f	-0.117443435
151	0xbdce8162	-0.100832716
152	0x3e778051	0.24170043
153	0xbe29324a	-0.1652309
154	0x3e065c92	0.1312125
155	0xbdc0aa88	-0.09407526
156	0xbdd7b1ae	-0.105319366
157	0xbe9a041d	-0.30081263
158	0x3d6e32c7	0.058153894
159	0xbbb03749	-0.0053776843
160	0x3dfbf5bb	0.12302729
161	0xbe18b904	-0.14914328
162	0xbe15da77	-0.14634119
163	0xbe1b50f1	-0.15167595
164	0x3e208850	0.15676999
165	0xbe5fad0a	-0.21843353
166	0xbe423d29	-0.18968643
167	0x3ba8546b	0.0051370165
168	0x3d411104	0.047135368
169	0x3d81f892	0.06346239
170	0xbdec8468	-0.11548692
171	0x3db3471b	0.08753797
172	0x3e00d5c8	0.12581551
173	0xbceb02a8	-0.02868779
174	0x3e6b0c3d	0.22953887
175	0x3eb9926d	0.36244527
176	0x3daf0a59	0.085468955
177	0x3e5a4cef	0.2131841
178	0xbe744358	-0.23853815
179	0xbdd76cda	-0.10518809
180	0x3e11e9c1	0.14249326
181	0xbe09289b	-0.13394396
182	0x3d931550	0.071817994
183	0x3d19b1a8	0.03752294
184	0xbd232c12	-0.03983695
185	0xbcdc4ec9	-0.026893036
186	0xbd1cebe5	-0.038310904
187	0x3d945ecc	0.072446436
188	0x3ccc4c73	0.024938798
189	0x3cf00fc1	0.029304387
190	0x3ce1cab1	0.027562471
191	0xbe0ebb7b	-0.13938706
192	0xbe44ed6f	-0.19231199
193	0x3e6c846e	0.23097393
194	0xbcf4961a	-0.02985673
195	0xbe452efa	-0.19256201
196	0x3e89d1b3	0.269178
197	0xbe1a81c3	-0.15088563
198	0xbe21dfee	-0.15808079
199	0xbd658423	-0.05603422

lin3.weight f4 [200, 200]
0	0xbe1814c0	-0.14851665
1	0x3d316049	0.043304715
2	0x3f114e9c	0.56760573
3	0x3e2fc8e1	0.17166473
4	0x3d566e6e	0.052351408
5	0xbe232e39	-0.15935601
6	0xbd06f76d	-0.032950807
7	0xbe49d581	-0.19710352
8	0xbd40edb1	-0.04710168
9	0xbe04f72a	-0.1298491
10	0xbdc18230	-0.094486594
11	0xbe1c27fd	-0.1524963
12	0x3c5236c3	0.012830439
13	0x3d7e554a	0.062093057
14	0x3dd3a0f4	0.10333434
15	0xbda28341	-0.07935191
16	0x3e8c1dec	0.2736658
17	0xbd5e6948	-0.054299623
18	0xbdfc00f0	-0.12304866
19	0x3d7053e9	0.058673773
20	0xbb5bb640	-0.0033525378
21	0x3e4e33c4	0.20136935
22	0xbe716837	-0.23574911
23	0x3e7a37e3	0.24435382
24	0x3de86c9c	0.113488406
25	0xbe0c3220	-0.13690996
26	0xbd2f51d7	-0.042802658
27	0xbe0bf9f9	-0.13669576
28	0x3eb47ea3	0.35252866
29	0x3c9f06ce	0.019412424
30	0xbe875e88	-0.2643931
31	0x3e2c3eb4	0.16820794
32	0xbec5bb12	-0.38619286
33	0xbce46939	-0.027882205
34	0xbd1cb3e0	-0.03825748
35	0x3e9cc66d	0.30620137
36	0xbe5441db	-0.20728247
37	0x3e2bb7cd	0.16769333
38	0xbe31d8cc	-0.17367858
39	0xbe9ef2bd	-0.3104457
40	0xbc10f213	-0.0088467775
41	0xbd37673f	-0.044776198
42	0xbd7fe37d	-0.06247281
43	0xbe2ed0bd	-0.17071815
44	0x3e8796f7	0.26482365
45	0xbd7cf0d9	-0.061753128
46	0x3e414517	0.18874012
47	0x3bba3979	0.005683121
48	0x3c44c5ea	0.012010077
49	0x3d4a81b4	0.0494401
50	0x3e1d3adf	0.15354489
51	0x3db4e562	0.08832814
52	0xbee0e000	-0.43920898
53	0xbe8c1b01	-0.27364352
54	0x3e593eec	0.21215409
55	0xbe13c06e	-0.14428875
56	0x3ea75003	0.32678232
57	0xbe97dcdb	-0.29660687
58	0x3e77efe3	0.24212603
59	0xbe8b158a	-0.2716487
60	0xbe9c4128	-0.3051846
61	0xbe2cfd57	-0.16893516
62	0xbc375ede	-0.011192052
63	0xbe83baeb	-0.25728545
64	0xbbaa1612	-0.0051906193
65	0x3d9f580e	0.07780467
66	0x3de30dcb	0.11086615
67	0x3e362473	0.17787342
68	0xbdac1b9d	-0.08403704
69	0x3aabcdf1	0.001310764
70	0x3bbb7ab9	0.005721417
71	0xbe98ebb2	-0.2986732
72	0xbdbd5296	-0.09244268
73	0xbc36d6dc	-0.011159625
74	0xbe3cecdc	-0.1844973
75	0x3d0a8ba0	0.033824563
76	0x3d72dbd3	0.059291672
77	0x3e75fef1	0.24023034
78	0xbe923eee	-0.28563637
79	0xbe5a01e4	-0.21289784
80	0x3dde2dfc	0.108486146
81	0xbd00faa4	-0.03148903
82	0xbed5c303	-0.41750345
83	0x3d5337b4	0.051566795
84	0x3d18e238	0.037325114
85	0x3df9f490	0.1220485
86	0xbe852865	-0.2600738
87	0x3d105380	0.03523588
88	0xbdbad824	-0.09123257
89	0xbdeabbb1	-0.114615805
90	0x3dc176f3	0.09446516
91	0x3d6b15da	0.057393886
92	0x3e95843b	0.29202446
93	0xbe1849df	-0.1487193
94	0x3e0eef09	0.13958372
95	0x3d0156b0	0.031576812
96	0x3daaf215	0.08346955
97	0xbe25af20	-0.16180086
98	0xbc1f284b	-0.009714196
99	0x3e3731a3	0.17890029
100	0x3d687530	0.056752384
101	0x3d67a7a7	0.05655637
102	0x3dd2f732	0.10301055
103	0x3e6f21ae	0.23352692
104	0xbda008ac	-0.07814154
105	0xbe1b3e93	-0.15160589
106	0x3e2f6f48	0.17132294
107	0xbeb62e7d	-0.35582343
108	0x3e2dd292	0.16974857
109	0xbef60f27	-0.48058435
110	0x3e1dd99f	0.15415047
111	0x3e02c01b	0.12768595
112	0x3e23bd5f	0.15990208
113	0x3e896490	0.26834536
114	0x3d344fd5	0.044021446
115	0xbd771989	-0.060327087
116	0xbe07ef83	-0.1327496
117	0x3c82e31a	0.015977431
118	0xbe84aeb1	-0.2591453
119	0x3e9d49e5	0.3072044
120	0x3e5d99b0	0.21640658
121	0xbd6440dd	-0.05572592
122	0x3e69082e	0.22757027
123	0xbe3a34d0	-0.18184209
124	0xbdbe73ea	-0.092994526
125	0x3df12c96	0.11776082
126	0x3ea066c4	0.31328404
127	0xbdbdb3b1	-0.09262789
128	0x3e870005	0.26367202
129	0xbe06d3ae	-0.13166687
130	0x3d9af9a9	0.0756715
131	0x3e87fa00	0.26557922
132	0xbe93d20b	-0.28871188
133	0xbec1dca2	-0.37863642
134	0xbc916880	-0.017750025
135	0xbde503ad	-0.11182342
136	0xbd1a35f0	-0.037649095
137	0x3d71e2cf	0.059054192
138	0x3e17f4c3	0.14839463
139	0x3da6010d	0.08105669
140	0xbe2b07f1	-0.16702248
141	0xbe819320	-0.2530756
142	0xbe1af3c0	-0.15132046
143	0x3deced98	0.11568755
144	0x3d60e26f	0.054903444
145	0xbc83f724	-0.016109057
146	0xbddbf6ce	-0.10740434
147	0xbde44c58	-0.11147374
148	0x3e68eef9	0.22747411
149	0x3e79095e	0.2431998
150	0x3da17bc9	0.07884938
151	0x3c41ea87	0.011835701
152	0xbceb40a8	-0.028717354
153	0x3ab06f52	0.001346091
154	0x3e06777c	0.13131517
155	0x3cd94d7a	0.026526202
156	0xbccfbc9b	-0.025358489
157	0xbd9a7aa7	-0.07542925
158	0x3e252db7	0.1613072
159	0xbd8d48e5	-0.06898669
160	0xbe2a408a	-0.16626182
161	0x3cb32e8e	0.021872785
162	0xbdce1d75	-0.10064212
163	0x3c1ddedb	0.009635652
164	0xbe2cceee	-0.16875812
165	0xbe9d010b	-0.30664858
166	0xbdd5e5f2	-0.10444249
167	0x3e282863	0.16421656
168	0xbea1ac3a	-0.3157671
169	0x3de177bf	0.11009168
170	0x3e308b35	0.17240603
171	0x3c08c285	0.008347158
172	0xbf04517c	-0.51686835
173	0xbd9274e4	-0.07151201
174	0xbd8f64db	-0.070016585
175	0xbc313f9b	-0.010818387
176	0x3e8e2d2d	0.2776884
177	0xbe2b9755	-0.16756947
178	0xbd87ba96	-0.06627385
179	0x3dfc5756	0.123213455
180	0xbe109204	-0.141182
181	0xbcc38042	-0.023864869
182	0x3db94218	0.090458095
183	0x3e498fbf	0.19683741
184	0x3dcd948c	0.10038099
185	0xbeadf316	-0.33974522
186	0xbe88d0fa	-0.26721936
187	0xbe4c77fb	-0.19967644
188	0x3d981ade	0.074269995
189	0xbeb1497d	-0.3462638
190	0x3e98cd64	0.298442
191	0xbdc23961	-0.094836004
192	0x3dd7821f	0.105228655
193	0x3ea9f4de	0.3319463
194	0xbc1d3d2f	-0.009597107
195	0x3d20f9cf	0.039300736
196	0x3d6fc411	0.058536593
197	0xbdc6c9fb	-0.097064935
198	0xbc8cac13	-0.017171895
199	0xbf027c27	-0.5097069
200	0xbe4d61da	-0.20056859
201	0x3ea17103	0.31531534
202	0x3ed80db9	0.4219797
203	0xbd9fc0c8	-0.07800442
204	0xbe4f9ce1	-0.20274688
205	0x3d98a1be	0.07452725
206	0x3e429376	0.19001564
207	0x3c915db6	0.01774488
208	0x3e943e7d	0.28953925
209	0xbe8a89c8	-0.27058244
210	0xbe34d8aa	-0.17660776
211	0xbb838781	-0.004013956
212	0x3e0fa31c	0.14027065
213	0x3c925eb5	0.017867425
214	0x3c1eefe5	0.00970075
215	0x3d4c0945	0.049813528
216	0xbd8b050b	-0.06788071
217	0x3e9810ee	0.29700416
218	0x3a0ce986	0.0005375374
219	0x3e075c17	0.13218723
220	0x3e9f17a1	0.31072715
221	0xbd4cbd7c	-0.049985394
222	0x3e917f3e	0.2841739
223	0x3d3a5ed1	0.04550058
224	0x3de7d214	0.11319366
225	0xbdb073a5	-0.086158074
226	0xbd15c118	-0.0365611
227	0x3ab0c7cc	0.0013487278
228	0x3cdc88ab	0.026920637
229	0xbe1e95df	-0.15486859
230	0x3d0ed3dc	0.034870014
231	0x3d20920c	0.03920178
232	0xbd14bda8	-0.036313683
233	0x3e1886ea	0.14895216
234	0xbe8e14af	-0.27750155
235	0xbcaf9404	-0.021432884
236	0x3c92db14	0.01792673
237	0xbddb0db9	-0.10695977
238	0x3de884df	0.11353468
239	0x3e50b721	0.20382358
240	0x3e2b4d00	0.16728592
241	0x3e221432	0.15828016
242	0xbdf7b572	-0.12095155
243	0xbdc11941	-0.09428645
244	0x3db989de	0.09059499
245	0x3d831ca2	0.06401946
246	0xbd479e2a	-0.04873482
247	0xbe55734c	-0.20844764
248	0xbd969860	-0.07353282
249	0x3e50d8ad	0.20395155
250	0xbdfe671e	-0.12422012
251	0xbe650d04	-0.22368246
252	0x3ec9cad8	0.3941257
253	0x3e2c2605	0.16811378
254	0x3e35c45a	0.17750683
255	0x3e1a6f41	0.15081502

lin3.bias f4 [200]
0	0x3e7fa7f5	0.24966414
1	0xbe5b7875	-0.2143267
2	0x3ded7a43	0.11595585
3	0xbe1bf0e0	-0.15228605
4	0xbefb67ec	-0.49102724
5	0xbe3bba8c	-0.1833288
6	0xbe0be7df	-0.1366267
7	0x3cd6e73a	0.026233304
8	0xbef04c61	-0.46933272
9	0xbe8e2e66	-0.27769774
10	0x3e9412fb	0.2892073
11	0xbdbd5401	-0.09244538
12	0xbe884e0a	-0.2662204
13	0x3ef6a7af	0.48174807
14	0x3b8969db	0.004193527
15	0x3db8f160	0.09030414
16	0xbdbd5082	-0.09243871
17	0x3eb62d16	0.35581273
18	0xbe2b7cc6	-0.16746816
19	0xbe0bceb7	-0.13653074
20	0xbdb9c7bf	-0.09071302
21	0xbea4ccd2	-0.32187515
22	0xbc9d9b91	-0.019239219
23	0xbd58b2dd	-0.052904952
24	0x3e8098af	0.25116488
25	0x3eaba62d	0.3352522
26	0x3e497c0d	0.19676228
27	0xbeea47ed	-0.45758
28	0x3dfb7c72	0.122795954
29	0x3e483732	0.19552305
30	0x3d1331bf	0.035936113
31	0x3e912113	0.28345546
32	0xbbf046fe	-0.0073326817
33	0x3e463d3d	0.19359298
34	0x3e49be63	0.19701533
35	0xbbb4d40f	-0.0055184434
36	0x3ec5058a	0.38480788
37	0xbec836b0	-0.39104223
38	0xbe953905	-0.29145065
39	0x3e43e1d4	0.19129115
40	0xbda76fdc	-0.08175632
41	0x3c0b4e11	0.008502499
42	0x3e7f3f5b	0.24926512
43	0xbe49a2e9	-0.19691052
44	0xbddb23fc	-0.10700223
45	0xbd427ad8	-0.047480434
46	0xbe757905	-0.23971947
47	0x3eab3e0e	0.3344578
48	0xbe394923	-0.18094306
49	0xbebe1e90	-0.37132692
50	0xbe00fc88	-0.12596333
51	0x3e14e831	0.14541699
52	0xbe8d376b	-0.27581343
53	0xbda594f7	-0.080850534
54	0x3e3ffb57	0.18748222
55	0x3ea5aacc	0.3235687
56	0xbd90df59	-0.0707385
57	0xbeb0509e	-0.34436506
58	0x3d971804	0.073776275
59	0xbe53e452	-0.20692566
60	0x3df2f1ee	0.11862551
61	0x3d19f48c	0.037586734
62	0xbc90736d	-0.017633164
63	0xbc42338b	-0.011853109
64	0xbe83a4d4	-0.2571169
65	0x3cb337ea	0.021877248
66	0x3e808acb	0.2510589
67	0xbe9138e7	-0.28363726
68	0xbe533a5e	-0.20627734
69	0xbdc44f1f	-0.09585404
70	0x3e80af2e	0.25133651
71	0x3d1688f2	0.036751695
72	0xbefa2612	-0.4885717
73	0x3cc6507c	0.0242083
74	0xbe6e17d0	-0.23251271
75	0xbe66fbb3	-0.22556953
76	0x3e642334	0.22279054
77	0xbe741f54	-0.23840076
78	0xbea11b69	-0.31466225
79	0xbe884d6d	-0.2662157
80	0x3e2bcbee	0.16777012
81	0x3dba4d2a	0.09096749
82	0xbe176d1a	-0.14787713
83	0xbdb4e220	-0.088321924
84	0xbecc87b1	-0.39947274
85	0xbeaeaca6	-0.34116095
86	0xbd27937d	-0.04091214
87	0x3ea52771	0.32256654
88	0x3da13a7f	0.07872485
89	0xbec2acdb	-0.38022503
90	0xbd18f39f	-0.03734171
91	0x3e1269cd	0.14298172
92	0x3e5a47dc	0.21316475
93	0x3dd321ad	0.103091575
94	0xbc3eb401	-0.011639596
95	0xbe28b4d7	-0.16475235
96	0x3dc2e347	0.09516006
97	0xbd896311	-0.067083485
98	0x3b94d1ba	0.004541603
99	0xbe290482	-0.16505626
100	0x3e20877e	0.15676686
101	0xbe7ecaed	-0.24882098
102	0xbdd3aea8	-0.103360474
103	0x3ecd0c81	0.40048602
104	0xbe724cd2	-0.23662117
105	0x3d483a76	0.048883878
106	0xbe851409	-0.25991848
107	0x3e3e06b0	0.18557239
108	0x3e15f0aa	0.14642587
109	0xbeb7dc8c	-0.3591045
110	0x3d18d7da	0.037315227
111	0xbe6d0f29	-0.23150314
112	0xbe8140c9	-0.2524474
113	0xbd940a1b	-0.0722849
114	0xbe48f464	-0.19624478
115	0x3e99ae03	0.30015573
116	0xbe79d4eb	-0.24397628
117	0xbee6e5db	-0.4509724
118	0x3e30c451	0.17262389
119	0xbe3b8877	-0.18313776
120	0x3e96dc5f	0.29465005
121	0x3e22920f	0.1587603
122	0xbd994f35	-0.07485811
123	0x3d6b33cc	0.057422444
124	0x3e97e7bd	0.2966899
125	0xbec05b2a	-0.37569553
126	0x3f13e087	0.57764477
127	0xbddf916a	-0.109164074
128	0x3c2cb41b	0.010540987
129	0x3e70e4e8	0.23524821
130	0x3d62085a	0.055183746
131	0xbdd03eae	-0.10168205
132	0x3e7cd424	0.246903
133	0xbeb1ec3e	-0.3475055
134	0xbd99f400	-0.075172424
135	0xbec91561	-0.39274123
136	0x3d5f7ee2	0.054564364
137	0xbdd53ccb	-0.10411986
138	0xbe41653c	-0.18886274
139	0xbdb1c40c	-0.08679971
140	0x3e2fda43	0.17173104
141	0x3dfbf1a9	0.123019524
142	0x3bab66c4	0.0052307565
143	0xbeb76c6f	-0.35824916
144	0xbdede41f	-0.11615776
145	0x3de6a30f	0.1126157
146	0x3e9cdfef	0.30639598
147	0xbf001ff4	-0.50048757
148	0x3d1f9556	0.038960777
149	0x3e8d8a85	0.27644745
150	0x3de56949	0.11201722
151	0xbe851e86	-0.2599985
152	0x3e846968	0.2586167
153	0xbcae8255	-0.021302382
154	0xbe930ef5	-0.2872235
155	0xbe6f8b8e	-0.2339308
156	0xbe0e429f	-0.13892601
157	0x3e48d4ca	0.19612423
158	0xbe31edfe	-0.17375943
159	0xbdf33399	-0.11875076
160	0x3ea022d6	0.31276578
161	0x3d36975f	0.044577952
162	0x3d98d990	0.07463372
163	0xbed5f95d	-0.41791812
164	0xbe24e3f7	-0.16102587
165	0xbe3999de	-0.18125102
166	0xbde38fdf	-0.111114256
167	0x3cde76d3	0.02715627
168	0xbe4d3414	-0.20039397
169	0xbe88422d	-0.26612988
170	0x3eadc6a5	0.33940616
171	0x3e0fb67f	0.1403446
172	0x3dca0ca0	0.09865689
173	0x3ebcf611	0.36906484
174	0x3e0f4fd0	0.1399529
175	0x3e37e3ee	0.17958042
176	0xbe44cca1	-0.19218685
177	0x3e8ea414	0.27859557
178	0xbda185c5	-0.07886843
179	0xbebd6403	-0.36990365
180	0x3eedf9cb	0.4647964
181	0xbebe4769	-0.37163857
182	0x3e36de86	0.17858323
183	0x3d6cb8d6	0.05779346
184	0x3eccb836	0.39984292
185	0x3daa20b0	0.08307016
186	0x3de5be82	0.11217977
187	0xbe82e5d0	-0.25565958
188	0xbe605ff4	-0.21911603
189	0x3d46e52e	0.048558407
190	0x3eb8f36b	0.36123213
191	0x3e8d32ca	0.2757781
192	0x3e075560	0.13216162
193	0xbd078ae1	-0.03309143
194	0xbdb3a97b	-0.0877256
195	0x3e22536e	0.15852138
196	0x3cf39511	0.029734166
197	0xbe9164a6	-0.283971
198	0x3d09e813	0.03366859
199	0x3d402c58	0.04691729

lin4.weight f4 [62, 200]
0	0xbe6518b8	-0.2237271
1	0xbf42d198	-0.76101065
2	0x3efeda06	0.49775714
3	0xbc21f1cd	-0.00988431
4	0x3f2ab195	0.6667722
5	0xbeb9fd8c	-0.36326253
6	0x3f79bde5	0.9755538
7	0x3ef75dee	0.4831385
8	0x3f51e61b	0.8199174
9	0x3ee3f362	0.44521624
10	0x3ee3b4c9	0.44473866
11	0xbf1f4d07	-0.6222691
12	0x3dd4785e	0.10374521
13	0x3e8083e3	0.25100622
14	0x3f15e732	0.585559
15	0xbf14aa27	-0.5807213
16	0xbf230d81	-0.6369248
17	0x3b0f3722	0.002185293
18	0x3e135f2a	0.14391771
19	0xbd9886e9	-0.07447607
20	0x3f8d8707	1.1056832
21	0x3f81557a	1.010421
22	0x3f070082	0.5273515
23	0xbd0c84d6	-0.03430637
24	0x3de0e667	0.10981446
25	0xbf4a95fa	-0.79135096
26	0x3e3782f9	0.17921056
27	0xbdbb482e	-0.091446266
28	0xbf01dfa0	-0.5073185
29	0xbe48b87e	-0.19601628
30	0x3ebd6281	0.36989215
31	0xbf111b90	-0.5668268
32	0xbf2d8ffa	-0.67797816
33	0xbee6d064	-0.45080864
34	0x3f18cdc6	0.59688985
35	0x3ccd8ecb	0.025092503
36	0x3ed2d9f2	0.41181904
37	0xbf75504a	-0.95825636
38	0xbcc63bec	-0.024198495
39	0xbe7e4b1c	-0.2483334
40	0xbf5fe58a	-0.87459624
41	0xbef104f4	-0.4707409
42	0xbee6e654	-0.450976
43	0x3f202959	0.6256309
44	0x3f09c9b5	0.53823406
45	0xbd84a363	-0.06476476
46	0xbdc7d836	-0.09758036
47	0xbe6c35c8	-0.23067391
48	0x3df8c9e5	0.12147883
49	0xbdf60e29	-0.120144196
50	0xbe0e4ead	-0.138972
51	0xbf4d2a7a	-0.8014294
52	0x3f170091	0.5898524
53	0xbeb253ea	-0.34829646
54	0x3c14e11d	0.009086874
55	0xbf3f60f5	-0.7475732
56	0xbf383582	-0.71956646
57	0x3df7c04b	0.12097224
58	0xbf2fcbd8	-0.68670416
59	0xbe729236	-0.23688588
60	0xbe8f891b	-0.2803429
61	0x3e4f0728	0.20217574
62	0xbf40d935	-0.7533143
63	0xbf0c9d7d	-0.5492781
64	0x3e302768	0.17202532
65	0xbf594af5	-0.8488
66	0x3f1fce71	0.6242438
67	0x3eb07548	0.34464478
68	0xbec7d6f5	-0.39031187
69	0xbd680921	-0.05664933
70	0xbd2d961d	-0.042379487
71	0x3f353576	0.707847
72	0x3ed48f7d	0.41515723
73	0x3eb27c8e	0.34860653
74	0xbe7dfcea	-0.2480351
75	0xbf247387	-0.6423878
76	0xbee9cf0d	-0.4566578
77	0xbeda3c82	-0.4262429
78	0xbdf8651e	-0.121286616
79	0x3f3aa986	0.7291492
80	0x3f9084a2	1.1290476
81	0xbf334d38	-0.700397
82	0xbeaacd00	-0.33359528
83	0x3f874c30	1.0570126
84	0x3f680857	0.90637726
85	0x3eb00e46	0.3438589
86	0xbf0051ad	-0.5012463
87	0xbe185f09	-0.14880003
88	0x3ec79fda	0.38989145
89	0xbf4f0709	-0.8087011
90	0x3f50841f	0.814516
91	0xbe6690e8	-0.22516215
92	0x3f850a5d	1.0393788
93	0x3e12c0f3	0.14331417
94	0x3f4dedb3	0.80440825
95	0x3e94e897	0.29083702
96	0xbe984484	-0.29739773
97	0x3ebc2482	0.36746603
98	0x3da2e180	0.07953167
99	0xbe400291	-0.18750979
100	0xbee6b961	-0.45063308
101	0xbf4dcfaf	-0.80395025
102	0xbf0f8b17	-0.5607161
103	0xbdf84ffa	-0.12124629
104	0x3ef5cfe6	0.48010176
105	0x3e690b46	0.22758207
106	0x3ddba976	0.107256815
107	0x3f677daf	0.9042615
108	0xbe794801	-0.24343874
109	0xbeeaacc5	-0.45834938
110	0x3ecadebf	0.39623067
111	0x3dc8472e	0.097792014
112	0xbf116075	-0.56787807
113	0xbdbd6aed	-0.0924891
114	0xbf303c7e	-0.68842304
115	0x3b2bf4de	0.0026238482
116	0x3d476399	0.048678968
117	0xbf321b44	-0.69572854
118	0xb99d7535	-0.000300327
119	0xbeedc3c6	-0.46438426
120	0xbf56eb37	-0.8395266
121	0xbea23d46	-0.31687373
122	0xbe8284d1	-0.25491956
123	0x3f428507	0.75984234
124	0x3acbbca9	0.0015543896
125	0xbf6bb199	-0.9206787
126	0x3f1b9a76	0.60782564
127	0x3eb9b2d9	0.36269262
128	0x3d429f27	0.04751506
129	0x3f29e3ab	0.6636302
130	0xbd805c45	-0.06267599
131	0x3eaacf89	0.33361462
132	0x3d2419f6	0.04006382
133	0x3f349bd3	0.7055027
134	0x3ef1308a	0.47107345
135	0x3eab85c9	0.33500507
136	0xbf2d2ffa	-0.6765133
137	0x3d608808	0.05481723
138	0xbe9adf22	-0.30248362
139	0x3fac7cf9	1.3475639
140	0x3f285270	0.6575079
141	0xbf9c942e	-1.2232721
142	0x3f1488f5	0.5802148
143	0xbf07c589	-0.5303579
144	0x3bd3a1fa	0.006458518
145	0x3e2c13ab	0.16804378
146	0xbf65c7a7	-0.8975777
147	0x3f947b7e	1.1600187
148	0xbf32f9df	-0.69912523
149	0x3f8e86cf	1.113489
150	0xbee21788	-0.44158578
151	0xbf051f7a	-0.52001154
152	0x3f3aa36e	0.72905624
153	0x3f443415	0.7664197
154	0xbe23fbc3	-0.16014008
155	0xbf060998	-0.5235839
156	0x3f5afbd2	0.855405
157	0x3ec07c45	0.3759481
158	0xbf1f5014	-0.62231565
159	0xbc66ce2d	-0.014087242
160	0x3fa45971	1.2839795
161	0x3ee89f1d	0.45433894
162	0xbea2ddcb	-0.3180984
163	0x3f81169a	1.0085022
164	0x3e714d78	0.23564708
165	0x3f7135fc	0.94223
166	0xbf4207e4	-0.7579329
167	0x3ea4949f	0.3214464
168	0xbed3dc2a	-0.4137891
169	0x3f6c3cff	0.9228057
170	0xbf6e7222	-0.931429
171	0xbe89e129	-0.26929596
172	0xbeb26cb1	-0.3484855
173	0xbf1e654d	-0.6187332
174	0xbf30194f	-0.6878862
175	0x3ea41aff	0.32051846
176	0xbe6a2874	-0.22866994
177	0x3eee1ca6	0.46506232
178	0xbf3951b0	-0.7239027
179	0xbea6e36c	-0.32595384
180	0x3f7d6513	0.9898235
181	0xbf093331	-0.53593737
182	0xbe317c1b	-0.17332499
183	0x3e5ccfa3	0.21563582
184	0xbecdd5a6	-0.40202063
185	0x3f3dec1e	0.7418841
186	0xbf0014ae	-0.50031555
187	0xbe2813e2	-0.16413835
188	0xbee7e3e4	-0.45291054
189	0xbe10211e	-0.14075133
190	0xbf1db5ae	-0.61605346
191	0x3e8e5674	0.27800333
192	0x3f0c5729	0.54820496
193	0x3eb016f8	0.34392524
194	0x3f829c9a	1.0204041
195	0x3eccf3b6	0.40029687
196	0x3e4bd231	0.199044
197	0x3f11f709	0.5701757
198	0xbf9b7208	-1.2144175
199	0xbe219dce	-0.15782854
200	0x3f1aa5fe	0.60409534
201	0xbf1b1e9d	-0.6059359
202	0x3f35fd3d	0.71089536
203	0xbdda237b	-0.106512986
204	0x3f0bd514	0.54622006
205	0xbec6794f	-0.38764426
206	0x3cb3d465	0.021951864
207	0x3dbb4ee9	0.0914591
208	0x3f31fb33	0.69523925
209	0x3debce2d	0.11513934
210	0x3eda19dd	0.42597857
211	0xbecc8c98	-0.39951015
212	0x3d975b76	0.07390492
213	0x3f132db3	0.57491606
214	0xbee7221f	-0.4514322
215	0xbea5a8ed	-0.32355443
216	0x3dcc962c	0.099895805
217	0xbd28fd6a	-0.0412573
218	0xbf031828	-0.51208735
219	0xbdea4dba	-0.114406064
220	0x3f0b3845	0.54382735
221	0x3eeb0088	0.45898843
222	0x3ed9cee6	0.42540663
223	0x3e307dd1	0.17235495
224	0x3f2c4dae	0.6730603
225	0x3f00ff9b	0.50390023
226	0xbdb97d9b	-0.090571605
227	0xbee3b4d7	-0.44473907
228	0xbf176b97	-0.59148544
229	0x3f3dcf91	0.74144846
230	0x3ee8cdef	0.45469615
231	0xbe9ef236	-0.31044167
232	0xbedff217	-0.43739387
233	0xbf56586c	-0.8372867
234	0x3efb515e	0.49085516
235	0x3f376ced	0.7165058
236	0x3ec8682e	0.39141983
237	0xbed24823	-0.4107066
238	0x3da7cb30	0.08193052
239	0x3f13d446	0.5774578
240	0xbf9335d0	-1.1500797
241	0xbd871c2b	-0.065971695
242	0x3f073b2e	0.52824676
243	0xbe7e4d73	-0.24834232
244	0x3f6afee2	0.9179517
245	0x3f2758be	0.65369785
246	0x3f1557cd	0.583371
247	0xbeb38951	-0.35065702
248	0xbef89983	-0.4855462
249	0xbef3ab61	-0.4759169
250	0xbf8181a2	-1.0117686
251	0xbe62fe24	-0.2216726
252	0x3f23880e	0.6387948
253	0xbd8140b8	-0.06311172
254	0xbf279b35	-0.654712
255	0x3e6c623b	0.23084347
