qn1/weights/model_weights_b15_em15.pth (torch, 559152 bytes, 9 tensors)

emb.weight f4 [62, 15]
-0.010190481 -0.026929721 -0.12258353 -1.0282853 0.23655175 -0.574223 -0.18648274 0.40683886
-0.17918918 0.0038658327 -0.06273688 0.42269817 0.33191106 -0.41053528 0.6313079 -0.7171552
-0.33090356 -0.029599061 -0.03838685 -0.2893514 -0.07156983 -0.105628066 0.20056309 0.28793958
-0.93375856 0.43444428 -0.025600929 -0.05873749 -0.39694655 0.10322669 -0.1729566 0.44292265
-0.47621325 0.070917755 0.025276968 -0.23614639 -0.44656676 0.23778617 0.032764953 0.14545877
-0.13165018 -0.12158185 0.36557794 0.20034203 -1.0665519 -0.27498043 -0.22012503 0.6199471
-0.32916433 0.18624127 -0.098712474 -0.68538374 -1.0663826 -0.18308625 0.4908826 0.28218007
-0.12957606 0.57964945 0.21127327 0.5215019 0.47623876 -0.8483679 -0.26285282 0.4042462
0.2769465 0.3341062 0.19078742 0.61981994 0.2814874 0.2957053 -0.21840471 0.4112464
-0.82621485 -0.5370207 -0.36175707 -0.23843874 0.8559334 0.015531906 0.4561751 -1.0251634
-0.983038 0.18914078 -0.88737947 0.2565108 -0.19875775 -0.09444118 0.150771 0.77397555
0.66208047 0.18849327 -0.71138394 0.2727257 -0.390072 0.18351148 0.87137216 -0.10869061
0.021475757 0.600002 0.2721577 0.15734553 -0.52998644 -0.21467559 -0.3605381 0.30087304
-0.65707105 -0.21852861 0.24821629 0.7070392 0.61401385 0.13354507 -0.106066264 -0.33890536
0.53544354 -1.0400566 0.2795641 -0.046589825 0.11985896 -0.4350037 -0.17350662 -0.7213446
1.0036708 0.9198283 -0.4058001 -0.15856396 0.33641043 0.29490665 -0.62662697 0.405801
0.34962383 -0.4120924 0.6863914 -0.6923774 -0.28840026 0.58072656 0.0304676 -0.4788234
0.48678446 -0.24253891 0.790976 0.35063857 -0.13560656 0.14490044 0.49260408 -0.062240325
-0.22419295 -0.06257443 -0.5169038 -0.32627717 -0.12933193 -0.39140788 -0.20424104 0.2955862
0.72711045 0.23175 -0.3485964 -0.20562436 0.9283727 0.2005025 -0.044263627 -0.10555048
-0.6039521 -0.14907989 -0.15583079 -0.6088888 0.081108645 -0.19936855 -0.72999173 -0.23132993
0.43574178 -0.30924556 -0.51286775 0.41805488 -0.389132 -0.07089343 -0.25465345 -0.24978007
-0.018817637 0.3874906 -0.601545 -0.3196667 0.088299885 -0.08118321 -0.056797322 0.0504114
0.15712416 -0.2582983 0.30694637 -0.518363 -0.53317285 -0.32922605 0.10053674 -1.0879992
0.89978015 0.14881274 -0.32511854 0.14543511 0.4394429 -0.22141294 -0.11219013 0.36155063
-0.07281829 0.65794045 -0.16819543 -0.46588764 -0.13006136 -0.3024319 0.65483105 0.22859912
-0.4636038 0.2840835 -0.24293062 0.31279695 0.39003628 0.44992182 1.2124314 -0.02768971
0.48440412 0.033632867 -0.14044347 -0.83546394 -0.8244379 -0.22643223 -0.39084354 -0.3477637
-0.0386432 0.5782868 -0.39438868 0.5229028 -0.25237495 0.014826973 0.26954195 0.6473843
0.9574419 -0.31960174 0.34428206 -0.17682602 -1.3946676 -0.43313727 0.21502401 0.6699003
0.059881788 -0.15567875 -0.54810053 -0.022808786 -0.660627 -0.41415152 -0.16180763 0.110730745
-0.102275565 -0.009021343 -0.5199319 -0.9853267 0.13303027 -0.18814123 -0.22085632 -0.56526595
00000000: faf5 26bc b89b dcbc 130d fbbd da9e 83bf
00000010: 9f3a 723e 4700 13bf 55f5 3ebe 2f4d d03e
00000020: 5e7d 37be e959 7d3b 317c 80bd e56b d83e
00000030: 3ff0 a93e ae31 d2be 659d 213f 7c97 37bf
00000040: 316c a9be bb79 f2bc 883b 1dbd de25 94be
00000050: 3493 92bd 8753 d8bd 6960 4d3e d16c 933e
00000060: cd0a 6fbf 7b6f de3e 0ab9 d1bc b996 70bd
00000070: 943c cbbe 8468 d33d 891b 31be c2c6 e23e
00000080: 39d2 f3be 543d 913d a511 cf3c 5cd0 71be
00000090: 66a4 e4be 387e 733e 8b34 063d 25f3 143e
000000a0: 4ecf 06be e8ff f8bd 082d bb3e 7626 4d3e
000000b0: c684 88bf 3cca 8cbe 7568 61be dab4 1e3f
000000c0: 3a88 a8be 08b6 3e3e c429 cabd 4f75 2fbf
000000d0: 3a7f 88bf f67a 3bbe f754 fb3e e879 903e
000000e0: 96af 04be e863 143f 0558 583e 2681 053f
000000f0: 91d5 f33e a42e 59bf a594 86be 5cf9 ce3e
00000100: efcb 8d3e f80f ab3e c75d 433e 85ac 1e3f
00000110: 1e1f 903e af66 973e 7ca5 5fbe e38e d23e
00000120: d182 53bf 307a 09bf 3938 b9be 4929 74be
00000130: 741e 5b3f 8979 7e3c c88f e93e 8e38 83bf
00000140: 61a8 7bbf 1fae 413e 4d2b 63bf 6255 833e
00000150: 2787 4bbe 616a c1bd b763 1a3e 4323 463f
00000160: 1b7e 293f 6104 413e 421d 36bf b4a2 8b3e
00000170: 84b7 c7be 6fea 3b3e 3f12 5f3f 2f99 debd
00000180: eded af3c bb99 193f 4158 8b3e 301f 213e
00000190: 31ad 07bf ebd3 5bbe 7398 b8be 080c 9a3e
000001a0: cf35 28bf f7c5 5fbe 692c 7e3e 8500 353f
000001b0: 0330 1d3f 0ac0 083e 4539 d9bd 0185 adbe
000001c0: d412 093f 9320 85bf 0723 8f3e f9d4 3ebd
000001d0: 9d78 f53d ceb8 debe b8ab 31be 0aaa 38bf
000001e0: 4978 803f de79 6b3f 08c5 cfbe 975e 22be
000001f0: fd3d ac3e 01fe 963e a06a 20bf 26c5 cf3e
00000200: e501 b33e c6fd d2be 59b7 2f3f a53f 31bf
00000210: 33a9 93be 7faa 143f 3097 f93c 5728 f5be
00000220: d03b f93e 1f5c 78be 677d 4a3f e686 b33e
00000230: 72dc 0abe c860 143e 9a36 fc3e b6ef 7ebd
00000240: d692 65be 0627 80bd cf53 04bf cd0d a7be
00000250: 976f 04be 9d66 c8be 9024 51be 1357 973e
00000260: e923 3a3f df4f 6d3e 3a7b b2be 318f 52be
00000270: d5a9 6d3f 8750 4d3e c74d 35bd da2a d8bd
00000280: 9b9c 1abf 66a8 18be 1b92 1fbe 23e0 1bbf
00000290: 4a1c a63d 4527 4cbe bde0 3abf c1e1 6cbe
000002a0: 8c19 df3e 6f55 9ebe 4d4b 03bf 4a0b d63e
000002b0: 4f3c c7be 9330 91bd f061 82be 59c6 7fbe
000002c0: 7227 9abc 2b65 c63e dafe 19bf 5bab a3be
000002d0: 92d6 b43d 6243 a6bd 4fa4 68bd 2f7c 4e3d
000002e0: 28e5 203e ad3f 84be 1328 9d3e 70b3 04bf
000002f0: 047e 08bf 5190 a8be 35e6 cd3d 8f43 8bbf
00000300: fe57 663f 5e62 183e f075 a6be f1ec 143e
00000310: a9fe e03e 13ba 62be f0c3 e5bd 2a1d b93e
00000320: c121 95bd c96e 283f 6c3b 2cbe d388 eebe
00000330: ce2e 05be 5bd8 9abe 02a3 273f e315 6a3e
00000340: 7a5d edbe 6473 913e cec2 78be ec26 a03e
00000350: d6b2 c73e 275c e63e f430 9b3f 88d5 e2bc
00000360: d103 f83e 9ec2 093d 6ad0 0fbe f7e0 55bf
00000370: 5d0e 53bf dadd 67be a51c c8be 150e b2be
00000380: 5548 1ebd 9b0a 143f 50ed c9be f5dc 053f
00000390: 4a37 81be d5ec 723c 6701 8a3e faba 253f
000003a0: ea1a 753f d7a2 a3be bd45 b03e e111 35be
000003b0: 7884 b2bf 2bc4 ddbe 412f 5c3e 967e 2b3f
000003c0: 9b46 753d 406a 1fbe 5150 0cbf 7ed9 babc
000003d0: da1e 29bf ab0b d4be e6b0 25be cdc6 e23d
000003e0: da75 d1bd 41ce 13bc 421a 05bf 5f3e 7cbf
000003f0: 1639 083e 18a8 40be 2928 62be 45b5 10bf

lin1.weight f4 [200, 225]
-0.17810307 0.13356976 0.05456548 0.2188713 0.19565617 -0.01051851 0.19609001 -0.07336437
-0.27065307 0.08976281 0.2974348 0.26246542 0.16442978 -0.1311349 0.069688775 0.18578184
0.20072155 -0.2934464 -0.05596374 -0.09007514 0.12662642 -0.12362131 0.10734985 0.12853213
0.016825465 0.0745805 -0.13322955 0.3051476 -0.0661437 -0.20819329 0.0059555694 0.050304577
0.13323075 -0.009450396 0.19885145 0.042696435 0.026062356 -0.1900926 0.1352568 0.21142717
-0.10943951 -0.15226223 0.1654376 -0.0058441786 -0.0025489614 -0.10742275 0.043938078 0.069687836
0.08605934 0.044147957 0.20567977 0.021350397 0.01322329 -0.12545769 0.029012693 -0.04488519
0.22193593 -0.05863337 0.0036370845 -0.0299399 -0.053899236 -0.058657553 0.030308535 -0.033964735
-0.10955223 0.03974738 0.22680858 0.20072488 -0.048566174 -0.020099115 -0.036900155 -0.08394015
0.09236965 -0.0017806794 0.025258552 0.21692027 0.022480313 0.020598479 -0.13790126 -0.10812635
-0.18839636 0.00043433812 0.21490291 -0.016165879 0.22152095 0.002347276 0.03779738 0.25139773
-0.0087817535 0.021582348 0.020191675 -0.03148177 0.033425845 -0.011775005 -0.19495454 -0.062377695
-0.13646437 0.08889196 0.11683819 -0.12429297 -0.031353798 0.18232079 -0.12328024 -0.05125933
-0.059946224 0.08626463 0.07110675 -0.15876095 0.1238097 0.15651987 -0.3080972 -0.1632627
0.09181989 -0.24361174 -0.081162184 -0.12403279 -0.07433475 0.09005514 -0.17542894 0.07123691
0.026941584 -0.052052863 -0.07879558 0.016988643 -0.016032875 -0.05341045 -0.06966152 -0.05575226
-0.03294665 0.07867571 -0.18415762 0.051449653 0.08978659 -0.08194527 -0.061787646 0.034036856
0.16772968 0.13726977 -0.04392759 -0.027833551 -0.10979217 -0.12080546 -0.029682437 -0.0046792384
0.19035248 -0.45451424 0.16774213 0.45810384 -0.17763545 0.022554833 0.3462369 0.2294111
0.0017499289 0.21974768 0.062417176 0.33623573 0.113264 -0.39860728 -0.12437728 0.2705078
0.1501268 -0.110129766 -0.0033317169 0.019357178 0.2297773 0.19417575 -0.09272142 -0.21380995
0.4552901 0.09652101 0.12624548 -0.13090205 -0.54063016 0.34083393 0.37683114 0.23388048
0.13303709 0.08355692 0.107258 0.30681738 0.43133113 -0.27069613 0.19550176 0.6532838
0.5160045 -0.3264642 -0.2639385 -0.57103276 -0.054026194 0.3170027 0.3904343 -0.08974561
-0.25045034 0.771594 -0.31216487 -0.6134086 0.082534984 -0.0011392911 -0.22448455 -0.06577524
-0.2631437 -0.31237555 0.38283312 0.2518875 -0.00032015168 -0.103996545 0.029702982 0.39904687
-0.64425015 -0.20897235 0.60314447 -0.006074501 -0.24744408 -0.5761373 0.24657886 -0.31434387
0.48735583 0.19470727 -0.66321594 -0.3974408 0.4520955 -0.18048356 -0.0038454337 -0.014651736
0.41562787 0.027163424 -0.20369543 0.26026395 0.095006876 -0.041930903 -0.08616338 0.030728236
0.0091825295 0.08709584 0.13212152 0.14094548 0.23511478 0.15017068 0.01900935 -0.10441416
0.12961094 -0.21711586 -0.007239759 -0.082809925 0.07372601 -0.09543748 -0.14582954 -0.10372522
0.14308462 -0.09056935 -0.013007135 -0.064047456 0.097847514 0.1354302 -0.021565683 0.12232221
00000000: a760 36be 83c6 083e 0e80 5f3d cc1f 603e
00000010: 175a 483e d455 2cbc d2cb 483e 0f40 96bd
00000020: 0a93 8abe 90d5 b73d 6049 983e de61 863e
00000030: 4860 283e 3a48 06be fdb8 8e3d 983d 3e3e
00000040: f389 4d3e 9b3e 96be 3c3a 65bd 5179 b8bd
00000050: 5baa 013e 2b2d fdbd 3dda db3d ed9d 033e
00000060: 8fd5 893c a9bd 983d 546d 08be 4e3c 9c3e
00000070: 5976 87bd 9f30 55be f026 c33b 2c0c 4e3d
00000080: a46d 083e d5d5 1abc b79f 4b3e 75e2 2e3d
00000090: b980 d53c a2a7 42be c280 0a3e 5d80 583e
000000a0: d221 e0bd a1ea 1bbe 7968 293e 8680 bfbb
000000b0: 7a0c 27bb 7500 dcbd 6af8 333d 7fb8 8e3d
000000c0: e13f b03d 7dd4 343d b89d 523e 07e7 ae3c
000000d0: 80a6 583c fb77 00be 07ac ed3c 88d9 37bd
000000e0: 2c43 633e 8b29 70bd 275c 6e3b 8544 f5bc
000000f0: 72c5 5cbd e742 70bd 9b49 f83c 9b1e 0bbd
00000100: eb5c e0bd 26ce 223d 8240 683e d38a 4d3e
00000110: 53ed 46bd e6a6 a4bc 9e24 17bd d0e8 abbd
00000120: 4d2c bd3d b065 e9ba 06eb ce3c 5920 5e3e
00000130: a228 b83c 24be a83c fd35 0dbe 5971 ddbd
00000140: faea 40be e0b7 e339 820f 5c3e 4e6e 84bc
00000150: 63d6 623e c2d4 193b 6dd1 1a3d 34b7 803e
00000160: 58e1 0fbc 77cd b03c 0369 a53c 07f3 00bd
00000170: 8ae9 083d f3eb 40bc 2aa2 47be c17f 7fbd
00000180: 51bd 0bbe fd0c b63d dc48 ef3d 508d febd
00000190: d76c 00bd 4db2 3a3e 5a7a fcbd 4ef5 51bd
000001a0: 2c8a 75bd 83ab b03d 6aa0 913d 3b92 22be
000001b0: f18f fd3d bf46 203e ebbe 9dbe 562e 27be
000001c0: 110c bc3d 5b75 79be 5c38 a6bd e704 febd
000001d0: d13c 98bd d46e b83d a5a3 33be a8e4 913d
000001e0: 99b4 dc3c 6235 55bd 945f a1bd c42b 8b3c
000001f0: 6057 83bc ebc4 5abd b3aa 8ebd 7b5c 64bd
00000200: 11f3 06bd bb20 a13d d193 3cbe dfbc 523d
00000210: 08e2 b73d ecd2 a7bd 0b15 7dbd 3b6a 0b3d
00000220: 54c1 2b3e 7290 0c3e 6bed 33bd 3003 e4bc
00000230: b8da e0bd da68 f7bd 9528 f3bc 4c54 99bb
00000240: c3eb 423e 17b6 e8be 98c4 2b3e 968c ea3e
00000250: 11e6 35be eac4 b83c f745 b13e beea 6a3e
00000260: df5d e53a 8905 613e 27a9 7f3d 1727 ac3e
00000270: f5f6 e73d 4116 ccbe 84b9 febd 0080 8a3e
00000280: d7ba 193e b78b e1bd ef58 5abb f292 9e3c
00000290: be4a 6b3e 02d6 463e bae4 bdbd fff0 5abe
000002a0: c91b e93e cfac c53d 7f46 013e 300b 06be
000002b0: bd66 0abf c981 ae3e 03f0 c03e 5d7e 6f3e
000002c0: e03a 083e e41f ab3d 15aa db3d 2b17 9d3e
000002d0: 6fd7 dc3e af98 8abe 9d31 483e 9b3d 273f
000002e0: df18 043f 5126 a7be f222 87be 342f 12bf
000002f0: 924a 5dbd 2e4e a23e 01e7 c73e 8ccc b7bd
00000300: 073b 80be 2f87 453f 13d4 9fbe 5908 1dbf
00000310: 1a08 a93d 4454 95ba 47df 65be 2bb5 86bd
00000320: c5ba 86be b0ef 9fbe b402 c43e 66f7 803e
00000330: 08da a7b9 24fc d4bd ab53 f33c df4f cc3e
00000340: 94ed 24bf d9fc 55be ad67 1a3f 9c0c c7bb
00000350: fb61 7dbe bc7d 13bf 2b7f 7c3e aef1 a0be
00000360: b486 f93e 5861 473e 85c8 29bf 5c7d cbbe
00000370: 1079 e73e afd0 38be ac03 7cbb d60d 70bc
00000380: 2dcd d43e d485 de3c 8995 50be 5141 853e
00000390: f792 c23d bdbf 2bbd 6d76 b0bd c8b9 fb3c
000003a0: 5272 163c 4e5f b23d dd4a 073e 0354 103e
000003b0: eec1 703e 58c6 193e 7fb9 9b3c 17d7 d5bd
000003c0: bbb8 043e 9f53 5ebe 803b edbb 4098 a9bd
000003d0: aafd 963d ba74 c3bd 5754 15be e36d d4bd
000003e0: c684 123e 6c7c b9bd e11b 55bc 502b 83bd
000003f0: 4764 c83d 37ae 0a3e 84aa b0bc 1184 fa3d

lin1.bias f4 [200]
-0.15301703 0.17997552 0.09485728 -0.0061025745 -0.104325645 -0.3745977 -0.36667314 0.23402452
0.07020473 0.20708753 0.17766911 -0.08253061 0.109258555 0.27432227 0.04988198 0.22661716
-0.07509431 0.31288606 0.04049257 -0.13875915 0.052204516 -0.2744658 -0.10678405 0.412899
-0.44907078 -0.058261003 0.18398914 0.13248846 0.11346766 -0.20823367 -0.18925449 -0.14821176
-0.41200346 0.1068175 0.13952559 -0.016264053 0.023076544 -0.0009537344 0.14792044 -0.098881885
0.004816088 -0.010946581 -0.2794549 -0.40763777 0.118597314 0.25037608 -0.069168545 0.20835435
-0.045554895 -0.60281837 -0.099870116 -0.13747686 0.21763434 0.13263951 -0.11889252 0.12957352
-0.02149547 0.01499443 0.9892717 0.1856464 0.3265275 -0.062676616 -0.19767809 0.034681406
-0.15606076 -0.44050977 0.054265272 -0.09888022 0.013481485 0.037703574 0.15619518 0.19663374
0.017153632 0.13208027 0.8227755 0.11328419 -0.16039355 -0.025247289 0.03700459 -0.022013897
0.60258085 0.06708827 -0.1239078 -0.12736897 0.16985427 -0.0077700764 -0.008838225 0.04177519
-0.392697 -0.59007573 0.12091173 0.002922109 0.20629315 0.1228582 0.15748689 -0.16422892
0.30690295 -0.08342526 0.25661987 0.0019674045 0.24267375 0.16639131 0.4281092 -0.08452569
0.040471397 -0.021284288 -0.036340192 -0.052380458 0.025509829 0.04070787 0.11842823 0.4130531
0.3063771 0.07827048 0.10093018 0.6049262 -0.30727348 0.61981004 0.15064088 0.084301226
-0.008036046 -0.20800564 -0.14063482 0.32195902 -0.13437894 0.12522821 0.08584461 -0.2610337
0.46263784 -0.11520462 -0.03596367 -0.22820985 -0.5838764 -0.27350444 -0.20609614 -0.15309097
0.0039170096 0.18176788 -0.19671057 -0.02299054 -0.17045444 -0.100305535 -0.07661466 -3.919938e-05
0.2700018 0.35514578 -0.02022526 -0.09328377 0.14966807 -0.13755569 -0.35684556 -0.1554369
0.053187445 -0.202889 -0.2575175 -0.2617552 0.02973414 -0.08877005 -0.1682262 -0.02188877
-0.046352502 0.012696643 0.044081025 0.016382124 0.006954933 -0.39425528 0.10795918 -0.028701559
-0.22422759 0.22455476 -0.173117 -0.10920137 0.31408805 -0.23803838 -0.2397946 -0.35419452
0.12218045 0.3726134 0.003941072 0.47364974 -0.07714568 -0.15218765 -0.18136013 -0.34473765
-0.1632686 -0.12785527 0.057390425 -0.016276747 0.035421528 0.23306423 0.02755333 -0.18194827
-0.28276876 0.22058873 -0.0878623 0.06631236 -0.34088978 0.18395421 0.43772563 -0.36944255
00000000: 7fb0 1cbe 814b 383e 8944 c23d 1bf8 c7bb
00000010: afa8 d5bd 45cb bfbe 95bc bbbe 20a4 6f3e
00000020: 7fc7 8f3d c10e 543e e4ee 353e cf05 a9bd
00000030: f3c2 df3d f873 8c3e 0c51 4c3d 540e 683e
00000040: 0ccb 99bd 9a32 a03e 89db 253d e116 0ebe
00000050: 67d4 553d c886 8cbe 99b1 dabd 7f67 d33e
00000060: 9bec e5be 17a3 6ebd a667 3c3e 0eab 073e
00000070: bc61 e83d 353b 55be eecb 41be d3c4 17be
00000080: 1ef2 d2be 22c3 da3d ccdf 0e3e 313c 85bc
00000090: 050b bd3c 0804 7aba 7578 173e 9682 cabd
000000a0: 46d0 9d3b 4a59 33bc b614 8fbe e6b5 d0be
000000b0: 26e3 f23d 4b31 803e 3da8 8dbd d85a 553e
000000c0: c597 3abd 4e52 1abf b488 ccbd bcc6 0cbe
000000d0: 89db 5e3e a7d2 073e ec7d f3bd ecae 043e
000000e0: 4517 b0bc 33ab 753c e940 7d3f 171a 3e3e
000000f0: 9d2e a73e 995c 80bd 206c 4abe 170e 0e3d
00000100: 64ce 1fbe 7f8a e1be 4345 5e3d b681 cabd
00000110: 72e1 5c3c 106f 1a3d a1f1 1f3e 5b5a 493e
00000120: c685 8c3c 0d40 073e 6aa1 523f 8b01 e83d
00000130: 353e 24be 67d3 cebc 2092 173d 7d56 b4bc
00000140: bd42 1a3f 9365 893d 5fc3 fdbd 036d 02be
00000150: 47ee 2d3e 209c febb 34ce 10bc 761c 2b3d
00000160: 950f c9be 340f 17bf 92a0 f73d db80 3f3b
00000170: 833e 533e 149d fb3d 3e44 213e a02b 28be
00000180: 6222 9d3e ddda aabd ae63 833e 92ef 003b
00000190: 787f 783e 7c62 2a3e 2131 db3e ce1b adbd
000001a0: 56c5 253d 635c aebc 74d9 14bd e48c 56bd
000001b0: fdf9 d03c 4cbd 263d 808a f23d b27b d33e
000001c0: 76dd 9c3e 464c a03d 7bb4 ce3d 72dc 1a3f
000001d0: f352 9dbe dfab 1e3f 9a41 1a3e 1fa6 ac3d
000001e0: 9fa9 03bc 6eff 54be 9302 10be d0d7 a43e
000001f0: a29a 09be d33b 003e 4dcf af3d 36a6 85be
00000200: dede ec3e 66f0 ebbd a44e 13bd d8af 69be
00000210: ec78 15bf c608 8cbe de0a 53be e1c3 1cbe
00000220: 425a 803b 5c21 3a3e 7f6e 49be a856 bcbc
00000230: 9c8b 2ebe fd6c cdbd 26e8 9cbd 046a 24b8
00000240: ad3d 8a3e abd5 b53e 72af a5bc 900b bfbd
00000250: 9642 193e 66db 0cbe 76b4 b6be da2a 1fbe
00000260: 14db 593d 22c2 4fbe 55d9 83be c704 86be
00000270: 0395 f33c 12cd b5bd 7d43 2cbe 1450 b3bc
00000280: 1fdc 3dbd 9505 503c 4e8e 343d ce33 863c
00000290: 35e6 e33b d4db c9be b419 dd3d 881f ebbc
000002a0: eb9b 65be aff1 653e 9545 31be f8a4 dfbd
000002b0: 26d0 a03e 55c0 73be b78c 75be fc58 b5be
000002c0: be39 fa3d 2fc7 be3e 1c24 813b 3882 f23e
000002d0: 8efe 9dbd 14d7 1bbe 78b6 39be 7481 b0be
000002e0: e22f 27be 7eec 02be 3912 6b3d d056 85bc
000002f0: 2a16 113d 64a8 6e3e 85b7 e13c a650 3abe
00000300: 11c7 90be 03e2 613e 26f1 b3bd c6ce 873d
00000310: 1b89 aebe 7e5e 3c3e 931d e03e 9327 bdbe

lin2.weight f4 [200, 200]
0.06761197 -0.034501128 0.1262033 0.045544945 0.21647951 0.010641354 0.027598707 -0.16612622
0.08472349 -0.08788622 0.14955877 -0.021237044 0.10917658 -0.06792004 -0.21313347 -0.12407414
0.16306178 -0.11659711 -0.0102068735 -0.25813636 -0.16884233 -0.1054511 -0.08289653 -0.14001845
0.05802472 0.0062722145 0.12179465 -0.1721516 0.17082027 -0.10091376 0.033346884 0.047645196
0.05726857 0.14482166 -0.059514724 -0.076861724 0.058286216 -0.029639944 0.025419429 0.07010544
-0.08377256 0.075652204 0.124364845 -0.03510549 -0.15976316 -0.0049192263 -0.0993553 -0.23085241
0.012775409 -0.02295994 -0.08978708 -0.015152743 0.042473752 0.15716657 0.20734282 0.09621814
-0.09615696 -0.045501392 0.0072661303 -0.33737016 0.0009658727 0.13255231 0.0947583 -0.053504925
-0.12907748 -0.0013542653 0.1715299 0.14830087 0.119187444 0.209935 0.11651146 -0.05592441
-0.14921395 -0.050589897 -0.058005914 -0.11780454 0.047445334 -0.0809609 -0.009799003 -0.11622597
-0.20649697 0.015729463 -0.1835288 -0.13876541 -0.1478053 0.1232854 0.039118275 0.029588575
0.025675992 -0.08475789 0.20317419 -0.060710095 -0.06624559 -0.20068857 -0.023990596 0.05518057
0.11498389 -0.1138213 -0.18585154 -0.048422135 -0.059662633 -0.15885133 -0.048637174 0.030392729
-0.06429116 -0.046825517 -0.17973001 0.05927979 0.07719525 -0.04618751 0.12688625 0.012966118
-0.023480825 -0.18797013 0.025780112 0.11061264 0.17282484 0.01769569 0.049420513 -0.22929966
-0.08179017 0.06250124 0.06671025 -0.10195805 -0.07087738 -0.29671067 0.0020575465 0.046330046
-0.30750367 0.0022673018 -0.18254665 0.24152686 0.1443821 -0.19968031 -0.060419988 0.017604474
0.01137823 0.08322515 -0.08516587 -0.17168958 -0.124242 0.06564085 0.027208626 0.25728253
-0.011318482 0.003195544 -0.19596657 -0.02862393 0.19625826 0.108207576 -0.0016075096 0.0005797247
-0.07068155 -0.013507452 0.10492404 -0.033875264 0.19584784 0.052746706 0.02871 -0.23132914
-0.08734633 0.025058735 0.00049168296 0.10499251 -0.1514285 0.055602062 -0.19201657 -0.09694955
0.24537055 -0.070504755 0.02543748 0.03402563 0.046812363 -0.007884332 0.06066436 0.0043389206
-0.05285977 -0.007571252 -0.08074994 -0.16636121 -0.2427439 0.15830019 0.24125677 0.038206745
0.1419119 -0.010529572 -0.0681325 -0.05912979 0.026640058 0.15265581 0.043110922 0.047264095
0.17274727 -0.15982182 -0.10806888 0.04796442 -0.08708496 -0.2785509 -0.09883236 0.08553119
0.09206735 -0.05169394 0.072046265 -0.076637894 0.043718435 -0.0941632 -0.058166694 0.23582096
-0.16031598 0.0937908 0.23328681 -0.06570821 0.2801016 -0.06598243 -0.18459637 0.27494106
0.0052042706 0.018593997 0.03768235 0.013106609 -0.09500497 -0.11308897 0.037530303 -0.05237008
-0.026003486 0.10556812 -0.13051224 -0.18045658 0.15245464 -0.2175732 0.14389756 0.19589476
-0.054344278 0.066569194 0.051065706 0.008347793 0.032018237 0.09193244 0.030510534 -0.2798626
-0.027616447 -0.0021117732 0.0057744384 -0.032414787 0.12148102 -0.02848215 0.068400614 0.14542593
0.0027411866 -0.053557225 -0.20620808 0.15232593 0.18181546 0.13675563 0.036547974 -0.11811403
00000000: 2578 8a3d 0e51 0dbd 703b 013e 568d 3a3d
00000010: ceac 5d3e 1359 2e3c af16 e23c fe1c 2abe
00000020: 8283 ad3d b1fd b3bd ef25 193e 4ff9 adbc
00000030: f997 df3d a919 8bbd a93f 5abe 951a febd
00000040: abf9 263e 77ca eebd bb3a 27bc 732a 84be
00000050: 01e5 2cbe bff6 d7bd a8c5 a9bd ff60 0fbe
00000060: 54ab 6d3d 2687 cd3b 796f f93d 8248 30be
00000070: 82eb 2e3e e0ab cebd be96 083d 9c27 433d
00000080: 7392 6a3d 214c 143e b6c5 73bd ae69 9dbd
00000090: 87bd 6e3d 78cf f2bc 683c d03c 7193 8f3d
000000a0: f390 abbd 8bef 9a3d ffb2 fe3d c6ca 0fbd
000000b0: f498 23be 7631 a1bb cb7a cbbd 9364 6cbe
000000c0: f34f 513c 7c16 bcbc 4ae2 b7bd 3643 78bc
000000d0: f5f8 2d3d 46f0 203e ad51 543e 040e c53d
000000e0: f1ed c4bd ab5f 3abd b818 ee3b c8bb acbe
000000f0: 9f32 7d3a cbbb 073e a410 c23d fb27 5bbd
00000100: e32c 04be 9a81 b1ba 89a5 2f3e 2fdc 173e
00000110: 8c18 f43d 33f9 563e 8f9d ee3d fe10 65bd
00000120: 8bcb 18be 5a37 4fbd 9c97 6dbd 8243 f1bd
00000130: 0a56 423d d4ce a5bd ff8b 20bc e207 eebd
00000140: f173 53be 13db 803c f9ee 3bbe 8518 0ebe
00000150: 465a 17be 0e7d fc3d 7c3a 203d bd63 f23c
00000160: 7556 d23c 8b95 adbd e50c 503e 26ab 78bd
00000170: c5ab 87bd 4e81 4dbe ed87 c4bc 0505 623d
00000180: ac7c eb3d 241b e9bd de4f 3ebe 4a56 46bd
00000190: ce60 74bd eca9 22be c637 47bd 2cfa f83c
000001a0: 15ab 83bd 1dcc 3fbd 250b 38be 5dcf 723d
000001b0: 8b18 9e3d 1d2f 3dbd 78ee 013e d76f 543c
000001c0: dc5a c0bc 3e7b 40be d030 d33c e188 e23d
000001d0: fff8 303e 8df6 903c 2a6d 4a3d 88cd 6abe
000001e0: 9b81 a7bd a600 803d 629f 883d 62cf d0bd
000001f0: 2928 91bd 76ea 97be e7d7 063b 93c4 3d3d
00000200: 1f71 9dbe 0397 143b 82ed 3abe d152 773e
00000210: e7d8 133e ff78 4cbe f37a 77bd 4237 903c
00000220: c16b 3a3c f371 aa3d 726b aebd 65cf 2fbe
00000230: 9772 febd b66e 863d a0e4 de3c 89ba 833e
00000240: 2871 39bc 556c 513b 76ab 48be bb7c eabc
00000250: edf7 483e ef9b dd3d 12b3 d2ba abf8 173a
00000260: 7dc1 90bd 5c4e 5dbc 6ae2 d63d cac0 0abd
00000270: 568c 483e ee0c 583d 3c31 eb3c 8ce1 6cbe
00000280: a2e2 b2bd fa47 cd3c 49e4 003a 5006 d73d
00000290: 1310 1bbe fdbe 633d fe9f 44be 7c8d c6bd
000002a0: 6b42 7b3e cc64 90bd 4362 d03c 765e 0b3d
000002b0: 52be 3f3d 492d 01bc 317b 783d 812d 8e3b
000002c0: 7c83 58bd 4418 f8bb 3960 a5bd 985a 2abe
000002d0: db91 78be 7219 223e 040c 773e ad7e 1c3d
000002e0: 5a51 113e 3a84 2cbc 0d89 8bbd 1432 72bd
000002f0: 403c da3c ce51 1c3e 1495 303d ff97 413d
00000300: a9e4 303e 55a8 23be 3853 ddbd 5776 443d
00000310: 9959 b2bd 399e 8ebe 9f68 cabd fa2a af3d
00000320: cf8d bc3d 06bd 53bd fe8c 933d 54f4 9cbd
00000330: 1a12 333d a3d8 c0bd 3340 6ebd 0d7b 713e
00000340: df29 24be 6415 c03d bde2 6e3e 0792 86bd
00000350: 7a69 8f3e cc21 87bd d506 3dbe 13c5 8c3e
00000360: 9688 aa3b 7052 983c cf58 1a3d 1abd 563c
00000370: f791 c2bd 319b e7bd 60b9 193d 0282 56bd
00000380: 4305 d5bc 1934 d83d 00a5 05be 9cc9 38be
00000390: 121d 1c3e 82cb 5ebe e259 133e a398 483e
000003a0: 1b98 5ebd 6e55 883d 462a 513d 2ec5 083c
000003b0: 8e25 033d 1347 bc3d 3af1 f93c 274a 8fbe
000003c0: e33b e2bc ad65 0abb 8037 bd3b 5ec5 04bd
000003d0: 0acb f83d 6653 e9bc 9f15 8c3d 89ea 143e
000003e0: 7ba5 333b d25e 5bbd 3628 53be 54fb 1b3e
000003f0: d52d 3a3e ab09 0c3e 54b3 153d c5e5 f1bd

lin2.bias f4 [200]
-0.21732605 0.2104435 0.19184232 0.14264752 0.065531015 -0.01119211 -0.25786662 -0.02766318
-0.108427584 -0.011483222 -0.09226942 0.31173015 0.024808066 -0.10464325 -0.024782743 -0.14957938
-0.17031455 0.062966384 -0.16665779 0.11436484 -0.13125378 -0.15900609 0.23714243 -0.19926026
0.11246095 -0.102278106 0.041721564 -0.16856976 -0.2589944 -0.07155215 -0.09257212 0.039700445
0.1264151 0.1399247 -0.109233424 0.19328564 -0.019900976 -0.0075256485 -0.10428294 0.19011636
-0.117936954 -0.2540686 -0.041721113 -0.0011260913 0.06157897 0.025911113 0.015657283 -0.25410113
-0.043759905 -0.1183226 -0.25338274 -0.25684074 -0.0446435 0.3151529 -0.10798218 -0.3624346
0.19973557 -0.078974046 0.08599236 -0.21657987 0.045452427 0.27544808 -0.061677482 -0.10619031
0.39852107 -0.019141013 -0.23248892 -0.034635697 -0.14594069 0.18338329 -0.2476243 -0.1574922
-0.012724128 0.06421022 0.17112297 0.096968785 0.07449815 -0.0985602 -0.08665865 -0.06921306
0.1184201 -0.044110104 0.05945427 -0.032605786 0.010590945 -0.10339712 0.038990546 -0.04929831
-0.08986378 -0.10635287 -0.27977732 -0.051744808 0.08713116 -0.009861018 0.23287056 -0.29830304
0.1411176 0.10256185 -0.13915215 -0.07616743 0.04362893 -0.06825739 0.28334373 0.037613798
0.065134026 0.24211647 -0.08240949 -0.10236509 -0.051156953 -0.12857838 0.0627617 0.1975531
0.095658325 0.009760417 -0.049091168 -0.33999047 -0.1136286 0.120217554 0.093374 0.030323677
0.28925997 -0.2304209 -0.07295581 -0.27677953 -0.017028684 -0.1873087 -0.2394205 -0.17329542
0.016797159 -0.25974426 -0.08876293 -0.03325725 0.1484815 -0.25033975 -0.07161026 -0.11498207
0.0930825 0.017479414 -0.08143699 0.32501474 0.61934066 0.15912203 0.17148145 -0.21879327
-0.1188417 0.1629513 -0.10467163 0.14310803 -0.07582466 -0.2695899 -0.33022758 -0.0057695555
0.011216638 -0.049957138 -0.064895436 0.205424 0.19255212 0.0906085 -0.029333185 0.11098218
-0.2295445 -0.17075156 0.023814134 0.07296098 0.07337859 -0.024735158 0.011906356 0.07024141
0.019962471 0.0011486573 0.13965306 0.0041345763 0.014153452 -0.123048574 0.17736669 -0.025311496
-0.09076171 0.13258967 -0.041335095 0.22365718 0.29291514 0.015103428 0.33450744 0.35578948
-0.024830416 0.06001432 -0.18727729 0.011224947 -0.022564555 -0.07894128 0.09514538 0.0033677558
0.062491953 -0.08139784 0.35311392 -0.05145736 0.380612 0.08041037 0.07608107 0.040147476
00000000: b88a 5ebe 807e 573e 5072 443e 3112 123e
00000010: 2035 863d 1d5f 37bc 1807 84be e59d e2bc
00000020: 480f debd 2024 3cbc c0f7 bcbd 189b 9f3e
00000030: 493a cb3c 334f d6bd 2e05 cbbc 562b 19be
00000040: f066 2ebe 85f4 803d 57a8 2abe 1d38 ea3d
00000050: 6467 06be 7ed2 22be 77d5 723e e20a 4cbe
00000060: ed51 e63d 2f77 d1bd 3be4 2a3d 8d9d 2cbe
00000070: ea9a 84be ef89 92bd 7496 bdbd ef9c 223d
00000080: f672 013e 6c48 0f3e c6b5 dfbd acec 453e
00000090: 5f07 a3bc b799 f6bb 4b92 d5bd ddad 423e
000000a0: ee88 f1bd 4815 82be c2e3 2abd 5b99 93ba
000000b0: 3b3a 7c3d 8b43 d43c b443 803c 8b19 82be
000000c0: 963d 33bd 1f53 f2bd 62bb 81be a180 83be
000000d0: 1adc 36bd b95b a13e c325 ddbd 0791 b9be
000000e0: 7b87 4c3e 25bd a1bd c31c b03d 1dc7 5dbe
000000f0: 532c 3a3d 8807 8d3e 87a1 7cbd 4e7a d9bd
00000100: f40a cc3e 9dcd 9cbc 9311 6ebe 29de 0dbd
00000110: 7a71 15be d4c8 3b3e 3991 7dbe a345 21be
00000120: dc78 50bc a680 833d dc3a 2f3e 9297 c63d
00000130: 7c92 983d eed9 c9bd 177a b1bd 94bf 8dbd
00000140: 3d86 f23d ccac 34bd 5286 733d a58d 05bd
00000150: a585 2d3c dfc1 d3bd 8db4 1f3d 06ed 49bd
00000160: 800a b8bd 89cf d9bd f93e 8fbe 5df2 53bd
00000170: d271 b23d 1b90 21bc 9f75 6e3e 2dbb 98be
00000180: 2281 103e f20b d23d e77d 0ebe abfd 9bbd
00000190: 40b4 323d 88ca 8bbd 6e12 913e ed10 1a3d
000001a0: fd64 853d 61ed 773e 4fc6 a8bd caa4 d1bd
000001b0: f489 51bd 0daa 03be 3589 803d 5c4b 4a3e
000001c0: 83e8 c33d 28ea 1f3c d213 49bd 3b13 aebe
000001d0: 1db6 e8bd 9f34 f63d de3a bf3d 5c69 f83c
000001e0: e219 943e 75f3 6bbe db69 95bd 0cb6 8dbe
000001f0: bd7f 8bbc dacd 3fbe a62a 75be 5b74 31be
00000200: 329a 893c 33fd 84be 57c9 b5bd c138 08bd
00000210: 890b 183e 882c 80be 66a8 92bd b87b ebbd
00000220: 0aa2 be3d fd30 8f3c 70c8 a6bd 5568 a63e
00000230: 1c8d 1e3f e3f0 223e d598 2f3e 580b 60be
00000240: 4763 f3bd b5dc 263e 145e d6bd e98a 123e
00000250: f649 9bbd b007 8abe 9713 a9be 8a0e bdbb
00000260: fdc5 373c db9f 4cbd e6e7 84bd ab5a 523e
00000270: 622c 453e f390 b93d 264c f0bc a04a e33d
00000280: b70d 6bbe 7fd9 2ebe dc15 c33c 916c 953d
00000290: 8447 963d 63a1 cabc e012 433c bada 8f3d
000002a0: 5688 a33c 8b8e 963a 3601 0f3e 577b 873b
000002b0: e1e3 673c e400 fcbd 9d9f 353e 0e5a cfbc
000002c0: 47e1 b9bd 96c5 073e fd4e 29bd 6306 653e
000002d0: f9f8 953e 5e74 773c 8f44 ab3e 0a2a b63e
000002e0: 2869 cbbc 93d1 753d 9ec5 3fbe d7e8 373c
000002f0: 4dd9 b8bc f7ab a1bd 95db c23d 91b5 5c3b
00000300: 90f7 7f3d e9b3 a6bd 59cb b43e f4c4 52bd
00000310: 93df c23e 31ae a43d 64d0 9b3d ae71 243d

lin3.weight f4 [200, 200]
0.006224611 -0.12900802 0.3999447 0.27416977 -0.1134628 0.3125013 0.0078075747 -0.26195547
-0.053909097 -0.12270352 0.056973755 0.06705863 -0.09531422 -0.11156416 -0.19090492 -0.24248649
-0.23270403 -0.23050712 -0.0044496125 0.0008928686 0.08297471 0.19817364 -0.047153983 0.046471097
-0.12710825 0.2897065 -0.09694545 0.06882645 -0.1956864 -0.043041542 0.18324004 0.105782315
-0.15603139 -0.04242628 0.010844317 -0.0776142 0.25394642 0.078363255 -0.016204117 0.012412274
-0.0095799025 0.1998897 -0.12703753 -0.023794195 -0.347796 0.25908035 0.04949148 -0.25954124
0.08718756 0.01841105 0.06822734 0.2418648 0.18662837 0.15824834 0.20991985 0.19464709
0.08118358 0.0916037 0.35293347 -0.069018036 0.21011758 -0.11239757 -0.0017026502 -0.13408852
0.2262274 0.11475083 -0.28936788 -0.0012353574 -0.18484825 0.32711375 -0.13153413 0.06957885
0.091453776 -0.00838178 0.07338021 0.13598177 -0.092226304 -0.095612586 -0.05719844 -0.09557295
-0.18315485 -0.3666683 -0.043812353 -0.3132448 -0.16122375 0.08800569 0.035699382 0.074208036
-0.23843983 0.02209558 0.3757056 0.07722731 -0.3743584 0.29344812 0.37690654 -0.1947603
-0.026776064 0.012829527 -0.052633617 -0.075552374 -0.09078287 0.09510182 -0.11355759 -0.032609377
-0.1718106 0.37288782 -0.13366891 0.12089707 0.07676193 0.10745366 -0.1201537 0.08856578
-0.14392647 0.016340813 0.02206048 0.045060843 -0.41842753 -0.06595078 0.019315623 -0.13902102
0.34069648 -0.027683623 -0.29522166 -0.07304624 -0.005521346 0.23486835 -0.3153243 -0.2322666
-0.061191432 0.121677674 -0.03269823 -0.031718295 -0.012229681 0.013505417 -0.041625857 0.17874809
-0.034155346 0.1069968 0.113366716 0.16276664 -0.029484274 -0.3031518 0.05470901 0.0152964555
0.103371836 0.24019633 -0.031475212 -0.1372338 0.053777974 -0.09574825 0.1581222 0.059047107
0.278206 -0.37307528 0.16109303 -0.050492328 -0.15487345 0.24873307 -0.08951686 -0.35694528
-0.20455137 -0.064345 -0.025525387 0.20373519 -0.23432775 0.11413307 0.13593797 0.027606005
-0.13923071 0.19118556 0.24877502 -0.09461862 0.0034551262 0.21173956 0.03621508 0.18320346
-0.08260084 -0.19839449 -0.0020146589 0.13314433 0.105144404 -0.08306249 0.08252797 0.02149419
-0.19780268 -0.21606553 0.22199628 -0.12418362 0.060566515 0.17131607 -0.2522976 -0.21236387
0.022996083 -0.022107875 0.029514512 0.08145988 0.010711541 0.0018844658 -0.16991594 -0.10660221
0.02693073 -0.25569853 0.03587571 -0.12723811 0.12732893 -0.062261045 -0.098252945 -0.11406141
0.16646641 -0.13405865 0.15752028 0.15883128 -0.25667763 -0.056988753 0.07272669 -0.25685197
0.045045823 0.070357986 0.18497157 0.27381688 -0.31055653 0.018001786 -0.28880826 0.12319123
-0.088000156 -0.17029746 -0.30913675 -0.22498287 0.31245613 0.12320948 -0.07835518 -0.07369971
-0.0058580204 0.14134577 0.27145392 -0.0054457993 0.16390383 0.027433116 0.12161286 0.042478114
-0.47074044 0.1154899 0.27712005 -0.07944188 -0.007779218 -0.38189834 0.20486186 -0.038735025
0.32408622 0.047456376 0.028004292 -0.34351176 -0.05362395 -0.14322892 0.09458343 -0.061705284
00000000: d2f7 cb3b ae1a 04be 8dc5 cc3e fb5f 8c3e
00000010: 2f5f e8bd 2c00 a03e afd6 ff3b 071f 86be
00000020: c9cf 5cbd fc4b fbbd 505d 693d 0956 893d
00000030: 1a34 c3bd c07b e4bd 947c 43be 614e 78be
00000040: f749 6ebe 0f0a 6cbe 0ece 91bb 660f 6a3a
00000050: a5ee a93d 08ee 4a3e 8924 41bd 7a58 3e3d
00000060: aa28 02be 6954 943e 568b c6bd e2f4 8c3d
00000070: 0462 48be 544c 30bd 47a3 3b3e 66a4 d83d
00000080: b1c6 1fbe 2ec7 2dbd 5dac 313c 32f4 9ebd
00000090: 4405 823e ea7c a03d 7fbe 84bc da5c 4b3c
000000a0: 06f5 1cbc e3af 4c3e 2016 02be 0bec c2bc
000000b0: 5112 b2be 2ea6 843e 94b7 4a3d 97e2 84be
000000c0: 648f b23d c5d2 963c c7ba 8b3d 68ab 773e
000000d0: 821b 3f3e da0b 223e 3bf5 563e 9151 473e
000000e0: 9443 a63d b89a bb3d b2b3 b43e 5459 8dbd
000000f0: 1029 573e b230 e6bd 762b dfba 804e 09be
00000100: 28a8 673e 7c02 eb3d 0728 94be b7eb a1ba
00000110: dc48 3dbe 747b a73e e2b0 06be 5b7f 8e3d
00000120: 1e4c bb3d bc53 09bc 5d48 963d ce3e 0b3e
00000130: 25e1 bcbd 88d0 c3bd e948 6abd c0bb c3bd
00000140: f28c 3bbe f3bb bbbe 9574 33bd 9f61 a0be
00000150: d717 25be 543c b43d 8439 123d 62fa 973d
00000160: 9229 74be ca01 b53c 7c5c c03e 5a29 9e3d
00000170: e7ab bfbe d53e 963e e5f9 c03e 3e6f 47be
00000180: 7a59 dbbc f032 523c 5996 57bd 34bb 9abd
00000190: 5fec b9bd bec4 c23d e290 e8bd 6991 05bd
000001a0: 1eef 2fbe 27eb be3e 81e0 08be e298 f73d
000001b0: 5c35 9d3d aa10 dc3d 2513 f6bd fa61 b53d
000001c0: 7661 13be 2bdd 853c 2eb8 b43c b891 383d
000001d0: 223c d6be 3411 87bd cc3b 9e3c 875b 0ebe
000001e0: c56f ae3e c4c8 e2bc 4b27 97be 4499 95bd
000001f0: 68ec b4bb 5481 703e 3072 a1be 4cd7 6dbe
00000200: dea3 7abd 2532 f93d 94ee 05bd 0beb 01bd
00000210: 005f 48bc d345 5d3c e07f 2abd bd09 373e
00000220: 7ae6 0bbd 2321 db3d cf2c e83d 4cac 263e
00000230: 0189 f1bc b636 9bbe 8e16 603d fc9d 7a3c
00000240: 9db4 d33d 07f6 753e 27ec 00bd 0487 0cbe
00000250: 4b46 5c3d a917 c4bd c9ea 213e 61db 713d
00000260: 0471 8e3e b903 bfbe 92f5 243e 0bd1 4ebd
00000270: 2597 1ebe e2b3 7e3e 9e54 b7bd 88c1 b6be
00000280: ea75 51be 50c7 83bd 9e1a d1bc f59f 503e
00000290: 9df3 6fbe 99be e93d 5333 0b3e fd25 e23c
000002a0: 7f92 0ebe 26c6 433e e1be 7e3e 68c7 c1bd
000002b0: 666f 623b 41d2 583e 4456 143d b099 3b3e
000002c0: a12a a9bd ed27 4bbe 5e08 04bb fd56 083e
000002d0: f355 d73d ab1c aabd 6d04 a93d 9514 b03c
000002e0: c98c 4abe 4840 5dbe fe52 633e fb53 febd
000002f0: 9814 783d 7b6d 2f3e 272d 81be ea75 59be
00000300: 4862 bc3c 931b b5bc 6bc8 f13c 70d4 a63d
00000310: 767f 2f3c 2e00 f73a 72fe 2dbe 4252 dabd
00000320: d69d dc3c ebea 82be 69f2 123d b54a 02be
00000330: 8462 023e 7005 7fbd d738 c9bd 0799 e9bd
00000340: 2c76 2a3e ac46 09be ff4c 213e aba4 223e
00000350: 406b 83be 0a6d 69bd bbf1 943d 1a82 83be
00000360: f881 383d d917 903d 3069 3d3e ba31 8c3e
00000370: 4401 9fbe 7b78 933c adde 93be af4b fc3d
00000380: 6d39 b4bd 7562 2ebe 2c47 9ebe e961 66be
00000390: 40fa 9f3e 4055 fc3d ae78 a0bd e0ef 96bd
000003a0: a3f4 bfbb f2bc 103e 02fc 8a3e ad72 b2bb
000003b0: 68d6 273e 6abb e03c 2a10 f93d 88fd 2d3d
000003c0: e404 f1be f885 ec3d aee2 8d3e 6db2 a2bd
000003d0: cfe8 febb 2e88 c3be 4fc7 513e 9ea8 1ebd
000003e0: a1ee a53e 9e61 423d 4269 e53c c6e0 afbe
000003f0: c9a4 5bbd 9aaa 12be f5b4 c13d aebe 7cbd

lin3.bias f4 [200]
0.1121391 -0.42564726 0.06105943 -0.007537802 -0.025411276 -0.025357656 -0.14314453 -0.015410403
-0.23909308 -0.08306937 0.004046712 0.26877192 -0.1472112 0.04678449 0.044318046 -0.11739455
-0.019123474 -0.033301637 0.44032398 -0.10152987 -0.21722995 -0.03786558 -0.012210978 0.048007563
-0.06153653 -0.12739913 -0.08041405 0.40948293 -0.24130177 0.36302018 0.4291597 0.25445583
0.28242892 -0.2281856 0.032219823 0.007170775 0.37297398 -0.1403711 0.13069649 -0.03584274
-0.015328236 0.17841904 -0.0028500864 0.12318743 0.12822166 -0.108225465 0.24119136 0.054129794
0.10336303 0.2724104 0.009351138 -0.035759967 -0.008973006 -0.07039678 0.07503023 0.21529937
-0.16130318 -0.036220003 0.32908648 -0.12747611 0.0329189 0.4069829 0.09907579 -0.23611131
-0.026930103 -0.3148251 0.15513818 0.3254121 -0.05067946 0.16026184 0.1976849 0.055286564
0.10480024 -0.052286625 -0.26220956 0.16739978 0.037008476 0.44426936 -0.0565819 0.060730617
0.0702224 0.11386531 0.14864409 -0.2321299 0.05310294 -0.13557854 0.21146312 0.15471621
0.17770065 0.14840566 -0.16851726 0.20778088 -0.17478319 0.05551206 0.13802488 0.37317252
-0.31039622 0.103370495 0.23574214 -0.04192576 -0.06473453 -0.34155008 -0.10820362 -0.11536361
-0.35419732 -0.37486383 0.11694602 0.1806726 -0.14515889 0.15339306 0.02002141 -0.26675642
0.4685233 -0.05371683 -0.23049575 -0.23816842 0.25545272 0.2592914 0.33640513 0.08067355
-0.094840094 -0.06413058 0.28162226 0.19474614 -0.009031578 -0.012928843 -0.08805483 -0.1356099
0.46125656 0.036069993 -0.0073020314 -0.106943 -0.11336162 -0.116016515 0.17764327 0.32265735
0.22676973 0.12987405 0.19547091 -0.16698034 0.52700746 -0.27439925 -0.12734394 0.462496
-0.5884648 0.011263528 -0.05312543 -0.037200157 0.058698468 0.046797995 0.3246809 -0.039497633
-0.17964639 0.17456518 -0.097777486 -0.12559511 0.08439787 0.11565045 -0.28939852 -0.01759132
-0.2615578 0.3332525 0.034907438 0.048177607 -0.12079714 0.031755097 0.10253609 -0.101208575
-0.10628942 -0.19656365 -0.4137805 0.22203211 -0.2477941 -0.21734147 0.12960474 0.32945395
-0.016262297 -0.22805375 -0.070039116 0.08094954 -0.05375075 -0.18478076 0.22421162 0.030400075
0.08334796 -0.3495105 0.39034355 0.14261095 -0.31163037 0.13227457 0.026044047 -0.19574572
-0.14063914 -0.17891964 -0.19675879 -0.0080570355 -0.04809004 -0.1946747 0.19770892 0.04138181
00000000: 2fa9 e53d 70ee d9be 7419 7a3d abff f6bb
00000010: 4f2b d0bc dcba cfbc 7b94 12be ea7b 7cbc
00000020: d1d4 74be 4620 aabd 489a 843b 799c 893e
00000030: 88be 16be 18a1 3f3d d786 353d 8e6c f0bd
00000040: d5a8 9cbc 4c67 08bd 2572 e13e e4ee cfbd
00000050: 8771 5ebe f018 1bbd 8e10 48bc 94a3 443d
00000060: ba0d 7cbd eb74 02be 1fb0 a4bd bfa7 d13e
00000070: d017 77be c8dd b93e d2ba db3e 0948 823e
00000080: 869a 903e 7ca9 69be eff8 033d d2f8 ea3b
00000090: 72f6 be3e 71bd 0fbe 4dd5 053e d6cf 12bd
000000a0: 4823 7bbc 7bb3 363e 84c8 3abb b149 fc3d
000000b0: 8a4c 033e 50a5 ddbd defa 763e 34b7 5d3d
000000c0: ffaf d33d 6079 8b3e 8435 193c 0b79 12bd
000000d0: 8403 13bc 302c 90bd 73a9 993d 7077 5c3e
000000e0: a92c 25be 6d5b 14bd 067e a83e 1989 02be
000000f0: f8d5 063d 1060 d03e 3fe8 ca3d 2ac7 71be
00000100: 859c dcbc c130 a1be 8bdc 1e3e 6a9c a63e
00000110: 4495 4fbd ae1b 243e e96d 4a3e 2a74 623d
00000120: 82a1 d63d 802a 56bd 5540 86be d96a 2b3e
00000130: 3396 173d 4677 e33e 6cc2 67bd abc0 783d
00000140: c3d0 8f3d 3732 e93d 2836 183e 76b3 6dbe
00000150: 7882 593d 1ad5 0abe ca89 583e ed6d 1e3e
00000160: 29f7 353e a7f7 173e ca8f 2cbe 83c4 543e
00000170: 5dfa 32be 9d60 633d 6556 0d3e 7810 bf3e
00000180: 41ec 9ebe e9b3 d33d 6366 713e 59ba 2bbd
00000190: 8a93 84bd a7df aebe dc99 ddbd c243 ecbd
000001a0: 5a59 b5be 27ee bfbe 6581 ef3d 3d02 393e
000001b0: 88a4 14be 1213 1d3e f103 a43c 4c94 88be
000001c0: 49e2 ef3e 2e06 5cbd 1407 6cbe 6ce2 73be
000001d0: b3ca 823e d8c1 843e 4b3d ac3e 2d38 a53d
000001e0: 863b c2bd e556 83bd cb30 903e 886b 473e
000001f0: 2ff9 13bc 7fd3 53bc 1756 b4bd 52dd 0abe
00000200: d229 ec3e 21be 133d e145 efbb ee04 dbbd
00000210: 232a e8bd 119a edbd 1ee8 353e 5833 a53e
00000220: 5336 683e b4fd 043e 8729 483e e5fc 2abe
00000230: f6e9 063f 0f7e 8cbe 7366 02be 47cc ec3e
00000240: a1a5 16bf a98a 383c 0d9a 59bd 315f 18bd
00000250: ce6d 703d 41af 3f3d 933c a63e 45c8 21bd
00000260: 39f5 37be 37c1 323e 903f c8bd 019c 00be
00000270: cad8 ac3d 25da ec3d 0b2c 94be ac1b 90bc
00000280: e7ea 85be 12a0 aa3e 1afb 0e3d e255 453d
00000290: 7e64 f7bd a211 023d 71fe d13d 7146 cfbd
000002a0: 44ae d9bd fb47 49be 0adb d3be 635c 633e
000002b0: bdbd 7dbe c38e 5ebe 1bb7 043e 30ae a83e
000002c0: 8238 85bc ec86 69be ab70 8fbd dfc8 a53d
000002d0: bf29 5cbd 2b37 3dbe bb97 653e 9409 f93c
000002e0: 56b2 aa3d 0af3 b2be 1cdb c73e 9b08 123e
000002f0: 048e 9fbe fc72 073e 535a d53c 9171 48be
00000300: b503 10be b636 37be 237b 49be a801 04bc
00000310: 10fa 44bd ce58 47be 3574 4a3e f97f 293d

lin4.weight f4 [62, 200]
1.0283285 0.38841256 -0.562418 -0.8784081 -0.20808478 -0.72250867 -1.2331464 -0.38054422
-0.6192681 0.57354486 1.2466545 0.30679652 -0.5333358 0.7030261 0.046364173 0.059347674
-1.5192 0.45880005 0.2907636 -0.47783223 -0.041106965 -0.43411246 -0.28691313 -1.3526098
0.61925346 0.19009012 1.3910875 0.4772449 -0.91157037 1.9867712 -1.3080271 -0.9268669
0.32375327 -0.048462845 -0.8056025 0.5914194 0.41737068 -0.4221117 -0.5983402 0.68188316
1.2515475 0.10624827 -0.13455911 -1.4013138 -0.56974286 0.17617229 0.64798856 -0.5595807
-1.3127515 -0.3671023 0.9030998 -0.7162731 0.18501388 -1.1345408 -0.8451075 -0.5146718
1.4538168 -0.9824386 -1.0239736 0.4345961 -0.4712522 -0.5348711 -0.7997736 -0.6080129
-0.78221726 -1.0254561 -1.3087091 0.26804268 -1.3329495 -0.22671176 -0.111105226 -0.21784376
-0.36483297 0.9529734 1.0826839 0.57748866 -1.2288885 -0.45508763 0.7278222 0.19572884
-0.38763848 0.27348366 0.77248544 -0.69849473 0.50432134 -0.03478378 -0.036570046 0.5575491
-1.1496097 0.6042508 0.29559928 -0.21830177 0.8326625 0.71429545 -0.53570414 -0.82271886
-0.49399313 0.8130213 0.17091537 0.40411493 0.7179223 -0.6775388 -0.63316077 0.98347914
-0.2565165 -0.9582112 -0.18799102 0.6507293 0.113452114 -0.9262138 0.21266852 0.37951306
-0.7624596 -0.553505 -0.011189943 -0.38304865 -0.39745298 0.49848422 0.39005092 0.33735025
0.9316663 0.25628793 -0.65207684 -0.28046986 -0.11179854 0.08683985 -1.2844299 -0.24804635
-1.7823404 1.0897986 -1.0108771 0.3613077 -0.4802904 -0.2967142 1.3769326 0.21641135
-1.0394052 0.22109301 -1.4179667 0.32097942 0.7697506 -0.116680264 0.40816996 -0.6331925
1.1176907 0.41298738 -0.3221805 -0.067636885 -0.40997338 -0.5051769 0.438754 -1.1667129
-0.22468232 1.1727484 -0.10505485 -0.57631737 1.0329245 0.40742382 -1.0904313 0.46781936
-0.744779 -0.78603446 -1.5562867 1.5341917 0.003014389 1.129387 0.4989722 0.05285838
-1.1503441 0.43637523 0.23659821 0.39273834 1.4328312 0.25102174 1.022949 0.89476055
-0.6211538 0.6806557 -0.74384063 0.18627532 -0.9456464 0.87091243 -0.69222236 -0.48847675
0.6303179 0.4595261 -0.9847528 0.17240964 -0.033327255 -0.6200261 -0.21181574 1.0829883
1.7361141 -0.22522956 -0.62769604 -0.9830993 -0.85274434 0.24724786 0.3902102 0.38850284
0.81095153 -0.382938 0.5936841 -0.58580494 -0.8592382 -0.858097 -1.2250404 -0.3474852
-0.6381518 -0.81933403 -0.516269 0.6730695 -0.054960754 0.25673357 0.39170206 0.7468877
-0.90283453 1.169912 0.6807827 -0.50461435 1.2260919 -0.9578743 -0.8996698 -1.1403675
0.88729525 -1.46624 1.0409273 0.8480458 -0.8797783 -0.32495403 -0.8813177 -0.05549658
1.0257863 0.69083583 -0.25592703 -0.12509993 0.90584636 0.24951252 1.1483731 -0.24881756
-0.0138910925 -0.18267988 -1.4497931 1.1971358 0.456904 -0.44174632 0.9500573 -0.3573316
0.38710383 -0.3107385 0.57132757 -0.31734335 1.1653427 0.589851 -1.1915383 -0.25290444
00000000: 45a0 833f 03de c63e a0fa 0fbf 5adf 60bf
00000010: 2d14 55be 54f6 38bf bed7 9dbf b1d6 c2be
00000020: 5b88 1ebf d6d3 123f 6092 9f3f 6f14 9d3e
00000030: b288 08bf 85f9 333f 5ce8 3d3d 8c16 733d
00000040: 2575 c2bf d7e7 ea3e f7de 943e 6da6 f4be
00000050: c75f 28bd fd43 debe 47e6 92be 5122 adbf
00000060: 6587 1e3f fca6 423e 280f b23f 7259 f43e
00000070: ad5c 69bf 854e fe3f 6f6d a7bf 2647 6dbf
00000080: fdc2 a53e fa80 46bd f73b 4ebf 4367 173f
00000090: 9cb1 d53e 061f d8be d32c 19bf e58f 2e3f
000000a0: b532 a03f b198 d93d ddc9 09be 405e b3bf
000000b0: abda 11bf 8266 343e 94e2 253f ae40 0fbf
000000c0: 3e08 a8bf d5f4 bbbe 8c31 673f ad5d 37bf
000000d0: 4774 3d3e a238 91bf f758 58bf 88c1 03bf
000000e0: ab16 ba3f 1981 7bbf 9111 83bf 6183 de3e
000000f0: f847 f1be 50ed 08bf f6bd 4cbf bca6 1bbf
00000100: 643f 48bf 2542 83bf c883 a7bf e43c 893e
00000110: 179e aabf 2127 68be 238b e3bd 6f12 5fbe
00000120: 63cb babe 11f6 733f 6395 8a3f 4cd6 133f
00000130: 384c 9dbf 3f01 e9be 8e52 3a3f 246d 483e
00000140: 8d78 c6be 0d06 8c3e 9bc1 453f 8dd0 32bf
00000150: 341b 013f 7079 0ebd 79ca 15bd 8abb 0e3f
00000160: 6926 93bf 2eb0 1a3f ca58 973e 808a 5fbe
00000170: 5f29 553f 11dc 363f e823 09bf b49d 52bf
00000180: abec fcbe 2a22 503f 7004 2f3e 27e8 ce3e
00000190: c1c9 373f 2f73 2dbf d316 22bf 4ac5 7b3f
000001a0: 2156 83be 544d 75bf b880 40be 3296 263f
000001b0: 9559 e83d 591c 6dbf c7c5 593e 894f c23e
000001c0: 8d30 43bf 81b2 0dbf 0656 37bc f41e c4be
000001d0: f57e cbbe 5339 ff3e c1b4 c73e 2cb9 ac3e
000001e0: af81 6e3f 2c38 833e 82ee 26bf bf99 8fbe
000001f0: a2f6 e4bd 17d9 b13d 3368 a4bf ddff 7dbe
00000200: bb23 e4bf 857e 8b3f 6c64 81bf 53fd b83e
00000210: a0e8 f5be ecea 97be 543f b03f f09a 5d3e
00000220: 3b0b 85bf 3566 623e ef7f b5bf 6a57 a43e
00000230: 600e 453f 10f6 eebd a7fb d03e e718 22bf
00000240: 7d10 8f3f 1573 d33e d8f4 a4be 3585 8abd
00000250: 08e8 d1be 4653 01bf 5da4 e03e d956 95bf
00000260: 1f13 66be 9f1c 963f ff26 d7bd 8989 13bf
00000270: df36 843f db99 d03e 4193 8bbf 0586 ef3e
00000280: d6a9 3ebf 8e39 49bf 6734 c7bf 6560 c43f
00000290: 0e8d 453b c18f 903f 4979 ff3e 0782 583d
000002a0: 7a3e 93bf 936c df3e cd46 723e 0015 c93e
000002b0: 0367 b73f ec85 803e feef 823f 070f 653f
000002c0: ef03 1fbf 743f 2e3f 576c 3ebf f5be 3e3e
000002d0: e215 72bf 1ef4 5e3f 7c35 31bf a019 fabe
000002e0: 845c 213f 0147 eb3e c218 7cbf 278c 303e
000002f0: 2982 08bd 08ba 1ebf 3ae6 58be 5c9f 8a3f
00000300: fd38 de3f 94a2 66be b0b0 20bf 65ac 7bbf
00000310: 744d 5abf 8b2e 7d3e a2c9 c73e d8e9 c63e
00000320: 859a 4f3f 7310 c4be aefb 173f 50f7 15bf
00000330: 09f7 5bbf 3fac 5bbf 20ce 9cbf 95e9 b1be
00000340: eb5d 23bf e0bf 51bf 352a 04bf 484e 2c3f
00000350: 871e 61bd 9572 833e 2c8d c83e 0834 3f3f
00000360: 2a20 67bf adbf 953f c647 2e3f 682e 01bf
00000370: 94f0 9c3f 4037 75bf c350 66bf 90f7 91bf
00000380: c825 633f c1ad bbbf 1b3d 853f 8819 593f
00000390: 2739 61bf 6060 a6be 099e 61bf 6250 63bd
000003a0: f74c 833f 9eda 303f de08 83be 321a 00be
000003b0: 8ce5 673f 3680 7f3e e4fd 923f 08ca 7ebe
000003c0: 7797 63bc 6f10 3bbe d292 b9bf bf3b 993f
000003d0: 52ef e93e 932c e2be f536 733f 2bf4 b6be
000003e0: 7932 c63e 1e19 9fbe 8642 123f d47a a2be
000003f0: f329 953f 7a00 173f 5484 98bf b17c 81be

lin4.bias f4 [62]
0.85666513 0.58115417 -3.1088967 0.044255517 -0.99038947 -0.4466052 -0.922255 0.19342057
-0.7820902 -4.3543186 -0.1348611 -0.1850849 -0.2819877 -0.79572743 -0.18946888 0.2064536
-0.31385016 1.0040944 0.86812276 -0.13518949 -4.741781 0.59641737 0.62195843 0.43943918
0.024459455 0.4681858 -4.897722 0.2387347 0.60262936 0.6823939 -4.8025165 0.1134873
0.9304448 -4.529793 0.740524 -4.939294 -0.21881671 -0.8883024 -0.714268 -0.48732582
0.591098 -1.076683 -0.89555305 0.50535136 -0.059932347 -3.422595 -0.22285141 0.42395917
-1.0564681 -0.047186323 -0.5976581 -0.4123798 -0.35430735 0.5457108 0.26873854 -0.52480924
0.6966779 -3.5177405 -2.4875417 -4.3847756 0.1593646 -4.277493
00000000: 684e 5b3f 85c6 143f 2af8 46c0 4645 353d
00000010: 2a8a 7dbf 70a9 e4be e718 6cbf 0b10 463e
00000020: 1037 48bf 9456 8bc0 0719 0abe e586 3dbe
00000030: b160 90be cbb4 4bbf 2104 42be 9368 533e
00000040: f8b0 a0be 2a86 803f 4b3d 5e3f 1d6f 0abe
00000050: acbc 97c0 cfae 183f ab38 1f3f 2cfe e03e
00000060: 325f c83c 0db6 ef3e 23ba 9cc0 df76 743e
00000070: eb45 1a3f 5eb1 2e3f 37ae 99c0 086c e83d
00000080: a131 6e3f 10f4 90c0 fb92 3d3f b20e 9ec0
00000090: 7d11 60be c967 63bf 45da 36bf c582 f9be
000000a0: 3352 173f c0d0 89bf f742 65bf b55e 013f
000000b0: 9f7b 75bd cc0b 5bc0 2933 64be 2d11 d93e
000000c0: 593a 87bf 7246 41bd 1f00 19bf 7223 d3be
000000d0: c667 b5be b4b3 0b3f 1998 893e e659 06bf
000000e0: 7c59 323f a922 61c0 e233 1fc0 1550 8cc0
000000f0: 7930 233e 39e1 88c0
