qn1/weights/model_weights_b10_em15.pth (torch, 499647 bytes, 9 tensors)

emb.weight f4 [62, 15]
0.23711061 -0.5296364 0.955153 1.1826615 0.13242394 0.11803468 -0.7370637 1.258576
0.97207797 -0.20228623 -0.09529466 -0.103650756 1.0065758 -0.054292902 0.45711628 0.06347765
-0.9375827 -0.21267644 0.17640007 -0.65049684 0.52555233 0.6890164 0.57497317 0.13564448
-0.33164024 0.28746656 0.74734604 0.109162636 -0.30144125 0.06289197 0.24529648 -0.10850314
0.17036796 0.19551416 -0.36859888 -0.61197907 -0.19989453 -0.68958944 1.393097 0.43184093
0.15999383 -0.66395164 0.50485104 0.4429777 -0.105332226 0.059337877 0.9251982 0.49964726
0.042621188 0.538782 1.0807871 -0.70247823 0.28007036 -0.24802773 -1.3445972 0.7576789
-0.102990076 0.16803911 -0.0010265636 -0.33894357 0.719758 0.4627549 0.019326987 0.548972
-1.114961 -0.3080087 0.49534738 0.71065706 -0.09009587 0.49182132 0.22848429 0.007415588
0.7658831 1.2032651 -1.0964887 -0.09904891 0.47280085 0.021316806 -0.5704249 -0.37350497
-0.64084363 0.5261091 -0.7774996 1.4040678 -1.2401025 0.38786528 0.30661952 0.7185665
-0.21726613 -0.33277887 0.32806697 -0.032656774 0.90812427 -0.22184822 -0.5146062 -1.2950885
-0.8294347 -0.5226384 0.92033046 0.957307 0.29706365 -1.0337487 0.23783186 -0.44401672
0.4050638 0.19746238 0.31745276 0.89586794 0.23090644 -0.5501294 -0.3368954 0.24695112
-0.3153697 1.3491678 -0.51097775 -0.2956163 -0.25384575 0.100864336 0.18103412 0.3801565
0.49981633 -0.5286024 0.26687917 0.025071388 -0.40482068 -0.19767223 -0.43803418 0.62427354
1.2736303 0.033848006 -0.15698166 -1.2239321 -1.1851249 0.73467827 -0.28613666 0.2172931
0.6721368 0.032640766 0.3057978 -0.47496676 -0.6547148 -1.1698024 -0.86166894 0.7650397
0.061534826 -0.17139226 -0.53410256 0.21675056 0.18515746 0.282758 0.5689937 -0.85813254
0.99516964 0.38189608 0.1582611 0.18782759 -1.2080325 -0.120444 -0.638152 1.0061477
-0.23182122 0.15404809 -0.76063097 -1.5997741 -0.017756255 -0.64779085 0.11076521 0.52647537
-0.36781085 -0.68963075 0.40893102 0.15048629 -0.17668717 -0.7008062 -0.34129742 -0.089222
-0.3186836 -0.22244798 -1.0740128 0.37819993 0.359429 -1.4373295 0.7425888 -0.06553021
0.2159045 -0.17872816 -0.14056253 0.25045392 0.55000556 0.65634626 -0.92812634 -0.23147464
-0.10486671 -0.279088 -0.37884358 0.40590748 0.16728874 -0.4381833 0.25915867 -0.2938894
-0.3808339 0.4456546 -0.7852139 0.2994704 0.5037966 -0.21460837 -0.18834725 0.3741677
-0.17665471 -0.2255084 -0.43357787 -0.010491066 -0.12457783 -0.2525072 -0.45066884 -0.5061648
0.62135553 0.7669202 -0.36547193 0.39015523 -1.0932437 -0.53915393 -0.73437357 -1.0775027
1.1822649 0.3114556 -0.0018231025 0.16258232 -0.2968411 -0.12775762 -0.6052419 -1.0121144
0.5914112 0.35315126 0.29514828 0.65538853 -0.5307006 -1.2719383 0.16814688 -1.3445699
0.4312333 -0.32971218 0.17760848 -0.036007695 0.14644372 -0.657354 0.97988963 -0.8512691
1.3108947 0.16784924 0.1880467 -0.58618474 -0.56258047 -0.5078662 0.48494813 -0.080121845
00000000: 20cd 723e 4096 07bf e884 743f 7461 973f
00000010: 249a 073e 2bbc f13d 35b0 3cbf 0519 a13f
00000020: 1ada 783f 1f24 4fbe d929 c3bd d946 d4bd
00000030: 7ad7 803f 3c62 5ebd 250b ea3e 9200 823d
00000040: 6b05 70bf dac7 59be 38a2 343e f686 26bf
00000050: 998a 063f 6163 303f 7131 133f 63e6 0a3e
00000060: c0cc a9be d12e 933e 1252 3f3f a990 df3d
00000070: 8256 9abe 81cd 803d 002f 7b3e e536 debd
00000080: f074 2e3e dd34 483e feb8 bcbe a9aa 1cbf
00000090: 27b1 4cbe ef88 30bf 0151 b23f 411a dd3e
000000a0: 6cd5 233e bcf8 29bf eb3d 013f f9cd e23e
000000b0: 6cb8 d7bd 460c 733d cad9 6c3f c4d1 ff3e
000000c0: 8e93 2e3d 9eed 093f 3b57 8a3f 9dd5 33bf
000000d0: 6265 8f3e fbfa 7dbe c31b acbf 3ff7 413f
000000e0: 76ec d2bd 7212 2c3e c28d 86ba 038a adbe
000000f0: 0f42 383f 36ee ec3e a153 9e3c 6e89 0c3f
00000100: 0bb7 8ebf 51b3 9dbe 2c9e fd3e 9fed 353f
00000110: 2f84 b8bd 01d0 fb3e c9f7 693e 76fe f23b
00000120: ea10 443f 9704 9a3f be59 8cbf 28da cabd
00000130: f412 f23e 95a0 ae3c 5e07 12bf 0b3c bfbe
00000140: 540e 24bf 16af 063f 370a 47bf 7eb8 b33f
00000150: aebb 9ebf 4796 c63e 3cfd 9c3e f9f3 373f
00000160: 037b 5ebe fe61 aabe 65f8 a73e 1cc3 05bd
00000170: d57a 683f 2e2c 63be 3bbd 03bf 76c5 a5bf
00000180: d555 54bf a1cb 05bf c79a 6b3f 1212 753f
00000190: ba18 983e e151 84bf 328a 733e 2956 e3be
000001a0: 8664 cf3e 9433 4a3e 2b89 a23e 9a57 653f
000001b0: bd72 6c3e 48d5 0cbf 8e7d acbe c1e0 7c3e
000001c0: 2378 a1be 88b1 ac3f 70cf 02bf 055b 97be
000001d0: 12f8 81be f691 ce3d 0261 393e dfa3 c23e
000001e0: ede7 ff3e 7d52 07bf 63a4 883e 8362 cd3c
000001f0: a844 cfbe 976a 4abe 0446 e0be 64d0 1f3f
00000200: 5106 a33f 35a4 0a3d cdbf 20be cfa9 9cbf
00000210: 2cb2 97bf e013 3c3f 8180 92be 1582 5e3e
00000220: 2811 2c3f 53b2 053d 8791 9c3e d82e f3be
00000230: 649b 27bf 16bc 95bf 5696 5cbf a4d9 433f
00000240: f10b 7c3d 7481 2fbe f2ba 08bf dcf3 5d3e
00000250: eb99 3d3e a8c5 903e 92a9 113f 93ae 5bbf
00000260: 70c3 7e3f e287 c33e 330f 223e e055 403e
00000270: cfa0 9abf 58ab f6bd ee5d 23bf 73c9 803f
00000280: 8b62 6dbe c8be 1d3e b6b8 42bf 66c5 ccbf
00000290: 9175 91bc 9fd5 25bf dfd8 e23d 17c7 063f
000002a0: b451 bcbe a48b 30bf 685f d13e 1419 1a3e
000002b0: 7bed 34be 0968 33bf 89be aebe 06ba b6bd
000002c0: 7f2a a3be 67c9 63be 4079 89bf 6ca3 c13e
000002d0: 1407 b83e 6afa b7bf 4d1a 3e3f b434 86bd
000002e0: 1216 5d3e 8404 37be a0ef 0fbe 7f3b 803e
000002f0: 2acd 0c3f 4f06 283f b099 6dbf b007 6dbe
00000300: 5cc4 d6bd 9fe4 8ebe c9f7 c1be 1bd3 cf3e
00000310: bd4d 2b3e 9059 e0be 72b0 843e ac78 96be
00000320: a9fc c2be d72c e43e c703 49bf 2f54 993e
00000330: d0f8 003f 4cc2 5bbe 1ade 40be e992 bf3e
00000340: f9e4 34be adeb 66be ebfd ddbe b8e2 2bbc
00000350: a922 ffbd a048 81be 11be e6be 0494 01bf
00000360: 2811 1f3f e254 443f 231f bbbe 6dc2 c73e
00000370: 69ef 8bbf fe05 0abf e8ff 3bbf 9ceb 89bf
00000380: 7554 973f 1c77 9f3e 2bf5 eeba fb7b 263e
00000390: 8ffb 97be e5d2 02be 22f1 1abf f78c 81bf
000003a0: b966 173f 3ed0 b43e ad1d 973e 8bc7 273f
000003b0: ffdb 07bf e0ce a2bf b22e 2c3e de1a acbf
000003c0: 9cca dc3e 09d0 a8be ffde 353e ce7c 13bd
000003d0: 58f5 153e 5a48 28bf 0cda 7a3f c6ec 59bf
000003e0: 66cb a73f ace0 2b3e 508f 403e 3410 16bf
000003f0: 4605 10bf 8503 02bf 1f4b f83e ec16 a4bd

lin1.weight f4 [200, 150]
-0.066995636 0.084353514 -0.036811873 0.16448782 0.012623979 0.08360176 0.08766715 0.2556955
0.09719729 0.09775575 -0.023204172 -0.015119491 0.27476358 -0.08387791 0.04076067 -0.23541804
0.0062664947 0.025030266 -0.10145671 -0.1290761 -0.04226107 0.1141249 0.059105437 -0.13135682
-0.03892457 0.16764648 0.031444397 -0.01457928 -0.13294365 0.015161147 0.08010801 -0.122483484
-0.029590111 0.0116034355 -0.054077614 -0.051698375 0.07595631 0.20940563 0.092854 -0.25002217
0.17285283 0.10635314 0.15713586 -0.016630283 -0.09740254 -0.104470864 0.21470264 -0.23610465
0.12060835 -0.06577396 0.22819684 -0.009049654 0.101089984 0.030854415 0.013564267 0.12577845
-0.31102017 -0.14487779 0.008455918 -0.043997418 0.24427868 0.115661 -0.023629947 -0.10049251
-0.0864008 -0.060373314 -0.08807628 0.06692387 0.1491315 0.12251666 -0.18438573 -0.024559889
-0.08751388 -0.14360473 0.08561193 -0.15788431 0.047122784 0.1422017 0.15256047 -0.12106291
0.07150518 0.12926568 0.06423524 0.1283549 0.010149901 -0.10631419 -0.2264221 0.13258299
0.26843238 -0.078944944 0.17775388 -0.15429676 0.00228288 -0.18076111 -0.19119968 0.043257497
-0.13809057 -0.06013073 -0.44306147 -0.4509146 -0.09015241 -0.09321952 0.224876 0.00794538
-0.19916901 -0.25683284 0.21871997 -0.043761283 -0.23005342 -0.035582673 -0.12731367 0.37561178
0.24783924 0.31011102 -0.14776552 0.10711467 0.09339107 0.16332659 0.24764228 -0.21567114
0.17221165 -0.069171265 -0.15020972 -0.12137049 -0.2963532 -0.31928086 -0.34506616 -0.19433051
-0.28338873 -0.42701405 0.503666 -0.11630634 0.27004454 0.2552113 -0.3488233 -0.3553458
-0.3304527 -0.43971065 0.38066855 -0.16862434 -0.20771272 0.5074557 0.29589638 -0.2372721
-0.23331985 0.46133795 0.026033921 -0.17096297 0.30474433 -0.3652521 -0.06693857 0.080431044
0.033451904 0.13799053 -0.1567936 -0.10709567 -0.07801271 -0.17894383 0.07396812 -0.19107157
-0.025368016 0.071956664 -0.18378496 0.03491065 0.093921944 -0.07931449 -0.0072411406 -0.054688685
0.18890801 0.15753733 -0.0696111 0.036911238 -0.036091942 0.057358164 0.040103663 -0.053458564
-0.08186755 0.01185737 0.008568724 0.13788836 -0.059021465 0.11643107 0.043015886 0.034519427
0.0037234444 -0.020801002 -0.05296776 -0.018993279 -0.10991967 -0.13288711 0.10069258 -0.22737344
0.038809434 -0.004819897 -0.02345048 0.10849871 0.13691391 -0.103954144 0.14011477 0.28790462
-0.2180167 0.06509507 -0.14291924 -0.32794622 -0.018894205 0.31731477 0.14797363 -0.255762
-0.082099915 0.11713349 -0.13763274 0.21163575 -0.0829799 -0.16562782 -0.16332997 -0.24049854
-0.2778446 -0.07881028 0.08513752 -0.16525759 0.016064519 -0.00054567476 -0.009877534 0.054854013
0.012631768 -0.04647136 0.15581411 -0.00895334 0.15135077 0.14993556 0.14219949 -0.007314508
-0.09166235 0.035155717 -0.10605062 -0.15766099 -0.120674305 -0.1434026 -0.21107464 -0.08933868
0.10768458 0.026103811 0.03624916 -0.033807557 -0.015260111 0.1477214 -0.017321551 0.03658221
0.27428603 0.014614893 -0.3724215 0.36662918 -0.26554072 0.009047451 0.16264075 0.019215073
00000000: 0235 89bd 89c1 ac3d 0cc8 16bd 7f6f 283e
00000010: ced4 4e3c 6637 ab3d d68a b33d 85ea 823e
00000020: 5f0f c73d 2b34 c83d ad16 bebc beb7 77bc
00000030: d0ad 8c3e 2fc8 abbd a9f4 263d 6d11 71be
00000040: 2b57 cd3b 460c cd3c 89c8 cfbd 862c 04be
00000050: f219 2dbd 51ba e93d 8b18 723d 6782 06be
00000060: 5f6f 1fbd 85ab 2b3e d7cb 003d efdd 6ebc
00000070: 6122 08be 7666 783c ab0f a43d 9fd8 fabd
00000080: f666 f2bc 561c 3e3c 7d80 5dbd adc1 53bd
00000090: fb8e 9b3d 6e6e 563e 3d2a be3d e802 80be
000000a0: 5500 313e adcf d93d 39e8 203e 3b3c 88bc
000000b0: fc7a c7bd d2f4 d5bd 02db 5b3e 6bc5 71be
000000c0: 8301 f73d 7fb4 86bd 6fac 693e 0045 14bc
000000d0: 4408 cf3d 66c2 fc3c a93c 5e3c 11cc 003e
000000e0: 093e 9fbe d85a 14be b18a 0a3c a336 34bd
000000f0: 3124 7a3e addf ec3d 9793 c1bc 04cf cdbd
00000100: e7f2 b0bd 024a 77bd 5661 b4bd 620f 893d
00000110: eeb5 183e 04ea fa3d 9dcf 3cbe d231 c9bc
00000120: 7a3a b3bd 1e0d 13be 4f55 af3d 6dac 21be
00000130: d203 413d 539d 113e d038 1c3e d5ef f7bd
00000140: 4f71 923d 395e 043e c48d 833d 786f 033e
00000150: c54b 263c 41bb d9bd 32db 67be d6c3 073e
00000160: f86f 893e e3ad a1bd 1d05 363e f8ff 1dbe
00000170: 5f9c 153b 7119 39be d9c9 43be c62e 313d
00000180: 9d67 0dbe a44b 76bd f4d8 e2be 47de e6be
00000190: d4a1 b8bd e0e9 bebd e545 663e 572d 023c
000001a0: f6f2 4bbe 987f 83be 21f8 5f3e 083f 33bd
000001b0: 2093 6bbe 23bf 11bd 845e 02be 3050 c03e
000001c0: 92c9 7d3e dfc6 9e3e d84f 17be f05e db3d
000001d0: d143 bf3d 163f 273e f095 7d3e e5d8 5cbe
000001e0: 4058 303e aaa9 8dbd 94d0 19be 1791 f8bd
000001f0: 9bbb 97be c878 a3be 83ac b0be 94fe 46be
00000200: 5418 91be 96a1 dabe 41f0 003f 0532 eebd
00000210: 4743 8a3e 0eab 823e f898 b2be e2ef b5be
00000220: 1931 a9be c121 e1be fde6 c23e dcab 2cbe
00000230: a5b2 54be 9ee8 013f bb7f 973e 75f7 72be
00000240: 66eb 6ebe 7d34 ec3e 1745 d53c eb10 2fbe
00000250: 7307 9c3e 5302 bbbe 1717 89bd 08b9 a43d
00000260: dd04 093d 644d 0d3e 808e 20be fa54 dbbd
00000270: 21c5 9fbd 0d3d 37be 997c 973d 44a8 43be
00000280: 96d0 cfbc 045e 933d 2032 3cbe 78fe 0e3d
00000290: 265a c03d a36f a2bd 1747 edbb 3e01 60bd
000002a0: 1a71 413e 7751 213e 4490 8ebd 3d30 173d
000002b0: 25d5 13bd 65f0 6a3d bd43 243d 5ef7 5abd
000002c0: 2daa a7bd 6a45 423c d563 0c3c 9b32 0d3e
000002d0: 7ec0 71bd 6a73 ee3d 6d31 303d 3e64 0d3d
000002e0: 0805 743b dd66 aabc b9f4 58bd cb97 9bbc
000002f0: 901d e1bd 8f13 08be e937 ce3d 95d4 68be
00000300: a4f6 1e3d 3af0 9dbb 391b c0bc 9234 de3d
00000310: 2933 0c3e e9e5 d4bd 3f7a 0f3e 3c68 933e
00000320: c53f 5fbe 9050 853d 6c59 12be 91e8 a7be
00000330: 05c8 9abc 1577 a23e 6686 173e 3df3 82be
00000340: 0024 a8bd afe3 ef3d 99ef 0cbe 0bb7 583e
00000350: 5ef1 a9bd 579a 29be f93f 27be 4045 76be
00000360: a641 8ebe 4967 a1bd 955c ae3d 4939 29be
00000370: bd99 833c 9d0b 0fba 61d5 21bc 9aae 603d
00000380: 7af5 4e3c c158 3ebd bc8d 1f3e 08b1 12bc
00000390: b2fb 1a3e b588 193e be9c 113e 8aae efbb
000003a0: 78b9 bbbd 71ff 0f3d 1131 d9bd e271 21be
000003b0: 1724 f7bd 22d8 12be f323 58be 33f7 b6bd
000003c0: bc89 dc3d a9d7 d53c 007a 143d cb79 0abd
000003d0: 8b05 7abc 4744 173e ede5 8dbc 3ad7 153d
000003e0: 386f 8c3e 4e73 6f3c 08ae bebe d2b6 bb3e
000003f0: f4f4 87be c33b 143c 4c8b 263e ee68 9d3c

lin1.bias f4 [200]
0.060050704 -0.3002787 -0.11275774 0.2521612 -0.27096957 -0.19017825 0.5009059 -0.45359367
0.012042583 -0.58022994 -0.0124873975 0.11650324 -0.13059473 0.39639068 0.07856856 0.19347534
0.017082484 0.11182322 0.055629827 -0.20228167 -0.10823578 -0.1442594 -0.5572281 0.040546097
-0.03276228 -0.2682107 0.26686183 0.0016911402 0.65523624 0.3430131 -0.3972507 0.3269073
-0.059264764 0.15613838 -0.1889951 0.15944067 0.22842075 0.15748715 0.15229614 0.38912258
0.22586867 -0.06817825 0.044597212 0.12480004 -0.06263384 0.38360626 -0.28985214 -0.08091737
-0.23879972 0.5467458 -0.34430364 -0.041817397 0.08437136 0.036159776 0.18584731 0.08522647
-0.082884 0.42936003 -0.11428016 -0.13534573 -0.009913101 -0.3305415 -0.028524997 0.055683598
0.15454717 -0.199467 0.15263195 0.33553472 0.3342274 0.0044723675 -0.13040906 0.096420586
0.2946052 -0.040953036 -0.18140744 0.06975884 0.02948472 -0.13114604 -0.029107854 -0.10413365
-0.42771503 -0.38245887 -0.06971414 0.0930617 0.029397862 -0.1419917 -0.01907323 0.05301731
-0.0671919 0.29610416 0.3002812 -0.20293298 -0.36831424 0.0650885 -0.26027545 -0.040249623
-0.43493894 -0.087540865 -0.05061079 -0.45521063 -0.30564627 -0.2641892 -0.19030158 -0.39801565
0.10479105 -0.16683698 0.13201638 0.25517446 0.05308059 0.30023918 0.27498794 -0.45606217
0.049606323 -0.33749574 0.1308496 0.10920318 -0.18373947 -0.17510147 0.26052517 0.344227
0.05593099 0.36477655 0.030631274 0.40943635 0.083019584 -0.3464433 -0.09291005 0.23003224
0.0240739 0.3834073 -0.1979531 -0.31428924 -0.033578724 0.051297817 -0.006167697 0.020040171
-0.1255108 0.22467694 0.2100473 0.56333596 0.014804348 0.28969648 0.0632234 -0.021648657
-0.32385856 -0.34885257 0.23047191 0.08734458 0.27840164 0.36171415 -0.06915625 -0.0518223
-0.016133338 0.06547854 0.024357669 -0.027760992 -0.34719494 0.08662088 -0.0058780503 -0.20767134
0.14879705 0.14081305 -0.008349144 0.22473867 0.11146253 -0.03637578 0.19324148 -0.12825397
-0.31133544 -0.0015805216 -0.16260189 0.3213598 0.3785139 -0.15023164 -0.029791124 -0.09826902
0.3900805 -0.17089313 0.3995761 -0.0995933 -0.22996429 0.09736009 0.022982119 0.06114068
0.091846675 -0.3340661 0.15027212 1.8689974e-05 -0.4182566 -0.05984355 0.1552894 0.27324986
-0.13910595 -0.2141834 -0.42136025 0.23243152 -0.31601465 -0.13103312 0.03613296 0.32233736
00000000: baf7 753d 21be 99be 88ed e6bd 461b 813e
00000010: 86bc 8abe 16be 42be 5e3b 003f 6e3d e8be
00000020: 414e 453c f389 14bf f197 4cbc 4099 ee3d
00000030: a0ba 05be b8f3 ca3e 8ee8 a03d 661e 463e
00000040: 91f0 8b3c 9303 e53d 1adc 633d ed22 4fbe
00000050: b8aa ddbd bcb8 13be 80a6 0ebf aa13 263d
00000060: be31 06bd ea52 89be 1da2 883e 40a9 dd3a
00000070: 90bd 273f 6a9f af3e 7264 cbbe 6560 a73e
00000080: 9cbf 72bd bde2 1f3e ee87 41be 6a44 233e
00000090: 21e7 693e 5044 213e 85f3 1b3e 133b c73e
000000a0: 1e4a 673e 0aa1 8bbd 91ab 363d 2a97 ff3d
000000b0: 2c46 80bd 0a68 c43e 8067 94be 02b8 a5bd
000000c0: ea87 74be 88f7 0b3f 9148 b0be b848 2bbd
000000d0: e4ca ac3d 461c 143d c24e 3e3e 378b ae3d
000000e0: 16bf a9bd 14d5 db3e b70b eabd 1298 0abe
000000f0: 8f6a 22bc bc3c a9be 41ad e9bc 7c14 643d
00000100: 9d41 1e3e 1441 4cbe 8d4b 1c3e 35cb ab3e
00000110: db1f ab3e f08c 923b f489 05be 2878 c53d
00000120: 7ed6 963e 5fbe 27bd dfc2 39be b9dd 8e3d
00000130: f189 f13c 264b 06be 9873 eebc 0644 d5bd
00000140: 77fd dabe a6d1 c3be 49c6 8ebd 2297 be3d
00000150: c9d3 f03c 4666 11be 763f 9cbc ae28 593d
00000160: e89b 89bd f79a 973e 75be 993e aacd 4fbe
00000170: af93 bcbe 1f4d 853d d342 85be cadc 24bd
00000180: 51b0 debe a048 b3bd 424d 4fbd 5e11 e9be
00000190: ab7d 9cbe cf43 87be 6bde 42be b5c8 cbbe
000001a0: b19c d63d 50d7 2abe 4d2f 073e 3aa6 823e
000001b0: 086b 593d f3b8 993e 38cb 8c3e fb80 e9be
000001c0: 0030 4b3d 3ecc acbe 70fd 053e eba5 df3d
000001d0: 3326 3cbe cd4d 33be 8e63 853e 853e b03e
000001e0: e517 653d fec3 ba3e 70ee fa3c a4a1 d13e
000001f0: 2c06 aa3d 0461 b1be a047 bebd 928d 6b3e
00000200: a136 c53c f64d c43e 38b4 4abe 85ea a0be
00000210: d889 09bd a91d 523d 641a cabb 492b a43c
00000220: e785 00be b611 663e a416 573e c936 103f
00000230: f08d 723c 1953 943e 457b 813d 8658 b1bc
00000240: cad0 a5be ce9c b2be d400 6c3e b7e1 b23d
00000250: a98a 8e3e 9932 b93e cba1 8dbd 9f43 54bd
00000260: 102a 84bc 9d19 863d bc89 c73c 056b e3bc
00000270: 89c3 b1be 4a66 b13d a99c c0bb cca7 54be
00000280: 415e 183e 4c31 103e d9ca 08bc e521 663e
00000290: 7846 e43d c5fe 14bd 18e1 453e 0255 03be
000002a0: 5c67 9fbe 8129 cfba 1c81 26be 4689 a43e
000002b0: 93cc c13e 53d6 19be 840c f4bc 4541 c9bd
000002c0: a2b8 c73e 9cfe 2ebe 3d95 cc3e 92f7 cbbd
000002d0: c27b 6bbe ba64 c73d ff44 bc3c a66e 7a3d
000002e0: 1c1a bc3d b60a abbe efe0 193e 6ac8 9c37
000002f0: bb25 d6be 831e 75bd 2f04 1f3e 68e7 8b3e
00000300: ca71 0ebe e552 5bbe 88bc d7be 8702 6e3e
00000310: accc a1be 8c2d 06be 2800 143d 6709 a53e

lin2.weight f4 [200, 200]
-0.26081678 0.07566835 -0.27102545 0.11556242 0.016314505 -0.19702904 0.10454891 0.05115709
-0.22976813 0.14012155 -0.07351335 -0.056252554 -0.105660595 0.31947595 0.106549 0.04463537
-0.0669753 0.014798983 -0.33176368 -0.17423296 -0.4125662 0.1285664 -0.14723414 -0.14882235
-0.050593432 0.1318651 0.028996404 -0.038723964 -0.057129785 -0.07979947 -0.22296189 -4.742398e-05
0.0157861 -0.101808414 -0.12292584 -0.12370505 0.04435708 0.21188374 -0.13200553 -0.017278714
0.11463631 0.20381409 -0.05425879 -0.012647586 0.06493697 0.03476954 -0.07863706 0.0931999
-0.003253565 -0.05190481 0.047803048 0.074218445 0.18965201 0.027399324 -0.017255887 0.100527875
0.21814226 0.055425625 -0.100951456 0.02352641 -0.02178794 0.018646149 0.05574417 0.3880884
-0.059054703 -0.0932719 -0.19034036 -0.04729395 0.024166793 0.22889726 0.034381356 0.024139954
0.14155121 0.0069117662 -0.059808493 0.14887293 0.0115911495 0.2677663 -0.07706446 -0.050905183
0.04065993 -0.27150127 0.19208613 0.056515202 0.09064577 -0.1298835 -0.047112033 0.20199698
-0.011173542 -0.0916734 0.028851505 0.08680033 -0.15560439 -0.11283108 0.07472577 0.059057977
0.044997938 0.06337734 -0.061042566 0.096164264 0.03908956 0.02453314 -0.063492 0.26353082
-0.1295836 -0.12861788 -0.05644816 0.07955704 -0.122265026 -0.07143279 0.093657896 0.049723208
-0.08985114 -0.35876745 -0.24707635 -0.24927749 -0.1185847 -0.3003003 0.03579222 0.098859236
-0.074538074 0.029203385 0.18531203 -0.23541535 -0.03216639 -0.14937173 0.11079675 0.06429907
0.121785454 0.19713289 0.028128609 -0.029385047 -0.21987605 0.04099499 0.02557414 -0.023483723
0.020223595 0.01706611 0.07407798 -0.011402213 0.30441594 0.19575705 -0.029937671 0.023621125
-0.13053414 0.22941494 0.27421957 0.0977727 0.17400323 0.061950907 -0.13314684 -0.032144103
-0.09777692 -0.122368924 -0.29073808 -0.18312018 -0.30530515 -0.06568991 -0.24201754 -0.13399115
-0.026487116 -0.15700641 -0.009359846 -0.23519772 0.15553248 -0.22174059 0.006746922 -0.071067624
0.08294256 -0.17185362 0.108060025 -0.15001976 -0.1047625 -0.100476824 0.38262293 0.23734175
-0.25885192 0.14916135 0.16336049 -0.13403437 -0.08143407 -0.03544068 0.15149674 -0.011753809
-0.30000502 0.22368439 -0.13566269 -0.41658828 0.059026342 0.17210373 -0.03614169 0.22270633
0.17426775 0.25307152 0.15339135 -0.32477167 0.11748181 -0.22421363 0.29651743 -0.029283034
0.056737304 -0.011623814 0.14673232 0.041993547 -0.05688649 0.066107914 0.14327584 0.15094256
-0.1707961 -0.057714514 0.21178406 0.07463763 0.106201 -0.056954853 0.038553383 0.031442333
-0.35418 -0.20648052 0.2397562 -0.31273267 -0.116261415 -0.3334583 0.020205457 0.04589914
0.15968269 0.05353047 -0.075372584 0.09132611 0.22725719 0.16428132 -0.15707983 0.008211832
0.049702894 -0.07649033 -0.27366763 -0.11687698 0.27140594 -0.09339855 0.2167431 -0.1661765
-0.01861924 -0.24985547 -0.043024503 0.066226274 0.29396868 0.027075691 -0.24367337 0.045444347
-0.178236 0.1257529 -0.011446867 -0.12858084 -0.1590052 0.108672805 -0.19041318 -0.008475881
00000000: c789 85be 02f8 9a3d d9c3 8abe fdab ec3d
00000010: ffa5 853c fbc1 49be bd1d d63d 198a 513d
00000020: 5648 6bbe 067c 0f3e 2b8e 96bd 1469 66bd
00000030: 9564 d8bd 5a92 a33e 5d36 da3d 94d3 363d
00000040: 592a 89bd 6f77 723c eedc a9be 206a 32be
00000050: e13b d3be e9a6 033e 8cc4 16be e364 18be
00000060: 0f3b 4fbd a507 073e de89 ed3c 059d 1ebd
00000070: ec00 6abd e86d a3bd 1f50 64be 1ce9 46b8
00000080: da51 813c ee80 d0bd 8bc0 fbbd 1359 fdbd
00000090: c5af 353d 0df8 583e 752c 07be 178c 8dbc
000000a0: 71c6 ea3d a4b4 503e 773e 5ebd d237 4fbc
000000b0: adfd 843d 816a 0e3d 780c a1bd 97df be3d
000000c0: c339 55bb 239a 54bd 21cd 433d d7ff 973d
000000d0: 2334 423e 8c74 e03c 385c 8dbc 8fe1 cd3d
000000e0: af60 5f3e fb05 633d a3bf cebd 75ba c03c
000000f0: 9f7c b2bc cfbf 983c 0054 643d 86b3 c63e
00000100: 58e3 71bd 5705 bfbd 95e8 42be 4db7 41bd
00000110: 70f9 c53c 0b64 6a3e 77d3 0c3d 27c1 c53c
00000120: cdf2 103e 197c e23b c0f9 74bd 2572 183e
00000130: cee8 3d3c aa18 893e f9d3 9dbd f481 50bd
00000140: 078b 263d 3702 8bbe 3ab2 443e 7c7c 673d
00000150: 7da4 b93d 2e00 05be 8cf8 40bd 4cd8 4e3e
00000160: 3b11 37bc 43bf bbbd fe59 ec3c 5fc4 b13d
00000170: c256 1fbe fb13 e7bd d309 993d c7e6 713d
00000180: c24f 383d fbcb 813d c507 7abd c5f1 c43d
00000190: 601c 203d b9f9 c83c 1808 82bd 83ed 863e
000001a0: 90b1 04be 68b4 03be 3036 67bd cdee a23d
000001b0: 1666 fabd 5b4b 92bd b6cf bf3d 90aa 4b3d
000001c0: e003 b8bd 5eb0 b7be 9501 7dbe 9942 7fbe
000001d0: 89dc f2bd f6c0 99be dd9a 123d b676 ca3d
000001e0: 6ba7 98bd f03b ef3c 70c2 3d3e b910 71be
000001f0: e8c0 03bd e7f4 18be 68e9 e23d 3baf 833d
00000200: a76a f93d 34dd 493e f86d e63c e9b8 f0bc
00000210: 3027 61be 5dea 273d dc80 d13c f060 c0bc
00000220: f4ab a53c 3ace 8b3c 32b6 973d 59d0 3abc
00000230: 68dc 9b3e 8974 483e d93f f5bc 1781 c13c
00000240: beaa 05be c0eb 6a3e 8266 8c3e 0e3d c83d
00000250: e72d 323e 3cc0 7d3d a557 08be 89a9 03bd
00000260: 443f c8bd 8f9c fabd 9fdb 94be db83 3bbe
00000270: f550 9cbe 6e88 86bd 72d3 77be fa34 09be
00000280: 82fb d8bc 4ac6 20be 0a5a 19bc acd7 70be
00000290: e843 1f3e f70f 63be 4915 dd3b e78b 91bd
000002a0: cadd a93d 65fa 2fbe 934e dd3d c89e 19be
000002b0: b98d d6bd cbc6 cdbd 27e7 c33e b709 733e
000002c0: 3d88 84be c1bd 183e f947 273e 4e40 09be
000002d0: e8c6 a6bd 3f2a 11bd f621 1b3e 0c93 40bc
000002e0: 429a 99be 850d 653e 29eb 0abe 0f4b d5be
000002f0: 9bc5 713d f63b 303e 4f09 14bd 210d 643e
00000300: 3f73 323e 9792 813e 9f12 1d3e 7948 a6be
00000310: 4e9a f03d 4298 65be 22d1 973e f9e2 efbc
00000320: 6065 683d cf71 3ebc ff40 163e 6d01 2c3d
00000330: cf01 69bd 9663 873d e7b6 123e b090 1a3e
00000340: 2ce5 2ebe 0e66 6cbd ecdd 583e 9ddb 983d
00000350: e97f d93d 7e49 69bd 27ea 1d3d adc9 003d
00000360: 1557 b5be a16f 53be a682 753e 7f1e a0be
00000370: 771a eebd 0cbb aabe ea85 a53c bd00 3c3d
00000380: dc83 233e c442 5b3d f15c 9abd 2f09 bb3d
00000390: 1cb6 683e 5d39 283e 89d9 20be eb8a 063c
000003a0: 4395 4b3d f6a6 9cbd 2a1e 8cbe 335d efbd
000003b0: b8f5 8a3e bd47 bfbd e7f1 5d3e 2c2a 2abe
000003c0: 6087 98bc 1dda 7fbe 763a 30bd a4a1 873d
000003d0: 1083 963e d7cd dd3c 8385 79be da23 3a3d
000003e0: 7f83 36be 5ec5 003e a48b 3bbc b2aa 03be
000003f0: 42d2 22be d98f de3d acfb 42be 6cde 0abc

lin2.bias f4 [200]
-0.1605401 0.14597501 0.06357787 0.09050216 0.117476285 -0.1511423 -0.41350737 0.08871982
-0.13565937 -0.117885545 0.10722454 -0.0006471151 0.038081113 0.1667271 0.07302602 -0.14761138
0.07094362 -0.23840876 0.24824198 0.14045958 -0.13984115 -0.014238593 -0.014882845 0.017784594
0.16316827 0.0065257987 0.06796441 0.11911885 0.1983776 0.11616222 -0.0033974778 -0.1980621
-0.03369356 0.11357348 0.035262212 -0.25768787 -0.28393206 0.017868884 -0.03357501 -0.03992139
-0.21455231 0.0075712316 -0.0469577 0.09852124 0.013439832 -0.028008549 -0.161943 0.08547742
0.2950069 -0.20302479 0.17634256 0.018144017 -0.16304478 -0.104544245 0.32540047 -0.04386448
0.0036996426 -0.10740235 -0.20149617 -0.038278844 -0.06846953 0.059056167 0.13044624 0.19461446
0.00583129 -0.0048135608 -0.20676066 -0.052229714 -0.16865057 -0.07333885 0.24206814 0.010131295
-0.040736314 -0.041331332 -0.03422592 0.047960266 -0.085233435 0.28045756 0.011810403 -0.16605352
0.32014036 0.057553284 -0.09606677 0.06233707 -0.18872611 -0.13372198 -0.23539458 0.09681441
-0.08987387 -0.31003046 -0.013612835 0.08559826 -0.04970416 0.16757011 0.13731717 0.002795836
0.010600384 0.04173933 -0.17832533 -0.004426835 -0.107723884 -0.111057445 0.28550103 -0.14226066
-0.060359392 -0.023738345 -0.08197133 -0.085536495 -0.1521789 0.2229055 0.18992023 0.2111006
0.096501745 0.21071245 0.31518537 0.107937336 -0.23344502 0.3437123 -0.15210766 0.03945759
-0.14178309 -0.06026553 0.0493324 -0.07437608 -0.04304452 0.014690251 -0.1611785 -0.025739796
0.12935145 0.30082324 -0.01836355 0.21365626 -0.17301293 -0.10756083 0.3345491 -0.046376035
0.16314936 0.10519168 0.024752725 -0.1812665 -0.063061155 0.00611872 0.25511962 -0.061672963
0.1052544 -0.14609635 0.21487983 0.07805726 0.005193938 0.08270169 -0.11182632 -0.23846188
-0.077421434 -0.25013268 -0.010521452 -0.06768106 -0.12649226 -0.037009235 -0.09401631 0.11367746
0.13654995 -0.17006187 -0.03201567 -0.23241848 -0.21285017 0.27501625 0.017788885 -0.24413007
-0.14748074 0.1430036 -0.000504438 0.31897172 -0.2619115 -0.08356256 0.026878832 -0.07971743
-0.08208861 0.14736792 0.04043622 0.03435319 -0.12310135 0.043046486 -0.12826589 0.24201414
-0.20705688 0.24257287 -0.15912697 -0.08115655 0.019343106 -0.22028513 -0.10149978 0.09579384
-0.07865744 -0.037880443 0.195687 0.16548651 -0.2277814 -0.13848741 0.11096907 0.060297173
00000000: a064 24be 797a 153e 1d35 823d 3259 b93d
00000010: 6897 f03d 0cc5 1abe 3db7 d3be bdb2 b53d
00000020: 4aea 0abe fa6d f1bd 8a98 db3d 29a3 29ba
00000030: f1fa 1b3d 82ba 2a3e aa8e 953d 7027 17be
00000040: e34a 913d 6d21 74be 2533 7e3e a3d4 0f3e
00000050: 8532 0fbe fd48 69bc 2dd7 73bc ffb0 913c
00000060: 9515 273e 5ed6 d53b ed30 8b3d 95f4 f33d
00000070: 7f23 4b3e 75e6 ed3d 38a8 5ebb cbd0 4abe
00000080: 4202 0abd 3699 e83d 1c6f 103d aaef 83be
00000090: 8b5f 91be c461 923c f385 09bd 9d84 23bd
000000a0: 9ab3 5bbe 1818 f83b b856 40bd 81c5 c93d
000000b0: be32 5c3c 2f72 e5bc 63d4 25be c90e af3d
000000c0: 250b 973e bbe5 4fbe 2593 343e c3a2 943c
000000d0: 36f5 26be 4b1b d6bd e49a a63e 3eab 33bd
000000e0: b475 723b c3f5 dbbd 0355 4ebe 47ca 1cbd
000000f0: c139 8cbd e1e4 713d b393 053e 0349 473e
00000100: 6814 bf3b 13bb 9dbb 11b9 53be d3ee 55bd
00000110: bcb2 2cbe ae32 96bd b6e0 773e bbfd 253c
00000120: 1fdb 26bd 0b4b 29bd 7a30 0cbd fc71 443d
00000130: de8e aebd 2298 8f3e 6c80 413c ef09 2abe
00000140: 70e9 a33e febc 6b3d a8be c4bd 2855 7f3d
00000150: 6b41 41be 6aee 08be 470b 71be a246 c63d
00000160: cb0f b8bd 50bc 9ebe 5e08 5fbc 244e af3d
00000170: 9796 4bbd 8097 2b3e df9c 0c3e 583a 373b
00000180: 3cad 2d3c dcf6 2a3d ea9a 36be fc0e 91bb
00000190: 579e dcbd 1672 e3bd 312d 923e c7ac 11be
000001a0: 693b 77bd eb76 c2bc 96e0 a7bd c22d afbd
000001b0: c9d4 1bbe 5741 643e 737a 423e c12a 583e
000001c0: b5a2 c53d 01c5 573e fa5f a13e 400e dd3d
000001d0: 360c 6fbe 0ffb af3e 1cc2 1bbe 489e 213d
000001e0: 962f 11be fdd8 76bd c510 4a3d 7c52 98bd
000001f0: 734f 30bd 61af 703c fa0b 25be 44dc d2bc
00000200: b574 043e 8105 9a3e 286f 96bc b5c8 5a3e
00000210: 4d2a 31be da48 dcbd 054a ab3e ccf4 3dbd
00000220: a010 273e bc6e d73d 3ac6 ca3c ed9d 39be
00000230: 3526 81bd 8b7f c83b 0a9f 823e ca9c 7cbd
00000240: 9e8f d73d 489a 15be 7509 5c3e 7cdc 9f3d
00000250: e931 aa3b 815f a93d 3305 e5bd 5a2f 74be
00000260: 218f 9ebd 6411 80be 2b62 2cbc 5e9c 8abd
00000270: 3087 01be ff96 17bd a08b c0bd bacf e83d
00000280: c0d3 0b3e b324 2ebe dd22 03bd 1cff 6dbe
00000290: 65f5 59be eece 8c3e ffb9 913c 3cfd 79be
000002a0: 3105 17be 896f 123e 433c 04ba 4350 a33e
000002b0: 4419 86be d922 abbd ff30 dc3c e442 a3bd
000002c0: 131e a8bd 9ee7 163e 73a0 253d eeb5 0c3d
000002d0: 901c fcbd 8351 303d 2258 03be 8ed2 773e
000002e0: b806 54be 0665 783e 2ef2 22be 6835 a6bd
000002f0: 6f75 9e3c 6d92 61be 1edf cfbd 902f c43d
00000300: 2717 a1bd 8628 1bbd 2c62 483e 4c75 293e
00000310: 873f 69be a5cf 0dbe c043 e33d 2bfa 763d

lin3.weight f4 [200, 200]
0.45599216 -0.14528166 0.2824196 -0.09402108 0.056627482 -0.2856996 0.12324573 -0.028565519
0.04664425 0.058571868 -0.048201174 0.07485949 -0.012661302 -0.087306894 -0.123366654 0.3700102
0.2093301 0.04161218 0.14247738 -0.48212478 -0.04117087 0.014549574 0.028773421 -0.08782147
-0.0811387 -0.11578201 -0.06066575 -0.20508584 -0.19673835 -0.022867125 0.17080638 0.18709767
-0.079948604 0.23531038 -0.010526833 0.3383511 0.2995783 0.07173026 0.13842253 0.2335132
0.25143015 -0.08040305 0.21097401 -0.27760664 0.20358919 0.24171923 -0.14899406 0.036385044
-0.012109479 -0.014742331 0.23193105 -0.16860805 -0.004137824 0.089810975 -0.027296701 0.0013073627
0.051228404 0.09726424 -0.16834101 0.18340725 0.34872824 -0.0081252735 0.25415426 -0.15312962
0.21540213 -0.09605314 0.06466285 0.24225098 0.015872432 0.054260317 0.057151303 0.044014726
-0.06517734 -0.22378238 0.02645963 0.22168191 -0.009122466 -0.4027318 -0.024403978 0.23845418
-0.20692453 0.23715268 -0.0021774466 0.03159869 0.017008191 -0.17969154 0.19947024 0.0062671574
-0.22749916 0.07245656 0.010293411 -0.17436297 0.18844078 0.16376525 -0.20259607 -0.30321577
-0.19391842 -0.19023733 0.104996316 -0.13379379 0.50407135 -0.036451496 0.19573449 -0.14681916
0.083956674 -0.028842157 0.11779987 -0.21983817 -0.28535455 -0.09541244 -0.10290277 -0.1322222
-0.06779904 -0.036945526 0.39233074 0.035343178 -0.05693716 -0.13070475 -0.19113559 -0.10907673
-0.0975456 0.044130843 -0.059100844 0.3125765 0.12851527 -0.24571182 0.32039183 -0.08566116
0.05387715 -0.26766473 -0.15185316 -0.2771377 0.027465902 0.04959151 0.097554564 0.09893136
-0.21064198 0.13344769 -0.52824116 0.030955913 -0.16543972 -0.12757847 -0.034237046 -0.103616655
0.26571584 0.22292867 -0.022465697 -0.09075984 0.33250985 -0.1498563 0.07625488 0.019229913
-0.22875299 0.05718558 -0.123251475 -0.037971146 -0.11796641 0.25069916 -0.114388205 -0.029860813
-0.09059712 0.20113094 -0.06326953 -0.14106995 0.33395427 -0.20664248 0.23464668 0.19116268
0.06886811 0.16625924 0.10789924 -0.090486005 0.037629522 0.50053596 0.09576403 0.093677714
0.35804322 -0.108621724 -0.10284717 -0.39632675 -0.16353817 0.25423378 -0.05222143 0.018981455
0.28189382 -0.26885414 0.36781877 0.28800794 -0.30660942 0.4826493 0.37429368 -0.22126453
0.194657 -0.094495334 0.12113231 0.09532506 0.35080805 -0.014967937 0.10061939 0.1030837
0.23585896 0.24080454 -0.25199133 -0.09641888 0.07538446 0.2327312 -0.03429994 -0.010627522
0.3376677 -0.042867992 0.026157018 0.13924892 -0.023977313 0.016656043 -0.27224025 -0.03752413
0.122765005 0.08202578 -0.061771207 0.10048539 0.1321668 0.0923627 0.07114002 -0.11819043
0.08087931 0.013426591 0.17960913 -0.008826183 0.06001177 0.015983835 0.098267056 -0.045727365
0.34466985 0.22428921 -0.024982117 0.16884029 0.0998263 -0.10209184 0.36116603 -0.07549065
0.07716401 -0.23137134 -0.28891376 -0.05672934 -0.32230586 -0.29569304 0.026849544 0.025653139
-0.051637065 -0.34732845 -0.12550747 0.04736724 0.18588223 0.1819167 0.17856793 0.11101646
00000000: ce77 e93e b7c4 14be 4d99 903e 208e c0bd
00000010: 38f2 673d 3847 92be 4268 fc3d 3c02 eabc
00000020: 0b0e 3f3d 0ee9 6f3d 986e 45bd ef4f 993d
00000030: 5a71 4fbc f5cd b2bd a8a7 fcbd fa71 bd3e
00000040: a15a 563e 8971 2a3d 97e5 113e 0fd9 f6be
00000050: c9a2 28bd 5661 6e3c 3db6 eb3c bedb b3bd
00000060: 0c2c a6bd 1e1f edbd a67c 78bd 0602 52be
00000070: c775 49be d653 bbbc dee7 2e3e 8896 3f3e
00000080: 18bc a3bd 34f5 703e bd78 2cbc 5b3c ad3e
00000090: 5462 993e 51e7 923d a3be 0d3e 161e 6f3e
000000a0: 74bb 803e 5baa a4bd 9209 583e 7522 8ebe
000000b0: af79 503e 3f85 773e e691 18be 7c08 153d
000000c0: d666 46bc d189 71bc 557f 6d3e 97a7 2cbe
000000d0: 9596 87bb d1ee b73d 559d dfbc d05b ab3a
000000e0: e0d4 513d 7932 c73d 9661 2cbe 1ccf 3b3e
000000f0: 828c b23e de1f 05bc 8220 823e 03ce 1cbe
00000100: 6092 5c3e 82b7 c4bd f56d 843d a410 783e
00000110: e706 823c 1140 5e3d 7c17 6a3d c948 343d
00000120: b27b 85bd 3527 65be dec1 d83c 9500 633e
00000130: 6576 15bc dd32 cebe daea c7bc 552d 743e
00000140: 06e4 53be 27d8 723e 7eb3 0ebb a16d 013d
00000150: c354 8b3c 0f01 38be ed41 4c3e ba5c cd3b
00000160: 8af5 68be 1b64 943d b2a5 283c 358c 32be
00000170: 9ff6 403e 14b2 273e 5875 4fbe 193f 9bbe
00000180: 8d92 46be 93cd 42be 4f08 d73d 3d01 09be
00000190: d20a 013f 2a4e 15bd 9f6e 483e c357 16be
000001a0: 7af1 ab3d 6346 ecbc 0f41 f13d 421d 61be
000001b0: fe19 92be 9967 c3bd b0be d2bd 4265 07be
000001c0: 39da 8abd 3154 17bd 93df c83e 02c4 103d
000001d0: f136 69bd 77d7 05be 0cb9 43be 9f63 dfbd
000001e0: fdc5 c7bd 8bc2 343d ba13 72bd 070a a03e
000001f0: 8299 033e e19b 7bbe 660a a43e 1e6f afbd
00000200: 49ae 5c3d 5a0b 89be 657f 1bbe fee4 8dbe
00000210: 2c00 e13c 7820 4b3d b0ca c73d 869c ca3d
00000220: 88b2 57be 83a6 083e d03a 07bf 4197 fd3c
00000230: 0869 29be eea3 02be 253c 0cbd f834 d4bd
00000240: e80b 883e 6a47 643e fb09 b8bc 4ce0 b9bd
00000250: bb3e aa3e ee73 19be 852b 9c3d 0d88 9d3c
00000260: 393e 6abe 6d3b 6a3d 456b fcbd a287 1bbd
00000270: 6098 f1bd a45b 803e 5d44 eabd aa9e f4bc
00000280: fc8a b9bd 45f5 4d3e 7593 81bd a474 10be
00000290: 0efc aa3e 169a 53be 3847 703e 26c0 433e
000002a0: b90a 8d3d dd3f 2a3e 47fa dc3d ba50 b9bd
000002b0: 6a21 1a3d 2023 003f ef1f c43d 1ada bf3d
000002c0: 7151 b73e 1175 debd 89a1 d2bd 57eb cabe
000002d0: 8d76 27be ee2a 823e 23e6 55bd ff7e 9b3c
000002e0: 6354 903e 40a7 89be be52 bc3e c775 933e
000002f0: e9fb 9cbe cf1d f73e 6ca3 bf3e 2b93 62be
00000300: 2a54 473e c586 c1bd 3714 f83d c939 c33d
00000310: 1d9d b33e 143c 75bc 8a11 ce3d 8c1d d33d
00000320: 0385 713e 7795 763e 0205 81be 4377 c5bd
00000330: 2b63 9a3d 1651 6e3e 187e 0cbd 0f1f 2ebc
00000340: c8e2 ac3e 5996 2fbd 3e47 d63c 4597 0e3e
00000350: 126c c4bc 4172 883c 1363 8bbe e7b2 19bd
00000360: 386c fb3d 22fd a73d ce03 7dbd 49cb cd3d
00000370: bc56 073e a828 bd3d dcb1 913d d30d f2bd
00000380: 0da4 a53d 34fb 5b3c 75eb 373e b29b 10bc
00000390: e7ce 753d 88f0 823c 3d40 c93d 9e4c 3bbd
000003a0: 9178 b03e 12ac 653e 4ca7 ccbc 78e4 2c3e
000003b0: bb71 cc3d 8715 d1bd c1ea b83e d89a 9abd
000003c0: 2a08 9e3d 9cec 6cbe 81ec 93be 065d 68bd
000003d0: 4605 a5be 1465 97be 93f3 db3c 8826 d23c
000003e0: 6381 53bd 09d5 b1be 0885 00be 2704 423d
000003f0: e957 3e3e 5f48 3a3e 83da 363e 995c e33d

lin3.bias f4 [200]
-0.12702622 -0.39947724 -0.19847973 -0.12348423 -0.15539147 0.23422937 -0.2226288 0.1239214
0.2142142 0.3084876 0.06796206 0.11970495 -0.008164513 -0.15924495 0.017790176 -0.12673467
0.077511944 0.27728269 0.012599725 -0.11332986 0.045762487 -0.2975113 0.3862538 -0.085730985
-0.27036095 -0.051581018 0.24770485 -0.2453695 0.0031420353 -0.060450137 -0.016025925 -0.0049881386
0.24203694 -0.13415158 0.16440496 0.28784955 0.13806471 0.19215745 0.1077943 -0.34635735
-0.20668174 0.31252828 0.08382799 0.13833235 -0.119149715 -0.25504112 -0.23078617 0.11827914
0.03898537 0.030660849 0.0124610225 -0.34257597 0.41999447 -0.015630867 -0.12843804 0.1264378
0.14250273 0.09702265 0.11132851 0.16581155 0.049795777 0.3025938 -0.17633447 0.1248854
-0.09297207 -0.12775217 0.08031511 -0.0667158 0.05798846 0.25572842 0.05288714 -0.20738043
-0.16378498 -0.16087641 0.2408182 0.15524064 -0.18609668 -0.042948492 0.33534002 0.045966107
-0.11752161 0.014827202 0.021182401 0.24328817 -0.2196575 -0.37856033 -0.08233694 -0.20870875
-0.5378504 0.23451003 0.31380424 0.020763349 -0.0046261223 -0.17777902 0.00045468588 -0.048999634
0.43295583 0.26819032 0.11148149 -0.017629625 -0.19843557 -0.09752022 -0.15514532 -0.056262482
0.034972835 -0.1788925 0.123571105 -0.07915875 -0.28564012 0.06685727 -0.04736155 0.024084028
0.15374358 -0.20622654 0.034316424 -0.049338102 0.0116372425 0.32800117 0.0315933 -0.25276473
0.13070625 0.034079153 -0.04457662 0.20526089 0.31645998 0.16256697 0.25872335 0.082381934
-0.0556959 0.18370812 -0.036063652 -0.07793567 -0.12250415 0.1083924 -0.023774419 0.3752329
0.10816146 0.062059235 0.05229026 0.19456111 0.2797125 -0.13407503 0.2399091 0.17194971
-0.16867876 -0.059013776 -0.22783798 0.19821821 -0.024074357 -0.22844748 0.33092353 -0.053306095
0.043031782 -0.023053516 -0.19331957 0.34538853 -0.07414947 0.0010942206 -0.14568913 -0.17147465
-0.17987633 -0.1600631 -0.028382773 -0.20674047 -0.09804458 -0.06630552 0.2323636 0.010215688
-0.16425663 -0.08131447 -0.2984776 -0.005710037 -0.09301185 -0.41925988 -0.24147351 0.022978202
0.1848037 0.17493664 0.10358983 -0.36104897 0.033952367 -0.25519237 0.026649736 -0.2923435
0.1621324 0.15243462 -0.009362329 -0.0152353 -0.054276273 0.0053173453 -0.22395067 -0.07580293
-0.019134663 0.13464282 0.18739188 -0.0473344 0.21180148 0.15670575 0.16981295 0.20492485
00000000: 2913 02be 4888 ccbe 453e 4bbe 4de5 fcbd
00000010: f11e 1fbe d3d9 6f3e cef8 63be 81ca fd3d
00000020: f85a 5b3e 16f2 9d3e b12f 8b3d de27 f53d
00000030: 73c4 05bc 1c11 23be b4bc 913c bcc6 01be
00000040: 95be 9e3d fff7 8d3e 146f 4e3c 7c19 e8bd
00000050: 7271 3b3d 6753 98be 0fc3 c53e ba93 afbd
00000060: c06c 8abe 9e46 53bd 57a6 7d3e 2442 7bbe
00000070: 9bea 4d3b 909a 77bd cd48 83bc 8a73 a3bb
00000080: 88d8 773e 085f 09be c659 283e 0461 933e
00000090: d660 0d3e ecc4 443e 42c3 dc3d c055 b1be
000000a0: 61a4 53be b503 a03e 02ae ab3d ffa6 0d3e
000000b0: c404 f4bd c094 82be 3653 6cbe 553c f23d
000000c0: 20af 1f3d 762c fb3c 5129 4c3c 1e66 afbe
000000d0: 8409 d73e 4e0c 80bc 4385 03be e978 013e
000000e0: 3cec 113e d0b3 c63d 3400 e43d 81ca 293e
000000f0: a8f6 4b3d 93ed 9a3e 0691 34be ebc3 ff3d
00000100: 2468 bebd 77d1 02be 407c a43d 4ba2 88bd
00000110: 4f85 6d3d d6ee 823e 30a0 583d 895b 54be
00000120: 40b7 27be c9bc 24be 0c99 763e 67f7 1e3e
00000130: 2190 3ebe c2ea 2fbd b0b1 ab3e f546 3c3d
00000140: 2baf f0bd cbed 723c b786 ad3c 8920 793e
00000150: e5ed 60be a9d2 c1be 45a0 a8bd bfb7 55be
00000160: 90b0 09bf 6623 703e f3aa a03e e617 aa3c
00000170: ba96 97bb b40b 36be e862 ee39 d7b3 48bd
00000180: 63ac dd3e 3e50 893e 6850 e43d 016c 90bc
00000190: b232 4bbe aeb8 c7bd 6ade 1ebe 7d73 66bd
000001a0: ad3f 0f3d 982f 37be d912 fd3d fc1d a2bd
000001b0: 6c3f 92be 77ec 883d 2ffe 41bd de4b c53c
000001c0: f56e 1d3e 0d2d 53be 618f 0c3d c016 4abd
000001d0: 22aa 3e3c c5ef a73e fa67 013d 616a 81be
000001e0: dcd7 053e 9596 0b3d f995 36bd e92f 523e
000001f0: 0b07 a23e f577 263e 6377 843e dcb7 a83d
00000200: 6221 64bd fb1d 3c3e 7bb7 13bd bd9c 9fbd
00000210: 75e3 fabd d6fc dd3d 92c2 c2bc 871e c03e
00000220: c183 dd3d d331 7e3d 502e 563d 073b 473e
00000230: 7a36 8f3e f74a 09be bbaa 753e 9613 303e
00000240: 20ba 2cbe 6eb8 71bd 5c4e 69be b7f9 4a3e
00000250: 9637 c5bc 23ee 69be cf6e a93e 7e57 5abd
00000260: 1842 303d bada bcbc 91f5 45be c4d6 b03e
00000270: addb 97bd f36b 8f3a 882f 15be 0d97 2fbe
00000280: 8031 38be 95e7 23be fd82 e8bc c6b3 53be
00000290: 99cb c8bd 30cb 87bd b9f0 6d3e b35f 273c
000002a0: e432 28be 3388 a6bd 0ed2 98be 431b bbbb
000002b0: ff7c bebd 3ba9 d6be d544 77be c83c bc3c
000002c0: 2e3d 3d3e 9722 333e e826 d43d 69db b8be
000002d0: a311 0b3d 93a8 82be 8c50 da3c 0cae 95be
000002e0: 0906 263e d217 1c3e 7464 19bc 7b9d 79bc
000002f0: cc50 5ebd 203d ae3b 5353 65be 913e 9bbd
00000300: 4cc0 9cbc cfdf 093e a8e3 3f3e b7e1 41bd
00000310: 7de2 583e 7977 203e 72e3 2d3e d2d7 513e

lin4.weight f4 [62, 200]
0.40987107 0.72369474 -0.5983118 -0.8642349 0.57447946 0.9454589 -0.13145904 -0.4645801
-0.47398978 0.14904675 -1.1246974 0.38431695 0.83854324 0.48061448 0.7975391 -0.07247637
-0.82619953 -1.1012713 -0.024066394 0.59209913 0.49867874 -0.57536113 0.686145 1.0600475
0.30338222 1.4063952 -0.46874648 -0.5125059 -0.99060273 0.996225 -1.0024688 0.36231074
0.27897358 -0.39062157 0.19819306 0.22890839 0.93927413 0.04969712 -1.2874086 -0.2303885
0.6571293 0.41089326 -0.18244742 0.39286068 -0.2845572 0.9726062 -0.4521028 -0.26654875
-0.85327935 0.4126281 0.03266235 0.52884746 0.18730837 -0.6317459 -0.66510475 -1.2086213
-0.81747115 -1.057856 1.2805367 0.4922139 0.21912998 0.031556576 0.022087026 0.5663159
-0.32660386 0.30662778 -0.6552223 0.39724126 -0.60989815 -1.5302415 -0.6978288 -0.2405522
0.50388825 -0.8191544 -0.18647628 0.28699598 -0.05489871 0.43174213 0.19351284 0.8919656
0.6006533 0.43129396 -0.07527693 -0.06115851 -0.876834 0.24168251 -0.981209 0.3321199
-0.679987 -0.6689557 -0.034889475 -0.305417 -0.6703052 0.06348802 0.5831279 0.61776
-0.3896261 -0.9400744 0.72569686 -0.20355007 1.6582135 -0.3994247 -0.6702287 0.35558903
0.4857758 -0.35938895 0.7360391 0.2934258 0.24001962 1.2795284 -0.48138875 0.75569
-0.7311454 0.12646088 -0.30733222 -0.113822274 -0.9852176 -0.5735089 0.2364674 0.21728653
0.9855119 0.9982225 0.43494204 -1.1699156 -1.0964674 -0.09046884 -0.9671214 -0.2625287
-0.7914821 -0.2588342 0.95599586 0.6978349 -0.2130827 -0.45936874 -0.9208044 0.95930284
-0.65776896 0.8043706 -0.57863635 0.0009760138 -0.12638652 -0.40624687 0.17062438 1.2210128
0.2548034 -0.9971281 -0.061881065 0.6231454 -1.1377779 0.6675802 -1.2093719 -0.10608357
0.18259743 -0.5520418 0.31666815 1.2045286 -0.18281269 0.27209693 -0.054061536 1.5086069
0.24169041 -0.32867876 -1.0656742 0.36489266 -0.035828043 0.113994665 0.6492773 -0.73779345
-0.5036697 -0.042064592 -0.10294561 -0.6273855 0.51149243 -1.0619475 -0.23954464 -0.93170214
-0.73618907 0.036413167 1.405143 -0.3688276 -1.1287224 -0.8896385 0.35662824 -1.5041492
0.61869913 0.47739747 -0.57746464 -0.09538603 -0.055967625 -1.0074066 -0.18541919 -0.03039326
0.573813 -0.2805501 1.3756708 -0.39358747 -0.459294 0.6379095 0.5617738 -1.387085
-0.3910406 0.690454 -1.0757567 -1.1306825 -0.7145733 0.42998838 0.5124813 0.121113375
0.67079014 0.8038616 -1.1264026 0.5656984 -0.7476142 -0.10089846 -0.11596364 0.74867594
-0.55336076 0.61661583 -0.45687896 -0.6910892 -0.3428127 -0.27001092 0.17505579 -0.86680186
-0.5136044 -0.04085469 0.61986667 -0.6818947 -0.6924352 -0.17707391 -0.5821874 0.7663748
1.0276023 0.5662279 0.75408816 0.33064553 -0.5130161 0.14552182 0.67927235 0.024932086
-0.92596304 0.5079533 -0.6715462 1.0674858 0.04190292 0.44018897 0.76924574 -0.3425043
0.7420505 0.46333948 -0.73989093 0.3330837 -0.10371577 -0.56510496 -0.121800825 -1.356921
00000000: 9fda d13e 0f44 393f f62a 19bf 803e 5dbf
00000010: 1611 133f 9809 723f 339d 06be 71dd edbe
00000020: caae f2be b69f 183e 16f6 8fbf 31c5 c43e
00000030: c5aa 563f 1a13 f63e 862b 4c3f 7e6e 94bd
00000040: d081 53bf 75f6 8cbf e326 c5bc cf93 173f
00000050: d252 ff3e de4a 13bf 33a7 2f3f a3af 873f
00000060: ea54 9b3e c204 b43f 8aff efbe 9633 03bf
00000070: 2498 7dbf 9a08 7f3f e650 80bf cb80 b93e
00000080: a0d5 8e3e 8dff c7be 1ff3 4a3e f666 6a3e
00000090: 4574 703f 358f 4b3d cec9 a4bf f7ea 6bbe
000000a0: a039 283f 9a60 d23e 7fd3 3abe 0925 c93e
000000b0: 7bb1 91be b8fc 783f 057a e7be 1479 88be
000000c0: 8470 5abf fe43 d33e f5c8 053d 8c62 073f
000000d0: c4cd 3f3e 19ba 21bf 4e44 2abf 1ab4 9abf
000000e0: ca45 51bf d367 87bf a0e8 a33f 7603 fc3e
000000f0: 9c63 603e 7841 013d daef b43c 14fa 103f
00000100: 9f38 a7be 51fe 9c3e a6bc 27bf 3563 cb3e
00000110: 4922 1cbf f4de c3bf e9a4 32bf 5153 76be
00000120: d2fe 003f 1ab4 51bf a3f3 3ebe 23f1 923e
00000130: 78dd 60bd 4e0d dd3e 3b28 463e dc57 643f
00000140: 6ac4 193f 90d2 dc3e cb2a 9abd 5981 7abd
00000150: 3178 60bf 9f7b 773e 8330 7bbf 9f0b aa3e
00000160: a113 2ebf ae40 2bbf 44e8 0ebd 9e5f 9cbe
00000170: 1f99 2bbf 0206 823d df47 153f 8525 1e3f
00000180: 127d c7be b7a8 70bf 45c7 393f 6e6f 50be
00000190: 5740 d43f 6581 ccbe 1c94 2bbf c40f b63e
000001a0: 9bb7 f83e d401 b8be 0f6d 3c3f e83b 963e
000001b0: b4c7 753e 96c7 a33f 9678 f6be e674 413f
000001c0: 582c 3bbf f67e 013e a65a 9dbe a71b e9bd
000001d0: 3837 7cbf 7bd1 12bf 8324 723e 5c80 5e3e
000001e0: 824a 7c3f 828b 7f3f b9b0 de3e cbbf 95bf
000001f0: 0b59 8cbf ba47 b9bd 4595 77bf 296a 86be
00000200: 929e 4abf eb85 84be 25bc 743f 4fa5 323f
00000210: 5a32 5abe 6132 ebbe d6b9 6bbf df94 753f
00000220: 8c63 28bf 3beb 4d3f 8321 14bf 2ddb 7f3a
00000230: 786b 01be 97ff cfbe 28b8 2e3e 264a 9c3f
00000240: 9775 823e ca43 7fbf 0077 7dbd 7586 1f3f
00000250: b5a2 91bf 89e6 2a3f b3cc 9abf 5842 d9bd
00000260: d2fa 3a3e 9d52 0dbf 5422 a23e fe2d 9a3f
00000270: 4033 3bbe 4a50 8b3e a16f 5dbd 081a c13f
00000280: b17d 773e 9548 a8be 0368 88bf 36d3 ba3e
00000290: 6dc0 12bd 0976 e93d 0a37 263f 08e0 3cbf
000002a0: 7ff0 00bf ec4b 2cbd 26d5 d2bd 569c 20bf
000002b0: 2bf1 023f e5ed 87bf 314b 75be 0884 6ebf
000002c0: e376 3cbf f925 153d badb b33f f9d6 bcbe
000002d0: fa79 90bf 59bf 63bf fa97 b63e f687 c0bf
000002e0: 1163 1e3f 716d f43e b9d4 13bf c059 c3bd
000002f0: 4f3e 65bd b3f2 80bf 87de 3dbe 49fb f8bc
00000300: 69e5 123f 43a4 8fbe fb15 b03f 4c84 c9be
00000310: 9528 ebbe 094e 233f 68d0 0f3f 008c b1bf
00000320: 7936 c8be 98c1 303f 65b2 89bf 34ba 90bf
00000330: 47ee 36bf 7027 dc3e f931 033f 4a0a f83d
00000340: e7b8 2b3f e0c9 4d3f f62d 90bf 9cd1 103f
00000350: a563 3fbf daa3 cebd 587e edbd 3aa9 3f3f
00000360: 0da9 0dbf 89da 1d3f 0aec e9be 39eb 30bf
00000370: 2585 afbe df3e 8abe d341 333e bae6 5dbf
00000380: 947b 03bf 3f57 27bd 95af 1e3f a790 2ebf
00000390: 6f43 31bf dd52 35be 3c0a 15bf 2431 443f
000003a0: 7988 833f 50f4 103f ec0b 413f 5f4a a93e
000003b0: 0655 03bf ac03 153e cbe4 2d3f 603e cc3c
000003c0: ea0b 6dbf 3a09 023f 74ea 2bbf 60a3 883f
000003d0: 65a2 2b3d 7360 e13e 4aed 443f b95c afbe
000003e0: 06f7 3d3f d53a ed3e 7e69 3dbf f289 aa3e
000003f0: ef68 d4bd b8aa 10bf b672 f9bd 96af adbf

lin4.bias f4 [62]
0.31528735 1.1799903 -1.1857827 0.08666642 -0.15819477 -1.2921121 -1.0034503 -0.33312044
-0.46100366 -0.68379533 -0.08277665 -0.62244064 -0.32822922 -0.32363677 -1.1163335 -0.3020212
-0.61321926 0.028355503 0.32406718 -0.8665663 -1.6593571 -0.14554484 -0.17121467 0.29938087
-0.27344915 -0.43408653 -1.0281675 -0.98428136 0.5490006 0.12690368 -22.373604 -0.7681908
0.38116357 -11.149927 0.0986075 -9.176746 0.20602526 0.0113350805 -0.45249498 -0.13250482
0.61126477 -0.39465073 -0.14094795 1.002585 -0.27771202 -1.5293669 -1.1161748 -0.14080772
0.73701346 -0.08617249 0.034851152 0.23710755 -0.64023435 -0.006711971 0.42916042 0.46850055
-0.80973494 -1.1901006 -0.020239657 -2.0340774 -0.03958561 -21.719172
00000000: 586d a13e ec09 973f bac7 97bf 2a7e b13d
00000010: cffd 21be ee63 a5bf 0f71 80bf c38e aabe
00000020: ac08 ecbe 360d 2fbf ce86 a9bd 4558 1fbf
00000030: a90d a8be b8b3 a5be 04e4 8ebf 86a2 9abe
00000040: f0fb 1cbf cd49 e83c 22ec a53e 4ad7 5dbf
00000050: d065 d4bf b509 15be e652 2fbe 7348 993e
00000060: 8701 8cbe 9740 debe fe9a 83bf ddf9 7bbf
00000070: 4e8b 0c3f 0af3 013e 24fd b2c1 27a8 44bf
00000080: df27 c33e 1a66 32c1 bbf2 c93d f4d3 12c1
00000090: 49f8 523e c6b6 393c 6cad e7be 58af 07be
000000a0: d97b 1c3f a90f cabe a954 10be b554 803f
000000b0: 4530 8ebe 4bc2 c3bf d1de 8ebf e62f 10be
000000c0: eaac 3c3f 347b b0bd 15c0 0e3d 52cc 723e
000000d0: 66e6 23bf 18f0 dbbb eaba db3e 4edf ef3e
000000e0: ca4a 4fbf 3755 98bf a3cd a5bc 532e 02c0
000000f0: 8524 22bd ddc0 adc1
