qn1/weights/model_weights_b5_em8.pth (torch, 409829 bytes, 9 tensors)

emb.weight f4 [62, 8]
000000 22 89 1e 3f 1d 25 02 40 40 3e 53 bf d4 c1 d6 be
       0.61928 2.0335152 -0.8251686 -0.41944754
000010 ea 42 24 3f ec 66 69 3f 1a 6f 18 3f 50 99 4a 3f
       0.641646 0.9117267 0.5954453 0.79140186
000020 21 3c 42 3e 5c f6 c9 be d1 c2 ba 3f 1d f5 9e bf
       0.1896825 -0.3944577 1.4590703 -1.2418553
000030 24 c3 2e 3e 7c ef 9a 3d 88 1c 9a 3e a1 27 a2 3e
       0.17066628 0.07565209 0.30099893 0.3167086
000040 b2 0a 24 bf 6c 9f 84 3f f5 88 36 be 3e 5c 35 3f
       -0.6407882 1.0361152 -0.17825682 0.70843875
000050 9b 0e 3a 3f 8b 33 82 bf 94 2a a7 be e3 3c ac be
       0.72678536 -1.017198 -0.32649672 -0.33640203
000060 f7 cd 69 bf d6 c0 da be 9c 47 b3 3e bb 13 37 3f
       -0.913299 -0.42725247 0.3501557 0.7151448
000070 8e c4 cb be a8 8a ef 3e fc 9e 05 40 25 55 92 be
       -0.39798397 0.46785474 2.0878286 -0.28580585
000080 3e 0c 2c bf b3 a3 f9 3e cd 61 c3 bf 6d 5d 52 3f
       -0.6720618 0.48757705 -1.5264221 0.82173806
000090 81 57 8c bf 00 02 5e be 27 49 c7 3d af 72 6b 3f
       -1.0964204 -0.2168045 0.097307496 0.9197187
0000a0 fb 61 82 bf 66 1b 75 3f fd e9 b5 3e dd 99 df 3c
       -1.0186151 0.9574493 0.3553008 0.027295047
0000b0 ad 19 7c 3f 08 1c 13 bf 4b 1b 6a 3c 3c b1 cb 3f
       0.9847668 -0.5746465 0.014288734 1.5913463
0000c0 eb 31 2b bf 0d 91 cf 3c 4c 1f b9 bf 03 aa 89 3f
       -0.66873044 0.02533772 -1.4462676 1.0755008
0000d0 f6 49 69 3f 6f 12 88 bf 2b 50 98 3e 25 ca 8e 3e
       0.9112848 -1.0630625 0.29748663 0.278886
0000e0 91 ca 50 3f 31 71 33 bf 46 5c 73 bf aa 93 85 bf
       0.8155909 -0.7009459 -0.95062673 -1.0435688
0000f0 30 43 89 3f 90 a5 2f be a4 12 cf bf f6 73 18 bf
       1.0723629 -0.17153001 -1.6177564 -0.5955194
000100 d2 28 ce bf c7 16 03 3f 79 fe 53 bf 1b 9c a3 3e
       -1.6106207 0.5120663 -0.8281017 0.31955037
000110 dd 91 14 3f ba 14 2b be 5a 87 57 be 4f 77 62 3f
       0.5803507 -0.16707125 -0.21047726 0.884633
000120 5b af ab be 3c ae 50 3c 68 29 c7 3e e2 11 e6 3f
       -0.33532223 0.012736853 0.38898778 1.7974207
000130 d3 e6 3c 3f 33 e0 6c bf d5 05 c3 3e d3 74 5f bf
       0.7378971 -0.925296 0.38090387 -0.87287635
000140 98 78 29 3f a3 b0 07 3f 6c 99 86 bd 5e 90 19 3f
       0.66199636 0.530039 -0.06572232 0.5998591
000150 76 a4 af 3f 3b cb 99 bd 6d be 88 3f 38 27 3a bf
       1.3722064 -0.07509466 1.0683113 -0.72716093
000160 e5 08 80 3e 1e 47 32 3f 33 6f eb be 5d ad 02 bf
       0.25006786 0.69639766 -0.45983276 -0.5104578
000170 ba fc 3c bf 99 e7 b2 3f 43 0a 23 bf 78 51 98 3f
       -0.7382313 1.3976928 -0.63687533 1.1899862
000180 d2 7a f4 bf 34 93 36 3f e9 95 c1 be 06 a3 ba bd
       -1.9099982 0.71318364 -0.37809685 -0.091131255
000190 56 c5 0e be d7 0f 85 be eb f6 69 3f f9 03 3f 3f
       -0.13942465 -0.25988647 0.9139239 0.74615437
0001a0 5b 84 47 bd 71 d4 09 bf 88 b3 b8 bf ea 8a b0 3d
       -0.04871021 -0.53839785 -1.4429789 0.08620246
0001b0 7c 63 d6 3e 72 33 97 bf ae 2e 0e bf a0 32 10 bf
       0.41872776 -1.1812575 -0.5553998 -0.5632725
0001c0 28 ac fe bc 29 db 7e 3f 0d 0d 6c bf c2 9a 7f bf
       -0.03108795 0.9955316 -0.92207414 -0.99845517
0001d0 5f ef bd be 9f 7a 59 3f ca 69 3b bf 43 61 d5 3d
       -0.37096688 0.8495273 -0.73208296 0.10418942
0001e0 66 be bb 3d 8a 69 cf 3e 7a 26 04 be 8c a5 ae be
       0.09167175 0.40510207 -0.12905303 -0.34110677
0001f0 dc 65 87 3f 3a 1f 11 3d 11 d3 4b 3f f2 a9 3c 3f
       1.057796 0.03543017 0.79618937 0.73696816
000200 c3 00 7a 3e 59 4e 70 3f f5 a3 7b bf d4 3b 44 3f
       0.24414353 0.9386955 -0.98297054 0.7665379
000210 61 f2 93 be 9f 7b f2 be 44 fd 4f 3d 03 6b 36 be
       -0.28895858 -0.4735994 0.050778642 -0.17814259
000220 94 fa 83 bf 8f 52 a5 3e 0a b9 c8 be 51 09 c9 be
       -1.0310845 0.3228955 -0.39203674 -0.3926492
000230 d9 07 14 bf ea c5 23 3f b5 5d 43 be 9f c0 d9 bf
       -0.57824475 0.6397387 -0.19078715 -1.7011908
000240 52 31 61 bf aa 24 2f bf b3 4e 98 bf 3e f9 8e bf
       -0.8796588 -0.6841532 -1.1899017 -1.1169813
000250 09 f1 97 3f ad 62 40 bf c8 93 c3 be 7f e6 1b bf
       1.1870433 -0.7515057 -0.38198686 -0.60898584
000260 3e ff 5b bf ca c0 ef 3f 0a 3e b2 bf 56 92 d5 bf
       -0.85936344 1.873071 -1.3925183 -1.6685283
000270 70 4a 28 3f 61 17 b1 3d 51 d6 88 bf 3c 01 2e be
       0.6573858 0.08647037 -1.0690404 -0.16992658
000280 c1 b6 0c bf df 9f 4f 3d ba 09 23 bf 36 69 28 bf
       -0.5496636 0.050689574 -0.63686717 -0.6578554
000290 39 f9 53 3d 36 59 6b bf 83 f4 15 bf 44 a6 ac 3e
       0.05175135 -0.91933 -0.5857622 0.337206
0002a0 15 87 02 bf 3f 1c 18 3d db 29 73 3e 78 bd 56 bf
       -0.5098737 0.037136313 0.23746435 -0.83882856
0002b0 1c 67 b0 3e fe 52 72 bf a4 f2 86 3f 42 3f 04 bf
       0.34453666 -0.94657886 1.0542798 -0.51659024
0002c0 4a 6c d7 be b4 77 3e 3f 0a 3c 9b 3f b0 8f a0 3e
       -0.42074805 0.744014 1.2127697 0.31359625
0002d0 d6 41 bc 3e a5 45 66 3f d1 39 88 3d 37 69 51 3f
       0.3676898 0.8995002 0.066516526 0.8180117
0002e0 e1 0e 96 bf 6b 07 34 bd 42 c9 08 3e 5c c7 39 3e
       -1.1723291 -0.043952387 0.13358024 0.18142456
0002f0 72 1b 6a 3f 69 02 cf 3e 5a 69 15 3e a4 3a b1 3d
       0.9144813 0.40431526 0.1459097 0.08653763
000300 5f 62 ca bd 8f 0e 1c 3f d5 3e 81 be e9 40 0f bf
       -0.09882044 0.60959715 -0.2524325 -0.5595842
000310 92 cc 11 3e d9 5c 0d 3f eb 39 d5 bf 19 2c 89 be
       0.14238194 0.552198 -1.66583 -0.26791456
000320 56 03 e2 be 7e e9 bf 3d 3c af 92 be 5f c3 f8 3e
       -0.4414317 0.09370707 -0.28649318 0.48586556
000330 eb 00 7b bf d6 6e d4 3f 1e 3c 2a 3f fc 55 d0 3f
       -0.98048276 1.6596324 0.6649798 1.627624
000340 9b 79 9c bf a4 d4 f1 3f 42 67 30 3e dc 7e ad 3e
       -1.2224611 1.8893018 0.1722689 0.3388585
000350 38 f8 5d bf 7b c4 4f bf dc 60 cc 3e 3d 5a ea be
       -0.86706877 -0.8115918 0.39917648 -0.4577197
000360 23 18 22 bf 57 7d 63 bf c3 14 8b bf d7 95 97 bb
       -0.6331808 -0.8886313 -1.0865711 -0.0046260166
000370 52 9d 9d 3f 66 5f f5 be f8 08 73 3f c3 f7 c1 bf
       1.2313635 -0.47924346 0.9493556 -1.5153736
000380 c3 dd 20 3f 05 0d 70 bd 67 20 e5 bf 92 31 62 3b
       0.6283838 -0.058606166 -1.7900513 0.003451441
000390 7e 53 ba 3e 48 c7 c4 3e eb 56 86 3f 7f 5d 86 3e
       0.36391824 0.3843329 1.0495275 0.26243207
0003a0 5b 9d 3f be fa 10 d4 3f 5b c9 95 3f fb c7 13 3e
       -0.1871237 1.6567681 1.1702074 0.14431755
0003b0 4b 90 e4 be b8 e8 07 be e8 68 e3 bd 07 07 06 be
       -0.44641337 -0.13272369 -0.11103994 -0.13088618
0003c0 84 7b 38 be 31 eb fa 3c 78 25 c3 3e 64 a3 fa 3e
       -0.18015867 0.030629726 0.38114524 0.48952782
0003d0 88 41 7d 3f 8c 76 d3 bf fd a6 f0 3e 15 26 35 3f
       0.9892812 -1.6520553 0.47002402 0.70761234
0003e0 f2 1b 83 bf c8 5d 95 3f 1f dd 35 3d b8 db 4c be
       -1.0242903 1.1669245 0.04440033 -0.20005691
0003f0 3d 5f 86 3f 58 16 f7 be 46 ba 95 bf b1 0e 59 3d
       1.0497814 -0.48259234 -1.1697471 0.052992526

lin1.weight f4 [200, 40]
000000 10 40 50 bd 3b f7 07 3e 3d c6 17 bd 7b 75 52 3e
       -0.050842345 0.13277905 -0.03705429 0.20552628
000010 35 a8 6c 3e 82 e8 2e be fe de f4 3d 51 e0 df 3e
       0.23111041 -0.17080882 0.11956595 0.43725827
000020 52 24 5f 3e 49 c1 fd 3c ed 31 ad bd 2c 26 1f be
       0.21791199 0.030975955 -0.08456788 -0.15541905
000030 06 10 be bd 84 e1 55 be 58 2c 1a be a8 f4 4b 3d
       -0.092804 -0.20886809 -0.15055978 0.04979387
000040 18 e2 ed be 69 96 2f bb 9a 7a 43 be 8f 13 e3 3c
       -0.46461558 -0.0026792532 -0.19089738 0.027719287
000050 c0 7b f1 bb 3c 71 98 bd 47 16 c5 3e f7 66 a5 3e
       -0.0073694885 -0.07443473 0.3849356 0.32305118
000060 3e ba 96 be 9f df a2 3d 04 b6 e7 3c 3f ce 27 bc
       -0.29438967 0.079528086 0.028285034 -0.010242044
000070 33 e8 41 be 05 83 71 bc cf 8b 9d 3e 1c 4e 1d 3f
       -0.18936233 -0.01474071 0.30770728 0.6144731
000080 2b 18 a7 be 8e 09 a0 be b6 ca 8d 3e 85 b5 e1 bd
       -0.32635626 -0.3125729 0.2769372 -0.1102095
000090 c6 3e 04 be 7c 40 d4 3e 98 c4 b7 3e c5 12 84 be
       -0.12914571 0.41455448 0.35892177 -0.2579557
0000a0 c6 00 99 3e 70 12 1a 3e 08 05 90 be 84 2d a3 3e
       0.29883403 0.15046096 -0.2812884 0.31870663
0000b0 e0 b7 97 be e6 25 09 be a7 92 06 3d d2 fc 5b be
       -0.29632473 -0.13393363 0.032854702 -0.21483162
0000c0 10 ac 13 be 0c b3 7c 3e c1 99 f7 bd 58 79 bd b9
       -0.14421105 0.24677676 -0.12089873 -0.00036139297
0000d0 3a ff 93 3e d9 c9 11 3e a3 f4 f7 bc e9 05 e0 bc
       0.2890566 0.14237155 -0.030268019 -0.027346568
0000e0 03 84 b2 be 26 b1 b3 3e 04 be 9b bb 51 c6 b3 be
       -0.34866342 0.3509609 -0.0047528762 -0.3511224
0000f0 9f 78 8c be 39 0d d2 bd f1 db 73 be ed 82 87 be
       -0.27435777 -0.10256428 -0.2381437 -0.26467076
000100 eb 40 29 be 23 a5 65 be 07 2c 84 bd f7 67 14 3e
       -0.1652867 -0.22426276 -0.0645371 0.14492784
000110 20 a9 00 be c5 6d 19 bd 8a 11 31 be bb 5f 4c 3e
       -0.12564516 -0.0374582 -0.17291847 0.19958393
000120 44 6d 8c 3e 13 69 ba 3e 64 43 da bd a2 e8 da bd
       0.27427113 0.3640829 -0.10657385 -0.106889024
000130 c6 db a5 3d 93 49 23 be c8 21 ac 3d 14 e9 bb 3e
       0.08098559 -0.15946035 0.08404881 0.36701262
000140 4f ad 83 3d c6 08 bd 3c 1e 5c a5 3e 4f a3 21 be
       0.0642954 0.023075473 0.32296842 -0.15784954
000150 1c 94 dc 3d 37 46 9c 3d 11 93 0a 3e 58 f4 89 3e
       0.10770437 0.0763058 0.13532664 0.26944232
000160 1f b9 94 3e 57 9a 51 bd c5 82 3e 3e 9c b3 9a 3e
       0.29047486 -0.05117258 0.18604572 0.30215156
000170 25 10 2e 3e 17 df 47 3e 25 da 25 bd 67 be 1f be
       0.16998346 0.19518696 -0.040491242 -0.15599976
000180 51 88 80 3d b3 1e 3a 3e 3a f1 56 3d b8 c0 48 3e
       0.06276 0.18175773 0.052476145 0.19604766
000190 07 27 c4 be 75 43 12 be 71 f6 af bd 48 ac 8d 3e
       -0.38311026 -0.14283545 -0.08591927 0.27670503
0001a0 e6 e1 87 3e 81 ed 8d 3e 9e 6e bc 3e df 04 04 3e
       0.26539534 0.27720264 0.36803144 0.12892483
0001b0 09 ba 1a be 01 7f c3 bd c5 e5 63 be bb 5c c7 3c
       -0.1511003 -0.095457084 -0.22255619 0.02433621
0001c0 e3 04 e5 3e a3 43 35 3e 74 3d c2 be c6 57 e6 bc
       0.4473029 0.17701583 -0.3793751 -0.028118026
0001d0 f7 81 b4 be a3 78 cd 3d 01 f8 27 3f c7 db ce be
       -0.35255405 0.10032775 0.656128 -0.40402052
0001e0 2b ed 9b 3e f0 31 11 be ee a8 55 be 44 80 48 3d
       0.30454382 -0.14179206 -0.20865223 0.04895045
0001f0 ee 11 ff bd 43 57 ab 3d 15 6a 47 bb 0c 13 4b 3e
       -0.12454592 0.08366253 -0.003042822 0.19831485
000200 94 33 cb 3d 24 d4 e3 3d 2c 80 93 be a2 37 1a 3e
       0.09921947 0.11124447 -0.28808725 0.15060285
000210 d5 e1 97 3d a1 c1 07 3e 19 24 af 3e ca cc 42 bd
       0.07416121 0.13257457 0.34207228 -0.047558583
000220 8e a2 4f be 82 56 0e 3f c9 2a 2e be 8a 81 25 bd
       -0.20276853 0.5560075 -0.17008509 -0.04040674
000230 c7 9c 86 3c 43 07 0e 3e 48 f5 55 3e bf 2a af 3d
       0.01643218 0.13869958 0.20894349 0.08553075
000240 f2 05 5a 3e ca 49 d4 3e 76 4b 9d 3d 5b a3 9d be
       0.2129133 0.41462547 0.07680409 -0.30788693
000250 ff 9e f3 be 0e c6 b8 3e 53 51 27 bd 3d 3e 77 be
       -0.47582242 0.36088604 -0.04084904 -0.24144836
000260 fe 36 5f 3c e9 35 fc be 85 14 df 3c 75 f7 d1 3c
       0.013623951 -0.4925988 0.027231464 0.025630692
000270 f2 f7 7a be 55 2f 85 bd 63 7b 2f bd 6a b4 3f 3e
       -0.24508646 -0.065031685 -0.04284228 0.18721166
000280 ce ec be 3e 23 20 73 be 11 43 74 be 65 ae 47 be
       0.37290043 -0.23742728 -0.23853709 -0.1950012
000290 85 e3 7e 3d af a6 f4 bd 6a 2b 05 3e d2 8e 0f 3d
       0.0622287 -0.11945855 0.13004842 0.035048313
0002a0 c5 84 a1 3d 7c c9 73 be 19 42 aa bc 79 d2 7a 3c
       0.07886652 -0.23807329 -0.020783471 0.01530897
0002b0 72 ea a6 be 73 c1 de bd 6f f7 94 3e eb 72 a2 be
       -0.32600743 -0.10876741 0.29095027 -0.317283
0002c0 48 e8 a5 3e 26 33 6f bd a4 f5 a2 3d 9d c2 2b be
       0.3240378 -0.05839839 0.079570085 -0.16773458
0002d0 d4 e8 53 3e 86 c8 9c be 33 4f c0 be 1d 45 1e bd
       0.20694286 -0.30621737 -0.37560424 -0.03864013
0002e0 58 ea 62 bd 77 6d 2e 3e a2 8d 64 3e 02 60 c8 be
       -0.05539927 0.17033945 0.22319654 -0.39135748
0002f0 98 29 03 bf 9b 2e 6f be 8b c0 c1 be 03 74 9c 3e
       -0.5123534 -0.23357622 -0.3784221 0.3055726
000300 ac 11 bd 3e 39 c2 34 be da 20 fd 3b 4f 59 f9 be
       0.36927545 -0.17652215 0.0077248635 -0.4870095
000310 b7 38 88 3c a6 e7 a1 be 30 ee 9a 3c e4 82 a8 bd
       0.016628606 -0.31622046 0.018912405 -0.082280904
000320 f7 9c 74 3e 72 7b 8a be 11 56 37 3e 75 a0 64 be
       0.23888002 -0.27047306 0.17903925 -0.22326834
000330 f1 25 55 be 84 07 3f 3e 54 b1 92 be ee 33 ed bd
       -0.20815255 0.1865521 -0.28650916 -0.115821704
000340 c4 1c 15 be 27 37 40 3e 1e 31 24 be f9 41 3f 3e
       -0.14561754 0.18771039 -0.16034362 0.1867751
000350 7b 11 7f be 1e 51 66 3e 0f 9c bd 3e 94 f2 b1 3c
       -0.24909012 0.22491881 0.37033126 0.021722116
000360 d6 c0 64 be 53 02 96 be da 45 85 3e dc 59 cc 3e
       -0.22339186 -0.29298648 0.26029855 0.39912307
000370 90 5d 3d be cf 1f 0d 3e 45 91 7c 3e 55 3e fb 3d
       -0.18492723 0.13781665 0.24664791 0.12267748
000380 c2 0c 53 bd 99 77 91 be 1c c4 bd 3e cd e4 9c be
       -0.05152584 -0.28411558 0.37063682 -0.3064331
000390 95 bd f2 be ae 43 87 3d d7 f1 b1 3d a6 4d 96 3e
       -0.47410265 0.06604706 0.086887054 0.29356116
0003a0 68 fb 34 3e a5 9f 71 3e 44 9a f3 be 3a 26 84 3e
       0.17674029 0.23596056 -0.47578633 0.25810415
0003b0 95 26 16 3e 13 a5 15 3e a2 da 2c 3e a8 4d 04 be
       0.14663155 0.14613752 0.16880277 -0.12920249
0003c0 39 c2 bf bc 6f 02 99 be 9c d3 31 be 4d 10 1d 3c
       -0.023408042 -0.2988467 -0.17365879 0.009586406
0003d0 a8 d2 ae 3e 9f 55 7b 3e 5e 5d 90 bd 12 a3 39 3e
       0.34145093 0.2454438 -0.070490584 0.18128613
0003e0 56 30 0d be e3 2d 3b 3e 47 5e 31 3e 17 76 77 be
       -0.1378797 0.18279223 0.1732112 -0.24166141
0003f0 fa b9 5d 3e 0a 5e 1c 3e ce a8 84 3e 81 d6 64 be
       0.21652976 0.15270248 0.25910038 -0.22347452

lin1.bias f4 [200]
000000 5b 07 96 be 4e 29 24 be ce 9a 71 3e 25 e8 8f 3e
       -0.29302487 -0.16031381 0.2359421 0.281068
000010 e5 0a 30 3e 08 78 44 bd c3 38 42 be 73 87 b0 be
       0.17191656 -0.047966033 -0.18966965 -0.3447834
000020 67 e7 55 be a2 57 c8 3e c1 bd e6 bd e8 f5 c4 3d
       -0.20889054 0.3912936 -0.112666614 0.096172154
000030 be ed 6f 3e 07 8b 41 be 7c d4 2e be 9d 8e 6f 3e
       0.23430535 -0.18900691 -0.17073244 0.23394246
000040 fd 93 ac be e4 63 83 3d dc 43 0b 3e d5 7e 25 3e
       -0.33706656 0.06415537 0.13600105 0.16161664
000050 4d fc b2 bc 6c 76 5e bc e1 15 47 3e 27 b1 0d bd
       -0.021848822 -0.013578039 0.1944194 -0.034592774
000060 67 7d a7 3d cc 29 e6 3d 56 38 a9 3e eb e5 8f 3e
       0.081782155 0.11238441 0.33050793 0.281051
000070 2b e8 26 3e 46 b2 e7 3e f4 f0 63 3e 22 8a 8d bd
       0.16299503 0.452532 0.22259885 -0.06911112
000080 a2 00 68 3e eb 2a bc bc c1 0c 84 bd 28 2e c3 bd
       0.22656491 -0.022969684 -0.06447745 -0.09530288
000090 44 03 65 3e 04 32 9f 3d 6b e1 04 3e 77 38 b6 be
       0.22364527 0.077732116 0.12976615 -0.35589954
0000a0 9f 6f ad be 4f f4 7b be 29 61 a6 bd 46 0d 63 bc
       -0.33874223 -0.24604915 -0.081240006 -0.013858145
0000b0 56 a2 d6 be f5 bf 41 3e fe 60 7b 3e 94 8a a1 3e
       -0.41920727 0.18920882 0.24548718 0.3155104
0000c0 01 c3 a1 be c6 24 07 bf 7e b5 b3 3e 77 ea 45 3e
       -0.3159409 -0.52790487 0.35099405 0.19327722
0000d0 c5 44 98 bd 1e f1 8d be e9 b7 f1 bd 9c 95 b5 3e
       -0.07434992 -0.2772302 -0.11802656 0.35465705
0000e0 54 17 b6 3d 9e f2 64 be fe 28 96 3e d1 fd 93 be
       0.08891168 -0.22358176 0.2932815 -0.28904584
0000f0 54 8f 5c be eb ef 84 3d e2 16 b6 be 5a 65 8f be
       -0.2153905 0.06491073 -0.35564333 -0.28007013
000100 03 3f 17 be 58 ed 02 3f a2 2c 04 3e 63 60 98 3e
       -0.14770131 0.5114341 0.12907651 0.29761037
000110 e1 bd 58 be 86 6c 59 be d5 c8 25 be 89 9c 65 bd
       -0.21166183 -0.21232805 -0.16189893 -0.056057487
000120 cf 7b ab be 89 61 ac 3d 4a d5 5e 3e 6b d8 aa bd
       -0.33492896 0.08417041 0.21761051 -0.0834206
000130 96 d4 aa 3d a3 2d bb 3d a5 a7 a3 be 72 38 61 3e
       0.08341329 0.09139564 -0.3196384 0.21994188
000140 b3 7a db bd fc 28 5a bd a6 15 c9 be 04 51 84 3e
       -0.107167624 -0.053261742 -0.3927433 0.2584306
000150 52 bf 7c bd 32 96 76 be 48 9b 1c be 04 1f 8e 3c
       -0.061705895 -0.24080732 -0.1529361 0.017348774
000160 36 25 8a 3e b4 be dd 3c 7f 29 bf be 08 8f f0 be
       0.26981515 0.027068473 -0.37336347 -0.46984124
000170 f8 c5 98 bd ed 9b 0b 3e 0d cd bc 3c 27 34 6f be
       -0.074596345 0.136337 0.023046995 -0.23359738
000180 a3 d9 9b bc 0b ba a5 39 28 31 db be 12 87 dc be
       -0.019024676 0.00031609865 -0.4281094 -0.430718
000190 d7 9e 04 be b9 f9 34 3e 77 5c aa be d3 37 08 3e
       -0.12951218 0.17673387 -0.3327367 0.13302545
0001a0 8a 97 96 3c 04 e3 eb bd 10 fc c0 3d 08 cc 23 bd
       0.018382806 -0.11517909 0.09423077 -0.0399895
0001b0 13 d8 99 be 83 a4 b1 bd cb 48 04 bd 3c 7c 0c be
       -0.30047664 -0.08673956 -0.032295983 -0.13719267
0001c0 34 c9 d7 3e 9b eb f2 bc 64 11 31 3e 05 68 1f bd
       0.42145693 -0.029653361 0.1729179 -0.03891756
0001d0 96 9d 78 3e 9e c1 d6 bd c8 3b ab bd d8 24 b4 be
       0.24278864 -0.10486148 -0.08361012 -0.3518436
0001e0 4f 03 dd 3c b6 64 5e be 32 41 b0 bd 6a 4f 83 3e
       0.026979117 -0.21718106 -0.08606185 0.25646526
0001f0 f0 83 a1 bc bc ba 3e 3e ab 71 12 be b7 88 56 be
       -0.019716233 0.18625921 -0.14301173 -0.2095059
000200 d7 32 14 bf 2b b8 a6 3e bc 0c ab bd 36 08 9a 3d
       -0.57890075 0.32562384 -0.08352038 0.07521097
000210 a2 51 81 3e 78 20 fe be 88 0a 5e be a2 e5 f7 bd
       0.25257593 -0.49634147 -0.21683705 -0.12104346
000220 39 07 3b 3e 58 91 22 3e 47 ba 10 3e 66 2d 17 3e
       0.18264474 0.15875757 0.14133559 0.14763412
000230 c0 e4 04 be b3 e2 8f 3d f9 1f e1 3d 26 41 2c 3c
       -0.12977886 0.07025661 0.109924264 0.0105135795
000240 bd 50 3f be 8f b2 97 3e 78 54 09 be f7 8d 15 3e
       -0.18683143 0.29628417 -0.13411129 0.14604937
000250 86 c8 2c be 91 dc 14 be 8b 17 b9 3e c5 f8 e0 bd
       -0.16873369 -0.14537264 0.36150774 -0.10984949
000260 51 a9 91 bd 13 8b 00 3f 27 1b e9 bd a0 bc 94 3d
       -0.07112373 0.5021221 -0.11382132 0.0726254
000270 02 5d b3 3e 98 96 27 3e 8d fd 48 be 38 f2 eb bd
       0.35031897 0.1636604 -0.19627972 -0.11520809
000280 f3 44 fe 3d ae 28 90 3d c9 27 c9 be da 2e dd 3d
       0.12415495 0.07039009 -0.39288166 0.10799952
000290 ef 9d 4d 3e af f0 68 be 4d e3 ea 3d 4e 69 8f 3e
       0.20079778 -0.22748064 0.114691354 0.2801003
0002a0 79 bb 9d be 24 6a 24 3e 1c 56 4a 3e e9 d7 b2 bd
       -0.30807093 0.16056114 0.1975941 -0.08732588
0002b0 d8 00 4a be f1 02 c9 3d 09 a2 3a 3e 30 f0 79 bd
       -0.19726884 0.09815014 0.18225874 -0.061020076
0002c0 ba fd c0 be 24 7c 2e bc 96 cd b9 be 31 f7 6e be
       -0.37693578 -0.010649715 -0.36289662 -0.23336484
0002d0 df 15 6b bd 92 1f 74 3e 2e 62 95 be c4 a5 80 3e
       -0.057393905 0.23840168 -0.29176468 0.2512647
0002e0 40 b4 7c 3d d8 c6 47 be fb c1 be 3e fe ee 17 3d
       0.061695337 -0.19509447 0.3725737 0.037093155
0002f0 56 15 25 3e 00 69 3f be d4 f6 8c be d1 13 14 3c
       0.1612142 -0.18692398 -0.27532065 0.009037928
000300 16 f5 4c bc 8b b9 9a be c6 0d e5 3d a1 66 6b be
       -0.012509605 -0.30219683 0.11184268 -0.22988369
000310 13 ce cb 3e b9 52 d4 3d f7 4d a7 3e f7 f8 ba 3d
       0.3980566 0.103673406 0.3267667 0.091295175

lin2.weight f4 [200, 200]
000000 9b eb 21 bd a5 57 3b 3d 2f 6e f1 3a b4 ee 85 be
       -0.03953133 0.04573788 0.0018419678 -0.2615868
000010 4b d3 8c be 15 74 51 3e 11 86 ad bd eb cb a6 3c
       -0.27504954 0.20454438 -0.08472837 0.020360908
000020 cf 7d 3a 3d 07 6d 0d 3e 8c 81 cf bc f9 e7 32 3d
       0.045530137 0.13811122 -0.025330327 0.043678258
000030 32 ab 7f 3e 8c 5d aa bd 0d ff 21 be 3e 88 0c 3d
       0.2496765 -0.08318624 -0.1581995 0.03430962
000040 91 54 7a be 11 73 35 bd dd f5 33 3c 01 8f 42 be
       -0.24446322 -0.04429919 0.010983911 -0.18999864
000050 78 74 8b 3e 5b a5 75 bb 63 a8 d6 3d 04 32 82 3d
       0.27237296 -0.0037482593 0.10481336 0.06357196
000060 41 c8 d9 3d 7d 51 79 3e 14 2c bd 3d 64 8f 6f 3e
       0.106338985 0.24347492 0.09236923 0.23394543
000070 54 ef 8c be 6e 98 db 3d b4 c4 b3 ba 3f 9d e8 3c
       -0.27526343 0.10722433 -0.0013715238 0.028395293
000080 46 08 d7 bd 2b fe ac 3e ee 85 98 bd be 9f 44 be
       -0.10499625 0.33787665 -0.0744742 -0.19201562
000090 82 02 5f 3e 2e 65 6f be 1d 4a b4 bd a0 e0 f5 3d
       0.217783 -0.2337844 -0.088031985 0.120057344
0000a0 56 b2 0c be 74 1a c3 bd 77 a9 90 be 88 04 7c 3d
       -0.13739905 -0.0952653 -0.2825429 0.06152776
0000b0 df f1 69 be df 5f 54 3e ad af b7 bc 26 3f 18 3d
       -0.22846173 0.20739697 -0.022422636 0.037169598
0000c0 c7 b7 35 bd 4a d4 04 bd 4a b6 96 be 47 d2 ca 3d
       -0.044364717 -0.032429017 -0.2943595 0.099033885
0000d0 7b 4b 02 3e 1c 74 31 be 81 82 01 be 20 c3 76 bd
       0.12724106 -0.17329448 -0.1264744 -0.06024468
0000e0 8f 1e a0 3c 9b 6e a6 3d a8 be 46 bd d1 60 0f 3e
       0.019545821 0.08126565 -0.048521668 0.14001776
0000f0 dd e6 01 bc e2 25 da 3c 93 cb a4 be 85 6c 4d bd
       -0.007928577 0.026629392 -0.32186565 -0.05015232
000100 a7 b6 cd 3d 3c 8a 32 be 68 96 a7 3d 08 a8 c2 3c
       0.10044604 -0.17435545 0.081829846 0.023761764
000110 a3 93 5d 3d f6 a6 e6 bd 67 05 c9 bc 00 6c 6d 3e
       0.054095875 -0.11262314 -0.024538709 0.2318573
000120 72 8f 02 be e7 b4 ec 3d ec 74 41 3e 75 62 fc 3d
       -0.12750033 0.11557942 0.18892258 0.12323467
000130 f1 80 06 3c 58 aa 27 be a2 38 08 be a5 33 2c 3e
       0.008209453 -0.16373575 -0.13302854 0.16816576
000140 0e 14 5e 3b 8b c1 ac 3d b5 18 24 3d 58 35 1e be
       0.0033886465 0.08435353 0.040062625 -0.15450037
000150 2c 1c 53 3d 39 9d 14 be 89 2b e4 3c 5e e2 8d be
       0.05154054 -0.145131 0.02785279 -0.27711767
000160 b4 ac 1b 3d f1 04 0f 3e 13 5f b7 bd c9 55 7c be
       0.0380065 0.13966729 -0.08953681 -0.246421
000170 c8 64 43 bd f2 65 28 be 95 7b 23 3d 22 fc 5a be
       -0.047703534 -0.16445139 0.03991278 -0.21385244
000180 8e 57 90 3d 3a 01 00 3d 3a 70 2b bd 74 4b ae 3d
       0.0704795 0.03125117 -0.041855074 0.08510485
000190 06 ec df 3d df bf 13 3c e7 ba 57 bd 17 6d 96 3c
       0.1093369 0.009017914 -0.05266848 0.018362565
0001a0 25 54 17 be 82 42 24 3e 31 b5 47 3d 2f 81 b7 bd
       -0.14778192 0.16040996 0.048756782 -0.08960187
0001b0 35 91 fc 3d 6c 6d 60 3d 58 61 13 bd 46 77 72 3e
       0.123323835 0.054791853 -0.035981506 0.23678312
0001c0 2f 89 be ba d3 b1 54 bd 51 88 97 3c e3 da 1c 3e
       -0.0014536734 -0.0519274 0.018497618 0.15317874
0001d0 3b 6a 0d be 70 ca 98 bd 4a 13 d1 3d 65 5a 51 be
       -0.13810055 -0.07460487 0.10208757 -0.20444639
0001e0 42 1e 10 bd 8b e7 d2 bc 3f dc c2 bd f3 32 67 3d
       -0.035185106 -0.025745174 -0.09514665 0.056445073
0001f0 4e 2d 6f be 02 94 1f 3e 0e d7 30 be 66 f1 8d be
       -0.23357126 0.15583804 -0.17269537 -0.27723235
000200 d5 bc 5b be 9d e0 67 3e 06 f3 5e bd c2 70 1e 3d
       -0.21458752 0.22644277 -0.054430984 0.038681753
000210 6e b5 9e bd 89 e0 26 bd 87 17 18 be d0 73 bb 3d
       -0.07749449 -0.040741477 -0.14852725 0.09152949
000220 cc 34 24 bc 22 7e b5 3c 17 9e 9d bd 0c 61 aa 3c
       -0.010022353 0.022154871 -0.07696169 0.020798229
000230 96 86 c4 bc 2d cf 0d be 7b ba 19 3e dd 08 6a 3d
       -0.023989957 -0.13848563 0.15012543 0.05713736
000240 97 ea e6 bd 4f 47 89 3e 40 dc 4e be ee 69 36 3b
       -0.11275213 0.26812217 -0.20201206 0.0027834135
000250 de de 8c bd 69 66 fb bd d1 41 a5 3e 43 49 f7 3d
       -0.06878446 -0.122753926 0.32276776 0.120745204
000260 6b f2 fe 3d c5 21 e1 3c ae ad 10 be 62 90 00 3e
       0.12448581 0.027481923 -0.14128754 0.12555078
000270 e5 70 da bd 3d 63 89 3d dc d0 04 3c 8d c0 b7 bb
       -0.10666064 0.06708381 0.008106437 -0.0056076706
000280 9c 95 7d 3d 53 59 93 3b 8e 6e 19 be a6 df ce bd
       0.061910257 0.0044967323 -0.1498358 -0.10101251
000290 6d c6 2d be 2c a9 d7 3b e9 82 1e 3b 60 56 c4 bd
       -0.16970225 0.006581446 0.0024186915 -0.09586787
0002a0 e2 6d 45 3d bb 08 bd bc 9e 87 f1 3d 26 ca 37 3d
       0.048200496 -0.023075452 0.11793445 0.04487052
0002b0 c6 65 33 bd 81 26 18 3e 59 54 0a bd 4f 68 10 be
       -0.04379823 0.14858438 -0.033771846 -0.1410229
0002c0 67 af 31 be ab b8 58 bc 74 07 a0 bd 61 33 bf bd
       -0.17352067 -0.013227622 -0.078139216 -0.093359716
0002d0 e0 2d 41 3e 10 d4 b8 3e ed e0 be 3d 60 5f ac bc
       0.18865156 0.3609929 0.09320245 -0.021041572
0002e0 2a 09 1a 3d 4a 28 ec 3c b4 a1 75 bd e9 81 01 3e
       0.037606396 0.028827805 -0.059968665 0.12647213
0002f0 51 0e e5 3d bf e4 1d 3d 0c 1c 2b be 6d 1d 83 3e
       0.11184371 0.038548227 -0.16709918 0.25608388
000300 9c e9 68 be 0a a0 7b bd 58 84 17 bd 76 7d 09 3d
       -0.22745365 -0.061431922 -0.036991447 0.033566914
000310 62 d5 a4 bd 84 22 8e be ca ab 69 3d c6 42 80 3e
       -0.08048512 -0.27760708 0.057048596 0.25050944
000320 99 90 18 bd 89 3b 2d 3d 14 a5 00 be cb 8e a5 be
       -0.037247274 0.042293105 -0.12562972 -0.32335505
000330 2f 3a 8b ba 24 c7 82 be 83 29 0c bd 87 aa d0 be
       -0.0010622198 -0.25542557 -0.034219276 -0.40755102
000340 66 74 de bd ca 40 04 3d ea 85 df be 42 0c dc bb
       -0.10862045 0.03228835 -0.43656856 -0.0067153284
000350 73 d6 cb bc ff 66 2a 3e c6 b3 64 bd da 5b 8a be
       -0.02488253 0.16640852 -0.055835508 -0.27023202
000360 5f c5 fd bd 1e e4 d0 3d 97 8c b1 3d 86 94 85 bb
       -0.12391161 0.1019976 0.086693935 -0.0040765433
000370 51 b5 a3 be ee b2 cf bd 1c d5 db bd 42 99 ad bd
       -0.3197427 -0.1014155 -0.10734007 -0.08476497
000380 d3 22 10 be 6b e9 90 bc db 34 39 3c 6f b3 ec bd
       -0.14075784 -0.017689427 0.011304106 -0.11557662
000390 8f d7 1c bd 63 12 ef 3c c8 ec 44 3c ca 9a 48 3e
       -0.03829151 0.029183572 0.012019344 0.19590297
0003a0 44 8d 80 3d 81 94 eb 3d 1b c9 f9 ba ad fe bd bd
       0.06276944 0.11502934 -0.0019057126 -0.09277091
0003b0 07 d0 8e 3d a5 de 47 3e 8c 4e 39 3e 4a 3c 98 3d
       0.06973272 0.19518526 0.1809637 0.07433374
0003c0 a9 7e 3c 3e dc e5 71 3e de 7e 2b 3e f8 6a c9 3c
       0.18407692 0.2362284 0.16747615 0.02458714
0003d0 c9 c2 f7 3d 58 d1 82 3e 32 8c 68 3e 33 40 b6 3d
       0.12097699 0.25550342 0.2270973 0.08898964
0003e0 27 91 4d bd c5 d1 a2 3d 5e 42 82 bd da c1 a1 3d
       -0.050187256 0.079501666 -0.06360315 0.078983024
0003f0 8c fc 3c 3e 0c c6 f9 3d 79 ea 1a be 19 00 82 3d
       0.18455714 0.121959776 -0.15128507 0.06347675

lin2.bias f4 [200]
000000 17 d8 26 3e 06 ab 92 be 73 6e 8f be 3c bb 3c be
       0.16293369 -0.28646106 -0.28013954 -0.18430799
000010 6c da 0e bd 75 2c 2e be 33 f3 d7 3d 71 60 84 3e
       -0.034876272 -0.17009147 0.105444334 0.2585483
000020 15 c0 28 be 4c 02 f1 bd 39 76 1b 3e 91 e8 9c be
       -0.16479523 -0.11768016 0.15181817 -0.30646184
000030 08 f0 0a be 39 ae 43 be e5 e5 1a 3e 31 97 49 3e
       -0.13568127 -0.1910943 0.1512676 0.19686581
000040 f8 a1 25 be 34 a9 e8 bc f6 cc 3c 3d da 63 3a 3e
       -0.16175067 -0.028400995 0.046093903 0.18202153
000050 c8 be d6 3d c8 e3 b3 3d e4 5e e3 3d a2 e6 1d bd
       0.104856074 0.0878368 0.11102083 -0.038550027
000060 bf 83 cc 3c 9b 90 15 be 84 41 26 3e f9 2a 40 3e
       0.024965165 -0.14605944 0.1623593 0.18766393
000070 ff d4 67 bc b5 79 e3 bd 19 f6 e4 bd e8 a8 a6 3c
       -0.014149903 -0.11107198 -0.11179752 0.020344213
000080 13 75 76 be 21 56 41 be a2 ef e4 bc 4f ad 84 be
       -0.24068098 -0.18880512 -0.027946297 -0.25913474
000090 cc 6d fd bd 5c 7b b8 bd b3 8b 24 be 29 f8 03 be
       -0.12374458 -0.09007904 -0.16068916 -0.12887634
0000a0 b8 95 8e 3d 3d d9 a7 3d b1 22 cb bd 6c bc 7d 3e
       0.0696215 0.08195732 -0.09918726 0.24778908
0000b0 e7 5d a0 bd bb ff 25 be 90 98 5e be 77 e0 34 bd
       -0.078304105 -0.16210835 -0.21737885 -0.04415938
0000c0 08 bd 22 bd 42 d3 f0 bc f5 04 6f be c7 9d a2 3d
       -0.039731055 -0.02939761 -0.23341735 0.0794025
0000d0 7b 77 99 be 60 fe a3 bc f9 19 1f be da 13 60 3d
       -0.2997397 -0.020018756 -0.15537252 0.054706432
0000e0 8e 2c 19 be 9b 00 7b bc c0 44 9b be bf b2 41 be
       -0.14958403 -0.015319969 -0.3032589 -0.18915842
0000f0 e4 c2 72 3d de db 3f 3e ac d4 b0 3d ce 83 8c 3d
       0.059267893 0.18736216 0.08634314 0.06861077
000100 e0 95 31 3e 9d 6d a4 bd 42 95 f2 3c 09 22 4b 3e
       0.17342329 -0.080287196 0.029612187 0.19837202
000110 5b 36 3d bd 92 64 50 bd 30 66 88 3d e7 a9 1f 3d
       -0.046194416 -0.05087716 0.06660116 0.03898039
000120 b6 fe 9d 3b 5f 0d e7 bc 38 b3 2b 3e bc 7e 1a be
       0.0048216237 -0.028204618 0.16767585 -0.15087408
000130 bc 73 a6 bc bd 34 5c 3d d5 c2 c8 3e 89 bb 40 3d
       -0.020318858 0.053761233 0.39211145 0.047053847
000140 f8 0f 14 be ee e9 97 3d 1d 3f 58 be d3 92 9f 3a
       -0.14459217 0.074176654 -0.21117826 0.0012174494
000150 ad 3a 66 3e fe 98 b9 bd 4a 4d c2 bc 6d c3 21 3e
       0.2248332 -0.09062384 -0.023718495 0.15797205
000160 b8 20 63 be 41 eb f8 3d 72 a4 18 3e 93 55 45 3e
       -0.2218045 0.12154246 0.14906481 0.19270925
000170 6e fc 5b bd 9e a7 3b 3e 5d 21 d2 3d 24 21 18 be
       -0.053707533 0.1832566 0.1026027 -0.14856392
000180 9b a4 96 3d c8 da 55 be 36 8b 28 3e db 5c 1a be
       0.07355615 -0.2088424 0.16459355 -0.15074484
000190 70 77 b0 3d 77 f9 c9 3c 73 f1 e5 bd f9 2d 51 38
       0.08616531 0.024655087 -0.112276934 4.98723e-05
0001a0 ea d3 be bc 1a 8a 25 bd 1f 09 ec bc 55 54 c2 3d
       -0.023294408 -0.040414907 -0.028812943 0.09488741
0001b0 f1 6c cf 3e d2 d5 6f bd 28 60 46 3d 56 85 b9 3d
       0.40512803 -0.058553524 0.048431545 0.09058635
0001c0 b1 b0 cb 3c e5 be b8 3e 37 f8 91 b6 b6 4b f7 bd
       0.024864526 0.3608314 -4.3502328e-06 -0.120749876
0001d0 38 b1 15 bd 52 46 6d be ce 73 5d 3e ac 44 87 bd
       -0.036545962 -0.23171356 0.21626207 -0.06604895
0001e0 cb 6b 28 be c0 10 28 3d 9a 6b 87 bc bd e3 09 be
       -0.1644737 0.0410316 -0.0165308 -0.13465782
0001f0 fe 04 c2 bc 2f 39 08 be 46 45 6a 3e 94 42 56 3a
       -0.023684021 -0.13303064 0.22877988 0.0008173373
000200 87 3b 1f 3d 26 79 29 bd 7c d0 e5 bc a1 31 69 3e
       0.03887513 -0.0413753 -0.028053515 0.22772838
000210 63 d6 44 3e 35 d8 24 be 76 ce a6 3d 52 65 62 3e
       0.19222407 -0.16098101 0.08144848 0.22108963
000220 55 11 83 3d bd 47 05 be 18 ef 90 3e 32 a7 d3 bd
       0.0639979 -0.13015647 0.28307414 -0.10334624
000230 e2 1f fd bd 31 06 83 3d d9 4a ab 3d 1e 18 29 3d
       -0.12359597 0.06397665 0.083638854 0.041282766
000240 c0 7a aa bd cb 48 78 bd 88 ee eb bd f3 71 1c be
       -0.08324194 -0.060616296 -0.115201056 -0.15277843
000250 a7 f1 a5 3d 5b 4b 71 3d 5d 2d 77 be 1f 48 a3 bd
       0.08102732 0.058909755 -0.24138398 -0.079727404
000260 4c 19 7e 3d f3 40 09 3d 46 22 ee 3c fc c2 e4 bb
       0.062035844 0.033509206 0.029069077 -0.0069812518
000270 40 af 04 3e 87 81 20 be 55 eb f5 bd ae 30 0c 3e
       0.12957478 -0.15674411 -0.12007777 0.13690445
000280 fb 31 a0 bd 3e 43 83 3c ea 4b 0a 3e f9 b4 41 3e
       -0.07822033 0.016023275 0.13505521 0.18916692
000290 bf 27 a6 be 6f 41 dd bd 17 6a 3f be 7c 1c 07 be
       -0.324522 -0.10803496 -0.18692814 -0.1319446
0002a0 00 98 43 be 82 81 9e 3e 11 75 95 bd 75 23 d8 bd
       -0.19100952 0.30958182 -0.07297719 -0.10553638
0002b0 dc 96 08 be b5 60 ae bd 1e 13 21 3d 33 65 8c 3e
       -0.13338798 -0.08514539 0.039324872 0.2742096
0002c0 21 ab f4 bc 99 01 8c 3e a0 47 cf bc f7 d3 4f 3e
       -0.029866757 0.2734497 -0.025302708 0.20295702
0002d0 7e ef 82 3c 90 1d 81 3d 2f cf 64 be e2 ee 1c 3e
       0.01598334 0.06304467 -0.2234466 0.15325502
0002e0 77 bc 75 be 80 60 3f 3e 32 a7 6a 3e 90 84 43 be
       -0.23997675 0.18689156 0.22915342 -0.19093537
0002f0 98 4f 4e bd 58 f9 cf bd 98 cc d2 3d f8 a4 95 3e
       -0.050368875 -0.101549804 0.102929294 0.29227424
000300 00 76 14 be 4f 45 54 bb b7 f9 e6 bd 7a da 9f bd
       -0.14498138 -0.0032389944 -0.11278098 -0.07805343
000310 3b 00 88 be 4c 89 45 bd 8d 8e 1c 3e c2 7c d6 bc
       -0.26562676 -0.04822664 0.15288754 -0.026182536

lin3.weight f4 [200, 200]
000000 23 ef 8a 3e 08 89 f5 39 d8 bc d5 bd 13 0c 46 be
       0.27135572 0.00046832138 -0.1043641 -0.19340543
000010 6c 8d 54 be a2 59 c2 3d 20 d5 7d be 88 1d b0 bd
       -0.20757073 0.09489752 -0.24788332 -0.08599383
000020 2d 5e 51 3d 4f 5c 53 be 28 66 e5 bd 31 44 a9 3e
       0.051115204 -0.20640682 -0.112011254 0.33059838
000030 12 4f 1e ba c4 f6 51 3e ae 09 36 3e f8 11 81 be
       -0.0006039004 0.2050429 0.1777713 -0.25209022
000040 bc f0 3c 3e 58 56 02 be 6f ae 02 be 9e 81 8d be
       0.18451208 -0.1272825 -0.12761854 -0.27637953
000050 d2 b9 95 3e 54 40 8e 3e d4 65 1c be af ab 34 bd
       0.29243332 0.27783453 -0.1527322 -0.044109043
000060 db 25 7d 3e 45 fa 86 3e e1 f5 a2 3d c5 ea 6e be
       0.24721472 0.26362815 0.07957054 -0.23331745
000070 e4 f0 e6 3c 68 ed a1 bc 30 2e 9c bd b2 86 43 3e
       0.028191037 -0.019766524 -0.07625997 0.19094351
000080 82 2e e7 bd 66 91 81 3e 36 b1 28 3c c5 96 85 be
       -0.112881675 0.25306243 0.010296157 -0.2609159
000090 4b f4 ab bd 06 da 0d be 1e 85 d3 bd e9 96 d2 3c
       -0.083962046 -0.138527 -0.103281245 0.025706725
0000a0 54 d4 f0 3c f1 72 27 3e 1c d4 68 3e 82 f9 4c 3d
       0.029398121 0.1635244 0.22737163 0.050042637
0000b0 43 5b 6b bd 5f 04 a7 3d 6c 19 35 be 7b f9 76 be
       -0.05746008 0.081551306 -0.17685479 -0.24118607
0000c0 b2 c9 81 3d 7c 46 ad be d9 0e df bc fe 6e b9 3e
       0.063372985 -0.33842838 -0.02722876 0.36217493
0000d0 a4 37 88 bd 62 d4 66 be 3e 97 80 3d 88 ab 97 be
       -0.066512376 -0.22541955 0.06278847 -0.29623055
0000e0 01 90 4a 3e 7a 17 0f be 1e 26 53 bb ae 66 76 be
       0.19781496 -0.139738 -0.0032218765 -0.24062607
0000f0 22 96 a1 3d db c7 6d 3d 2b 68 60 3c 4c b2 ed 3c
       0.07889964 0.058051925 0.013696711 0.029015683
000100 c0 86 7e bd 90 49 e3 bd 74 7f 79 3e 18 bf 03 be
       -0.062140226 -0.11098015 0.24365026 -0.12865865
000110 1f 11 85 be 75 b5 03 3e 11 4a 5a 3e 64 83 1f 3e
       -0.25989625 0.12862189 0.21317317 0.15577465
000120 e7 bc 8d 3e 88 aa 0b be 19 f6 4c 3e 2e 09 d6 bc
       0.27683184 -0.13639271 0.20015754 -0.026127424
000130 b3 8a 7a be b3 2d 29 3d 3d 95 ac bd c1 8c 82 bd
       -0.24466972 0.041303348 -0.084269024 -0.06374503
000140 fb 17 47 bd f3 49 cd bc d5 b6 ac be 86 2b 3f be
       -0.048606854 -0.025059676 -0.3373324 -0.18668947
000150 36 8c c2 bd 21 68 53 3a 49 db 13 3d a7 57 cb 39
       -0.09499399 0.00080645276 0.0360978 0.00038784483
000160 a8 b8 83 be b3 25 a2 be d3 c7 07 3e 53 f2 13 be
       -0.2572682 -0.31669387 0.1325982 -0.14447908
000170 c5 1d eb bd f3 bf e8 bd f8 1b 80 3e 94 0f 33 bd
       -0.114802875 -0.113647364 0.25021338 -0.04371603
000180 52 a9 6b be 20 ea 90 3d d9 88 8d bd 4e 46 14 3e
       -0.2301381 0.07075906 -0.06910867 0.14479944
000190 76 f0 7d 3d 5f 7f 91 3e 63 aa 6a 3e 56 93 f1 be
       0.0619969 0.2841749 0.2291656 -0.4718272
0001a0 51 78 aa bd 39 44 2d bb 4e fe 8e 3c 28 67 0b 3d
       -0.0832373 -0.002643837 0.017455246 0.034033924
0001b0 5b 0e 64 3c c0 f0 0b be 90 c8 29 3e 05 ce f6 3d
       0.013919438 -0.13666058 0.16580415 0.12051014
0001c0 62 46 37 3d 96 7f 01 be 71 ae 55 3d 1f 5c 88 bd
       0.044744857 -0.12646326 0.052168313 -0.06658196
0001d0 70 5a 8f 3d 55 20 0b be 80 06 8e 3e 0a 84 7e be
       0.069996715 -0.13586552 0.27739334 -0.24855056
0001e0 ed 56 77 3e f2 d6 99 3e fb 14 6f be dd d7 83 3e
       0.24154253 0.30046803 -0.23347847 0.25750628
0001f0 5b 81 3d be 05 05 8d bd 73 e6 f9 bd e9 b1 9b bc
       -0.18506376 -0.06885723 -0.12202158 -0.019005733
000200 26 eb 6c 3d 2e 18 17 3d 58 88 f6 bd 31 fc 77 be
       0.057841443 0.036888294 -0.12037724 -0.24217297
000210 42 10 d6 bd bb 76 f7 3d 44 6a 69 bd 61 14 93 3e
       -0.1045232 0.12083193 -0.05698611 0.28726485
000220 8a 65 b6 3d 6b fd a2 3e f3 9c 0c 3e fe cd 26 bd
       0.08906086 0.31833968 0.13731746 -0.040723793
000230 55 c1 9d 3d 2e 04 3c be 68 a5 68 be bd 84 3c 3c
       0.07702891 -0.1836097 -0.22719347 0.011506257
000240 13 19 9f 3d f2 bb 01 3e 3d c4 19 3e be 01 30 be
       0.077684544 0.12669352 0.15016265 -0.17188165
000250 81 30 21 3c 79 9e 21 be cd 74 36 be 2a 34 18 be
       0.009838224 -0.15783109 -0.17817993 -0.14863649
000260 05 06 09 3e b9 cc 0c 3e 5a c4 c7 bd ac e5 03 be
       0.13381203 0.1374997 -0.09754248 -0.12880582
000270 da 3e 23 be 6d a0 b2 3e a7 e7 8f 3d 52 ae 08 bc
       -0.15941945 0.3488802 0.07026606 -0.008342342
000280 37 d1 03 bd f9 65 e4 bc a4 64 19 bd 49 0b 23 bd
       -0.032181945 -0.027880656 -0.037449494 -0.039805684
000290 b3 6b 7a be b4 07 dd be 45 11 2a 3d c3 c6 06 3e
       -0.24455146 -0.4316994 0.041520376 0.13161759
0002a0 1d a8 82 be 74 7c f0 3b bf b3 6c 3e f2 02 d9 3d
       -0.25518885 0.0073390547 0.23115443 0.10596265
0002b0 46 fb 86 be 40 64 59 3e a9 27 56 3e e4 3b 26 be
       -0.2636358 0.21229649 0.20913567 -0.16233784
0002c0 68 33 4e 3e ae 4f 71 3e bd fc 58 3d 34 d6 b0 bd
       0.20136797 0.23565552 0.052975405 -0.08634606
0002d0 84 73 8f 3e a2 9a 44 3e 7b e7 1a 3c d3 74 bb 3e
       0.2801782 0.19199613 0.009454603 0.36612567
0002e0 9d ed 8e be 06 f8 97 3c 60 76 14 bd 9a b6 8e be
       -0.2791566 0.018550884 -0.036245704 -0.2787369
0002f0 7e 89 22 be df 98 a6 3e 39 98 88 bd 9f f6 c5 3e
       -0.15872762 0.32538506 -0.06669659 0.3866472
000300 c4 b9 aa 3c 41 74 61 be 47 00 23 bd 74 3b 11 3d
       0.020840533 -0.22017004 -0.039795186 0.03545709
000310 77 cb 48 be 13 44 e4 3c c8 79 e6 bb 96 22 cb 3c
       -0.19608866 0.027864492 -0.0070335604 0.024796765
000320 a9 55 21 be 5d 9e 11 be 07 99 02 3e cc 4e 81 3e
       -0.15755333 -0.14220567 0.12753688 0.2525543
000330 67 c7 97 3d 76 b9 88 be 09 f8 91 bd 7d bc bf bb
       0.0741108 -0.26703995 -0.07127387 -0.005851327
000340 a4 7b 85 3d 33 03 1b 3e 3c 19 0b 3d b8 dd ea 3d
       0.06517723 0.15137939 0.033959612 0.11468071
000350 d0 a1 19 3e 6e 2b aa 3d 02 94 39 be 1f d8 08 3c
       0.15003133 0.08309065 -0.18122867 0.0083523085
000360 12 e1 a3 be 2a e3 46 3e 33 f8 01 3e 4f a6 05 3c
       -0.32007653 0.19422594 0.12692337 0.008157327
000370 61 7e 57 3d bf 1c ae bd a7 22 30 bd 00 9b 05 3e
       0.05261076 -0.08501577 -0.043001797 0.13047409
000380 49 90 7b bd a7 c6 93 3e 36 f5 cb bd d5 34 23 3e
       -0.061416898 0.28862497 -0.0995888 0.15938123
000390 94 72 08 be a4 3a 55 bd 69 fe 0b 3d 58 cd a4 bd
       -0.13324958 -0.052057877 0.03417817 -0.08046979
0003a0 67 da bf 3d 05 39 05 3e 9b ad e8 bb da 9c 6b 3e
       0.09367829 0.13010032 -0.0071007735 0.23009053
0003b0 d8 c9 3a 3d 5b 56 c2 3c d0 34 8c 3d d7 2a b0 3d
       0.04560265 0.023722818 0.06846011 0.08601921
0003c0 44 f3 1c be 4f 34 40 3d fc 9c 6f 3d 10 2b 18 bd
       -0.15327173 0.046924885 0.05849932 -0.037150443
0003d0 f5 93 1e 3d 88 70 c6 bd ce 84 33 3e be f1 64 bd
       0.03871532 -0.096894324 0.1753113 -0.055894606
0003e0 58 35 c3 be 44 95 8b bd cd 42 23 3e 3c bb f5 3d
       -0.38126636 -0.068155795 0.15943451 0.11998603
0003f0 3b 08 55 3d d2 87 2e 3e f3 c8 8c 3d 81 bd ab bd
       0.052009802 0.17043999 0.068742655 -0.083857544

lin3.bias f4 [200]
000000 97 55 89 3e c5 21 66 be e2 6a 2d bd f6 c2 34 3c
       0.26823112 -0.2247382 -0.04233826 0.01103281
000010 c7 c1 ac bd 7d 35 21 3e 20 b9 c5 3c dd 6c bf 3d
       -0.084353976 0.1574306 0.024136126 0.09346936
000020 50 da 20 3e ae 63 51 3d 4c 58 b3 3e 39 2c 14 be
       0.1570828 0.051120453 0.35028303 -0.14469995
000030 a7 93 36 3e ea a9 8f be cb 54 d5 be 37 46 1a 3c
       0.17829762 -0.28059322 -0.41666254 0.009416155
000040 7a 78 2f bc 59 b3 3e bd fd 56 a0 be 4b 07 24 bc
       -0.010709876 -0.046557758 -0.31316367 -0.010011504
000050 d2 df 4e be 62 84 21 be c1 54 3d 3e 16 8a 6b be
       -0.20202568 -0.15773156 0.18489362 -0.23001894
000060 46 50 84 3e aa ec c1 3e 2e 3d ed 3d 9a e3 82 3c
       0.25842494 0.37875873 0.11583935 0.01597767
000070 ea d4 17 3e 0c 48 af bd 42 58 8d 3e 92 33 12 bd
       0.14827314 -0.08558664 0.27606398 -0.035693713
000080 52 cd 0e 3c a2 67 dc 3d 0b 77 1b be a6 a5 a1 bd
       0.008715944 0.10761954 -0.1518213 -0.07892923
000090 b8 bd d7 be 51 75 d2 be 6b 3d 97 3e c4 24 98 3e
       -0.4213693 -0.4110513 0.29539046 0.2971555
0000a0 9d 38 11 3e 2c 6c 0f 3e 48 95 b9 bc 66 da 05 3f
       0.14181753 0.14006108 -0.02265419 0.52286375
0000b0 24 50 c1 3e 39 1f 0d be a5 75 5f 3d 2a 61 8a 3e
       0.37756455 -0.13781442 0.054555554 0.27027255
0000c0 fb b8 94 be a6 b1 55 be ba ba 92 bd f0 8c db 3d
       -0.2904738 -0.20868549 -0.071645215 0.10720241
0000d0 95 17 5e 3e c0 da f9 bd 10 e5 99 bc 31 c3 08 bd
       0.21688683 -0.121999264 -0.018785983 -0.033389274
0000e0 1b 2b 6c be 95 fe 2c 3d 01 59 ab be e5 5a 7d be
       -0.23063318 0.042234976 -0.33466342 -0.24741705
0000f0 8c 8a 70 be 3e a2 38 be 8f 6e 5f be 0a 2f 0d bd
       -0.23490351 -0.1803064 -0.21819519 -0.034468688
000100 bc b8 d7 3e 80 56 11 bd 56 90 5e 3d cc a3 68 3e
       0.4213313 -0.035482883 0.05433687 0.22718734
000110 f5 d1 99 3d 53 53 7b be cc 2e 84 be 8e e8 5f be
       0.07510749 -0.24543504 -0.25816953 -0.21866056
000120 f9 f9 98 3d 61 b1 96 bd af cd 9c 3e d6 8d b2 3e
       0.074695535 -0.07358051 0.30625674 0.34873837
000130 20 f4 5a 3e 2d 12 56 bb be e3 16 be 92 ad 96 3c
       0.21382189 -0.0032664642 -0.14735314 0.018393312
000140 84 da 33 be 01 81 96 3e 5c b2 89 be 29 a8 00 be
       -0.17563826 0.29395297 -0.2689389 -0.12564148
000150 e6 d6 06 3d 42 40 d2 bd fb cc 8d 3e f3 e7 b7 bd
       0.032919787 -0.102661625 0.2769545 -0.08979788
000160 d9 5e d4 3d 8d 26 92 3b b8 f6 9b be da 1b 34 3d
       0.10369653 0.004460162 -0.3046167 0.043971874
000170 87 70 27 3e 3e ad 45 be 2b 7a 12 3e 87 7a 12 3e
       0.1635152 -0.19304368 0.14304416 0.14304553
000180 a8 4f 83 be 0e c4 1b be 63 71 09 3e e4 df 66 bc
       -0.2564671 -0.15211508 0.1342216 -0.014091466
000190 ac af 46 be 87 91 9e bd 2c 7d 0f be 7a d5 2c be
       -0.19402951 -0.07742601 -0.14012593 -0.1687831
0001a0 ac 77 66 bd bc 2b 8e 3d d0 f9 ce 3e ff b8 82 3e
       -0.05626647 0.069419354 0.40424967 0.25531766
0001b0 98 81 66 3e d7 34 38 be d2 0b 36 be 89 c4 7c 3c
       0.22510374 -0.17988907 -0.17777947 0.015427717
0001c0 92 e6 60 3e f6 db 89 be 4a cb ba bd c2 05 5e 3e
       0.21962956 -0.2692563 -0.091208056 0.21681884
0001d0 4f 38 0b be 95 da ff 3d 55 af cd bd 27 83 79 be
       -0.13595699 0.12492863 -0.100432076 -0.24366437
0001e0 57 18 1f bd b0 56 66 3d 6a 80 d4 3d 43 0e 25 3e
       -0.03884157 0.056235015 0.103760555 0.16118722
0001f0 b3 d6 87 3d 79 ac 7f be 20 c9 40 3d ef 7e 59 3e
       0.066327475 -0.24968137 0.047066808 0.21239828
000200 cb 8a 8e 3d c0 e5 a0 bd 1e 49 51 be a4 41 2b be
       0.069600664 -0.07856321 -0.20438048 -0.16724259
000210 5d 40 81 be 09 88 02 be d4 01 8f 3d 7c a1 bc bd
       -0.25244418 -0.12747206 0.069827706 -0.09210488
000220 30 9e 0b be eb 3a cd 3d ad 68 59 bd df c0 33 be
       -0.13634562 0.10021003 -0.053078342 -0.17554043
000230 be 5c cf 3d 27 ce 85 3e b6 18 d3 bd 28 64 9c 3e
       0.10125111 0.26133844 -0.103074476 0.30545163
000240 83 99 6c 3e e8 1d 98 bd a2 b1 95 bd 2c a1 60 be
       0.23105435 -0.07427579 -0.073092714 -0.21936482
000250 41 0e 89 3c d3 fa 93 3d ec bf 01 be fd c4 11 bb
       0.01673043 0.07225575 -0.12670869 -0.0022242658
000260 e5 90 48 3c 5d 7d e4 3d 0d c5 77 3e 4f 18 85 3e
       0.012241577 0.11156724 0.24196263 0.25995108
000270 04 2b 9e bd 9c 3c a0 be 8a 97 c3 3b 21 d1 2f be
       -0.07723048 -0.3129624 0.0059689926 -0.1716962
000280 0b 67 8c be 22 2b 99 bd f3 4e c6 bd 93 be ae bd
       -0.27422366 -0.0747893 -0.09683027 -0.08532443
000290 53 61 32 3e 09 26 03 3c 8c b2 ba 3d b3 46 97 be
       0.17419939 0.008004674 0.09116086 -0.29546127
0002a0 e1 99 dd 3c 48 f0 3e 3e a5 4b 14 be 10 29 9a 3d
       0.027050914 0.18646348 -0.14481981 0.07527363
0002b0 23 7f 01 3e 01 10 6d be 69 35 67 3e 89 e8 23 3d
       0.12646155 -0.23150636 0.22578968 0.040016685
0002c0 01 1c 12 be 90 86 d0 3e 44 d3 57 be bf cd 03 be
       -0.14268495 0.40727663 -0.21076685 -0.12871455
0002d0 cb 05 2e bc 84 38 d7 bd 12 59 06 bd 25 c7 54 be
       -0.010621498 -0.105088264 -0.032799788 -0.20779093
0002e0 60 8d 61 3e 2a 68 45 be 7d 7d 79 bc fa 8d 68 be
       0.22026587 -0.19278017 -0.015227673 -0.2271041
0002f0 b2 3e 0b 3d c4 1f 7a be 9e a8 94 be 6b 82 01 bd
       0.033995338 -0.2442618 -0.29034895 -0.031618517
000300 0c 43 38 3e 4d b8 11 be 22 70 8c be bd e5 76 be
       0.17994326 -0.14230461 -0.274293 -0.24111076
000310 fb b6 98 3e 47 41 06 be 18 aa 92 bd 0a 66 70 3e
       0.29827103 -0.13110839 -0.07161349 0.23476425
