qn1/weights/model_weights_b15_em2.pth (torch, 399845 bytes, 9 tensors)

emb.weight f4 [62, 2]
00000000: e696 d8be 69a4 b03f 3cce 3c3d aa3f 3abc
00000010: 22e2 1dbf 375e 44be fc0b 0fbf 8306 d2bf
00000020: bf2a 25bf a046 0ebf e699 9a3f 67b1 a73e
00000030: d65d 583e 9ad9 57bf e12e 0abf 0040 21bf
00000040: 4cfe 25bf 3274 1bbf 3aed 2abf 73b4 d0bc
00000050: 2f47 89bf 293a d2be ebed dbbf 2aa2 ad3f
00000060: 952b c8be 75de 6f3f 5d8e 62bf adb5 3abf
00000070: f2e4 7bbf 09ad 6cbe 2a0a fcbe a0ce c23d
00000080: ae39 52bf 2127 5f3d b47f 033e ea34 bfbf
00000090: 788e 1cbf 12d3 50be 5aa8 48bf 369a 083e
000000a0: 5087 4bbf 0342 a03f c255 7bbc cadf 883f
000000b0: 2455 233e 2f48 92bf a0ef f33c 45c3 3b3f
000000c0: f641 013d 8ed6 e5be e021 7fbf 72a2 e83d
000000d0: 9020 28bf 4106 84be 048b 1abd d369 ccbf
000000e0: 29eb 61bf 81dc dd3d 407c 95bf f7f7 4c3e
000000f0: 61aa 013f 44b5 00be cd40 103e 7994 40be
00000100: 2153 1b3f 9827 febd 8803 35bf fcea 533d
00000110: 02a9 49bf ffee 133d 13f4 50bf eac5 7dbf
00000120: ccf3 9bbe 24c5 0dbe 3115 a63f 179b 29bf
00000130: 419c e1bf 56eb 153d 4b23 2abf f39a 383f
00000140: 3442 573f 71ed d43d cee6 d03e 1ca8 9bbe
00000150: 36ff 0a3f 41f4 19bf d098 663f b77b eabf
00000160: 7f95 e73f 8020 eb3e ae2d 483f 956c fdbe
00000170: 2a27 933e 1c8d 9b3e b83d 513e 5609 223f
00000180: 32d2 08bf cab7 943e b3db bd3e 57cc 953f
00000190: 5bdb 8bbe dce2 053f 255d 463f 79f9 7fbf
000001a0: b20b 12bf 2e78 77bf e895 a1bf 0e26 a0bf
000001b0: 9bad 13be 5c84 46bf b6cf 87bf f6f5 3a3f
000001c0: c296 8f3f 3de2 383f 5b33 293f 2c7c 543f
000001d0: 7997 083f 1c01 df3e d3c2 e73e 2ccd 613f
000001e0: 57d1 d23e 2ad9 923d e2af 253f e173 0c3f
-0.42302626 1.3800174 0.046095118 -0.011367718 -0.61673176 -0.19176565 -0.5587766 -1.6408237
-0.6451835 -0.55576515 1.2078216 0.32752535 0.21129546 -0.8431641 -0.5397778 -0.6298828
-0.6484115 -0.60724175 -0.6676823 -0.02547667 -1.0724849 -0.41059998 -1.7181982 1.3565114
-0.3909575 0.9369882 -0.8849848 -0.72933465 -0.9839622 -0.23112883 -0.49226505 0.09512067
-0.8211926 0.054480676 0.12841684 -1.4938023 -0.6115489 -0.20393017 -0.78381884 0.13340077
-0.79503345 1.2520145 -0.0153402705 1.0693295 0.15950447 -1.1428279 0.029777348 0.7334483
0.031557046 -0.44890255 -0.99661064 0.11359109 -0.65674686 -0.2578602 -0.037730232 -1.5969795
-0.8824945 0.108330734 -1.1678543 0.20016466 0.506506 -0.12569147 0.1408722 -0.18806638
0.6067372 -0.12409896 -0.70708513 0.05173777 -0.7877351 0.036116596 -0.8162243 -0.9913012
-0.3045944 -0.13844734 1.2975217 -0.66252273 -1.762581 0.036601387 -0.664601 0.72111434
0.8408539 0.10396851 0.4080109 -0.30401695 0.5429567 -0.60138327 0.90076923 -1.8319005
1.8092498 0.45923233 0.781947 -0.49496904 0.28740817 0.30381095 0.204337 0.63295496
-0.5344573 0.2904647 0.3708168 1.1702985 -0.27315792 0.52299285 0.7748588 -0.9999004
-0.57049096 -0.96667755 -1.2623873 -1.2511613 -0.14421694 -0.77545714 -1.0610263 0.73031557
1.1217883 0.7222021 0.6609399 0.8300197 0.5335613 0.43555534 0.45265827 0.8820369
0.4117534 0.07170327 0.647215 0.5486432

lin1.weight f4 [200, 30]
00000000: 1c2f 11be 72be 063e f8bd 993e ac9c a8bd
00000010: 39d9 843e 7f88 86be c5c0 0dbe 940c 0f3e
00000020: 306b 0abd 9b6d 97be fac5 f03d b5a8 cd3d
00000030: 13a6 debc c4d9 b2bd ac4c a0bd 0a06 f7bd
00000040: 1cdc e13d 1280 8bbd 14fb 6a3e 9743 0d3e
00000050: f50e 9a3e 4827 42be 5826 163e c4ac 8cbe
00000060: 8136 e83e 28a3 073f 4d5c a73e 8458 56bd
00000070: ee3d ce3e 5143 bdbd ee5e 4ebd e1e8 23be
00000080: 7c73 85be 6e3c 3fbe 7f37 56be 3b41 b13e
00000090: 9fd1 913e 06e5 133e b1c6 843e 0ed4 35be
000000a0: 78be 1d3e 0312 15be 8f1a 263e 19d5 00bd
000000b0: 68f5 983e cf6d b3bc 7a7c a43d 05ef d1bc
000000c0: 3e71 efbe 0331 533c 4403 5a3e b46f 0e3e
000000d0: e42f 293e 8558 18be 1dcd 2b3e 2055 3a3e
000000e0: 814a 05bf cfe0 c9be d88e c23e 056e a5be
000000f0: 3272 df3e bee9 50be 448f e63d b510 033c
00000100: 5082 33be 5f9d d3bd 606d e2bd 3866 2aba
00000110: cbcb bcbd 2516 b23e f95a c5bd a161 d83d
00000120: 944a e6bc db6c 2a3d 47ef 78bc 86e8 2dbe
00000130: 4e41 973e c04d 93bd c52b 53bd 381d bf3c
00000140: b421 0d3f 24d4 09be b758 69bf 4065 bcbc
00000150: 01da 38bd 3897 25bf 6ca6 de3d 001a c8bd
00000160: 2a5f 943e e7fd 9abe 9d32 f73e 2f03 d23d
00000170: 81d6 a5be a9eb 60be 81aa 31bb 80ab 50be
00000180: 567d 333d 1a33 ffbc 67ab 79bd d24f adba
00000190: 63fb 0b3e 760a 34bd 0c02 c53d eca7 6bbe
000001a0: ccd9 ffbd 1dae aebd c960 86be dd7e 233d
000001b0: f2c7 a13d 96c3 f0be b4e1 993d 2daf f1bd
000001c0: 62de 333e ff70 81be 7ce1 c2be 1577 d2be
000001d0: e32d e13c 5498 813d c2d1 353f 001c d13e
000001e0: 0587 b5bd 1379 8ebe 8302 90bc f300 19bd
000001f0: 2f37 96bd 5f2c 2e3e 5b52 17bd a73f 7cbe
00000200: 4058 9cbd 3a04 8bbe eb0a 98be 36dd 84bb
00000210: ea7a a0bc 51d0 1abe dd7f 9d3e d2f1 f0be
00000220: 94d3 c43e 6b80 8d3d a10d 0cbb 410b 193f
00000230: 4399 c0be d0d6 063f a8fc aebe 1ead a9be
00000240: 8ba7 fdbe cd53 993e ea13 8f3e c127 22bf
00000250: 3f72 0cbf 10f1 edbe c406 43be ee9d 113d
00000260: d92d 33bb 584f 8bbd e69e bfbd 4e1b c63d
00000270: 01b0 d8bd d9d7 eebc 9fdb c83d 2e29 c6bd
00000280: 5beb 143e 1864 b5bb 95a8 e3bd 4f25 ed3c
00000290: d695 a9bd 2ba6 0cbe 03c3 313e 48d1 c63c
000002a0: 058e febd c012 3abd d0cb a23e 85f3 98bd
000002b0: 6376 c53e 78e8 87be 318f 7fbe ca0c 6f3e
000002c0: ce8b 583e 4eea 7b3e 73a4 c23e 6951 db3e
000002d0: a0cd 463e 5628 24be af7a 53be c453 1a3e
000002e0: f3e4 1c3e 1b6f 19bd 7833 873b e258 85be
000002f0: 66f1 17be c9a2 123e 0966 be3e 9efc 1fbd
00000300: fe52 a0bd 5807 8a3c 6f37 fd3b d4a2 a33d
00000310: 83ee 813e 30d2 90bd 546f c2bb 8164 413e
00000320: 5e8c 25be e903 dabb e6b0 2a3d 5a81 e43e
00000330: a917 e03d e795 aabe 1a05 9c3d f2a6 203f
00000340: 724a e4be 6b9e 57be e1d8 663e 3740 903e
00000350: c540 60bd 138e 39bd 33a9 cdbe 4c1b 91be
00000360: 4770 d4bc fbb3 97bc 4ec6 143e 2eb6 2dbc
00000370: 6d34 84be b656 a8bd 5096 a5bd 6a62 efbd
00000380: 2210 13bd 0b18 50bd 85ba b83d 1273 3bbe
00000390: be4a 933d 62ff 3bbe bdd8 fd3d a874 423e
000003a0: 62be 28be 0d09 e63c e30c 51bd 3e24 80be
000003b0: c706 993e f692 debd ed8a 3abf 61be 0cbe
000003c0: f385 a0bd 8bfa 29be 0e97 10be a044 88bd
000003d0: e4e9 d5bd c9a3 303e 00df a0bd 4858 4a3e
000003e0: 4097 3dbc 2794 8e3c f97a 94bd ef1a 313e
000003f0: 3852 83bd b4c7 e7bd 6392 10bc 0f2e 5ebe
-0.14178127 0.13158587 0.30027747 -0.08233008 0.25946978 -0.26276013 -0.13843067 0.13969642
-0.03379363 -0.2957581 0.11756511 0.10041944 -0.0271788 -0.08732942 -0.07827124 -0.12061699
0.11028311 -0.06811537 0.22947341 0.13795315 0.30089536 -0.18960297 0.14663064 -0.2747556
0.45354083 0.5298333 0.32687607 -0.05233051 0.40281624 -0.09241355 -0.0503835 -0.16006805
-0.2606467 -0.18675396 -0.20919608 0.3462008 0.2848024 0.14442834 0.2593284 -0.17756674
0.1540469 -0.14557652 0.16221069 -0.031453226 0.2987473 -0.021902947 0.080315545 -0.025626669
-0.46766084 0.012890103 0.21290308 0.13909799 0.16522175 -0.14877518 0.16777463 0.18196535
-0.5206681 -0.39429328 0.37999606 -0.323105 0.43641812 -0.20401666 0.112577945 0.007999589
-0.17530179 -0.103327505 -0.11056018 -0.0006500217 -0.09218558 0.3478252 -0.09636492 0.10565496
-0.028111733 0.04160772 -0.015193767 -0.16983232 0.2954201 -0.07192564 -0.051555414 0.023329362
0.5512955 -0.13459831 -0.91150993 -0.022997499 -0.04512978 -0.64683867 0.10871586 -0.09770584
0.28978854 -0.30271837 0.48280802 0.102545135 -0.32390216 -0.21964897 -0.0027109685 -0.20377922
0.0438207 -0.031152297 -0.060954478 -0.0013222641 0.13670115 -0.04395529 0.09619531 -0.23013276
-0.12492713 -0.08529303 -0.26245716 0.039915908 0.07899465 -0.4702422 0.075137526 -0.1180099
0.17565301 -0.25281522 -0.38062656 -0.41106477 0.0274877 0.063278824 0.7102319 0.40841675
-0.088636436 -0.27826747 -0.017579323 -0.03735442 -0.07334744 0.17009114 -0.036943775 -0.24633656
-0.0763402 -0.27151662 -0.2969583 -0.0040546907 -0.01958986 -0.15118529 0.30761614 -0.47059494
0.3844267 0.069092594 -0.0021370428 0.597828 -0.3761693 0.5267153 -0.34177136 -0.3313989
-0.49541888 0.29946747 0.2794488 -0.6334191 -0.54861826 -0.4647298 -0.1904555 0.035551004
-0.002734056 -0.06802243 -0.09356479 0.09673177 -0.10580445 -0.029155659 0.098075144 -0.09675823
0.14542906 -0.0055356137 -0.11116139 0.028948454 -0.08280532 -0.13735263 0.17359547 0.024269715
-0.12429432 -0.045428038 0.31796122 -0.07468323 0.38566884 -0.26544547 -0.24956967 0.23344722
0.21147081 0.24601099 0.3801609 0.4283555 0.19414377 -0.16031012 -0.20652269 0.15071017
0.15321712 -0.037459474 0.0041260086 -0.26044375 -0.1483818 0.1431991 0.37187222 -0.039059274
-0.078283295 0.016849205 0.0077275555 0.079900414 0.25377283 -0.0707134 -0.0059336815 0.18885995
-0.16166827 -0.006653298 0.04167261 0.44629937 0.10942013 -0.3331749 0.076181605 0.6275474
-0.44588047 -0.21056525 0.2254367 0.28173992 -0.05474927 -0.04530151 -0.4016815 -0.28341138
-0.025932444 -0.018518439 0.14528772 -0.010602517 -0.25821248 -0.08219664 -0.080853105 -0.11688693
-0.035904057 -0.05080418 0.09019951 -0.18305615 0.0719199 -0.1835914 0.12394855 0.18989813
-0.16478875 0.028080488 -0.05103768 -0.2502765 0.29887983 -0.10867874 -0.72868234 -0.13744499
-0.07838049 -0.16599481 -0.14120123 -0.06653714 -0.10445002 0.17249979 -0.07855034 0.19760239
-0.011571705 0.017404629 -0.07250018 0.1729543 -0.06412166 -0.11317387 -0.008823964 -0.21697257

lin1.bias f4 [200]
00000000: 04f4 b3be 911c 2dbe d12c 18bf 0ffb af3d
00000010: bf63 11bf d947 3cbd f754 66bd a94a 863d
00000020: 46d2 e13c dd99 a33e 7677 b5bd 5a6d 2dbe
00000030: 6ab6 423e 3a30 81be c6ff fe3e 1770 a6bc
00000040: 89ab ed3e 0a70 92be 93de 8d3e 1d47 df3e
00000050: bf2f 09bf d6e0 97be 71f8 37be 8f36 c13d
00000060: dd68 abbe 7d44 103e 9ffb 223f 9b28 59bc
00000070: 4135 063e be9b 043e 7bee eebe 916a d8be
00000080: 3341 72be e68c 9d3c 2422 1a3f 44bf c93e
00000090: c512 fbbd b500 d3be 876f 97be 1724 543e
000000a0: 5980 2a3f 1be3 f6be 6182 93be 0202 65be
000000b0: 52f7 e73e b32e 15be 6eca e73d 888c c33e
000000c0: 2c25 573e e16a c3be 0fe7 fe3e 61a2 a5be
000000d0: f98c 553e 4778 073c 16d2 c93e 0964 bd3e
000000e0: b000 dbbd 8044 b63d 7e2a 56bf c1e6 053e
000000f0: 8922 28be ffd9 fcbe 939a a9be 8cfc cb3d
00000100: c982 223e 3d6c 1fbf e1f8 093e e19e e53e
00000110: a076 d7be ba9e 9f3e 0ba7 5ebe b083 4d3f
00000120: fe49 823d ffac 243e 3fef 82bd 8773 dabe
00000130: 7855 873d 35de a7be 2ff9 233c 8f80 af3e
00000140: d2e9 cbb9 ea1c 2c3e 5aee cdbd f2b4 ad3e
00000150: 6067 93bc 239b 73be 67fe 113f 214d a73e
00000160: 076b 973d 4b3a dbbe 4e66 3fbf cd24 2fbf
00000170: c2e2 3aba c855 c43c 429b f0bc 12a4 8ebc
00000180: bfbc 80bf d9bd 0cbf c88f 663d 987c 44be
00000190: cf13 f7be 78f7 073e e4d3 cdbd 8d6f c4bb
000001a0: e2f7 4b3e 3e46 c5be efbc bebe 9ce9 8f3e
000001b0: 730b 84be 29b3 573d 8bb9 81be 6386 40bd
000001c0: 417d 76be e636 d03d eb3e 1ebf d347 68be
000001d0: 0999 d83e 27d5 663e 43e0 debe ad1b 34be
000001e0: 4e64 403e 099a 773e 31be 1d3e f6c7 57be
000001f0: 91a3 6abd 2ac5 173f 23ae aebe 1bb8 80bd
00000200: 77ff b73e e101 2cbe f061 61bd d8c5 c6bd
00000210: 6e7a 183f f48c ebbd fcff 54be 159a fd3d
00000220: 2d33 113e fa83 94be eb55 2abe 5473 863e
00000230: 7c60 03bf d3de 023f 9abe 09be 2c3d f23d
00000240: 5f3e a7be d5f6 8cbd a8d7 443e 599b 90be
00000250: f038 953e 246e 01bc e8f5 d73d 667f a6be
00000260: 323f 96be a4f4 bb3c c3a1 693d 1318 72be
00000270: a2a1 273f d943 ebbd 8913 85be 0df3 6fbe
00000280: d6e0 00bd 028a 593d a463 e13e 166f 443d
00000290: 52d4 6ebe bf36 73be 2bfe 263e 31e9 b3be
000002a0: a5ad 53bd 13df bbbe 4388 70be 9de7 d8bd
000002b0: a054 ac3e cc88 8abe 6b6d 343d c066 13bf
000002c0: 0fee 26bf 468d 06be 77ee b2be 454a 893e
000002d0: 1d59 7fbe 6383 86be 5b4a ba3d ff3a a13e
000002e0: 1223 02be 1a1e d7bd 31e2 4d3e ec1c 93be
000002f0: 8310 db3e 4f70 99be 7115 0ebf a8ed fbbd
00000300: c468 6abe 9c6d 56be 0132 a6be d047 863d
00000310: 149c 073f 586c de3e fe34 ad3c d0f4 93bd
-0.35147107 -0.16905428 -0.59443384 0.085928075 -0.56792825 -0.045966957 -0.056233373 0.06557209
0.027566087 0.31953326 -0.08860676 -0.16936246 0.19014898 -0.25232106 0.49804515 -0.02031712
0.46419933 -0.28601104 0.27708873 0.43608943 -0.5358848 -0.29663724 -0.17965867 0.09434234
-0.33478442 0.14088626 0.63665193 -0.01325431 0.13106252 0.12950036 -0.4666632 -0.42268804
-0.23657684 0.019232225 0.60208344 0.39403737 -0.122594394 -0.41211477 -0.29577276 0.20716892
0.66602093 -0.48220143 -0.2881041 -0.22364047 0.45305878 -0.14568596 0.11317907 0.38193154
0.21010274 -0.3816748 0.4978566 -0.32350448 0.20854558 0.008268422 0.39418095 0.36990383
-0.106934905 0.08899784 -0.8365859 0.13076307 -0.16419424 -0.49385068 -0.33125743 0.09960279
0.15870203 -0.62274534 0.13473846 0.44847777 -0.4208269 0.31175786 -0.2174341 0.80279064
0.06361769 0.16081618 -0.06393289 -0.42666265 0.06608099 -0.32786718 0.0100081405 0.3427777
-0.00038893387 0.16807905 -0.100552276 0.33927113 -0.017993629 -0.23789649 0.5702881 0.32676032
0.07393461 -0.42817912 -0.7476548 -0.6841553 -0.00071291265 0.023966685 -0.029370908 -0.01741222
-1.0057601 -0.54977185 0.056289464 -0.19188154 -0.482573 0.13277996 -0.100501806 -0.005994743
0.19918779 -0.38530153 -0.3725352 0.28107917 -0.25789985 0.052661095 -0.2533687 -0.04700316
-0.24071218 0.10166721 -0.61814755 -0.22683649 0.42304257 0.22542249 -0.43530473 -0.17588682
0.18788263 0.24179853 0.15404584 -0.21072373 -0.057284895 0.59285223 -0.3411723 -0.06285115
0.35937092 -0.16797592 -0.05502504 -0.097057045 0.5956181 -0.11501494 -0.20800775 0.123829044
0.14179678 -0.2900694 -0.16634338 0.26259863 -0.513191 0.5112125 -0.13451615 0.11828074
-0.32664773 -0.06883017 0.19222891 -0.2824352 0.29145002 -0.007899795 0.1054495 -0.32519072
-0.2934509 0.022943802 0.057039034 -0.23641996 0.6548101 -0.1148755 -0.25991467 -0.2343256
-0.03146442 0.05311013 0.44021332 0.047957502 -0.23323181 -0.23751353 0.16307895 -0.35138848
-0.051679272 -0.3669363 -0.2348948 -0.10591052 0.33658314 -0.27057493 0.04404966 -0.5757866
-0.65207 -0.13139829 -0.3494756 0.26814476 -0.24936338 -0.26272115 0.090962134 0.31490323
-0.12708691 -0.10503788 0.20105816 -0.28733003 0.42786035 -0.29968497 -0.55501467 -0.12301189
-0.22891527 -0.2094025 -0.32460025 0.06556666 0.5297253 0.43442035 0.021143433 -0.07224429

lin2.weight f4 [200, 200]
00000000: 6d08 343e f6c3 23be 45e1 65be 6132 64be
00000010: 5069 be3b fa22 5cbe a512 d23d 99c7 993d
00000020: 4f73 4fbe e113 063d 6851 44be 6874 61be
00000030: 4d89 e5bc 2d10 6cbd 63fd 5d3d c6af 56be
00000040: ebe1 7c3d cd2c 01be a5f3 0dbe dff2 a83d
00000050: 27e6 aabc 164f 1b3e fd93 973d 15a5 aa3d
00000060: 14e8 433d 043c c4bc 4531 03be f24c 84be
00000070: 435c a43d 7e72 ac3e 0186 4a3e bc33 27be
00000080: 536a cdbc 89c3 aebe 2923 81bd d286 e33c
00000090: 7473 ba3d aae1 11bd 89b8 1fbe 421b efbd
000000a0: 8b5a abbd 2d9d 34be b9e6 a7bd 57c0 673e
000000b0: f0fc 14bc e9cd 26bd 3735 c53c 9446 9dbd
000000c0: 7d0e 403d 9efd 00be a53f 113e cc7c 9ebd
000000d0: 3c41 b43d 6164 4fbe b2f7 453d f817 1dbe
000000e0: 375b 1abe e727 cabd 7ae5 54be 5c65 74bd
000000f0: de10 9a3e 86f4 0c3e 0362 bdbd df41 b7bc
00000100: 507d b5bd b64e f13a a197 9e3b 507b 81be
00000110: f701 c9bd ec2f b83c 25ba 073e 4d94 ccbd
00000120: 225d df3e 8e23 593d 5637 033e c786 3d3d
00000130: 340a a3bd 8b19 e5bd f43a 60bc ed8f babd
00000140: 8203 7bbc 625e 173e bb54 ee3c 0aa8 f9bd
00000150: 3e0f 2e3c a724 a03d 97ab bd3d dde7 ec3d
00000160: 052f aebc 2605 d33d ab5d 8e3d d3ab 1d3e
00000170: 6746 803d 6fee 523d d310 1d3e d3bd b93b
00000180: 0f11 18bd d96a f5bb 4044 4d3d 73ee a2bd
00000190: 3a89 923d e149 65bd 2b5d 643e 1b95 93be
000001a0: bc8d a23d f3fd 8ebd 9637 cdbc 3cc6 79bc
000001b0: d2d1 893d d070 1fbc 756e abbb b6f3 01be
000001c0: acaa 6b3e b0cb 9b3d b64f 8b3d ac8d e4bd
000001d0: 3f98 783d d11e 2dbe f935 abbc 7388 cd3c
000001e0: ffdc 293d d4bd 02be e96e fbbe 6dc8 7fbe
000001f0: e53e 83be 2a31 25bc 91ab 293d 765f 0abe
00000200: fd85 d4bd df05 1d3e 2e6e 9f3e 8bf2 b0be
00000210: a561 69bc 8170 983e 7933 923d 29b5 33be
00000220: 8173 a13c 0a77 66bd 174b 1cbe 1715 84be
00000230: 0198 2fbd d1b7 1abe 0922 10bc 37ad 2e3e
00000240: 48bd 4e3e 54a6 58be 169c 163d 2e95 6d3e
00000250: 7e33 883d 34ce aa3d 26a4 3abe 8969 7e3d
00000260: 1491 833d cb8f 05bd 7085 6bbd 5f75 f33d
00000270: 817f eb3d 7ddb e1bd 71e8 17be d563 c4bc
00000280: 33fe 54bd f607 293e e3e1 cdbc 4ad4 babd
00000290: f642 80be 78c5 db3d 8200 78bd bab1 3cbd
000002a0: 990f 06be b239 093e 3ff8 173e 5876 07be
000002b0: d9e6 51bd 0180 27bc bf1f 463e 041d 363b
000002c0: f0d6 083e ea5a 133e 54e1 32bd 1831 99be
000002d0: 5614 1dbe 8ac4 20be 400b 2c3d e57b 203e
000002e0: df87 eebd 4fc6 393e 2fde 27be 7f81 c4bd
000002f0: 659c a83c f7d2 8d3d 184a 8c3d 8a1f 8e3e
00000300: 94e5 6c3d dd3d dc3c f980 00be ca6a f7bd
00000310: a581 a43d 74fe c63c 141c 5abe bbad 473d
00000320: 19cb 3e3d 82e6 c3bd bfe1 83be 2747 24be
00000330: d3e5 40be e572 313e 6e3e 76bb 02d8 f93c
00000340: 47ce 543e a4f3 d5bd 2d0a fcbd 4a6b d63e
00000350: d167 35bd bf8f 7abd a67e 5fbc 25a5 66be
00000360: 8c14 113e e732 1a3e eae1 73bd d042 cabd
00000370: 6b58 1abe 4467 973e fd94 cebe 1adc 863d
00000380: a623 1f3e 3e03 b1bd 2f0d 8abd 5903 53be
00000390: e27e 88bd 84d6 613e f87f c63b 7263 033d
000003a0: 821f 62bd fbda fe3b 1e32 933d bc67 a73e
000003b0: 1118 0c3d 04cc 56bd cec7 9bbd 09d8 103f
000003c0: 87e8 f3bc cb63 05be 0f95 493e 2319 c0bd
000003d0: 72bd a43b dbd0 47be e05e e2bc f563 3e3d
000003e0: e1c3 be3d 6df9 1cbe 1a21 4d3d 83d4 85be
000003f0: 48a1 f63d 2cab aa3e ff93 183e 469a 283d
0.17581339 -0.15992722 -0.22449215 -0.22284843 0.005810894 -0.21497717 0.102574624 0.07508773
-0.2025883 0.0327338 -0.19171679 -0.22017062 -0.028019572 -0.057632614 0.054196727 -0.2096549
0.06173889 -0.12614746 -0.13862474 0.08249449 -0.020861698 0.15166888 0.074012734 0.08332268
0.04782875 -0.023954399 -0.12811764 -0.25839955 0.0802541 0.336811 0.19777681 -0.16328329
-0.025075113 -0.34133556 -0.063055344 0.027774248 0.09104052 -0.0356156 -0.15597738 -0.11675121
-0.08366879 -0.17638083 -0.08198304 0.22631966 -0.009093508 -0.040723715 0.024073226 -0.07679477
0.046888817 -0.12596747 0.14184435 -0.07738647 0.08801505 -0.20253135 0.048331924 -0.15341175
-0.15073858 -0.09870892 -0.20790663 -0.059666976 0.30090994 0.13765153 -0.0924721 -0.022370277
-0.08861792 0.0018410299 0.004839853 -0.25289392 -0.09814828 0.022483788 0.13254602 -0.09989224
0.43625742 0.053012423 0.12814078 0.04627111 -0.079609305 -0.111865126 -0.0136859305 -0.09109483
-0.015320661 0.14782098 0.029093137 -0.12190254 0.010623751 0.07819491 0.09261244 0.11567662
-0.021262655 0.10303716 0.069514595 0.15397577 0.06263428 0.05149692 0.15338449 0.0056683808
-0.037125643 -0.007489544 0.050113916 -0.07955637 0.0715508 -0.05597866 0.22301166 -0.28824696
0.0793719 -0.06982031 -0.02505092 -0.015245017 0.06729473 -0.009731486 -0.0052316734 -0.12690625
0.23014325 0.0760721 0.06802313 -0.11159834 0.06069207 -0.16906287 -0.02089976 0.025089478
0.041470524 -0.12767726 -0.49108055 -0.249788 -0.25633922 -0.010082522 0.041423384 -0.13512978
-0.10377119 0.15334271 0.31138748 -0.34560046 -0.014244472 0.29773334 0.07138724 -0.17549576
0.019708397 -0.05626587 -0.1526302 -0.2579734 -0.04286957 -0.15109183 -0.008797177 0.17058264
0.20189393 -0.21157199 0.03676995 0.23201439 0.06650446 0.083401114 -0.1822668 0.062112365
0.06424156 -0.032607835 -0.057500303 0.11887621 0.11498929 -0.11028192 -0.14834763 -0.023973385
-0.052000236 0.16506943 -0.025132125 -0.09122522 -0.25051087 0.107310236 -0.06054736 -0.04606793
-0.13091888 0.13400915 0.14840792 -0.13228738 -0.051245544 -0.01022339 0.19348048 0.002778829
0.13363242 0.1439015 -0.04367192 -0.29920268 -0.15339789 -0.15699974 0.042002916 0.15672262
-0.11647009 0.18142055 -0.1639335 -0.09595012 0.020582387 0.06925004 0.0685007 0.27758437
0.05783613 0.026884967 -0.12549199 -0.12080915 0.0803254 0.024291255 -0.21299773 0.048749667
0.046580408 -0.0956545 -0.25758168 -0.16042767 -0.18837671 0.17328985 -0.0037573832 0.030498508
0.20781814 -0.104468614 -0.123066284 0.4187873 -0.04428846 -0.061172243 -0.013641035 -0.22523935
0.14167994 0.1505848 -0.05954162 -0.09876025 -0.15072791 0.29570973 -0.40348044 0.0658495
0.15540943 -0.086431965 -0.06740796 -0.20606746 -0.06664826 0.22054487 0.0060577355 0.03207726
-0.05520583 0.0077775693 0.071872935 0.3269633 0.03420264 -0.05244066 -0.07606469 0.56579643
-0.029773964 -0.13026349 0.19685768 -0.093797944 0.0050274665 -0.19513266 -0.02763313 0.046482045
0.09314705 -0.15329523 0.050080396 -0.26138696 0.12042481 0.3333372 0.14900206 0.04116275

lin2.bias f4 [200]
00000000: 941a 0e3f bbef 983e 975f 733e bb49 aebd
00000010: 98d3 48be 8632 3c3e e912 5e3d 9f31 21bf
00000020: 1980 33be 8e9d 573e 8f61 a8be b122 323e
00000030: f8b4 9ebe 119c 053e b5bc cc3e d0b9 bd3e
00000040: f5c8 193e 0d90 46bd c44a 27be 3a3e 5dbd
00000050: f327 50bd b99b 9ebc 164d c83e 37b2 03be
00000060: 7961 a53c cfff 1dbe dd8e 573e 1033 58bd
00000070: ebe0 843d a2ad a8be 6e72 263e 0988 cf3d
00000080: e986 b0be 76a0 0cbe 5cd5 06bd aa74 df3c
00000090: 3231 d6bc 454e 62be 65f3 913e e0cd 7b3c
000000a0: b825 fb3d b90b 763d bc0b ce3e a229 0bbc
000000b0: b351 e83d 350a 90be d17f 623e 0036 b1be
000000c0: 7675 85be 8010 753e c8b2 a1be 2729 86be
000000d0: 4dca d63d 03b7 ab3d 6df3 04bf c181 143f
000000e0: 7c2b cebe b945 5c3e 5927 28be 545c 2a3e
000000f0: 8ab4 463e 4ac7 113f 7b0a 10bd 5113 7abe
00000100: 242c 023f 1a9e 3e3d 3576 c03e 7d10 593e
00000110: cfb7 d93e 800c 08be 3285 1f3e edb1 0e3e
00000120: 363a 7f3d 2396 4cbe 224e 16bf 13e5 81be
00000130: 07aa b4be 9d7d 2dbe 348e 3fbb 0713 8e3e
00000140: cf14 e33d eca3 603c bf30 d13d 6348 803e
00000150: 0c2c 87bd c542 f93d 5e8b ca3d 1143 aa3e
00000160: 8da5 023f c03c a33e 6af4 273e e1ef f5bd
00000170: 3a0f 983d c2d4 153e 6017 153e 9e40 8bbe
00000180: 95c7 fbbe 000f 463e e9e1 4dbd a593 c03e
00000190: 6a79 133f f6d0 26bc 004f 20be eaa7 32bd
000001a0: 5bfa b7be 0045 07be c1ae bb3e b49a a9bd
000001b0: a158 18be b55c a63c fe00 bcbc 09c7 1b3e
000001c0: 1df2 19bc dda5 99bd 652b 35be e04e 14be
000001d0: 60c4 07be b698 de3c 6c2e f83d a408 1bbd
000001e0: 4cbe 2bbe c406 ccbe 3665 81bd b095 2bbd
000001f0: ee71 033d 1758 a2be 64d9 953d 4ce1 5abd
00000200: 09f9 13bf 2111 98be 5103 6ebe a0ac d2be
00000210: f2de 073e c534 883d 6579 c7bc 00a6 ae3d
00000220: 9fe1 393e ee62 2b3e ad2a 9d3e 78cf 813e
00000230: 01c1 a9be 275f a33e 4da1 6d3d 4352 94bc
00000240: 8c43 b6be a735 28be 4015 68be 36c8 cbbe
00000250: d403 b9bd 9636 b83d 0c09 a7be 4c3f 92be
00000260: 789b 603d c3ff f5be ae5a 8c3e 7dc7 4b3e
00000270: d801 d2bd 7b78 abbd 8242 323d f0a5 2e3e
00000280: 831c c73a 6ee8 a53e db62 04bf ad22 b1bd
00000290: 2ab9 0b3e 7e5b fabd 9c05 07be 0611 953e
000002a0: a203 0b3e d255 343e 66f2 3cbe 9889 2c3e
000002b0: f638 3fbf 17e5 a9be 9b0a a23e a8a3 f13e
000002c0: 185a 153e 83d0 573d 5c8e 5f3e b1d8 373e
000002d0: 527b abbe c549 9a3e 5f03 4cbe 2a11 4b3d
000002e0: cf18 a1bd 8802 683e a931 00bf c376 f73c
000002f0: ffc4 1f3e 2fe3 9b3d 5ead 013e c9e0 ad3e
00000300: 9af5 d53e dbb8 2f3d ec53 9dbe c199 083e
00000310: 1d55 a7be 61cc 253e 3d71 c7bc fd57 3fbe
0.55509305 0.298704 0.23766933 -0.08510157 -0.19611967 0.18378648 0.054217253 -0.6296634
-0.17529334 0.21056196 -0.3288693 0.17396046 -0.30997443 0.13047816 0.39987722 0.37055826
0.15018065 -0.04847722 -0.16337115 -0.054014422 -0.05081935 -0.019361364 0.39121312 -0.12860952
0.02018808 -0.15429614 0.21050592 -0.052783072 0.06488212 -0.3294497 0.16254589 0.101333685
-0.34477928 -0.13733086 -0.03291832 0.02727731 -0.026146505 -0.2210017 0.28506008 0.015368909
0.12263054 0.060069773 0.40243328 -0.008493813 0.11343708 -0.28132787 0.2211907 -0.3461151
-0.26066178 0.23932076 -0.31581712 -0.26203272 0.104878046 0.08384516 -0.5193394 0.5801049
-0.4026755 0.21510972 -0.1642126 0.16636783 0.19404808 0.56944716 -0.035166245 -0.24421431
0.50848603 0.046537496 0.37590185 0.21197696 0.42523047 -0.13286018 0.15578154 0.13935061
0.062311374 -0.19979148 -0.5871297 -0.25370082 -0.3528597 -0.16942449 -0.0029229047 0.27748892
0.11087953 0.013710957 0.10214376 0.25055227 -0.06600198 0.121709384 0.098898634 0.33254293
0.5103386 0.31882286 0.1640183 -0.12008644 0.07424779 0.14631942 0.14559698 -0.27197737
-0.49175707 0.1934166 -0.050264273 0.37612644 0.5760714 -0.010181656 -0.15655136 -0.043617167
-0.35933194 -0.13209915 0.36656764 -0.082814604 -0.14877559 0.020307878 -0.022949692 0.15212645
-0.009396103 -0.07502339 -0.17692335 -0.14483213 -0.13258505 0.027172428 0.12118229 -0.037850037
-0.16771811 -0.39848912 -0.063181326 -0.0418908 0.032091074 -0.31707832 0.073168546 -0.053437516
-0.5780187 -0.29700568 -0.23243453 -0.41147327 0.1326864 0.0665069 -0.024349878 0.08527756
0.18152474 0.16736957 0.30696622 0.253536 -0.33155063 0.31908533 0.058015157 -0.018105632
-0.3559841 -0.16426717 -0.22664356 -0.39801186 -0.09033933 0.089947864 -0.3262409 -0.28563917
0.054835767 -0.48046693 0.27412933 0.19900317 -0.10254258 -0.08372589 0.043520458 0.17055488
0.0015190992 0.32403892 -0.5171334 -0.08649192 0.13644853 -0.12224482 -0.13185734 0.2911455
0.13575605 0.17610863 -0.18451843 0.16849363 -0.7469629 -0.33182594 0.31648716 0.47195172
0.1458515 0.052689087 0.2183165 0.17953755 -0.33492523 0.30134407 -0.19923161 0.049576916
-0.0786606 0.22657216 -0.50075775 0.030207997 0.15602492 0.07611691 0.1266379 0.3396056
0.41788942 0.0429009 -0.3072809 0.13339902 -0.32682124 0.16191246 -0.024345988 -0.18685909

lin3.weight f4 [200, 200]
00000000: dc77 543d afe5 cd3e fa0c 4bbe dc2d 543e
00000010: fcaf 85be e2ba 333e 1c94 103f 10a9 8fbe
00000020: 9610 18be 0d54 06be 592a db3e 45dc 003e
00000030: 4ea6 46be 90b6 46be cb3b 0b3e 8af6 613e
00000040: e109 e53d 7886 aa3d 7caa 993e bbf4 d2bd
00000050: cd00 06be 6878 2cbe e9ab 6c3e 6afd 033e
00000060: 7326 8bbd 6831 a8bd 0b0e 0bbc 8b01 d93e
00000070: cde0 083e 4aa1 16be ba1e b5be 607f 1a3e
00000080: effc 89be 45dd 353e d90a edbc 1edc 1bbe
00000090: 4919 4b3e 27cf 283e 6f4d 443e a267 9e3d
000000a0: 3a5a 493d c5c4 08be 289a 1b3e 9e7c 12bf
000000b0: 0382 7dbd 655c 173d d68e 823d 7df0 963d
000000c0: 74cf 2abe b8b6 d73c 44f4 5c3c f1e5 a6be
000000d0: b00d 013f 40b6 e3bd 31ab 7ebe 20c4 ba3e
000000e0: f23b a2bb 2abb 093e 8cad f9bd e115 ddbd
000000f0: 6167 2dbd f8fe 073e eeb6 42be 71d9 e2bd
00000100: 0ac6 263e b6c7 b9be 8b19 9d3d db16 973e
00000110: a90c 833d bdca 9abe 3c19 c83e 850b ebbc
00000120: 44d4 3e3e 2496 e7be d198 9c3d 1922 423e
00000130: ce95 d8bc 3252 593d e563 07bf 92a2 933e
00000140: 2d7f f53d c570 d83d 1c62 7b3e 1360 263e
00000150: 782a 473e 03d3 3d3e 0036 8dbd d61a 1c3c
00000160: 6e62 73be 39f0 d9be a9a4 c13e 6d21 d7bd
00000170: a11c 133e 1f35 b8be b490 593e 2946 c23d
00000180: 3224 12bf 6ab8 a8bd dac4 6d3c 7817 db3e
00000190: c7f4 e3be f434 cfbd b739 e23c 6825 b93d
000001a0: 8f73 153e 2775 b33d 483b 1b3e 89a9 933d
000001b0: 6cc3 e53e 9a13 de3d 2708 92be f571 babd
000001c0: e73e b23e 3702 803e 8b0c d23d be0c 9bbe
000001d0: 6e7d 593d 3552 fb3e fa35 ffbe 79f3 f43d
000001e0: b7c5 98bd 2d99 8bbe 9a32 debe f803 e8bc
000001f0: 5972 46be 8df5 edbe b1b5 c73c 30c0 89be
00000200: 25da 18be 7888 cb3c c5f9 6c3d 6623 6dbd
00000210: 55ae 653e 8a13 3c3e df66 6f3e fd93 b9be
00000220: 7ea6 153e 903a 2a3e 9845 a4be 527b a2be
00000230: b087 513d 5b3e bbbd 4d73 d43d d116 46be
00000240: a288 8bbd a652 053e 480a 17bf 6004 4f3e
00000250: 6476 ecbd a0dd 793e 63c1 453d 3d30 8bbd
00000260: 9de5 29bf a9bf 89be f640 7f3e 90fa d9bd
00000270: 3415 9ebe 2fe8 e03e f0ea 173f 64b8 89be
00000280: 37c5 613e e999 1fbe bd37 863e e615 f43d
00000290: a69f 1cbe d141 2cbe efe7 b9bd 3ba9 cdbd
000002a0: 9dd7 963d c5b3 153e 8ff9 883c 0322 613e
000002b0: a3c8 09be edf4 1f3e a816 4f3e 63f0 e9bd
000002c0: c338 0e3f 1e08 8dbd 6737 0a3f 0cfb d6be
000002d0: ec9c 67be a22d 8abe 459c cbbc ffbd d4bd
000002e0: 8163 0e3e c2b0 62bd fcce 7f3d 1f8d b23d
000002f0: 8499 1abe a95b 2fbf e2c2 99bd 4958 063e
00000300: abdc 11be e201 683d ac64 523c 147f 153d
00000310: d20d 4abd 5246 2f3e dde7 83be ce4d c4be
00000320: 1d4d 573e 245f bcbd e6b5 acbe 8850 91bd
00000330: a288 b03e 98b0 733e 7d9a 523e 8611 05be
00000340: dc26 d6be ed46 0d3e ad68 94be 619d 8cbd
00000350: 36a0 a73e 60c3 9abd fb07 ffbc 9baa 8e3d
00000360: c475 063d 9d05 17be ae62 11be 5c4d a7be
00000370: 5a9d 6bbd 59aa ad3b 20f2 c0be 92fc 583e
00000380: 6d94 2c3e 5a0e 943d d682 3e3c 1459 e23b
00000390: 9c22 053f 6b96 15be 993c a53d 86cc c63d
000003a0: 3b7d a33e abb2 dabd b117 0fbf a0b8 84be
000003b0: e4f3 8fbd 50bd 51bd d012 e7be 069a 1b3d
000003c0: 4c76 0d3f 7402 e5bc 3e4b 133d e04f 113e
000003d0: ca86 963e b29c d93d c23c 4bbd 1245 e9be
000003e0: f692 81bd 06a3 793d ba84 623e f26b 033e
000003f0: f385 85bd dc6c b33e 2046 a2bd b698 da3d
0.05187212 0.40214297 -0.19829169 0.20720619 -0.26110828 0.17551759 0.56475997 -0.28058672
-0.14850077 -0.13118 0.42805746 0.12584026 -0.19399378 -0.1940558 0.13597028 0.22066703
0.11183525 0.08326429 0.30012882 -0.10300585 -0.13086243 -0.16842806 0.23112454 0.12889639
-0.06794443 -0.082125485 -0.008487235 0.4238399 0.13367005 -0.14709964 -0.35375005 0.15087652
-0.26950786 0.17760189 -0.028935837 -0.15220687 0.19833864 0.16485272 0.19170164 0.0773461
0.049158312 -0.13356312 0.15195525 -0.572214 -0.061891567 0.03695335 0.063749 0.07370088
-0.166807 0.026332244 0.013485972 -0.32597306 0.5041151 -0.11118746 -0.24869992 0.36477757
-0.0049509937 0.13450304 -0.121913046 -0.10795189 -0.042334918 0.13280857 -0.19015095 -0.1107663
0.16286483 -0.3628518 0.076708876 0.29509625 0.06398899 -0.30232802 0.39081752 -0.028692016
0.1863566 -0.45231736 0.07646335 0.1895832 -0.02643862 0.053056903 -0.528868 0.2883497
0.119871475 0.10568384 0.24549145 0.16247587 0.19449794 0.18537526 -0.06895065 0.009527883
-0.23768017 -0.42566088 0.37820938 -0.10504422 0.1436639 -0.35978028 0.21246606 0.09486038
-0.5708648 -0.08238299 0.014512265 0.42791343 -0.44522688 -0.10117522 0.027615411 0.09040338
0.14594863 0.087625794 0.15159333 0.07210071 0.44875658 0.108435825 -0.28521845 -0.09103767
0.34813616 0.2500169 0.10256299 -0.3028316 0.053098135 0.49086156 -0.49845868 0.11960501
-0.07459586 -0.272653 -0.4339798 -0.028322205 -0.19379558 -0.46476403 0.02437863 -0.2690444
-0.14926966 0.024845347 0.057855386 -0.057895087 0.22429784 0.18366829 0.23379086 -0.3624572
0.14614293 0.16623902 -0.32084346 -0.3173471 0.051154792 -0.09142753 0.103735544 -0.19344641
-0.0681317 0.13019809 -0.5900006 0.20216513 -0.11546019 0.2440095 0.04828013 -0.0679631
-0.6636599 -0.26904038 0.24927124 -0.10643494 -0.30875552 0.43927142 0.5934286 -0.2689849
0.22047888 -0.15586056 0.262144 0.11918239 -0.15295276 -0.16821982 -0.09077441 -0.10042044
0.07365344 0.14619358 0.016720561 0.2198563 -0.13455443 0.15620776 0.20223486 -0.11422803
0.5555536 -0.06886314 0.5399079 -0.4198841 -0.22618455 -0.2698794 -0.024854789 -0.103878014
0.13905145 -0.05534435 0.062453255 0.08718323 -0.15097624 -0.6849924 -0.07507874 0.13119616
-0.14244334 0.05664242 0.012841385 0.036498144 -0.049329586 0.17116669 -0.25762835 -0.3834061
0.2102551 -0.09197834 -0.33732527 -0.07095438 0.34479243 0.23797834 0.20566745 -0.12994966
-0.41826522 0.13796587 -0.2898611 -0.06865955 0.3273942 -0.07556796 -0.031131735 0.06966134
0.032827154 -0.14748235 -0.141978 -0.32676208 -0.05752311 0.005299848 -0.37684727 0.21190098
0.16853495 0.072293 0.011627873 0.0069075916 0.52005935 -0.14608161 0.08068199 0.097069785
0.3193148 -0.106786095 -0.55895525 -0.25922108 -0.0702894 -0.051205933 -0.4513154 0.037988685
0.5525863 -0.027955271 0.03596043 0.14190626 0.2939971 0.106255904 -0.04961849 -0.4556051
-0.06326859 0.060946487 0.22120944 0.12834147 -0.065196894 0.3504399 -0.079235315 0.106736585

lin3.bias f4 [200]
00000000: 5eaf 473d cc9e d93e e4f2 75bb 3f29 1e3e
00000010: ed2c 08bf b849 0cbe 89b6 abbe 0b27 7538
00000020: 1f97 c33e 0343 763e 4b47 f83e 7f09 48be
00000030: c010 17be 7b7e e43e 5323 b7be 2659 343e
00000040: 8b70 9fbe 1148 8e3e 466c e5be 2590 ca3d
00000050: f961 91be c255 603f 23cc d63e 435b 6bbe
00000060: 25a4 02bf 430d 093f f348 05bf 0e16 bfbe
00000070: 00dd a5be 8ebd 2b3e 761b a9bd c4e6 5c3e
00000080: a574 1fbe 4627 be3e cb46 633f ce43 10bf
00000090: 2743 babe 49da 53be 8a98 733e ba46 a2be
000000a0: d23c c7bd 56d6 84be 597b 4b3e a5e4 65be
000000b0: b35b e03e e7fc e9be 51b3 873e 52ed 6c3b
000000c0: b36a 3a3f 7d68 07bf 8320 cbbd be86 073f
000000d0: 0d41 09bf edd0 d5be 5e09 d23b ddd7 7d3e
000000e0: 48db 4dbe 28c3 50bf 8b49 a53e 9f02 953e
000000f0: 56dd 013e d572 703e 3773 ab3e 9d77 1a3d
00000100: d6b1 d23d 69ea 5bbf 90f5 d9be 4005 1dbd
00000110: 09f1 9b3e 2cbf d13e dff8 b5be 76eb 92bd
00000120: e08d 1d3f 304b 1f3f 0797 033e 0a79 febe
00000130: 4a27 2abe c636 10bf b7c6 c5be 69d9 edbd
00000140: b243 c4bd 3dfb 18be 5736 7abf 1d5a 01be
00000150: 7071 933e 592c 25bf 684b 183f f7e9 d43d
00000160: b8bf 703e ab9d 923e d8b0 793d 8b30 243e
00000170: 973f 65be 9531 3dbf 1f14 f5be be1b e93e
00000180: 1b1d 3b3d 1576 78bf 3ef0 1f3f e467 cdbe
00000190: a16b 18be d1c9 883e d188 88be 72a5 c93c
000001a0: 36e4 5dbe 3c50 bcbd 3618 b23e bb44 853e
000001b0: b96e 2bbf eb5e 443c d9bb e7be 4275 dbbe
000001c0: 9b4c 9fbe 9ef1 113f 27eb febe 9ae5 d3be
000001d0: 55d5 b63e 9d63 8d3d c7cb 173f 709b 1dbf
000001e0: 7a85 3bbe 21a1 abbe 59ec 57bf 9a9c c2be
000001f0: 029f b13d 2485 0ebe 2272 11bf 968f 8c3d
00000200: 8fd3 41be d2de 0b3f 2e6d 93bd 7e6d af3c
00000210: 99d9 4c3d 9ff1 253e 72bd 0c3d 76cb a0bc
00000220: bd80 c43e d444 e6be 15e7 f2be f77e 28be
00000230: 17c3 ff3e e81c 213e d3d4 41bf e1c3 e13e
00000240: d698 f3be 4f82 68be 4927 73be 66f6 3dbe
00000250: c5b2 f7bb 90d7 fd3e ae97 273d 76f2 023f
00000260: 791d a2be 4eb0 35bf 6f66 7ebe b3bb 3fbf
00000270: 4690 f5bd 20df 7dbe 8dbe 243e f447 a93d
00000280: b23b 043e 56f4 9b3e 6627 203e 3d56 113f
00000290: 845d a93e 496e 863d ad6b 383c 355b 0fbf
000002a0: aa50 a63d e3bb 603e 6446 343e c9a1 323f
000002b0: e7ec b2be 8075 f33d 12fa 1a3e 68c1 913e
000002c0: 1b2c 3a3e af83 3ebf b0d5 c5bb bae2 8cbe
000002d0: 11af ef3e 0980 04bf 9e4c 48bf 07bf 1dbf
000002e0: ed4d 87be b9a3 dfbe d156 a33e 1830 bbbe
000002f0: b42d 16be a132 b7be 0865 8c3e 2859 103f
00000300: 11dd 31be 6ee2 9abe 05cd b0be 01ef 26be
00000310: 541a 79be 1323 813f c5a2 5abe 1470 113f
0.048751228 0.42503965 -0.0037528807 0.15445422 -0.5319355 -0.13699996 -0.335377 5.8448913e-05
0.38201234 0.24049 0.48491892 -0.19534872 -0.14752483 0.44627747 -0.35769138 0.17612132
-0.3114055 0.27789357 -0.4480917 0.09890775 -0.2839506 0.87630856 0.4195262 -0.22984032
-0.51031715 0.5353586 -0.52064437 -0.37321514 -0.32395172 0.16771528 -0.08257191 0.21572405
-0.1557184 0.37139338 0.88779896 -0.5635346 -0.36379358 -0.20688738 0.23788658 -0.31694585
-0.097283974 -0.25944775 0.19871272 -0.22450502 0.4381996 -0.45700762 0.26503995 0.0036152196
0.7281906 -0.5289381 -0.099183105 0.52939975 -0.53614885 -0.4176096 0.006409808 0.24789377
-0.2010318 -0.81547785 0.3228267 0.29103562 0.12682089 0.23481305 0.3348634 0.03771173
0.10287826 -0.85904557 -0.42570162 -0.038335085 0.30457333 0.40966165 -0.35541436 -0.07173817
0.6154461 0.622241 0.12850581 -0.4970172 -0.1661655 -0.5633358 -0.3862817 -0.11613733
-0.09583224 -0.1493959 -0.97739166 -0.12632032 0.28797483 -0.64520794 0.5949006 0.10396188
0.23510635 0.28635916 0.060959667 0.16034143 -0.22387539 -0.7390378 -0.47866914 0.45528978
0.045682054 -0.9705518 0.62475955 -0.40118325 -0.14884807 0.26716474 -0.26666883 0.024615023
-0.21669087 -0.09194991 0.34784096 0.26029 -0.66965824 0.011985521 -0.45260504 -0.42862898
-0.31113133 0.57009304 -0.49788782 -0.4138611 0.35709634 0.06903765 0.59295315 -0.61565304
-0.18312636 -0.3352137 -0.8434501 -0.38010103 0.086729065 -0.13917977 -0.5681478 0.06863324
-0.1892836 0.5463687 -0.07198559 0.021414515 0.050012205 0.16205452 0.034360357 -0.019628268
0.3837947 -0.44974387 -0.47441927 -0.16454683 0.4995353 0.15733683 -0.7571537 0.44094756
-0.47577542 -0.22705959 -0.23745455 -0.18551025 -0.007559153 0.49578524 0.040916137 0.51151216
-0.3166311 -0.70972145 -0.24843763 -0.7489578 -0.119904086 -0.24792147 0.16088314 0.08265677
0.12913397 0.3045985 0.1564003 0.56772214 0.3307916 0.06564004 0.011256141 -0.55998546
0.08120854 0.21946673 0.17604977 0.69778115 -0.34946367 0.11887646 0.15134457 0.2846787
0.18180887 -0.74419683 -0.0060374364 -0.2751673 0.46813253 -0.51757866 -0.7824191 -0.6161961
-0.2642664 -0.43679598 0.31902173 -0.3656013 -0.14665872 -0.35780814 0.2742083 0.5638604
-0.17369486 -0.30250877 -0.34531417 -0.1630211 -0.2432645 1.0088829 -0.21351154 0.5681164

lin4.weight f4 [62, 200]
00000000: db3d d93f 7279 2740 2adf ac3e c431 51c0
00000010: ec9b 25bf 41e6 7e3f 1e59 893e 0e9a 3d3f
00000020: 1cbf db3f db75 1f40 6ca9 4ac0 66e9 1a40
00000030: d580 753e b806 a3bf c818 bf3f 9428 6fbf
00000040: f689 afbe 4ce7 84bf 4677 e03e 794a 453e
00000050: 35f1 10bf de9d 8140 4351 45bf 4af0 e73f
00000060: 4ca2 d33f 5f8e 173f eec2 04bd aead 4440
00000070: c992 7640 b41a 833e 9df9 8f40 96f2 4f3f
00000080: c37c 8fc0 a032 85c0 be55 bb3f 601a 4e3f
00000090: 9474 a33f 40aa e3be cca6 62bd e75b e73f
000000a0: a134 a6bc f2e2 5f40 250c e93e e2d3 08c0
000000b0: 74a9 be3f 905c 3cbe 5252 a93f e6f2 dfbe
000000c0: f58e 39c0 02d5 a6bf f7dc 3640 b0d2 65bf
000000d0: 1f34 743f 725e 853d 69fd c03c 0372 0a40
000000e0: 912a 853f e66e 24bd b718 c53f 951a 00c0
000000f0: 6765 5fc0 b155 d83f ad09 ec3c cbe0 04c0
00000100: dcd3 82bf 4812 4ac0 66da b93f edf9 f63f
00000110: ae14 74c0 88a4 d1bf d714 0040 5534 34bf
00000120: 45c5 56bf aae8 86be 2467 fc3d 3a59 19c0
00000130: ceaf d13f ab65 81be f745 613f 0cc1 0bc0
00000140: 92e0 58bf da1a 9a3f 1438 03bf b85a 86bf
00000150: 5363 f53e 48c4 1540 85b1 c3be ec7b f43f
00000160: 021f 24bf 0d3f 70c0 6162 8bbe 3260 a43f
00000170: 67c1 0140 03d3 1640 df13 1c40 4c6b 3740
00000180: f209 eabd 7ca3 3340 51b0 fdbf 0e0b 133f
00000190: b934 863f e324 4c3f 38c3 bc3f 4095 11c0
000001a0: 18b3 7d3f d32a ddbf a3b5 60bf e53f c1bf
000001b0: f1c4 acbf ed2c 833e 90ca f43e b9a3 823e
000001c0: fef0 883f e956 e8bf 9cd7 7cc0 31bb 1a3f
000001d0: 11c1 8d40 6cc5 ad3e aa72 943e 7a9c 3cc0
000001e0: 7a67 2140 b8bf 2040 d793 2040 c603 6840
000001f0: 99a7 fdbf 139e 233f 8560 17c0 f077 08c0
00000200: 13ef 08bf bbc7 cb3e 598d da3f 7637 cf3f
00000210: 9000 b0bf d57f 893f 8953 92bf 0670 00c0
00000220: 5a08 50bf 810d 45c0 b9e0 8ebe 0075 e53f
00000230: f85d e23e 51f9 e2bf 96c7 0240 1f91 15c0
00000240: 9a14 0dc0 ccdc 253e 5328 5a3f ecc6 b9c0
00000250: 611c f83d 9288 fabf 16d4 a9bf d748 b0bf
00000260: 1334 dbbf 8157 fd3f 7ede 963f 1d28 b8bf
00000270: e975 1b3e 2d22 c83f eb01 f1be 6f6a 8ebe
00000280: 68c5 ee3f 09c5 36c0 f3e2 8dbe 10b9 0e40
00000290: ad47 ad3f 9653 c73f 426a b9bf 0e19 06bf
000002a0: c6ea 5ebf 37d7 b1be 1e4a 663e 28e2 e5bf
000002b0: 2122 6ec0 67f0 1a40 48c0 983e 7753 3ec0
000002c0: eae7 1e40 604c 6440 af4e 45bf 2457 543f
000002d0: 84b5 b2bf c6d0 423f ce51 4640 d2ee 7ebe
000002e0: b174 2fc0 61eb 313e 3ccf 0740 53cd 273f
000002f0: 552c df3e 2909 0540 42ea 5e3f 2a23 05bf
00000300: 8fb5 3f3e 966f 183f c6d1 5140 a16b a73f
00000310: e29f 0440 dc7d 2140 6ef9 0540 f198 94bc
00000320: 37da b13f 7b91 84bb 1dbb d73e c905 4d3f
00000330: e59a 2440 2dcb 1a40 b5b2 0c40 e7df cfbf
00000340: f763 bf3f e307 03c0 eaf3 4dc0 0809 9040
00000350: e6c4 41c0 c5b1 babf 746e 3740 e046 0ac0
00000360: 33e3 71bf c468 7dbf 0230 5fbf 003f d9bf
00000370: bce3 64bf 5c5d 8840 a143 aabf 443c 85bf
00000380: 3437 a540 e7cc bf3f 427f cdbf e2e4 2940
00000390: bc89 f63f 077e 26bf f09c 813f 4e3b d0bf
000003a0: 0cc7 3bc0 2171 41c0 a1fa 12bf b335 a83f
000003b0: 969e a7bf e93c adbe ca33 d03f 06d4 2a40
000003c0: cc21 64c0 753d 2a40 3b12 d4bf 8572 243f
000003d0: df8d f03f 9bb0 993e bef4 0340 38db 2040
000003e0: 0006 933e d0ec 1fbf 74f3 f43f ce33 e3bf
000003f0: 6e36 3f40 048f cdbe 0a08 5dbf 34f5 8840
1.6972002 2.6167874 0.3376401 -3.2686625 -0.6469104 0.9957009 0.26825804 0.74063194
1.7167697 2.4915683 -3.1665907 2.4204955 0.23974927 -1.2736425 1.4929438 -0.9342129
-0.34284943 -1.0383086 0.43840998 0.1926669 -0.5661805 4.050521 -0.7707712 1.8120205
1.6533904 0.59201616 -0.032412462 3.0731006 3.852709 0.2560631 4.4992204 0.8122953
-4.4839797 -4.16243 1.4635541 0.80508995 1.2769952 -0.44465828 -0.05533485 1.8074921
-0.020288767 3.4982266 0.45517078 -2.1379323 1.4895463 -0.18394685 1.3228247 -0.43740004
-2.8993504 -1.3033755 2.8572366 -0.8977461 0.9539203 0.06512155 0.023558335 2.1632087
1.0403615 -0.040144823 1.5398167 -2.0016224 -3.490564 1.6901151 0.028813208 -2.0762203
-1.0220904 -3.1573658 1.4519775 1.9295021 -3.8137622 -1.6378336 2.001272 -0.7039235
-0.8389476 -0.26349384 0.1232436 -2.396071 1.6381776 -0.2527288 0.8799738 -2.1836576
-0.8471767 1.2039444 -0.51257443 -1.0496435 0.4792734 2.340105 -0.38221374 1.9100318
-0.64109814 -3.7538483 -0.27223495 1.2841856 2.0274293 2.3566291 2.4387128 2.865924
-0.11427678 2.8068533 -1.9819432 0.57438743 1.048484 0.79743785 1.4747076 -2.2747345
0.991014 -1.7278694 -0.87777156 -1.5097624 -1.3497602 0.25620213 0.47810793 0.25515535
1.0698545 -1.8151523 -3.9506598 0.6044188 4.4298177 0.33939683 0.28993732 -2.9470506
2.5219407 2.5117016 2.5090234 3.6252303 -1.9816772 0.6391308 -2.365266 -2.1323204
-0.534898 0.3980082 1.7074386 1.61888 -1.3750172 1.0742136 -1.1431743 -2.0068374
-0.81262743 -3.0789492 -0.27905825 1.792633 0.44212317 -1.7732335 2.0434318 -2.3369825
-2.2043824 0.16197509 0.8521778 -5.8055325 0.12114788 -1.9572928 -1.3267848 -1.3772229
-1.7125267 1.9792329 1.1786649 -1.4387242 0.15181698 1.563543 -0.47071776 -0.27815577
1.8653994 -2.855776 -0.2771221 2.2300453 1.3537499 1.5572383 -1.4485552 -0.5238198
-0.87076986 -0.34734508 0.22489211 -1.7959642 -3.720833 2.420923 0.298342 -2.9738443
2.482905 3.5671616 -0.77073187 0.82945466 -1.3961644 0.76099813 3.098743 -0.2489579
-2.7414973 0.17374946 2.1220236 0.65547675 0.4358851 2.078684 0.870762 -0.5200678
0.18721603 0.59545267 3.2784286 1.3079721 2.0722585 2.5233068 2.093349 -0.018139334
1.3894719 -0.004045663 0.42134944 0.8008695 2.571954 2.4186509 2.1984074 -1.6240205
1.4952382 -2.0473564 -3.2180123 4.5011024 -3.0276427 -1.4585501 2.8661165 -2.1605759
-0.94487303 -0.98987985 -0.8718263 -1.6972351 -0.89409995 4.2613964 -1.3301889 -1.0409017
5.1629887 1.4984406 -1.6054461 2.654595 1.9260783 -0.6503605 1.0126019 -1.6268098
-2.9340239 -3.0225298 -0.5741368 1.3141388 -1.3095272 -0.33835533 1.6265805 2.669191
-3.5645628 2.660001 -1.6568063 0.6423724 1.8793296 0.30017552 2.0618129 2.51338
0.28715515 -0.6247072 1.9136796 -1.7750185 2.9876971 -0.40148175 -0.8634039 4.279932

lin4.bias f4 [62]
00000000: c3d5 963d 0d41 0640 e6ba 59c0 b3b9 89be
00000010: 7300 d43f 3c0f 82c0 9e3b 053e e7cd b0be
00000020: f3b2 22bf 56f3 3ec0 634f 3fbf ab7d c3bf
00000030: 7ff8 a1bf f534 17c0 483a 29c0 d49d 0fc0
00000040: 3b43 5ac0 62c8 97bf ac6c db3f 0aeb 98c0
00000050: f894 a3c0 fc07 d3be 55e4 abbf 28e8 bbbe
00000060: eaf8 c2bf 7d2d 00c0 38a2 aec0 7d9b 97bf
00000070: b638 b5bd a41e 5d3f 68e9 6cc0 4c73 1fc0
00000080: 1036 61be 3a53 41c0 761a 87bf b790 8bc0
00000090: 5547 f53f cffa 1c40 9037 1140 f6b9 54bf
000000a0: 2ab9 1340 5305 ccbf 6e1d d6bf e49c a2be
000000b0: c927 2d40 29e0 a0c0 d1b2 13c0 3bba be3e
000000c0: a7b7 7abe 3e05 16bf 10c5 843e 6278 2b3e
000000d0: de22 5ec0 c1cc b0be 91a4 783f 1437 07bf
000000e0: fded b6be 9a7c 3bc0 0f64 e93c 106d d6c0
000000f0: 28e9 90bf d933 bfc0
0.073649906 2.0977204 -3.4020324 -0.2689949 1.6562637 -4.0643597 0.13011023 -0.3453209
-0.63554305 -2.983602 -0.7473051 -1.5272726 -1.265396 -2.3626072 -2.6441822 -2.244008
-3.4103534 -1.1858027 1.7142539 -4.7786913 -5.1119347 -0.4121703 -1.3429056 -0.3670056
-1.5232213 -2.0027764 -5.457302 -1.1844326 -0.088487074 0.8637488 -3.701746 -2.4914122
-0.2199328 -3.0207047 -1.055495 -4.3614154 1.9162394 2.4528081 2.2690163 -0.83096254
2.3081765 -1.5939125 -1.6727731 -0.31760323 2.7055533 -5.0273633 -2.307789 0.37251458
-0.2448412 -0.5860175 0.25931597 0.16745141 -3.4708781 -0.34531215 0.9712611 -0.5281842
-0.35728446 -2.92948 0.028490094 -6.7008133 -1.1321154 -5.975079
