qn1/weights/model_weights_b5_em15.pth (torch, 439538 bytes, 9 tensors)

emb.weight f4 [62, 15]
0	0x3f5e56d5	0.86851245
1	0xbfe0180e	-1.7507341
2	0x3fb7b060	1.43507
3	0xbf2f9335	-0.68583995
4	0x3f0349fe	0.5128478
5	0xbd290f00	-0.04127407
6	0x3e4428bf	0.19156168
7	0x3dc4c8f7	0.096086435
8	0x3f970f12	1.1801474
9	0xbfc76f5b	-1.5580858
10	0x3c35199b	0.011053468
11	0xbfaea3b2	-1.3643706
12	0xbd3459a5	-0.044030804
13	0x3f092c7f	0.5358352
14	0x3ea63344	0.32460988
15	0x3e23ed5d	0.16008516
16	0xbd1302ab	-0.035891216
17	0x3dded64f	0.1088072
18	0xbebe0da2	-0.37119776
19	0xbe222d68	-0.15837634
20	0xbe71bd3a	-0.2360734
21	0x3ed2594e	0.4108376
22	0x3dd0ed52	0.10201515
23	0xbe8a9426	-0.27066153
24	0xbf159833	-0.5843536
25	0xbe802c5a	-0.25033838
26	0x3ee44ca3	0.4458972
27	0xbfd2a89d	-1.6457707
28	0xbf84a39f	-1.0362433
29	0xbe8ec334	-0.27883303
30	0x3f5b62e6	0.8569778
31	0xbf80b0ba	-1.0053933
32	0x3e3928b8	0.18081939
33	0x3e87d8f7	0.2653272
34	0xbe896618	-0.26835704
35	0x3f5fe414	0.87457395
36	0x3f856c90	1.0423756
37	0xbfc276de	-1.5192525
38	0xbec58e6a	-0.38585216
39	0x3cdcd2d0	0.026955992
40	0xbf0c3ee1	-0.54783446
41	0xbf05b2bc	-0.5222585
42	0x3e2b4788	0.16726506
43	0x3f3abfa2	0.7294866
44	0xbe9e6d16	-0.309426
45	0x3ea82878	0.32843375
46	0x3f69d1b6	0.9133562
47	0x3f81b64a	1.0133755
48	0xbe596def	-0.21233343
49	0x3dc27c79	0.094963975
50	0xbe893ba2	-0.2680331
51	0xbf2d4fe5	-0.67700034
52	0x3fb84e6b	1.4398931
53	0x3e78c3f6	0.24293503
54	0xbeddb448	-0.43301606
55	0xbfae89a9	-1.363576
56	0xbeb0b6b9	-0.34514406
57	0xbf83b398	-1.0289183
58	0x3f545daf	0.8295545
59	0xbd905b53	-0.07048669
60	0xbec944ee	-0.39310402
61	0x3eae4b58	0.34041858
62	0x3d638a37	0.055551734
63	0xbf21a769	-0.6314607
64	0x3ee35ada	0.44405252
65	0xbec9f538	-0.394449
66	0xbe9ae5d1	-0.3025346
67	0xbe1f16c1	-0.15536024
68	0xbf91e0a1	-1.1396676
69	0xbf8f2246	-1.1182334
70	0xbf4a3987	-0.7899403
71	0x3e55ea03	0.2089005
72	0x3f6c290c	0.9225013
73	0x3f0fc870	0.5616522
74	0x3ede581f	0.43426606
75	0xbf345ec3	-0.70457095
76	0x3eac8889	0.33697918
77	0xbf56abde	-0.83856
78	0xbeebb361	-0.46035293
79	0xbea92553	-0.3303629
80	0x3f7fe077	0.9995188
81	0x3eeebc60	0.46628094
82	0x3fba45bd	1.4552532
83	0xbf612ad7	-0.87955993
84	0xbf85c359	-1.045024
85	0x3df00cb3	0.11721172
86	0xbce91c31	-0.028455826
87	0xbed4bcbe	-0.4155025
88	0x3e9aab2e	0.30208725
89	0x3ebc6bbc	0.36800945
90	0x3edb2ad1	0.42806104
91	0x3e78bec7	0.24291526
92	0xbfb19d04	-1.3876042
93	0xbf79abbc	-0.9752767
94	0x3e63f801	0.22262575
95	0x3f886846	1.0656822
96	0x3fa966ed	1.3234535
97	0xbf906dda	-1.1283524
98	0xbf052d56	-0.520223
99	0xbf0bc356	-0.54594934
100	0xbee3e9e1	-0.44514373
101	0x3e732aa5	0.23746736
102	0x3f353b70	0.7079382
103	0x3bcc74b0	0.006239496
104	0x3c925b8a	0.017865915
105	0x3ead6e44	0.33873188
106	0x3f380c91	0.71894175
107	0xbe0dd601	-0.13851167
108	0xbf7d5899	-0.98963314
109	0xbf098a62	-0.5372678
110	0xbe2d274a	-0.16909519
111	0xbd85d41d	-0.06534598
112	0xbf0df1ca	-0.55447066
113	0x3f0c184a	0.5472456
114	0x3e9cbead	0.30614224
115	0xbee4e8da	-0.44708902
116	0x3f43b241	0.7644387
117	0x3faf74ba	1.3707497
118	0x3f53ad1c	0.8268602
119	0xbdbc01b7	-0.091800146
120	0xbe35cf24	-0.17754799
121	0xbedf8593	-0.43656597
122	0x3ee8cb29	0.454675
123	0x3f17d4c9	0.5930906
124	0x3d71d8b1	0.059044544
125	0xbef5ddf4	-0.480209
126	0xbf6368a4	-0.88831544
127	0xbfb072f7	-1.3785084
128	0xbcdac2b0	-0.026704162
129	0x3d469ab5	0.048487384
130	0x3efb896e	0.49128288
131	0x3e5281a3	0.20557265
132	0x3f45583e	0.7708777
133	0x3e3dfd03	0.18553548
134	0x3f91745c	1.1363635
135	0x3eaba500	0.33524323
136	0xbf6f18e7	-0.9339737
137	0x3f172734	0.59044194
138	0xbecaf218	-0.39637828
139	0xbef2a972	-0.47394902
140	0x3fabafb2	1.3412993
141	0xbeb2a06f	-0.34888026
142	0xbf980f64	-1.1879697
143	0xbec159ef	-0.37763926
144	0xbf71b53a	-0.94417155
145	0x3f505826	0.81384504
146	0xbf074e14	-0.5285351
147	0x3e5b0849	0.2138988
148	0x3f290edb	0.6603829
149	0x3e5cfe51	0.21581389
150	0x3e370939	0.17874612
151	0xbfb3131d	-1.3990208
152	0xbf9a284b	-1.2043546
153	0xbe952e17	-0.29136726
154	0x3ef2e7e5	0.47442546
155	0xbf9fd1a6	-1.2485855
156	0x3faf21c1	1.3682176
157	0x3ee9bc46	0.45651454
158	0xbd666f3d	-0.05625843
159	0xbc143e72	-0.009048091
160	0xbfabdf22	-1.342747
161	0x3f8f6c19	1.1204864
162	0x3f955f5b	1.1669725
163	0x3fbd3c8c	1.4784102
164	0x3ec2cb1d	0.38045588
165	0xbee805dd	-0.45316973
166	0xbf344b56	-0.70427454
167	0xbf8b6c25	-1.0892378
168	0xbf620b99	-0.88298947
169	0x3f943ace	1.1580446
170	0xbeae9899	-0.34100798
171	0xbed92240	-0.42408943
172	0x3dcf35f8	0.101177156
173	0xbf0251fa	-0.50906336
174	0xbe856f74	-0.26061594
175	0x3e8c3098	0.27380824
176	0x3e5ec812	0.21756008
177	0x3e1df3c0	0.15425014
178	0xbe927082	-0.28601462
179	0xbf3fbb94	-0.74895597
180	0xbee1bba6	-0.44088477
181	0xbfc5ccfe	-1.5453184
182	0x3e877f48	0.26464295
183	0x3d5eac34	0.054363444
184	0x3e327b20	0.17429781
185	0xbe9b9558	-0.30387378
186	0x3d834d13	0.06411185
187	0xbdbb9942	-0.09160091
188	0xbd8c2046	-0.06842093
189	0x3e230da7	0.15923177
190	0x3ed9c1bc	0.4253062
191	0xbea6ba5f	-0.32564065
192	0x3b526929	0.0032106137
193	0x3e6e0b11	0.23246409
194	0x3f834781	1.0256196
195	0xbef7ce9b	-0.48399815
196	0xbf1a35dc	-0.6023843
197	0x3dd6f3ba	0.10495706
198	0xbf4abc86	-0.79193914
199	0xbe98910a	-0.29798156
200	0x3e92dc8c	0.2868389
201	0x3ee6d924	0.4508754
202	0xbe39a4ba	-0.18129244
203	0x3ee39b05	0.44454208
204	0x3f240a15	0.64077884
205	0x3c83f006	0.016105663
206	0xbea211a5	-0.31654087
207	0x3e12628c	0.14295405
208	0x3b174860	0.002308391
209	0xbdf24353	-0.11829247
210	0x3dac7983	0.08421614
211	0x3e4cb8f4	0.19992429
212	0xbf5757ad	-0.8411816
213	0xbecba3b0	-0.3977332
214	0x3f86a0de	1.0517843
215	0x3f3fe176	0.749534
216	0x3c4aa425	0.012368237
217	0x3f868900	1.0510559
218	0x3f6e54ae	0.9309796
219	0x3a764eaf	0.000939588
220	0x3f067817	0.5252699
221	0x3f2d3400	0.6765747
222	0xbf110f4d	-0.5666397
223	0xbe4db175	-0.20087226
224	0x3f7cc208	0.9873357
225	0xbe077b5b	-0.1323065
226	0xbdad997c	-0.084765404
227	0xbf836e2e	-1.0267999
228	0xbf52591e	-0.8216723
229	0xbf5045ad	-0.81356317
230	0x3fc7aa19	1.5598785
231	0x3d1394f2	0.036030717
232	0xbf4f4edd	-0.8097971
233	0x3fab6048	1.3388758
234	0xbdc94b04	-0.09828761
235	0x3eda32c2	0.4261685
236	0x3f815be2	1.0106165
237	0xbe7d4cfa	-0.24736395
238	0xbf1357f6	-0.5755609
239	0xbeddd05a	-0.43323022
240	0xbf9d335a	-1.2281296
241	0x3ec45c6c	0.38351762
242	0xbf327594	-0.6971066
243	0xbe33b286	-0.1754857
244	0xbcfba3d0	-0.03071776
245	0xbf9a7050	-1.2065525
246	0xbeac6b93	-0.33675823
247	0xbf040366	-0.51567686
248	0xbeb37577	-0.35050556
249	0xbed76d23	-0.42075452
250	0x3f802cd8	1.0013685
251	0xbe69f20f	-0.22846244
252	0xbefb70ed	-0.49109593
253	0x3f5ae6c1	0.8550835
254	0x3f5087bf	0.8145713
255	0x3bebdadc	0.007197721

lin1.weight f4 [200, 75]
0	0xbda86241	-0.082218654
1	0x3e073750	0.13204694
2	0x3e996cf9	0.29965952
3	0xbda31764	-0.07963446
4	0x3e33bcc1	0.17552473
5	0xbe47fc67	-0.19529878
6	0xbd3db919	-0.0463191
7	0x3d05ec77	0.032696214
8	0x3e803417	0.2503974
9	0x3e73e5ab	0.2381808
10	0xbe59ab1f	-0.21256684
11	0xbe6243f5	-0.22096236
12	0x3d05d3d7	0.03267273
13	0x3d8a204a	0.0674444
14	0xbe4b7253	-0.1986783
15	0xbcfacf42	-0.030616406
16	0xbdf97962	-0.12181355
17	0x3e5cd017	0.21563755
18	0x3e132886	0.14370927
19	0xbe36ce57	-0.1785215
20	0xbe09c5b5	-0.13454325
21	0xbea03699	-0.31291655
22	0xbe790e8b	-0.24321954
23	0xbdbcb425	-0.09214047
24	0xbb9c99bc	-0.0047790688
25	0xbe1a9928	-0.15097487
26	0xbcdc8ef1	-0.026923629
27	0x3c814daa	0.015784103
28	0x3d23d7f7	0.040000882
29	0xbe447eb1	-0.19188954
30	0x3e069514	0.13142806
31	0x3e8fbda4	0.28074372
32	0xbe26f3f3	-0.16303997
33	0x3d095a89	0.033533607
34	0x3e486289	0.19568838
35	0x3baa0880	0.0051890016
36	0x3e7e2e2a	0.24822298
37	0x3e9f0345	0.31057182
38	0x3dc0def2	0.094175234
39	0x3d6a8f10	0.05726534
40	0x3e70a648	0.23500931
41	0x3d1128de	0.035439365
42	0xbbe1474c	-0.0068749543
43	0xbee2fd0d	-0.44333687
44	0x3e194930	0.14969325
45	0xbd86681b	-0.06562825
46	0xbd9cfffd	-0.076660134
47	0x3db60efa	0.08889575
48	0xbbe1094d	-0.006867564
49	0x3d894915	0.067033924
50	0x3dc09655	0.094036736
51	0x3e7e0675	0.2480715
52	0xbf08af86	-0.5339283
53	0xbe77b853	-0.24191408
54	0x3ee65a1e	0.4499063
55	0xbe340042	-0.17578223
56	0xbef23f68	-0.47314
57	0x3e8798d9	0.264838
58	0x3e56227e	0.20911595
59	0xbe9df04f	-0.30847403
60	0x3d67d56c	0.05660002
61	0x3e0c49b2	0.13699988
62	0x3ba77841	0.005110771
63	0xbe0ee1e0	-0.13953352
64	0x3bcfb8f4	0.006339187
65	0xbe7fb0ff	-0.24969862
66	0x3da5fbab	0.081046425
67	0x3d62f124	0.05540575
68	0x3d304128	0.043030888
69	0xbe76303f	-0.24041842
70	0xbebf911c	-0.37415397
71	0xbe12a8b5	-0.14322169
72	0x3ccea9cc	0.02522745
73	0xbee60883	-0.4492837
74	0x3e71d800	0.23617554
75	0xbcdb8ccc	-0.026800536
76	0x3e9a1baf	0.30099246
77	0xbd56b489	-0.052418265
78	0x3e3bb7e9	0.18331875
79	0xbe27b641	-0.16378118
80	0x3e921b97	0.28536674
81	0x3d49c81d	0.04926311
82	0xbdd58349	-0.10425431
83	0x3c72ce88	0.014819749
84	0x3e1d7a3b	0.15378658
85	0x3d83f038	0.064423025
86	0x3c575e32	0.0131450165
87	0x3e98ff37	0.29882213
88	0x3d98fa91	0.07469667
89	0x3c20a3a4	0.00980464
90	0xbd891571	-0.06693543
91	0xbe0df345	-0.13862331
92	0x3e82d832	0.2555557
93	0x3e6591e6	0.22418937
94	0x3e4c0628	0.19924223
95	0x3ea311fc	0.31849658
96	0x3df43c96	0.11925618
97	0xbd8329b6	-0.0640444
98	0xbe5ccd26	-0.21562633
99	0x3d96a419	0.07355518
100	0xbc898c62	-0.016790573
101	0x3db90924	0.090349466
102	0xbec5884e	-0.38580555
103	0x3d8b0443	0.06787922
104	0xbc9a108b	-0.018806716
105	0xbdfc6678	-0.12324232
106	0x3d1298e5	0.035790343
107	0x3e3238de	0.17404506
108	0x3d55c2a6	0.052187584
109	0x3c9fca9c	0.019505791
110	0xbf08613a	-0.53273356
111	0x3d2df3cf	0.042468842
112	0x3e1e0e7b	0.15435211
113	0x3e741a3c	0.23838133
114	0xbea0ddf9	-0.31419352
115	0x3e14926a	0.14508978
116	0x3d89ccae	0.06728493
117	0xbd99fff9	-0.07519526
118	0x3e27805b	0.16357557
119	0xbbedf267	-0.0072615626
120	0x3e2b89ef	0.16751836
121	0xbe42034b	-0.18946569
122	0xbd0eac86	-0.0348325
123	0xbe879b69	-0.26485756
124	0xbe9a4e5c	-0.30137908
125	0x3d6f1036	0.05836507
126	0x3e4f476a	0.20242086
127	0x3e2a8ed3	0.16656046
128	0xbd5549fa	-0.052072503
129	0xbedb0b51	-0.4278207
130	0xbeea3f52	-0.45751435
131	0x3dbe039b	0.092780314
132	0xbe4d597a	-0.20053664
133	0xbe0a3155	-0.13495381
134	0x3e8f0b79	0.2793844
135	0x3dc26f1f	0.09493851
136	0x3e94a8a6	0.2903492
137	0x3d8bfc57	0.068352394
138	0xbf05491d	-0.52064687
139	0x3e1a505f	0.15069722
140	0x3ed9c323	0.4253169
141	0xbcc73cf7	-0.024321062
142	0xbda47345	-0.080297984
143	0x3d8c3907	0.068468146
144	0xbebc11c4	-0.36732304
145	0xbd6027dc	-0.054725513
146	0x3ea9e1fa	0.3318022
147	0xbc81a340	-0.015824914
148	0x3dd69cdb	0.104791366
149	0xbeb1156f	-0.34586665
150	0x3cc4e34d	0.024034167
151	0x3c94424d	0.01809802
152	0xbe37cbf9	-0.17948903
153	0x3eb1204d	0.34594956
154	0x3e84dfad	0.259519
155	0x3da9834e	0.082769975
156	0xbe5b085a	-0.21389905
157	0xbc5ef756	-0.013608774
158	0xba780f07	-0.00094626885
159	0x3de3a874	0.11116114
160	0xbdc98602	-0.09840013
161	0x3e26a357	0.16273247
162	0xbded0883	-0.11573889
163	0x3d7dbd5e	0.061948173
164	0x3e27cf83	0.16387753
165	0x3d847105	0.06466869
166	0xbee7e04d	-0.45288315
167	0x3d819329	0.06326897
168	0x3e898e4a	0.2686637
169	0x3cfd0b2e	0.03088912
170	0xbdfde499	-0.12397117
171	0x3e84c1b5	0.25929037
172	0x3e1027b9	0.14077653
173	0xbea2a8a0	-0.31769276
174	0x3baf3eea	0.005348076
175	0xbe111f3b	-0.1417207
176	0xbd1f204b	-0.038849156
177	0x3e7aa376	0.24476418
178	0xbc712634	-0.014718581
179	0x3bbd6913	0.005780348
180	0xbe7777bb	-0.24166767
181	0x3c8d9b8c	0.017286085
182	0x3dd1a17f	0.10235881
183	0xbded0351	-0.11572898
184	0xbd18e441	-0.037327055
185	0x3d62bb15	0.055354197
186	0xbc20f28f	-0.0098234555
187	0x3e5d84c3	0.21632676
188	0x3e5afad9	0.21384753
189	0xbd50c8cc	-0.050972745
190	0x3d6b6c0d	0.057476092
191	0xbdc0df9d	-0.09417651
192	0xbe57b059	-0.21063365
193	0xbe5a4d3a	-0.21318522
194	0xbe52a987	-0.20572482
195	0xbcf5720d	-0.02996161
196	0x3e505ab9	0.20347108
197	0xbcdb44c3	-0.026766187
198	0x3e2351dd	0.15949197
199	0x3ec55bee	0.385467
200	0x3db911fa	0.09036632
201	0xbe147b7d	-0.14500232
202	0x3e1281a0	0.1430726
203	0xbe8f48e0	-0.27985287
204	0xbd5856e3	-0.052817237
205	0xbc3b5756	-0.011434397
206	0xbcf88497	-0.030336661
207	0xbe049004	-0.12945563
208	0xbe255f3e	-0.16149613
209	0xbecd388d	-0.40082207
210	0xbed27caf	-0.4111075
211	0xbd872b00	-0.065999985
212	0xbb49c620	-0.0030788258
213	0x3e3715f0	0.17879462
214	0xbebb95ed	-0.36637822
215	0x3c362c75	0.011118998
216	0x3e0e0e69	0.13872685
217	0x3e502803	0.20327763
218	0x3dac089a	0.08400078
219	0x3ebf751e	0.3739404
220	0x3ea57b8f	0.3232083
221	0x3e05dd49	0.13072695
222	0xbe9295a6	-0.28629798
223	0x3d078abd	0.033091296
224	0x3d98a243	0.07452824
225	0xbe23aadd	-0.15983148
226	0xbe1d7441	-0.15376379
227	0x3e39100c	0.18072528
228	0xbdaa17d0	-0.08305323
229	0x3dc18f9a	0.09451218
230	0x381ae890	3.6933052e-05
231	0x3dfd9626	0.12382154
232	0xbd7c27eb	-0.061561506
233	0x3db67bff	0.08910369
234	0xbcd34a29	-0.025792198
235	0xbe57cdb8	-0.21074569
236	0xbd3808aa	-0.044930138
237	0xbdf2a781	-0.11848355
238	0xbd0eeeb0	-0.0348956
239	0xbe28d98d	-0.16489239
240	0xbe6d57e4	-0.23178059
241	0x3d1f9e33	0.03896923
242	0x3c925d16	0.017866652
243	0xbe41b862	-0.18917993
244	0xbcda05a7	-0.026614023
245	0xbd11a094	-0.03555353
246	0xbdb83190	-0.08993828
247	0xbaabca79	-0.0013106606
248	0xbd0660bf	-0.032807108
249	0xbea73a76	-0.3266179
250	0x3e302b37	0.17203985
251	0x3dbfcdc4	0.093654186
252	0xbc8b75c4	-0.017023928
253	0x3b6a5dde	0.0035761516
254	0xbe684f98	-0.22686613
255	0xbe05c989	-0.13065161

lin1.bias f4 [200]
0	0x3e4da8a2	0.2008386
1	0xbc9f915d	-0.019478494
2	0x3afe8c5e	0.0019420495
3	0x3d96be95	0.073605694
4	0xbc7323d6	-0.014840087
5	0xbe1cbfeb	-0.15307586
6	0x3e79f3b0	0.24409366
7	0x3dbda5a5	0.0926011
8	0x3b23ca6c	0.002499248
9	0x3d9948f7	0.0748462
10	0xbd0b3e1e	-0.033994786
11	0x3e46aba2	0.1940141
12	0xbc544d69	-0.012957909
13	0x3e6156e1	0.22005798
14	0x3e82d5e6	0.25553817
15	0xbe1d2611	-0.15346552
16	0x3e835eea	0.2565835
17	0xbcfe886c	-0.03107091
18	0xbe175f59	-0.14782466
19	0x3db9bdad	0.09069381
20	0x3e9b66f6	0.3035199
21	0xbdcaf482	-0.099099174
22	0x3ca2483d	0.019809837
23	0x3e232c20	0.15934801
24	0xbe33517c	-0.17511553
25	0xbd338b8a	-0.043834247
26	0xbe230102	-0.15918353
27	0x3e38912e	0.18024132
28	0x3ec68c12	0.3877874
29	0x3e97348c	0.29532278
30	0xbde0c50b	-0.10975083
31	0x3ec10ee3	0.3770667
32	0x3ea0ab95	0.31380907
33	0xbeab35f7	-0.3343961
34	0x3cad1b71	0.02113125
35	0xbe2ee7ae	-0.17080566
36	0xbe2e0dcd	-0.16997452
37	0x3ddfabbd	0.10921428
38	0xbe8cf406	-0.27529925
39	0x3e4561cb	0.19275586
40	0x3d6abdff	0.0573101
41	0x3d0171e2	0.031602748
42	0xbe1c123a	-0.15241328
43	0x3e0210dc	0.12701744
44	0x3db7ed14	0.08980766
45	0x3db08792	0.08619608
46	0xba9f1393	-0.0012136571
47	0x3e7d9a56	0.24765906
48	0xbdb81f84	-0.08990386
49	0xbd00717b	-0.031358223
50	0xbdb60c61	-0.0888908
51	0x3d803304	0.062597305
52	0xbdc90d59	-0.09816999
53	0x3dd78fcc	0.10525474
54	0x3cbad4c8	0.02280654
55	0xbe6bc841	-0.2302561
56	0x3dc3e34d	0.095648386
57	0x3d249812	0.040184088
58	0x3e9dc3f1	0.30813554
59	0xbca542a6	-0.020173382
60	0xbe017fc0	-0.12646389
61	0x3d9d2f9a	0.07675095
62	0xbe3ce351	-0.1844609
63	0xbe10f9c2	-0.14157775
64	0x3e34642d	0.17616339
65	0xbe095d17	-0.13414417
66	0x3e948f79	0.2901571
67	0x3ec62c6a	0.3870576
68	0x3d696af4	0.056986764
69	0x3e3a576c	0.18197411
70	0xbe51301d	-0.2042851
71	0x3d94d5da	0.072673514
72	0xbe561028	-0.209046
73	0x3eb77474	0.35831034
74	0x3ddfeb1c	0.109335154
75	0xbe05f6d8	-0.13082445
76	0xbdbc155a	-0.0918376
77	0xbe401ef6	-0.1876181
78	0x3df9249b	0.12165185
79	0xbdda7c39	-0.10668225
80	0xbd034837	-0.03205129
81	0x3e9215fa	0.28532392
82	0x3de2fd42	0.11083461
83	0x3e59af05	0.21258171
84	0xbcc5c784	-0.024142988
85	0xbe7e1bf2	-0.24815348
86	0xbd8432b3	-0.064549826
87	0xbf0b5453	-0.54425544
88	0x3e6816eb	0.22664993
89	0xbe78053d	-0.24220748
90	0xbe609337	-0.21931158
91	0xbe03f859	-0.12887706
92	0xbe8e633f	-0.27810094
93	0x3d343c51	0.044002835
94	0xbe50080a	-0.20315567
95	0x3ed6f7ea	0.41986018
96	0x3d04d69f	0.03243124
97	0xbe929e48	-0.28636384
98	0x3cc3f751	0.02392164
99	0x3d0d4295	0.034487326
100	0xbe873970	-0.2641101
101	0xbe879f17	-0.26488563
102	0x3da84ce3	0.0821779
103	0xbd8765b3	-0.066111945
104	0x3e9b4532	0.3032623
105	0xbd96be09	-0.07360465
106	0xbe087028	-0.13324034
107	0xbe5e81cd	-0.21729203
108	0xbcc903af	-0.02453789
109	0x3d6abf1a	0.057311155
110	0xbdfce13f	-0.1234765
111	0xbe70a6aa	-0.23501077
112	0x3d7cb1b4	0.06169291
113	0x3dbdd8d5	0.09269873
114	0xbe25319c	-0.16132206
115	0xbe42fc2c	-0.19041508
116	0x3e39a3a9	0.18128838
117	0x3c00fce3	0.007872793
118	0xbea56969	-0.32306984
119	0x3eb657b7	0.35613796
120	0xbe3fccb9	-0.18730439
121	0xbe52ab6e	-0.20573208
122	0xbe84656c	-0.2585863
123	0xbdcfe45f	-0.1015098
124	0xbf1609c5	-0.5860866
125	0xbd27d7ea	-0.040977396
126	0xbe18e735	-0.14931948
127	0xbe1e9288	-0.15485585
128	0xbe21c882	-0.15799144
129	0x3e348d0d	0.17631932
130	0xbe1733a1	-0.14765789
131	0x3cbe13fb	0.023202887
132	0xbd3dfd1e	-0.04638397
133	0xbd90b941	-0.070665844
134	0x3cf65ac2	0.030072574
135	0xbce781b7	-0.028260095
136	0xbe2ff468	-0.17183077
137	0xbe47c274	-0.19507772
138	0xbe581964	-0.21103436
139	0x3c111efe	0.008857487
140	0xbd017b46	-0.031611703
141	0x3dc15fab	0.09442075
142	0xbdb664f4	-0.08905974
143	0xbde3a6bb	-0.11115786
144	0x3e4dc13a	0.20093241
145	0xbdebf07e	-0.115204796
146	0x3e92da5f	0.2868223
147	0xbedbfed8	-0.42967868
148	0x3caa6a29	0.020802574
149	0x3e090c47	0.1338359
150	0x3dc0939c	0.09403154
151	0x3df29235	0.11844293
152	0x3de52fd1	0.11190761
153	0x3c5aa7ae	0.013345642
154	0xbd93b33c	-0.072119206
155	0x3d3d17fc	0.04616545
156	0xbd57d9e1	-0.05269802
157	0x3d0af675	0.033926446
158	0x3d80dc68	0.06292039
159	0xbda264b9	-0.079293676
160	0xbe07b72a	-0.13253465
161	0x3ea3e568	0.3201096
162	0xbe85ca2e	-0.26130813
163	0x3da3e7f1	0.08003224
164	0xbdead1b2	-0.114657775
165	0x3db986ed	0.09058938
166	0xbe3f672c	-0.186917
167	0x3c092132	0.008369731
168	0x3e4e5ce3	0.20152621
169	0xbdf93724	-0.1216872
170	0x3c4b2e0e	0.012401117
171	0xbe68d765	-0.22738416
172	0xbe3a6c7a	-0.18205443
173	0x3dd21910	0.102586865
174	0x3e5a6864	0.21328884
175	0x3e94e0c5	0.29077736
176	0xbe52da6f	-0.20591138
177	0xbdce2eb1	-0.100674994
178	0xbc9d948a	-0.019235868
179	0xbe5a6d83	-0.21330838
180	0xbe69bfcc	-0.22827071
181	0x3e6bdb5d	0.23032899
182	0xbe6f6609	-0.23378767
183	0x3e419dda	0.18907872
184	0xbd2b2665	-0.041784663
185	0x3dcb086b	0.09913715
186	0xbc750aaf	-0.01495616
187	0x3e3c1a33	0.18369369
188	0xbe636019	-0.22204627
189	0xbe93c581	-0.2886162
190	0x3dbe8f46	0.09304671
191	0xbe953bba	-0.2914713
192	0xbca58520	-0.02020508
193	0x3e844b79	0.2583883
194	0xbd60758f	-0.054799613
195	0x3e60346e	0.21895
196	0x3e8d31e9	0.2757714
197	0xbe99efae	-0.30065674
198	0xbe2a462c	-0.16628331
199	0xbe4c580d	-0.19955464

lin2.weight f4 [200, 200]
0	0x3bd3b14a	0.0064603435
1	0xbe36c924	-0.17850167
2	0xba79a224	-0.0009522757
3	0x3e89132f	0.26772448
4	0xbd3af102	-0.04564
5	0xbd975f04	-0.0739117
6	0x3dcd1331	0.10013426
7	0x3c9ab4e8	0.018885091
8	0x3e70003a	0.23437586
9	0xbe794d76	-0.24345955
10	0x3e28f40c	0.16499346
11	0x3e32b3d3	0.1745141
12	0x3d4556dc	0.04817854
13	0x3e0e4e06	0.13896951
14	0x3dba0b60	0.09084201
15	0x3e7421d6	0.23841032
16	0x3aeb05e1	0.0017930829
17	0xbdfe07f3	-0.1240386
18	0xbe6715bc	-0.22566885
19	0xbd468395	-0.04846533
20	0xbd3e2e05	-0.046430606
21	0x3d25990b	0.040429156
22	0xbd0d7075	-0.034531076
23	0xbd6dcb3a	-0.05805514
24	0xbd83d165	-0.06436423
25	0xbd81035a	-0.062994674
26	0x3d930a09	0.071796484
27	0x3c804d01	0.015661718
28	0xbd118244	-0.03552462
29	0x3e050998	0.12991941
30	0xbe1d67bb	-0.15371601
31	0xbd0006a7	-0.031256344
32	0xbe3f9fb4	-0.18713266
33	0xbda31149	-0.07962281
34	0x3e22e172	0.15906313
35	0x3e7e1f26	0.2481657
36	0xbd921e92	-0.07134737
37	0x3e681648	0.2266475
38	0x3d2b8314	0.041873053
39	0x3cf3ac31	0.029745193
40	0xbe754c88	-0.23954976
41	0x3d3b71fe	0.04576301
42	0xbdec6727	-0.11543112
43	0xbd238699	-0.039923284
44	0xbda062aa	-0.07831319
45	0xbc4f684c	-0.012659144
46	0xbdd04772	-0.10169877
47	0x3d985b75	0.07439319
48	0xbe767a81	-0.24070169
49	0x3e321c69	0.1739365
50	0x3e1764aa	0.14784494
51	0xbd802d78	-0.062586725
52	0xbddff46b	-0.10935291
53	0xbdeba675	-0.115063585
54	0xbdfe2a26	-0.12410383
55	0x3dba8224	0.091068536
56	0xbe2f83b1	-0.1714008
57	0xbdd7b61b	-0.10532781
58	0xbe80134c	-0.25014722
59	0xbe121ad3	-0.14268045
60	0xbaa65b9d	-0.0012692098
61	0x3dae00ae	0.084962234
62	0x3bf63d2b	0.007514616
63	0x3e86c98d	0.26325646
64	0xbdd22ba6	-0.102622315
65	0xbe0cfcd8	-0.13768327
66	0xbdbbdeb1	-0.091733344
67	0x3d858b02	0.06520654
68	0x3dcabf1f	0.09899735
69	0x3d50662f	0.0508787
70	0x3d02e2d0	0.031954587
71	0xbd27b955	-0.04094823
72	0xbc0a168b	-0.008428226
73	0xbe052280	-0.13001442
74	0x3e5451cb	0.20734327
75	0x3c81d1e4	0.015847154
76	0x3cf735e0	0.030177057
77	0xbe1b0743	-0.15139489
78	0xbd53bb41	-0.05169225
79	0x3de95d4c	0.11394748
80	0x3c0274cb	0.007962416
81	0x3dc64d44	0.09682706
82	0x3c5aaef6	0.013347378
83	0x3d0d4dbd	0.034497965
84	0xbdf9b204	-0.12192157
85	0x3d9aefdc	0.07565281
86	0x3de59065	0.11209182
87	0xbdc864a5	-0.097848214
88	0xbd25237b	-0.04031704
89	0x3dafa304	0.08576015
90	0x3beeab28	0.007283587
91	0x3d6e8a44	0.05823733
92	0xbe2d2a28	-0.16910613
93	0xbe3e1165	-0.18561323
94	0x3c1bd19d	0.009510425
95	0xbdda7c2f	-0.106682174
96	0xbe0e1a4f	-0.13877223
97	0xbdc75ca9	-0.097344704
98	0x3d1bcb2b	0.038035553
99	0x3db9d67d	0.090741135
100	0x3ac4b997	0.0015008923
101	0xbdc32ad3	-0.095296524
102	0xbe24420c	-0.1604082
103	0x3e12c030	0.14331126
104	0xbd3861df	-0.045015212
105	0x3dbe02f0	0.09277904
106	0x3d8b44aa	0.06800206
107	0xbd140c81	-0.036144737
108	0x3d9aa6d4	0.07551351
109	0x3d11cde0	0.03559673
110	0x3e317fcf	0.17333911
111	0xbe053fd2	-0.13012627
112	0x3cc49a51	0.023999365
113	0x3cf35319	0.02970271
114	0x3d8a5baf	0.067557685
115	0xbbe34797	-0.0069360244
116	0xbd208332	-0.039187618
117	0x3d8c2888	0.06843668
118	0xbd782072	-0.060577817
119	0xbdc32a62	-0.09529568
120	0xbe2bd539	-0.16780557
121	0x3ca26c1f	0.019826947
122	0x3e0fce68	0.14043581
123	0xbdf33696	-0.11875646
124	0x3c472b39	0.012156301
125	0x3e50a07a	0.20373717
126	0x3e568614	0.20949584
127	0x3e8ff7fa	0.2811888
128	0x3e2cb4ec	0.16865891
129	0xbd1e0b6b	-0.038585108
130	0xbe36d0cc	-0.17853087
131	0xbc874abd	-0.01651513
132	0x3db350de	0.087556586
133	0xbda972da	-0.08273859
134	0xbd1271eb	-0.035753172
135	0xbe0f94df	-0.14021634
136	0xbe0d3428	-0.13789427
137	0x3e72b37a	0.23701277
138	0x3cdc3e5c	0.026885204
139	0xbd99e3a4	-0.07514122
140	0x3b216327	0.002462575
141	0xbe9ba453	-0.30398807
142	0x3e5fa2f6	0.21839508
143	0xbdb5a97a	-0.08870216
144	0xbe5b3fb6	-0.21411023
145	0xbcf50719	-0.029910611
146	0xbd2bfff1	-0.04199213
147	0x3cb1dba4	0.021711178
148	0xbde660e3	-0.112489484
149	0xbdc2fae8	-0.09520513
150	0x3e1d9ad1	0.15391089
151	0x3de4a1bf	0.11163663
152	0xbd9a7f36	-0.07543795
153	0x3d09972f	0.033591446
154	0x3da34daf	0.07973801
155	0x3bc9065d	0.0061347918
156	0xbe438977	-0.19095407
157	0xbdc32fc0	-0.09530592
158	0x3c9547f3	0.018222785
159	0x3e16bdee	0.1472089
160	0x3e330129	0.17480911
161	0x3d752126	0.059846066
162	0xbd7b04df	-0.061283942
163	0xbd30cea5	-0.04316582
164	0xbd7beea9	-0.0615069
165	0x3d8c8b16	0.06862466
166	0xbd2f5eee	-0.04281514
167	0xbe405fdd	-0.18786569
168	0xbdfe9024	-0.124298364
169	0x3cba017f	0.022705792
170	0x3d0efe02	0.03491021
171	0xbdd7c1e6	-0.1053503
172	0x3e12f496	0.14351115
173	0xbcdbd8d1	-0.026836785
174	0xbcdb3655	-0.026759306
175	0x3e4e850b	0.2016794
176	0x3e09f1cd	0.13471146
177	0xbe34614d	-0.17615242
178	0x3e93cc8f	0.28867003
179	0x3db014fc	0.085977525
180	0x3e2ec5bc	0.17067617
181	0x3e30a675	0.17250998
182	0xbd034b23	-0.032054078
183	0x3e6dee7b	0.23235504
184	0x3ccdfd88	0.025145307
185	0xbc05747d	-0.008145449
186	0xbe8be6b5	-0.27324453
187	0x3ddfef6c	0.10934338
188	0xbcbd5940	-0.023113847
189	0xbd4f039f	-0.050540563
190	0x3dca50ca	0.098786905
191	0xbd9b3269	-0.07577974
192	0xbe79e116	-0.2440227
193	0xbd1de4f3	-0.03854842
194	0xbbaa1fa8	-0.005191762
195	0x3e5372ea	0.20649305
196	0x3da8f96f	0.08250701
197	0x3e01cb6e	0.12675259
198	0xbd6a0416	-0.057132803
199	0xbda8cdb8	-0.08242363
200	0x3deed97c	0.116625756
201	0xbe18ec84	-0.14933974
202	0xbd83f90b	-0.064439856
203	0xbe2e9614	-0.17049438
204	0x3b01daf1	0.0019814337
205	0x3e237d49	0.15965761
206	0xbe7ce187	-0.24695407
207	0xbe1b0d47	-0.15141784
208	0x3e09f5ba	0.13472643
209	0xbc0e48db	-0.008684362
210	0xbdc3a71c	-0.09553358
211	0xbdb146f7	-0.086561136
212	0xbec43ebd	-0.38329116
213	0x3dc5ad68	0.09652215
214	0x3e49c9a5	0.19705828
215	0xbd6b30fc	-0.057419762
216	0x3d60af98	0.05485496
217	0xbd86459e	-0.06556247
218	0x3e372550	0.17885327
219	0x3eadaf57	0.33922836
220	0xbe86f860	-0.2636137
221	0xbe1f708e	-0.1557028
222	0x3d914d3e	0.07094811
223	0x3e5d7bfc	0.21629328
224	0x3e2d6d2c	0.16936177
225	0xbe7058b5	-0.23471339
226	0x3e67f5ba	0.22652331
227	0x3cd74d0e	0.02628186
228	0xbd9203bd	-0.07129619
229	0x3bdd7ea8	0.0067594834
230	0xbd945e41	-0.0724454
231	0xbd91b60f	-0.07114803
232	0xbe186be7	-0.14884911
233	0x3dd0658f	0.10175621
234	0x3c5c7122	0.013454707
235	0xbd4533e3	-0.048145186
236	0x3d3195c0	0.043355703
237	0xbe0ac68d	-0.13552304
238	0x3d6ba141	0.05752683
239	0xbdfd1d3c	-0.12359092
240	0x3ea830f9	0.32849863
241	0xbe134b82	-0.14384273
242	0x3d6f3bb8	0.05840656
243	0xbe618fb3	-0.22027473
244	0x3de3ecef	0.11129176
245	0xbe1b2abd	-0.15153022
246	0x3da02bfd	0.0782089
247	0xbe0d036b	-0.13770835
248	0xbe015560	-0.12630224
249	0x3d20caaa	0.039255776
250	0x3d68a449	0.0567973
251	0xbe15d90e	-0.14633581
252	0xbe4df9fc	-0.20114893
253	0xbe6624e5	-0.22475012
254	0xbe9a3754	-0.30120337
255	0x3e0505a6	0.12990436

lin2.bias f4 [200]
0	0xbdff54a5	-0.124673165
1	0xbe0c752d	-0.13716574
2	0xbe19fb65	-0.15037306
3	0xbe25ee2d	-0.16204138
4	0xbde04e3d	-0.10952423
5	0x3d5aebdc	0.05344759
6	0xbaa2aece	-0.0012411715
7	0xbb771e7e	-0.0037707384
8	0xbde2debc	-0.110776395
9	0x3bf3f0b6	0.0074444665
10	0xba07039a	-0.0005150378
11	0xbba5f34c	-0.0050644036
12	0xbd8c1130	-0.06839216
13	0x3e17a7fd	0.14810176
14	0xbe26a6f3	-0.16274624
15	0xbdd775e0	-0.1052053
16	0x3dd38ba8	0.10329372
17	0x3969e3f8	0.00022305537
18	0x3dbd25fd	0.09235761
19	0x3e0b7484	0.13618666
20	0xbdd6f31f	-0.104955904
21	0x3e2c32ad	0.16816206
22	0x3d978c5e	0.0739982
23	0x3e198d09	0.14995207
24	0x3d8dd466	0.069252774
25	0x3da197d2	0.078902856
26	0xbcfb4694	-0.030673303
27	0xbcd7df38	-0.026351556
28	0xbd231223	-0.03981222
29	0x3e82abb7	0.25521633
30	0xbe9bee0c	-0.30455053
31	0x3e73d648	0.2381221
32	0x3e5590fa	0.20856085
33	0x3e323f9d	0.17407079
34	0xbe8da0fd	-0.27661887
35	0xbe2d57a8	-0.1692797
36	0xbe859471	-0.26089814
37	0xbda0f20f	-0.07858669
38	0x3d80c2bc	0.06287143
39	0x3de9809e	0.11401485
40	0xbe1a427b	-0.15064423
41	0x3d76f0e1	0.060288314
42	0xbcffca99	-0.031224536
43	0xbde98b52	-0.11403526
44	0xbbca91cf	-0.0061819325
45	0x3e397801	0.18112184
46	0xbb71fa72	-0.0036922959
47	0x3d35adcd	0.044355202
48	0xbdb8aec6	-0.090177104
49	0xbcb56200	-0.022141457
50	0xbdd361b6	-0.10321371
51	0x3d7c943d	0.06166481
52	0xbd4785fe	-0.04871177
53	0x3def288d	0.11677656
54	0x3e13bcb1	0.14427449
55	0x3d626816	0.055275045
56	0x3be476cc	0.0069721695
57	0xbe400dd6	-0.18755278
58	0xbdb29d88	-0.08721453
59	0xbd08ef84	-0.033431545
60	0x3bf41476	0.007448728
61	0xbd12e088	-0.03585866
62	0x3d571f20	0.052519917
63	0x3bd7ef27	0.0065897885
64	0xbdba91e2	-0.09109856
65	0x3d888648	0.06666237
66	0x3d854416	0.06507127
67	0xbdf0641b	-0.117378436
68	0x3e2fa0ff	0.17151259
69	0x3d44edbe	0.04807829
70	0xbe6c263f	-0.23061465
71	0x3dcec7cd	0.10096703
72	0x3da44b5e	0.08022188
73	0x3de98068	0.11401445
74	0x3cd40553	0.025881445
75	0xbe83c71e	-0.25737852
76	0xbcfda3b1	-0.030961843
77	0xbcc0ebef	-0.023550002
78	0xbe3e5df4	-0.18590528
79	0xbe1c8c14	-0.1528781
80	0xbe58c150	-0.21167493
81	0xbe85715f	-0.26063058
82	0xbe55d422	-0.20881703
83	0x3d914424	0.07093075
84	0x3e18e94a	0.14932743
85	0xbe5d7553	-0.21626787
86	0x3e0b859a	0.13625184
87	0xbca90428	-0.020631865
88	0xbd92a4a9	-0.07160313
89	0x3deab916	0.114610836
90	0xbdea34c5	-0.11435846
91	0xbd643748	-0.055716783
92	0xbe674326	-0.22584209
93	0xbe3065e3	-0.17226367
94	0xbd9af000	-0.075653076
95	0xbdd663d3	-0.10468259
96	0x3e45bcb1	0.19310261
97	0x3e64ff8f	0.22363113
98	0xbe82dc13	-0.25558528
99	0x3e0608a3	0.13089232
100	0x3e5b6815	0.21426423
101	0xbe497607	-0.1967393
102	0x3e376c23	0.17912345
103	0xbe042f1f	-0.129086
104	0xbceeaa70	-0.029134005
105	0x3e82c545	0.2554113
106	0x3e01e03b	0.12683193
107	0x3d3ff66d	0.04686587
108	0x3e21ca05	0.1579972
109	0xbd605a58	-0.05477366
110	0xbd77fa01	-0.060541157
111	0x3dd6be3f	0.10485505
112	0x3eaa4aa0	0.3326006
113	0x3e545acc	0.20737761
114	0xbde304b7	-0.11084884
115	0x3d262778	0.040564984
116	0xbe404ae1	-0.18778564
117	0x3cc1400e	0.023590114
118	0x3e1b7a67	0.15183412
119	0xbe537df8	-0.20653522
120	0xbe48d8f9	-0.19614018
121	0xbdcf1a22	-0.10112406
122	0x3d073e32	0.0330183
123	0xbd2cd57a	-0.042195775
124	0x3d2c7dec	0.042112276
125	0x3e24330e	0.16035101
126	0x3e1606e5	0.14651068
127	0xbdb93d68	-0.090449154
128	0x3df4dda3	0.11956336
129	0x3e2c4f39	0.16827096
130	0x3dc3fa4b	0.09569224
131	0x3e4971f1	0.19672371
132	0x3e269e3b	0.16271298
133	0xbe0db125	-0.13837107
134	0x3d0d7de6	0.034543894
135	0x3b377e29	0.0027998781
136	0xbcc02836	-0.023456674
137	0xbce6625f	-0.028123079
138	0xbdac7796	-0.08421247
139	0x3db9da37	0.09074824
140	0xbe260750	-0.16213727
141	0xbd53ab62	-0.051677115
142	0x3e124464	0.14283901
143	0x3d042c9b	0.0322691
144	0x3dd4a16c	0.10382351
145	0xbe878f21	-0.26476386
146	0xbdb5a166	-0.08868675
147	0xbb8a744f	-0.004225291
148	0x3d3de529	0.046361122
149	0xbdac952f	-0.08426892
150	0x3d724c82	0.059154995
151	0x3d9d4dee	0.076808795
152	0x3e9d1582	0.30680472
153	0xbc70d2fb	-0.014698739
154	0xbd8a5e40	-0.06756258
155	0x3e5cd30c	0.21564883
156	0xbdda44ab	-0.106576286
157	0x3e5f0fa6	0.21783313
158	0x3beb33c3	0.0071778013
159	0x3d87594a	0.066088274
160	0x3d431236	0.04762479
161	0x3d08ed3b	0.033429366
162	0xbc8f763a	-0.01751243
163	0xbda83fc2	-0.08215286
164	0x3e29d2b5	0.16584285
165	0x3e7b3340	0.24531269
166	0x3db3294c	0.08748111
167	0xbe7617a1	-0.24032451
168	0x3df96ef8	0.12179369
169	0xbe05d5ca	-0.13069835
170	0x3e6d3e33	0.23168258
171	0xbe236220	-0.159554
172	0xbd7d975f	-0.061911937
173	0x3df4e635	0.11957971
174	0xbe0c3940	-0.13693714
175	0x3e4d87b5	0.200713
176	0xbe19fb2a	-0.15037218
177	0xbcac52cd	-0.021035576
178	0x3e191c73	0.14952259
179	0xbd8232c1	-0.06357337
180	0xbe43e588	-0.19130528
181	0xbdbb7b8f	-0.09154426
182	0xbe1a9170	-0.15094543
183	0x3cd35cd4	0.0258011
184	0x3cacf751	0.021114023
185	0x3e6fc0d7	0.23413406
186	0x3e347601	0.1762314
187	0xbe217624	-0.15767723
188	0x3e76590c	0.24057406
189	0x3d14005e	0.036133163
190	0xbe0fd411	-0.1404574
191	0xbe33220d	-0.17493458
192	0x3b8cf24c	0.004301345
193	0xbde749fc	-0.11293408
194	0x3e93e25e	0.28883642
195	0x3e63fead	0.2226512
196	0x3db8e427	0.090278916
197	0xbd79d033	-0.06098957
198	0x3e0579fa	0.13034812
199	0xbe011972	-0.12607363

lin3.weight f4 [200, 200]
0	0xbc1ca3b7	-0.009560517
1	0xbde41e6b	-0.11138614
2	0x3e4472b4	0.19184381
3	0xbc889293	-0.016671455
4	0x3d9163a6	0.070990846
5	0x3dc54ddc	0.09633991
6	0xbd037043	-0.032089483
7	0x3e000d97	0.12505184
8	0xbe582244	-0.21106821
9	0xbc8acb24	-0.016942568
10	0xbe422bd0	-0.18962026
11	0xbd86a58f	-0.065745465
12	0xbb2e535c	-0.002659998
13	0x3c34f933	0.011045742
14	0xbe2487b5	-0.16067393
15	0x3d83b6ba	0.06431337
16	0xbdfaae20	-0.12240243
17	0xbcfd5ea9	-0.030928927
18	0x3c9a23be	0.018815871
19	0xbd952d18	-0.072839916
20	0x3ca76384	0.020433195
21	0xbbf440bf	-0.0074540074
22	0xbe16ed28	-0.14738905
23	0x3ca7f875	0.020504216
24	0x3dd82331	0.10553587
25	0xbda9eb21	-0.082968004
26	0x3dc678f4	0.09691039
27	0x3e0c8f46	0.1372653
28	0xbde1262c	-0.10993609
29	0xbe0090a2	-0.12555173
30	0x3ca594f4	0.020212628
31	0xbe768125	-0.24072702
32	0xbccb15ef	-0.024790732
33	0x3e63d099	0.22247542
34	0x3e4d7b37	0.20066534
35	0x3d6e89f6	0.05823704
36	0xbd64e9a1	-0.05588687
37	0x3db885b9	0.090098806
38	0xbd3e5650	-0.046469033
39	0xbe10bad2	-0.14133766
40	0x3cc7cafd	0.024388785
41	0xbe991fa5	-0.29906955
42	0x3e612977	0.21988474
43	0x3cc5dc4d	0.0241529
44	0xbe93ceb8	-0.2886865
45	0x3df8cfe6	0.121490285
46	0x3d436552	0.04770405
47	0x3e394dd9	0.18096103
48	0xbe4de4ce	-0.20106813
49	0x39a86ac6	0.0003212301
50	0xbe62dd30	-0.22154689
51	0xbe12c1b0	-0.14331698
52	0xbe6b2f63	-0.22967295
53	0xbda3c802	-0.07997133
54	0x3d81af10	0.06332219
55	0x3e518c25	0.20463617
56	0x3e95a278	0.29225516
57	0xbe13742f	-0.1439979
58	0xbd889b8e	-0.06670295
59	0xbe3fdf89	-0.18737616
60	0x3de25a9a	0.11052437
61	0x3dfe4e8d	0.12417326
62	0xbe7567fc	-0.23965448
63	0xbc68611b	-0.014183308
64	0xbe263dac	-0.16234463
65	0xbe087783	-0.1332684
66	0xbe81a5cf	-0.25321814
67	0x3e629db3	0.2213047
68	0x3dab7d91	0.08373559
69	0xbd306639	-0.043066237
70	0xbc63f878	-0.01391422
71	0xbda007c8	-0.07813984
72	0xbdf346ba	-0.118787244
73	0x3d84b5cc	0.064799875
74	0x3e59a394	0.21253806
75	0xbea04dc2	-0.31309325
76	0x3d92f811	0.07176221
77	0xbe2c13a6	-0.1680437
78	0x3cb8263b	0.022479167
79	0x3e2484fd	0.16066356
80	0x3e80b31b	0.25136647
81	0x3e393d44	0.18089777
82	0xbdb4213b	-0.08795401
83	0x3e958d9b	0.292096
84	0xbc554262	-0.013016315
85	0x3ec6f0ff	0.3885574
86	0xbdd5d443	-0.10440876
87	0xbe72ec8a	-0.23723045
88	0x3e2afb8d	0.16697522
89	0xbec18386	-0.37795657
90	0x396616be	0.00021942981
91	0xbd4839f1	-0.048883382
92	0xbe0ad5da	-0.1355814
93	0x3d48c3f0	0.049014986
94	0x3dd3cb51	0.10341514
95	0x3d8cf88e	0.068833455
96	0x3e0926bb	0.13393681
97	0xbe5e9dfb	-0.21739952
98	0x3e433c52	0.19065979
99	0xbd362440	-0.044468164
100	0xbe22e20f	-0.15906547
101	0x3eaefb75	0.3417622
102	0x3d199433	0.03749485
103	0x3d9d9920	0.07695222
104	0xbe68b669	-0.22725834
105	0xbda87eba	-0.08227296
106	0xbcb2dbc8	-0.021833315
107	0x3d976a67	0.073933415
108	0x3e1d84cc	0.15382689
109	0x3dcbed23	0.099573396
110	0xbd7576e0	-0.05992782
111	0xbe0f8351	-0.14014937
112	0xbe85784d	-0.26068345
113	0x3e0a14d7	0.13484512
114	0xbe6c315e	-0.23065707
115	0x3cb2ed87	0.021841777
116	0x3ea67769	0.32512978
117	0x3d0705ad	0.032964397
118	0x3ceb2cd4	0.0287079
119	0x3d1b1e44	0.03787066
120	0x3e3ed583	0.18636136
121	0x3bb3b4df	0.005484208
122	0x3e089f3a	0.1334199
123	0x3c4ed08c	0.012622964
124	0xbe1c219e	-0.15247199
125	0xbed29a22	-0.4113322
126	0xbd356f9f	-0.044295903
127	0x3f040cc2	0.51581967
128	0xbea68b1a	-0.32528
129	0xbe0d3a86	-0.13791856
130	0xbe29e4ca	-0.16591182
131	0x3dc7a11e	0.097475275
132	0xbc254b6a	-0.010088781
133	0x3d8883a1	0.06665731
134	0xbe40aca4	-0.18815857
135	0xbe42ae40	-0.19011784
136	0xbe85155e	-0.25992864
137	0xbe461500	-0.19343948
138	0xbdc18194	-0.09448543
139	0xbe1b7ab7	-0.15183531
140	0x3e13a3aa	0.14417902
141	0xbea2d5ea	-0.31803828
142	0xbe9bac37	-0.30404827
143	0xbdf8f7db	-0.1215665
144	0x3e853104	0.26013958
145	0xbe294c00	-0.16532898
146	0x3e259e63	0.16173701
147	0x3d802281	0.06256581
148	0x3d6eaab2	0.058268256
149	0x3e140427	0.14454709
150	0xbcc5141b	-0.024057439
151	0x3e34df1b	0.17663233
152	0xbd4bfa9f	-0.049799558
153	0x3de34799	0.110976405
154	0x3daf9a74	0.085743815
155	0xbdeb22b6	-0.1148123
156	0x3dffffa2	0.1249993
157	0xbe26a7bb	-0.16274922
158	0xbe82bd4f	-0.25535056
159	0x3d907ccb	0.07055052
160	0xbe11ad0e	-0.14226171
161	0xbead62f5	-0.3386456
162	0x3d1c0402	0.03808976
163	0x3e0cdfb3	0.1375721
164	0xbc1a7012	-0.009426134
165	0xbca2a232	-0.019852731
166	0xbd6457d1	-0.05574781
167	0x3ecc7610	0.39933825
168	0x3dd569ef	0.10420596
169	0x3b6931bb	0.003558262
170	0x3d0d4bf5	0.034496266
171	0x3e091c32	0.13389662
172	0x3f05e9b9	0.5230976
173	0x3ea14f79	0.31505945
174	0xbd3e982f	-0.046531852
175	0xbe7a10f0	-0.24420524
176	0x3d43860a	0.04773525
177	0x3dc03c67	0.09386521
178	0xbe0c36e6	-0.13692817
179	0x3e564359	0.20924129
180	0x3d7c5374	0.061603025
181	0x3e4182df	0.1889758
182	0xbd8a28e3	-0.0674608
183	0x3e2cc82f	0.16873239
184	0x3cdd0f91	0.026984962
185	0x3d90148b	0.07035168
186	0x3db3e646	0.087841555
187	0xbdf086f2	-0.11744489
188	0xbcde6bf2	-0.027151082
189	0xbe874d5d	-0.2642621
190	0x3d29663f	0.041357275
191	0xbd234d82	-0.03986884
192	0xbe90b6a9	-0.2826436
193	0x3e4e0af3	0.20121364
194	0x3e0b888e	0.1362631
195	0xbd845354	-0.06461206
196	0xbdb58cc5	-0.0886474
197	0xbe661323	-0.22468238
198	0xbe33e01c	-0.1756596
199	0x3db41865	0.087937154
200	0x3e9446df	0.2896032
201	0xbca9cfe9	-0.020729022
202	0x3e0375da	0.12837926
203	0xbd186966	-0.03720989
204	0xbe313f8e	-0.173094
205	0x3b6be6a3	0.0035995624
206	0x3e18e451	0.14930846
207	0x3e323827	0.17404233
208	0xbe06a168	-0.13147509
209	0xbd9185c7	-0.07105594
210	0xbd0e610b	-0.034760516
211	0x3e87b9a3	0.26508817
212	0xbd155be2	-0.03646458
213	0xbe636e95	-0.22210152
214	0x3e00a730	0.12563777
215	0xbdde582a	-0.1085666
216	0x3e8bdb73	0.27315864
217	0x3de8f845	0.11375479
218	0xbd7e558e	-0.06209331
219	0xbdc6fae7	-0.097158246
220	0xbe336167	-0.17517625
221	0x3c9cc338	0.019136056
222	0xbc448372	-0.01199423
223	0xbd5c7e8e	-0.05383163
224	0xbc0cb685	-0.008588438
225	0xbcd5118a	-0.02600934
226	0xbe5044a2	-0.20338681
227	0xbd5512db	-0.052019935
228	0xbe9e28d1	-0.30890515
229	0x3d899236	0.06717341
230	0x3e33824f	0.17530178
231	0xbe316c32	-0.1732643
232	0xbd52b2d9	-0.051440094
233	0xbe686f50	-0.22698712
234	0x3e3c22cc	0.18372649
235	0xbbc7c3a7	-0.0060963216
236	0xbd083280	-0.033251286
237	0x3d19a659	0.037512157
238	0x3e2cca34	0.1687401
239	0xbd62b287	-0.05534604
240	0x3e45befc	0.19311136
241	0x3c8fea8c	0.017567895
242	0x3eb29066	0.34875792
243	0xbdbbb484	-0.0916529
244	0xbde69888	-0.11259562
245	0xbeaaf13f	-0.3338718
246	0xbd31131b	-0.04323111
247	0xbe42dea1	-0.19030239
248	0x3dc3eb24	0.09566334
249	0xbe7a94f6	-0.24470887
250	0x3e550146	0.20801267
251	0x3d80101a	0.06253071
252	0x3e246c03	0.16056828
253	0x3d932778	0.071852624
254	0x3e23eb58	0.16007745
255	0x3e34dcb7	0.17662321

lin3.bias f4 [200]
0	0xbdb109ed	-0.08644471
1	0x3e36aa43	0.17838387
2	0x3e5c0c22	0.21489003
3	0x3b73bc52	0.0037191105
4	0x3e93b62f	0.28849933
5	0xbdc333d3	-0.09531369
6	0x3e0b1785	0.1358319
7	0x3beb44df	0.007179841
8	0x3e103125	0.14081247
9	0xbdc0b41b	-0.094093524
10	0x3e647771	0.22311188
11	0x3d3337e7	0.043754485
12	0xbe725581	-0.2366543
13	0xbe6c4069	-0.23071446
14	0xbd87b4a9	-0.06626255
15	0x3e71ad44	0.23601252
16	0xbd3b488a	-0.045723476
17	0x3df5e91f	0.12007355
18	0x3d12ee18	0.035871595
19	0x3e8d3925	0.2758266
20	0xbd0c611e	-0.034272306
21	0xbc7e91a2	-0.015537651
22	0x3e219aea	0.15781751
23	0xbe3dc17d	-0.18530841
24	0x3e3513d3	0.17683344
25	0xbdc8383f	-0.09776353
26	0xbdafdb5a	-0.0858676
27	0x3ed7800d	0.42089882
28	0xbe314d8a	-0.17314735
29	0xbdb67f37	-0.08910983
30	0xbd92df63	-0.07171514
31	0xbdac4c53	-0.08412995
32	0xbde22a0a	-0.110431746
33	0x3e6be67f	0.23037146
34	0xbd2767c9	-0.04087046
35	0xbe16e6fe	-0.14736554
36	0xbe6071bd	-0.21918388
37	0x3e852fa0	0.26012897
38	0x3d99822e	0.07495533
39	0x3db08d22	0.08620669
40	0x3e34f752	0.1767247
41	0x3e406561	0.18788673
42	0x3cf60c88	0.030035272
43	0xbc196305	-0.009361987
44	0x3e34bde5	0.17650564
45	0x3e35dd96	0.1776031
46	0x3e569d1d	0.20958371
47	0x3e64e685	0.22353561
48	0x3c4adc95	0.012381692
49	0xbd5fd7ae	-0.054649048
50	0x3e00332c	0.1251952
51	0xbda51623	-0.08060863
52	0x3e1ea4db	0.15492575
53	0xbd797ce1	-0.06091011
54	0x3d9b6967	0.07588463
55	0x3d1ed5b9	0.03877804
56	0x3df386b6	0.118909284
57	0xbe011ecf	-0.12609409
58	0x3dd7dd91	0.10540307
59	0xbe5905fc	-0.21193689
60	0x3e753ade	0.23948237
61	0xbde1ac78	-0.11019224
62	0x3ea4e7c7	0.32208082
63	0xbc9ee098	-0.019394204
64	0x3d104bb5	0.03522845
65	0xbdcfc8d8	-0.1014573
66	0x3e3b08a8	0.18265021
67	0x3aacf3bc	0.0013195197
68	0x3dd399cd	0.103320695
69	0xbed1198a	-0.40839797
70	0xbe8f7c75	-0.2802464
71	0xbe683a04	-0.22678381
72	0xbe5c3466	-0.21504363
73	0x3e9081f8	0.28224158
74	0x3e0acf07	0.13555537
75	0xbe2b0577	-0.16701303
76	0x3e15ae0c	0.14617175
77	0x3d1a9b39	0.037745688
78	0xbe6eeed4	-0.23333293
79	0x3d245186	0.04011681
80	0xbe7b45e8	-0.24538386
81	0xbee47d76	-0.4462697
82	0xbe218a3a	-0.15775385
83	0xbe94462e	-0.28959793
84	0xbe40d344	-0.18830591
85	0x3d9b22dd	0.07575009
86	0x3e8410df	0.25794122
87	0xbd157c78	-0.036495656
88	0xbd2aafc3	-0.041671526
89	0x3dc4e674	0.09614268
90	0xbed9b6a5	-0.4252216
91	0xbe489648	-0.19588578
92	0x3d65d0d0	0.056107342
93	0xbdee1df7	-0.11626809
94	0xbe53179f	-0.2061448
95	0xbe9abff8	-0.30224586
96	0xbe921a08	-0.28535485
97	0xbde702b3	-0.11279812
98	0xbe97cd96	-0.29649037
99	0xbe8d63c0	-0.27615166
100	0xbbf22ae8	-0.0073903687
101	0xbc527d9c	-0.01284733
102	0x3e0c73d4	0.1371606
103	0xbe44e0e2	-0.19226411
104	0x3d99821a	0.07495518
105	0xbe779200	-0.24176788
106	0x3d0169d5	0.03159507
107	0x3e14fb3f	0.14548968
108	0x3de450c8	0.1114822
109	0xbdcbd392	-0.09952463
110	0xbd9d7b5a	-0.07689543
111	0xbd9e02d5	-0.07715384
112	0x3cdff2b9	0.027337419
113	0x3e4d00ff	0.20019911
114	0xbdd78ddb	-0.10525104
115	0x3c7cb6d4	0.015424449
116	0xbe20b989	-0.15695776
117	0xbea8bd13	-0.32956752
118	0x3d5d4d3b	0.05402873
119	0xbd73f615	-0.059560854
120	0x3b2f66fb	0.0026764262
121	0xbe2543bd	-0.16139121
122	0x3e0bf600	0.1366806
123	0x3dd7a6f5	0.105298914
124	0x3e4d5b88	0.20054448
125	0xbe249ef6	-0.16076264
126	0x3d902de5	0.07040004
127	0x3b60fa81	0.0034329
128	0x3e7fd000	0.2498169
129	0x3da9ed6a	0.08297236
130	0x3dc57300	0.09641075
131	0xbe2bf02f	-0.16790842
132	0xbea589b3	-0.3233162
133	0xbdfc1e4e	-0.12310468
134	0x3e532051	0.20617796
135	0x3e2e5f59	0.1702856
136	0x3d8ae84b	0.067825876
137	0x3e215682	0.15755656
138	0xbcc878da	-0.024471689
139	0x3e590baf	0.21195863
140	0xbe000388	-0.12501347
141	0xbd1fd3bd	-0.03902029
142	0xbe26731a	-0.16254845
143	0xbe6ea745	-0.23305996
144	0xbd8624a5	-0.06549958
145	0xbed5b07a	-0.41736203
146	0x3e082f47	0.13299285
147	0xbe330f4a	-0.17486301
148	0x3e852d5c	0.2601117
149	0x3e9c7e07	0.305649
150	0x3e946f15	0.28991
151	0xbd0353aa	-0.03206221
152	0x3e7eecf8	0.24895084
153	0xbe8b0c7b	-0.2715796
154	0x3dc38ef6	0.09548752
155	0x3cc33d7a	0.023833025
156	0x3abfc25c	0.0014630067
157	0x3d6f8b71	0.05848259
158	0xbe3d1f65	-0.18469007
159	0x3d80dfe1	0.062927015
160	0x3e447f9f	0.19189309
161	0x3e9b185a	0.30292016
162	0x3dad347f	0.084572785
163	0x3d808454	0.062752396
164	0x3e843337	0.25820324
165	0xbd961610	-0.07328427
166	0xbdeda38b	-0.11603459
167	0x3c8f2ca7	0.017477347
168	0x3d9977ea	0.07493575
169	0xbdae12f3	-0.08499708
170	0xbe2903b4	-0.16505319
171	0x3df5c42e	0.12000309
172	0x3d46e7c7	0.048560884
173	0xbe9ac064	-0.30224907
174	0x3de4a3df	0.111640684
175	0xbe262267	-0.16224061
176	0x3d406b8f	0.046977576
177	0xbd98b835	-0.0745701
178	0x3d8847d5	0.06654326
179	0xbd784f7e	-0.060622685
180	0xbd200444	-0.039066568
181	0xbe1c7abf	-0.15281199
182	0xbd6e1f9c	-0.058135614
183	0x3e302584	0.17201811
184	0xbc85d4f4	-0.016336896
185	0x3e8cd585	0.27506652
186	0xbe1592f3	-0.14606838
187	0x3cfcda8f	0.030865936
188	0x3c7173bf	0.014737069
189	0xbe19d3af	-0.15022157
190	0x3d4f170e	0.050559096
191	0x3dc28d5b	0.09499618
192	0x3df1fc76	0.11815731
193	0x3eb63c28	0.3559277
194	0xbdb1a504	-0.08674052
195	0x3dd6eccc	0.10494384
196	0x3e5abb22	0.21360448
197	0x3dbf513e	0.093416676
198	0x3e853205	0.26014724
199	0xbd92ee0e	-0.071743116

lin4.weight f4 [62, 200]
0	0x3e36d2a5	0.17853792
1	0xbf0de279	-0.55423695
2	0x3f446608	0.7671819
3	0x3e02496b	0.12723319
4	0x3e3ee2a4	0.18641144
5	0xbecd9de3	-0.4015952
6	0x3e197581	0.1498623
7	0xbf437bdd	-0.76360875
8	0x3e474f57	0.1946386
9	0xbe3330fc	-0.17499155
10	0x3f68ddd3	0.90963477
11	0x3ec25c48	0.3796103
12	0x3e91f8ab	0.2851003
13	0x3e0f905f	0.14019917
14	0x3ea02235	0.31276098
15	0x3e9506b3	0.29106674
16	0xbdde8096	-0.108643696
17	0x3f19efc9	0.6013151
18	0xbf06432f	-0.52446264
19	0xbf32a120	-0.6977711
20	0xbed87dca	-0.4228347
21	0x3f28e69d	0.6597689
22	0xbf063afb	-0.5243375
23	0x3eec7445	0.46182457
24	0xbebe4519	-0.37162092
25	0xbdac8f36	-0.08425753
26	0x3f3510bf	0.7072868
27	0x3e2134bc	0.15742773
28	0xbf150e47	-0.5822491
29	0x3f13ac2f	0.57684606
30	0xbe25e834	-0.1620186
31	0x3e32a3e0	0.17445326
32	0x3eaac25e	0.33351415
33	0x3efc6754	0.49297583
34	0x3ef0161d	0.4689187
35	0x3c27dc1e	0.010245351
36	0x3f3a9b0c	0.7289283
37	0x3ebd50c8	0.36975694
38	0x3f5f62e9	0.872603
39	0x3ebb9ce0	0.36643124
40	0x3ef88ba9	0.48544052
41	0xbef79de8	-0.4836266
42	0xbf3e85b6	-0.74422777
43	0xbea3ba32	-0.31977993
44	0xbeac8993	-0.3369871
45	0x3f29bbf7	0.66302437
46	0xbe9ea178	-0.30982566
47	0x3eadc347	0.33938047
48	0xbf7044e0	-0.93855095
49	0x3ed3fd2d	0.41404095
50	0x3d91e054	0.07122865
51	0x3d8ffcda	0.070306495
52	0xbeb3b174	-0.35096323
53	0x3f4338ba	0.7625843
54	0xbddc1a75	-0.10747234
55	0xbf44c850	-0.7686815
56	0xbf2a29e4	-0.6647017
57	0xbb8aad33	-0.0042320727
58	0x3dba2bbc	0.09090373
59	0xbe21ae79	-0.15789212
60	0xbebaa10b	-0.3645099
61	0xbe176fa0	-0.14788675
62	0x3b44075a	0.0029911608
63	0x3f0b803a	0.54492533
64	0xbe4f6a88	-0.20255482
65	0xbef58bed	-0.47958317
66	0x3ea7de9e	0.3278703
67	0x3ba2b4e0	0.0049654096
68	0xbd8e8e20	-0.06960702
69	0x3cfb3629	0.030665474
70	0xbdfdc266	-0.12390594
71	0xbe6358b3	-0.22201805
72	0xbea5906a	-0.32336742
73	0xbe30dfba	-0.17272845
74	0x3e885e37	0.2663438
75	0xbe576304	-0.21033865
76	0x3da1adc4	0.07894471
77	0xbed1fc0f	-0.41012618
78	0x3ec6cae6	0.38826674
79	0xbf50e981	-0.816063
80	0x3d602eaf	0.05473202
81	0x3f589b85	0.84612304
82	0xbf1888bc	-0.5958364
83	0xbeff8e3f	-0.49913213
84	0xbca5528f	-0.020180969
85	0x3e6a1f62	0.22863534
86	0xbe6edbb3	-0.23325996
87	0xbf3426ff	-0.70372003
88	0x3f3a56d5	0.72788745
89	0xbd5b701b	-0.05357371
90	0xbf0c4faa	-0.5480906
91	0xbed238c3	-0.4105893
92	0x3e983be3	0.2973319
93	0xbe2f997c	-0.17148393
94	0xbc63b1fd	-0.013897416
95	0x3f0f38f0	0.55946255
96	0xbcf08852	-0.029361878
97	0xbe3e30e1	-0.18573333
98	0x3dbf5517	0.093424015
99	0x3d8d1bca	0.06890066
100	0xbea419d9	-0.3205097
101	0xbf1d429e	-0.61429775
102	0x3d85e1db	0.06537219
103	0xbf35b2ba	-0.7097584
104	0x3ed3f17b	0.41395172
105	0xbe8c5200	-0.2740631
106	0x3d87b01c	0.06625387
107	0x3ea35cbb	0.31906685
108	0x3e7f42d6	0.2492784
109	0xbe515ea6	-0.20446262
110	0x3efedc5e	0.49777502
111	0xbe7d9211	-0.24762751
112	0xbdcbb1b9	-0.09946007
113	0x3eb7863b	0.35844597
114	0x3f145e2d	0.579562
115	0x3f016c1d	0.5055559
116	0xbebe54b7	-0.37174007
117	0x3f3b9d26	0.73286664
118	0x3eeee618	0.46659923
119	0xbd138287	-0.036013152
120	0xbee60d88	-0.449322
121	0x3f1e2099	0.6176849
122	0xbf000f8a	-0.5002371
123	0xbee03038	-0.43786788
124	0xbe92b7e7	-0.2865593
125	0x3f01f6c3	0.50767154
126	0xbf3db412	-0.7410289
127	0x3defb02d	0.11703525
128	0x3f3c3cc2	0.7353021
129	0xbddd62a3	-0.10809829
130	0x3dc6a8ff	0.09700202
131	0x3f16e064	0.5893614
132	0xbeb67fa1	-0.35644248
133	0x3dafe84e	0.085892305
134	0xbbb82d1c	-0.005620612
135	0x3e86394b	0.26215586
136	0xbe0281fb	-0.12744896
137	0x3e90b491	0.2826276
138	0xbed5f1d1	-0.41786054
139	0xbecb8baf	-0.39755008
140	0x3e82b04e	0.25525135
141	0x3f0f4a6f	0.5597295
142	0xbe09430f	-0.13404487
143	0xbf4620ab	-0.773936
144	0x3e6d9029	0.23199524
145	0x3f09205e	0.53565013
146	0x3dc63e79	0.096798845
147	0xbd954477	-0.07288449
148	0xbf625284	-0.8840716
149	0xbdeb4103	-0.114870094
150	0xbec47f22	-0.38378245
151	0x3f212d71	0.62959963
152	0x3f10fba5	0.5663398
153	0x3d2ac8d1	0.04169542
154	0xbdb84d2c	-0.08999094
155	0xbea574ed	-0.3231577
156	0x3eee3ae8	0.46529317
157	0xbe38ce8f	-0.18047546
158	0xbecd3e0f	-0.4008641
159	0xbf324699	-0.69638973
160	0xbf1c5529	-0.61067444
161	0xbe976433	-0.29568633
162	0x3ece32a5	0.40273014
163	0xbf148afe	-0.58024585
164	0x3eb4ba0a	0.35298187
165	0xbf02251d	-0.5083788
166	0xbf2207a8	-0.6329293
167	0xbf09ef50	-0.53880787
168	0xbf71f3ba	-0.9451252
169	0xbe07b06e	-0.13250896
170	0x3d3af427	0.045642998
171	0x3dae25df	0.08503317
172	0xbf233da1	-0.63765913
173	0x3eece12f	0.4626555
174	0x3f3b30cd	0.7312134
175	0x3da2f068	0.0795601
176	0x3e88916f	0.26673457
177	0x3f136bb9	0.57586247
178	0x3e9d2c70	0.30697966
179	0x3e8cc46f	0.27493617
180	0xbe95ce95	-0.29259172
181	0x3f2311f0	0.63699245
182	0xbefdee44	-0.49595845
183	0xbf4cb5ef	-0.7996511
184	0x3ebe3da4	0.37156403
185	0x3ed88940	0.42292213
186	0x3e44119a	0.1914734
187	0xbe32ee4e	-0.17473719
188	0x3df87e47	0.121334605
189	0xbf72457b	-0.9463727
190	0xbeb9735f	-0.36220834
191	0x3e0fb631	0.14034344
192	0xbea76e8e	-0.32701534
193	0x3ec650d5	0.38733545
194	0xbf5da389	-0.8657766
195	0x3f2843c6	0.65728414
196	0xbd64f9ee	-0.055902414
197	0xbef53129	-0.4788907
198	0xbe2a73bf	-0.16645716
199	0xbe8b7d86	-0.27244204
200	0xbdd291ef	-0.10281741
201	0x3e1a4bcc	0.15067977
202	0x3e3ab4e0	0.18233061
203	0x3e88170b	0.2658008
204	0x3ecfc537	0.4058015
205	0xbedec2cb	-0.4350799
206	0xbf035416	-0.5130018
207	0xbe54a6b7	-0.20766722
208	0x3ebd9597	0.3702819
209	0xbe817762	-0.25286394
210	0xbd2e9a3c	-0.042627558
211	0x3f382d03	0.7194368
212	0x3e092448	0.13392746
213	0xbe3b8271	-0.18311478
214	0xbce071a3	-0.027397936
215	0xbe3c3962	-0.18381265
216	0xbd82b316	-0.06381814
217	0x3db02057	0.08599918
218	0xbeafbe4e	-0.34324878
219	0xbea7b5e8	-0.3275597
220	0x3eb9d98e	0.36298794
221	0x3d2b0758	0.04175505
222	0xbefddc60	-0.49582195
223	0x3e7c8a96	0.24662241
224	0xbeb39a20	-0.35078526
225	0xbe102ec2	-0.14080337
226	0x3e6acbf0	0.22929358
227	0xbe25446d	-0.16139384
228	0xbe9796f2	-0.2960735
229	0xbf000eac	-0.5002239
230	0x3e52cbd3	0.20585565
231	0xbf240ae5	-0.64079124
232	0xbecb192c	-0.39667642
233	0xbdb92918	-0.09041041
234	0xbede284f	-0.43390128
235	0xbe934c35	-0.2876908
236	0xbecdcdd6	-0.40196103
237	0x3f05a7a9	0.52208954
238	0x3e9df05c	0.30847442
239	0xbde93e4c	-0.11388835
240	0x3c848d4a	0.016180653
241	0xbdcb4e4b	-0.099270426
242	0xbe0dad66	-0.13835678
243	0x3f242728	0.6412225
244	0xbf180b27	-0.5939202
245	0x3de5e590	0.11225426
246	0xbf0c515f	-0.5481166
247	0xbea68d82	-0.32529837
248	0xbef38689	-0.4756358
249	0x3ef8507f	0.48498914
250	0xbdd0cbea	-0.101951435
251	0x3f2bd4f8	0.6712184
252	0xbf35e978	-0.7105937
253	0x3ddf150a	0.10892685
254	0x3e5291f5	0.2056349
255	0xbedb4485	-0.42825714
