qn1/weights/model_weights_b10_em12.pth (torch, 474879 bytes, 9 tensors)

emb.weight f4 [62, 12]
-0.56904507 0.76752806 0.13726403 -1.0357287 0.13173878 -0.042478055 0.06011716 0.34753898
-0.7414158 -0.5197554 0.13079911 0.44484985 -0.042052574 -0.28514895 0.15412775 0.08862212
0.20176043 1.0332979 -0.41567102 0.39201316 -0.8430129 -0.08585651 -0.71447474 0.22674455
-0.44818193 0.49408048 0.53956074 0.36588493 0.34259686 0.11955538 -0.023492297 0.009728592
-0.04195104 -0.9816256 -0.33414325 -0.25727862 -0.977171 1.2575943 -0.58130103 -0.12748663
0.3752628 0.13136302 0.677734 -0.19194306 -0.39566743 0.39622888 0.7396839 0.87669516
0.32411158 1.0836934 -0.42814553 0.8662715 0.20127158 -1.069848 0.065570444 0.72592604
0.35004124 -1.1301631 -1.0069137 -0.96142465 -0.30646542 -0.16647792 -0.9401374 -0.59333557
0.942553 0.6621164 -0.024096005 0.29337025 0.88025165 0.19812337 0.10654458 0.27995092
0.043428976 0.6734276 -0.22468767 -0.33051 1.0524217 0.053572685 -1.1138241 -0.59014076
0.41903532 -0.18897048 -0.34387374 -0.1873983 -0.47334954 0.71966344 -1.0745826 0.24020803
1.3361542 -0.09400874 0.90107995 0.44447812 -0.60646635 0.6722525 0.43659917 -0.5224189
1.5436046 -0.33945215 -0.016228506 0.6539021 -0.8235779 -0.13271615 -0.16340771 1.0681568
-0.30294085 -0.47161603 0.25399378 0.12304801 -0.4966192 0.22049344 0.42057735 -0.7150007
0.58837765 -0.84888834 0.5127909 -0.2734884 -0.18982552 -0.42900443 -0.70512116 0.02004176
0.045322023 0.5458529 -0.690328 -1.0819261 0.20988038 -0.37350067 -0.22925308 0.45427874
0.13240239 -0.20371322 -0.34177086 -0.09316737 0.59444714 0.3188494 0.24559125 -0.28183648
-0.83623725 -1.0638659 0.06197673 -0.7137424 -0.940953 0.04980718 -0.5884932 -0.20828527
1.3135098 -1.4775206 0.13456117 0.23884696 -0.10917804 -0.15999682 -0.26190594 0.13316643
0.44346303 -1.1941911 0.913601 -0.12211636 -0.50277627 -0.03580105 0.18122914 0.045075655
0.10819952 0.60571486 -0.7588355 -1.2775806 -0.491349 -0.19314615 0.73728585 -0.049121313
0.6297314 0.5644646 -0.65793186 -0.026413709 0.2542862 -0.12656772 -0.12614954 -0.7317566
-0.2617604 0.20466092 0.38604948 -0.08106289 -0.98589313 0.024486603 0.83072054 -0.29471445
-0.114209384 -0.4906157 -0.09521015 0.37845612 0.3178521 -0.37785286 -0.3223885 -0.011216113
0.08050556 0.55522007 1.0940982 -0.45670605 1.4695766 -0.08284928 1.0935345 0.30393696
-0.056077708 1.0408359 0.40474802 -0.1635249 0.6708132 -0.20061363 0.80007386 0.23997039
1.1980518 -0.90289205 -0.011104796 -0.42148098 0.4548928 -1.095533 0.36582872 -0.20938951
-0.2987224 0.47129235 -0.1565277 -0.44487908 0.6099779 -0.92939603 0.54634875 -0.55927086
0.05260973 0.15025005 -0.3020584 -0.12924382 0.9229286 -0.054698378 -0.45926613 -0.23319656
0.76958543 0.3709825 -0.9756058 -0.407886 0.24754669 -0.059288498 0.3304703 0.38073266
0.6455054 -0.34301937 0.58262575 -0.53275925 0.28075066 -0.5846597 -0.1909157 -0.67975235
0.35841173 0.5386711 0.030770486 0.882524 1.0999546 0.23181115 -0.11901085 0.1740187
00000000: f0ac 11bf b87c 443f f18e 0c3e c292 84bf
00000010: 88e6 063e 78fd 2dbd 693d 763d a1f0 b13e
00000020: 6dcd 3dbf b10e 05bf 34f0 053e 5cc3 e33e
00000030: 523f 2cbd 0bff 91be aad3 1d3e 847f b53d
00000040: 499a 4e3e 1b43 843f d5d2 d4be f3b5 c83e
00000050: b2cf 57bf 8ad5 afbd d1e7 36bf b92f 683e
00000060: 1a78 e5be 1ef8 fc3e a720 0a3f 4555 bb3e
00000070: db68 af3e 73d9 f43d eb72 c0bc ac64 1f3c
00000080: dbd4 2bbd d14b 7bbf d314 abbe 06ba 83be
00000090: e127 7abf daf8 a03f 25d0 14bf db8b 02be
000000a0: 7222 c03e 0784 063e fa7f 2d3f b98c 44be
000000b0: ec94 cabe 83de ca3e ed5b 3d3f 186f 603f
000000c0: f4f1 a53e 77b6 8a3f e435 dbbe f8c3 5d3f
000000d0: 231a 4e3e c7f0 88bf cc49 863d 4ad6 393f
000000e0: 9b38 b33e 2fa9 90bf 8ce2 80bf ed1f 76bf
000000f0: 09e9 9cbe 3079 2abe d8ac 70bf d7e4 17bf
00000100: 274b 713f 7680 293f fc64 c5bc a034 963e
00000110: 2c58 613f dae0 4a3e 0b34 da3d ba55 8f3e
00000120: 95e2 313d c065 2c3f 8614 66be 9b38 a9be
00000130: c1b5 863f 086f 5b3d ca91 8ebf 7713 17bf
00000140: cc8b d63e 7a81 41be 3810 b0be 57e5 3fbe
00000150: df5a f2be dd3b 383f ec8b 89bf 18f9 753e
00000160: 1a07 ab3f a787 c0bd 2dad 663f a392 e33e
00000170: 6141 1bbf bd18 2c3f ed89 df3e 3fbd 05bf
00000180: d694 c53f accc adbe a5f1 84bc 2166 273f
00000190: 00d6 52bf bee6 07be 5a54 27be 5db9 883f
000001a0: 101b 9bbe a877 f1be 790b 823e 9800 fc3d
000001b0: df44 febe 08c9 613e ea55 d73e 490a 37bf
000001c0: eb9f 163f bf50 59bf 4446 033f ac06 8cbe
000001d0: 9f61 42be 78a6 dbbe d282 34bf 9e2e a43c
000001e0: 96a3 393d 04bd 0b3f 56b9 30bf 8e7c 8abf
000001f0: e2ea 563e 7b3b bfbe 52c1 6abe 3997 e83e
00000200: 7e94 073e 339a 50be 97fc aebe 89ce bebd
00000210: b02d 183f 3b40 a33e 467c 7b3e df4c 90be
00000220: a513 56bf c22c 88bf 50db 7d3d d2b7 36bf
00000230: 4ce2 70bf 9d02 4c3d 7ea7 16bf bc48 55be
00000240: 1721 a83f 651f bdbf 67ca 093e 4c94 743e
00000250: bc98 dfbd 35d6 23be 8918 86be c85c 083e
00000260: 960d e33e 41db 98bf c1e1 693f 2418 fabd
00000270: f2b5 00bf 1fa4 12bd 2294 393e 40a1 383d
00000280: b697 dd3d 2110 1b3f 0b43 42bf c387 a3bf
00000290: 1992 fbbe 1bc8 45be c4be 3c3f 6e33 49bd
000002a0: 1436 213f c180 103f 396e 28bf 9061 d8bc
000002b0: cd31 823e f89a 01be 582d 01be 6754 3bbf
000002c0: 7605 86be a292 513e 47a8 c53e 4d04 a6bd
000002d0: 7e63 7cbf 2198 c83c 1aaa 543f d0e4 96be
000002e0: 9ce6 e9bd fb31 fbbe 8afd c2bd 00c5 c13e
000002f0: 83bd a23e ee75 c1be 1b10 a5be cac3 37bc
00000300: 19e0 a43d e722 0e3f 690b 8c3f 60d5 e9be
00000310: 161b bc3f e2ac a9bd f0f8 8b3f a09d 9b3e
00000320: bdb1 65bd 1c3a 853f 223b cf3e 1273 27be
00000330: 6aba 2b3f a96d 4dbe a4d1 4c3f ccba 753e
00000340: c359 993f ef23 67bf e4f0 35bc 5bcc d7be
00000350: b6e7 e83e 6d3a 8cbf e74d bb3e 346a 56be
00000360: 24f2 98be 3b4d f13e cc48 20be 31c7 e3be
00000370: 8327 1c3f e6ec 6dbf 83dd 0b3f 602c 0fbf
00000380: 4d7d 573d 26db 193e 66a7 9abe 7e58 04be
00000390: 0c45 6c3f 680b 60bd ee24 ebbe 14cb 6ebe
000003a0: 8d03 453f 6bf1 bd3e 4dc1 79bf 6fd6 d0be
000003b0: e17c 7d3e 7fd8 72bd 6733 a93e 64ef c23e
000003c0: d83f 253f 3ca0 afbe f626 153f e962 08bf
000003d0: 8dbe 8f3e 42ac 15bf 687f 43be 4004 2ebf
000003e0: be81 b73e 59e6 093f 6312 fc3c 18ed 613f
000003f0: 50cb 8c3f e75f 6d3e f6bb f3bd f531 323e

lin1.weight f4 [200, 120]
-0.014787907 -0.028432924 0.1133675 -0.03678136 0.14949621 -0.089099504 -0.008160139 0.09734375
-0.082155295 -0.2200071 -0.0025110228 0.077080294 0.09828734 0.10840719 0.022614708 -0.0475676
0.17034276 0.13784936 -0.05479337 -0.02269583 0.2501324 0.041663382 0.021676907 0.08515613
0.026236404 0.07181132 -0.07460899 0.027645236 0.0259903 0.080846645 -0.019559922 -0.02538654
0.0061945375 0.06138889 -0.10658565 -0.0909341 0.04134708 0.24906704 -0.21076855 -0.013997222
-0.010714246 0.18821925 -0.016547825 -0.012205351 0.020232439 0.060513373 0.048655644 -0.08903398
0.016820887 -0.045631275 -0.03791781 -0.2924268 0.22520591 -0.07114029 -0.047474083 0.06437374
-0.013766064 0.003480234 -0.21576749 0.13870686 0.05502138 0.12653162 -0.0342783 -0.030434282
-0.04526883 0.035774395 0.1781212 -0.013264411 0.042926595 -0.1729488 -0.075562805 -0.05904878
-0.044219095 0.07606416 0.1317318 0.082136095 0.11121672 0.014506615 -0.10789957 -0.1092427
-0.13643843 0.17421357 -0.105067074 -0.010236769 0.35037297 -0.14118594 0.2698655 0.31473926
-0.32507417 0.2580358 0.3320998 0.024160273 0.09706917 -0.30122823 -0.29617903 0.0057390123
0.14870283 -0.4745087 -0.42288443 -0.8293642 0.45251185 -0.32062045 -0.740472 0.4593892
-0.52698314 0.28379878 0.17004621 -0.26048833 -0.3571905 -0.11805028 0.2515486 -0.35034055
-0.18623176 0.10836648 -0.23710422 -0.026550792 -0.060538143 -0.09691809 0.37415713 0.25324547
-0.1446588 -0.087898076 0.08032225 -0.025042234 0.14801215 0.09344117 0.13857679 0.014821938
0.042611286 -0.115496226 0.030533293 -0.14426722 -0.16025974 -0.21490432 0.0008944825 0.015094715
-0.067473486 0.015055053 -0.0023461597 -0.13546826 -0.035855312 -0.1596925 0.15170509 -0.19043416
-0.16380695 0.09138931 -0.12900187 0.11388372 0.13234238 -0.19483668 -0.015530562 -0.16950268
-0.02463629 -0.13481638 0.11213121 -0.26075122 0.0064457324 0.20658335 0.07501664 0.2621164
-0.1584941 -0.14560503 -0.006884667 0.11256804 0.04114127 -0.038969852 -0.024953283 0.11648392
0.123607546 0.017576082 -0.15084808 0.08054508 0.029154727 -0.14159897 0.17582582 -0.079571
0.03586525 -0.11258663 0.44553897 -0.21735942 0.11005062 0.05864066 0.19548146 0.120782495
0.08417198 -0.026098978 0.18386355 -0.2063329 0.11196198 0.31691897 -0.08135342 -0.25832817
0.122619204 0.08367296 0.2174965 0.25115004 0.3016189 -0.16892278 0.3971509 0.046322454
0.29221794 -0.14880228 0.0034411957 0.100218035 -0.32325125 0.010275822 0.14960136 0.14199759
-0.04598349 -0.06389934 -0.5555731 0.3297574 0.16911054 0.4685059 0.090860106 0.25991496
-0.14036149 0.28897074 -0.46694934 0.34462178 0.12731451 0.016659068 0.3969344 -0.25737095
-0.07681298 -0.16105893 0.17360684 -0.1379317 0.3614131 0.11536727 -0.08606126 0.36862156
-0.3844559 0.13379365 -0.33837733 0.074593626 0.5810957 -0.025753893 0.1707728 0.023266949
0.052540097 0.051800318 0.08372175 0.28648058 0.14210016 -0.16856736 -0.24908611 0.104743786
0.11004044 -0.10085287 -0.026447913 -0.25406218 -0.14020704 0.25347748 0.100464314 -0.0068758456
00000000: fa48 72bc 2aec e8bc 382d e83d 0da8 16bd
00000010: 8915 193e cd79 b6bd 1bb2 05bc 295c c73d
00000020: 0941 a8bd 8b49 61be f98f 24bb 46dc 9d3d
00000030: df4a c93d 9704 de3d 7b42 b93c 3ed6 42bd
00000040: 556e 2e3e 6228 0d3e 036f 60bd 9bec b9bc
00000050: 5b11 803e 39a7 2a3d c593 b13c 5666 ae3d
00000060: baed d63c d011 933d 99cc 98bd 4378 e23c
00000070: 9ce9 d43c ed92 a53d 213c a0bc 6ff7 cfbc
00000080: 8cfb ca3b eb72 7b3d 9449 dabd a83b babd
00000090: 8e5b 293d 6e0b 7f3e b6d3 57be 9b54 65bc
000000a0: ce8a 2fbc 8cbc 403e 4e8f 87bc f4f8 47bc
000000b0: 80be a53c dfdc 773d 244b 473d 7357 b6bd
000000c0: f5cb 893c dce7 3abd b54f 1bbd f7b8 95be
000000d0: 619c 663e 00b2 91bd 2f74 42bd 61d6 833d
000000e0: 0f8b 61bc a314 643b 27f2 5cbe 2c09 0e3e
000000f0: 195e 613d 8191 013e 6767 0cbd 5151 f9bc
00000100: cf6b 39bd 2c88 123d 6765 363e f952 59bc
00000110: ccd3 2f3d 7d19 31be acc0 9abd 22dd 71bd
00000120: 151f 35bd 87c7 9b3d b3e4 063e f836 a83d
00000130: 97c5 e33d 27ad 6d3c 73fa dcbd a3ba dfbd
00000140: 84b6 0bbe 0b65 323e 682d d7bd 1fb8 27bc
00000150: 1664 b33e 0c93 10be d02b 8a3e 8125 a13e
00000160: 1f70 a6be 451d 843e fc08 aa3e c4eb c53c
00000170: 33cc c63d 963a 9abe c7a4 97be 530e bc3b
00000180: 8e45 183e cef2 f2be 4f84 d8be 3651 54bf
00000190: a2af e73e 5d28 a4be 938f 3dbf 1035 eb3e
000001a0: 5ee8 06bf 134e 913e 9820 2e3e ba5e 85be
000001b0: ace1 b6be 58c4 f1bd faca 803e d65f b3be
000001c0: 8ab3 3ebe 3fef dd3d 73cb 72be 0c81 d9bc
000001d0: d8f6 77bd fe7c c6bd 8691 bf3e 64a9 813e
000001e0: 7021 14be e803 b4bd fe7f a43d 5f25 cdbc
000001f0: 7f90 173e 165e bf3d 13e7 0d3e b7d7 723c
00000200: 2c89 2e3d 4989 ecbd f520 fa3c c9ba 13be
00000210: 211b 24be e10f 5cbe b47b 6a3a d34f 773c
00000220: 8a2f 8abd 78a9 763c 07c2 19bb 31b8 0abe
00000230: 05dd 12bd 6e86 23be 9458 1b3e 2c01 43be
00000240: 02bd 27be 522a bb3d 1119 04be de3b e93d
00000250: c384 073e 4483 47be e673 7ebc 1c92 2dbe
00000260: 0bd2 c9bc 4e0d 0abe 0ca5 e53d 2f81 85be
00000270: b936 d33b 968a 533e 53a2 993d 1f34 863e
00000280: 474c 22be 7c19 15be c698 e1bb 138a e63d
00000290: c083 283d da9e 1fbd d46a ccbc 1f8f ee3d
000002a0: f425 fd3d b7fb 8f3c eb77 1abe d2f4 a43d
000002b0: e5d5 ee3c 52ff 10be af0b 343e 1ff6 a2bd
000002c0: 71e7 123d d293 e6bd af1d e43e 7893 5ebe
000002d0: 3862 e13d 3031 703d 4b2c 483e d05c f73d
000002e0: 5c62 ac3d 86cd d5bc ba46 3c3e ef48 53be
000002f0: 534c e53d 3443 a23e 9f9c a6bd 9743 84be
00000300: c71f fb3d bb5c ab3d 67b7 5e3e bd96 803e
00000310: cb6d 9a3e 18fa 2cbe 5d57 cb3e 9dbc 3d3d
00000320: 979d 953e a05f 18be af85 613b 1d3f cd3d
00000330: 3081 a5be ec5b 283c 1931 193e d167 113e
00000340: 2f59 3cbd a8dd 82bd 0a3a 0ebf f6d5 a83e
00000350: 502b 2d3e 01e0 ef3e dd14 ba3d 9313 853e
00000360: ecba 0fbe f9f3 933e fc13 efbe 4472 b03e
00000370: bc5e 023e 9978 883c fc3a cb3e 20c6 83be
00000380: 2050 9dbd a2ec 24be fec5 313e f83d 0dbe
00000390: 230b b93e ad45 ec3d e340 b0bd f7bb bc3e
000003a0: 67d7 c4be 3401 093e cb3f adbe 8bc4 983d
000003b0: b0c2 143f d4f9 d2bc 11df 2e3e 549a be3c
000003c0: 4934 573d 922c 543d 4f76 ab3d 95ad 923e
000003d0: b482 113e ec9c 2cbe 6e10 7fbe e983 d63d
000003e0: e25c e13d f38b cebd 4ba9 d8bc 7014 82be
000003f0: 6f92 0fbe cdc7 813e 3cc0 cd3d c64e e1bb

lin1.bias f4 [200]
0.14501923 0.1771197 -0.30374715 -0.07534326 -0.08648846 -0.36074477 -0.027148351 0.052223753
0.5544262 -0.2941927 -0.09555631 -0.041028354 0.24401258 0.3083307 0.26355615 0.1332966
0.0030996855 0.027969684 0.06863628 0.27571058 0.23948516 -0.46405104 -0.21985708 -0.021400787
0.110227644 -0.10295053 -0.5624392 -0.275057 0.41986933 0.49735132 0.049387243 -0.22742152
-0.32358143 0.03917807 0.55918 0.29704136 0.28797424 0.3302805 -0.010941551 -0.17597419
-0.06376717 0.114685774 0.39475513 -0.06031882 0.28345916 0.41095105 -0.26078272 -0.1401749
0.3792996 0.20465735 0.27186087 0.118348226 -0.29265612 -0.2958597 0.0678894 -0.16424064
-0.29678693 -0.2876704 0.37158194 0.4618237 0.17234568 0.46156412 -0.18441579 0.34984073
0.028235313 0.11490525 -0.017329227 0.07274863 -0.2736719 -0.31482995 0.022905083 0.31495583
0.07905592 -0.24104959 -0.26775396 -0.00402263 -0.23793185 0.051235095 -0.12616482 0.09832587
0.3981895 0.08841148 0.046324622 0.32513735 -0.49555656 0.028744444 -0.04157801 0.37340763
0.353905 0.22804336 0.048496284 -0.15905464 -0.08435682 0.123322405 -0.25340492 -0.23959874
-0.20548506 -0.09650614 0.18896557 -0.18683834 0.057660397 0.36637846 -0.10571608 0.117966674
-0.03791556 -0.07735344 0.38477588 0.13103925 0.2709853 0.23607674 -0.038735002 -0.03102056
0.21763046 0.039119862 -0.053953424 -0.33790848 -0.28038508 0.17112392 0.2871002 0.13803086
0.3435033 0.0927359 0.098095335 -0.36462197 -0.051049322 -0.066739775 0.86063933 -0.13179603
-0.28805453 0.17401522 -0.045688387 0.029016174 -0.041424397 -0.22258915 0.083251104 -0.04381205
0.10200422 -0.16424055 0.29843906 0.053098924 0.054112658 -0.1701107 -0.20804352 0.24982585
-0.18034647 -0.041751113 0.24398376 -0.06359581 0.002129112 0.0028420712 -0.057521712 0.108131774
0.113963805 0.250234 -0.3191007 0.108809106 0.008685452 0.09075075 -0.09167161 -0.27859783
-0.26218066 -0.2730733 0.27744174 -0.13465387 -0.44529918 -0.09263299 -0.1609724 -0.7801486
-0.0891266 -0.34551927 0.6533517 0.038600568 -0.018502016 0.21981016 0.13704242 -0.23249038
0.11095966 0.14222367 0.2263189 -0.054042805 -0.18163681 -0.068781525 -0.012377893 -0.04503396
0.011525985 -0.3236481 0.021792432 -0.26699424 -0.4447395 0.28375867 -0.058178015 0.23488162
-0.008504144 0.06714424 0.21888572 0.05968131 -0.054544695 0.17568587 0.19958803 -0.33967865
00000000: ec7f 143e de5e 353e bf84 9bbe 914d 9abd
00000010: dd20 b1bd 8ab3 b8be 3866 debc 93e8 553d
00000020: e0ee 0d3f 6da0 96be 07b3 c3bd 590d 28bd
00000030: 6fde 793e 86dd 9d3e d5f0 863e e77e 083e
00000040: 1824 4b3b ae20 e53c 2e91 8c3d f029 8d3e
00000050: 993b 753e 1998 edbe 3722 61be b450 afbc
00000060: 08bf e13d bad7 d2bd 04fc 0fbf 45d4 8cbe
00000070: 1df9 d63e d5a4 fe3e 474a 4a3d 30e1 68be
00000080: 77ac a5be 2f79 203d 6c26 0f3f ce15 983e
00000090: 5c71 933e 871a a93e 3144 33bc 9432 34be
000000a0: 5d98 82bd 60e0 ea3d 581d ca3e de10 77bd
000000b0: 8f21 913e 2d68 d23e 5085 85be 028a 0fbe
000000c0: 8f33 c23e b291 513e 5931 8b3e 8e60 f23d
000000d0: 06d7 95be ec7a 97be 9909 8b3d b32e 28be
000000e0: 75f4 97be 8949 93be fd3f be3e 2874 ec3e
000000f0: 637b 303e 2252 ec3e 7ed7 3cbe 531e b33e
00000100: be4d e73c 7253 eb3d 06f6 8dbc 3cfd 943d
00000110: b91e 8cbe 6431 a1be 71a3 bb3c e441 a13e
00000120: 12e8 a13d b4d5 76be 0c17 89be 44d0 83bb
00000130: 68a4 73be e4db 513d 5a31 01be 135f c93d
00000140: 7fdf cb3e 1411 b53d e3be 3d3d 6778 a63e
00000150: 97b9 fdbe 7879 eb3c b44d 2abd 492f bf3e
00000160: 0933 b53e 3384 693e 0aa4 463d 38df 22be
00000170: 45c3 acbd 7590 fc3d 4abe 81be 5f59 75be
00000180: ad6a 52be 03a5 c5bd 3180 413e 8d52 3fbe
00000190: 4f2d 6c3d f595 bb3e ac81 d8bd 8398 f13d
000001a0: 594d 1bbd 7b6b 9ebd 5801 c53e 272f 063e
000001b0: 96be 8a3e 1abe 713e 98a8 1ebd d41e febc
000001c0: 85da 5e3e 263c 203d 44fe 5cbd 5702 adbe
000001d0: a28e 8fbe 1c3b 2f3e ccfe 923e f657 0d3e
000001e0: aadf af3e 52ec bd3d 35e6 c83d bbaf babe
000001f0: 1819 51bd ddae 88bd dc52 5c3f 8af5 06be
00000200: e27b 93be 0c31 323e bf23 3bbd 54b3 ed3c
00000210: a1ac 29bd 69ee 63be 8e7f aa3d 4474 33bd
00000220: 97e7 d03d ad2e 28be 01cd 983e 427e 593d
00000230: 3ca5 5d3d 8031 2ebe 5c09 55be 59d2 7f3e
00000240: bfac 38be 3703 2bbd e1d6 793e 853e 82bd
00000250: 9288 0b3b 0b42 3a3b e39b 6bbd 3174 dd3d
00000260: db65 e93d ac1e 803e 2b61 a3be 4fd7 de3d
00000270: 6d4d 0e3c 87db b93d 53be bbbd 60a4 8ebe
00000280: 8b3c 86be 43d0 8bbe d80c 8e3e b4e2 09be
00000290: 41fe e3be 5db6 bdbd f3d5 24be d2b7 47bf
000002a0: 0288 b6bd e7e7 b0be 0f42 273f a11b 1e3d
000002b0: 8a91 97bc ea15 613e d954 0c3e f511 6ebe
000002c0: d13e e33d 15a3 113e 24c0 673e fd5b 5dbd
000002d0: 00ff 39be 54dd 8cbd a5cc 4abc 8875 38bd
000002e0: 7cd7 3c3c 34b5 a5be 0b86 b23c 78b3 88be
000002f0: e5b4 e3be d148 913e 124c 6ebd cf84 703e
00000300: f754 0bbc eb82 893d 9423 603e 6474 743d
00000310: 426a 5fbd ffe6 333e ce60 4c3e 5cea adbe

lin2.weight f4 [200, 200]
0.07413577 -0.20475921 0.115778334 0.25051674 0.053615987 0.21823394 -0.06324624 0.046699744
-0.28938344 0.14212322 0.051889315 -0.11898451 -0.14149672 -0.0017338253 -0.19894984 0.23728868
-0.055973496 0.068844184 0.13047974 -0.089163944 0.089522325 0.14231859 0.35484338 0.067018315
0.19552457 -0.17659739 0.064946614 0.043755118 0.16530186 -0.06496415 -0.18538047 0.044928245
-0.09122939 0.108782224 -0.030315457 -0.12674272 0.109639674 0.025259584 0.14896104 0.098491356
0.24453245 0.11727429 -0.07586553 -0.026080964 0.09469888 0.055878878 -0.07984742 0.067050435
-0.25550026 0.28098246 -0.25422713 0.00867771 0.040209785 0.083461605 -0.29524854 0.19687411
0.0120642325 -0.20511046 -0.3262734 -0.018353954 0.18215032 -0.011634538 0.13430345 0.05970022
-0.1311572 0.054930236 -0.11070239 0.0023052269 0.13523407 -0.3227787 0.016968114 -0.19800505
0.16815926 0.14839518 0.055080693 -0.22196087 -0.076288976 -0.014364479 0.020734278 -0.1709518
0.0652881 0.0781097 0.0070793917 -0.08592982 0.09548207 0.06127133 0.049306713 0.27027953
-0.17348312 -0.16225213 -0.082742624 -0.2368273 0.22231962 -0.16501112 0.04897639 0.12135141
-0.027591825 0.21730451 -0.26219097 0.039119296 0.013481269 0.042552978 0.1253514 -0.057185385
0.12351562 -0.13071153 0.3015623 0.10039866 -0.062363163 -0.1221754 0.31862503 0.35809422
-0.3199936 -0.014278498 0.23175403 0.025818646 0.15564099 0.3478951 -0.16818021 -0.0809208
-0.0035069704 -0.20508775 -0.030314432 -0.032960042 0.10444161 0.0058456347 -0.109675676 0.1860298
0.13603836 0.048509937 -0.13823391 0.18419604 -0.20670874 0.09916053 -0.1981595 0.13812868
0.0416914 -0.024432654 0.008954221 0.17615578 0.25493276 0.14472614 0.08324797 -0.2875145
0.3106269 -0.015025279 -0.1275675 -0.20068173 -0.16984719 -0.13008444 0.42915788 0.17376769
-0.2023597 -0.019086288 -0.14733985 -0.27442074 -0.11079651 -0.30679044 -0.14523323 0.34827372
-0.034085426 -0.12257575 0.05296619 -0.13304515 -0.07047694 0.10974081 0.23746917 0.21569985
0.13837269 0.2355734 -0.15261182 0.112881996 -0.40261996 -0.037227422 -0.02079888 -0.1616357
-0.09989059 -0.14703633 -0.05293152 -0.38992497 0.2141787 -0.035732247 0.018986097 -0.15249066
0.07558979 0.062077075 0.09832078 -0.05335858 0.22716026 0.19166464 0.15708494 -0.114193656
0.10188671 0.12623079 -0.13725132 -0.03703995 0.046866693 -0.18458076 0.016653094 0.13788837
-0.04812906 -0.1322986 0.12051668 -0.13599406 0.1384495 -0.10869505 -0.09894451 0.09930707
0.08143143 -0.013838063 0.0065813647 -0.13170838 -0.13559222 0.11223709 -0.12723288 -0.12038359
0.050376054 0.12577361 -0.124130644 -0.28231582 -0.15207405 0.06728053 -0.14953582 -0.108866304
-0.014789975 -0.026436677 -0.06962945 -0.0044997097 0.12883817 0.060739797 -0.015667714 -0.069777355
-0.04495627 -0.23131227 0.41372764 -0.12698352 -0.11224085 0.12175581 -0.23369491 0.08340053
-0.024200456 -0.19676079 0.016162125 0.17147636 -0.08165743 -0.030126123 -0.043825526 -0.24517812
0.13699174 0.005953031 0.08913429 -0.1748473 -0.0063864896 -0.17629115 0.022036409 -0.16691199
00000000: 7fd4 973d 66ac 51be 311d ed3d bb43 803e
00000010: 709c 5b3d b878 5f3e 3f87 81bd 3b48 3f3d
00000020: 112a 94be c088 113e e489 543d 27ae f3bd
00000030: 84e4 10be 8641 e3ba 82b9 4bbe cefb 723e
00000040: 7744 65bd 2efe 8c3d 7b9c 053e 969b b6bd
00000050: 7b57 b73d f7bb 113e 08ae b53e e640 893d
00000060: 9837 483e f2d5 34be bb02 853d 9138 333d
00000070: e444 293e ed0b 85bd 61d4 3dbe ae06 383d
00000080: 79d6 babd 37c9 de3d 1f58 f8bc d8c8 01be
00000090: c48a e03d 30ed ce3c 3e89 183e d6b5 c93d
000000a0: b766 7a3e 812d f03d 635f 9bbd bfa7 d5bc
000000b0: 7df1 c13d 40e1 643d 0b87 a3bd bd51 893d
000000c0: eed0 82be efdc 8f3e 0f2a 82be f42c 0e3c
000000d0: 04b3 243d ebed aa3d d12a 97be 5e99 493e
000000e0: 0fa9 453c 7a08 52be 4f0d a7be 085b 96bc
000000f0: 9d85 3a3e ca9e 3ebc d886 093e 3888 743d
00000100: 134e 06be 87fe 603d efb7 e2bd 4a13 173b
00000110: cd7a 0a3e 4043 a5be b700 8b3c d6c1 4abe
00000120: f131 2c3e e8f4 173e 4b9c 613d b649 63be
00000130: 653d 9cbd fe58 6bbc efda a93c fd0d 2fbe
00000140: c4b5 853d faf7 9f3d 3efa e73b f9fb afbd
00000150: 1b8c c33d a5f7 7a3d d6f5 493d 1462 8a3e
00000160: 8fa5 31be 6c25 26be f774 a9bd db82 72be
00000170: c1a7 633e adf8 28be 789b 483d 1787 f83d
00000180: 4008 e2bc 1385 5e3e e53d 86be 8e3b 203d
00000190: 8ae0 5c3c 084c 2e3d 1e5c 003e 393b 6abd
000001a0: c2f5 fc3d 3ed9 05be 6066 9a3e d09d cd3d
000001b0: 8470 7fbd 1937 fabd d222 a33e 2058 b73e
000001c0: 33d6 a3be 5cf0 69bc ee50 6d3e a081 d33c
000001d0: 5a60 1f3e 4e1f b23e 6f37 2cbe ceb9 a5bd
000001e0: 33d5 65bb 8602 52be f955 f8bc 1c01 07bd
000001f0: 7ce5 d53d bd8c bf3b a49d e0bd 997e 3e3e
00000200: a44d 0b3e 5bb2 463d 318d 0dbe e39d 3c3e
00000210: 75ab 53be ad14 cb3d 53ea 4abe 9b71 0d3e
00000220: 9ac4 2a3d fd26 c8bc bab4 123c 2e62 343e
00000230: 8c86 823e 1733 143e e97d aa3d 1a35 93be
00000240: 7d0a 9f3e 962c 76bc 0ea1 02be 837f 4dbe
00000250: 6cec 2dbe db34 05be 95ba db3e 28f0 313e
00000260: 6237 4fbe d95a 9cbc 42e0 16be e080 8cbe
00000270: 48e9 e2bd a313 9dbe 05b8 14be ef50 b23e
00000280: 299d 0bbd ff08 fbbd 13f3 583d fd3c 08be
00000290: 3756 90bd cabf e03d 1e2b 733e 6ce0 5c3e
000002a0: 92b1 0d3e 273a 713e 4646 1cbe ad2e e73d
000002b0: 3424 cebe c87b 18bd 6a62 aabc d483 25be
000002c0: 7093 ccbd b190 16be b9ce 58bd 3fa4 c7be
000002d0: a951 5b3e fa5b 12bd bb88 9b3c 8326 1cbe
000002e0: d2ce 9a3d 8844 7e3d 685c c93d 878e 5abd
000002f0: b39c 683e bc43 443e e0da 203e 5dde e9bd
00000300: fba9 d03d a542 013e 9c8b 0cbe 34b7 17bd
00000310: 4af7 3f3d bd02 3dbe 126c 883c 9c32 0d3e
00000320: fa22 45bd 4979 07be 73d1 f63d 0742 0bbe
00000330: b5c5 0d3e 839b debd 6ba3 cabd 8161 cb3d
00000340: 86c5 a63d 0bb9 62bc 7da8 d73b 90de 06be
00000350: b0d8 0abe 8fdc e53d 5649 02be ac8b f6bd
00000360: 1f57 4e3d ccca 003e 3538 febd b38b 90be
00000370: 4db9 1bbe 60ca 893d eb1f 19be 4cf5 debd
00000380: a751 72bc bb91 d8bc e399 8ebd 4d72 93bb
00000390: 27ee 033e 4bca 783d 9459 80bc 6ee7 8ebd
000003a0: 1124 38bd 20dd 6cbe 1cd4 d33e f807 02be
000003b0: 88de e5bd 1c5b f93d b84d 6fbe e6cd aa3d
000003c0: 0940 c6bc a97b 49be 6f66 843c 8097 2f3e
000003d0: 033c a7bd 0fcb f6bc 6582 33bd f90f 7bbe
000003e0: 9047 0c3e a511 c33b 0a8c b63d 2c0b 33be
000003f0: c245 d1bb ab85 34be b385 b43c faea 2abe

lin2.bias f4 [200]
-0.10059301 0.19768949 0.09989865 -0.4017103 0.17253508 -0.16408844 -0.13985959 -0.17910032
0.073404156 -0.04168157 0.30890888 -0.29913443 0.13032416 0.14458135 -0.001069295 -0.05081421
-0.16082558 -0.14066207 -0.19873664 0.13435245 0.1909799 -0.01849973 0.16944644 0.01333824
0.2496535 -0.091978624 0.045775466 0.24089277 -0.20258486 -0.1692977 -0.028065244 -0.03003726
-0.08724169 0.2717635 -0.17665529 0.093655 -0.16671926 -0.010678261 0.003229215 -0.09339249
-0.05093293 0.1157588 0.19455859 0.030542057 -0.19285038 0.10318681 0.38486758 0.21862318
-0.14846444 -0.0014442442 -0.04903758 -0.13207121 0.06190615 0.19151822 0.2570988 -0.23984028
0.0015144435 -0.13315731 -0.17489375 0.05717224 0.09529398 -0.005253593 -0.07956212 0.31300992
-0.18426327 -0.03867995 -0.1892151 0.10279443 -0.01757278 0.38916335 0.045081146 -0.030112393
-0.013266523 -0.11468789 0.15574032 0.09832094 0.018610053 0.3040607 0.25095296 0.049994048
-0.14200634 -0.25648287 0.062351577 0.28469792 -0.25090998 -0.08698462 0.33589858 -0.007947008
0.16333349 -0.23935874 0.22595806 0.113389716 -0.14724457 0.030940587 -0.06712238 -0.069329776
0.2038507 0.12803097 0.044329565 0.14879215 -0.16690539 0.06667467 -0.14651005 0.030010821
0.22108875 -0.014050508 0.12822086 -0.11322567 0.2511375 0.009025928 0.16665965 -0.15246546
-0.18600227 -0.287518 0.08675621 -0.35788903 -0.041089814 0.064939246 -0.28932434 -0.06414443
-0.03639694 0.122336686 -0.25192407 0.1765543 -0.1421447 -0.13101073 -0.105501145 -0.12102502
0.18820211 0.14590394 -0.12525071 -0.13765325 0.26784062 -0.10279222 -0.2184089 0.047892053
-0.3705494 0.28052142 -0.06394151 -0.057632376 0.02949111 0.2117806 0.28307533 0.16216645
-0.31898856 0.004961744 -0.32019496 0.036657706 0.012743764 0.0111132385 0.32077897 -0.07937448
-0.2553005 -0.118612014 -0.26097307 0.031180253 -0.12478774 0.13522083 0.09058865 -0.07284311
-0.011235635 0.18420342 -0.1194819 -0.08180908 0.10057803 0.07721349 -0.0050248466 0.24428044
0.20245917 0.15026274 -0.12316398 0.19574954 -0.14033347 -0.19291261 -0.23209849 0.07430026
0.04321689 -0.1342224 -0.07311319 0.1448284 -0.035730477 -0.28251034 0.26120248 0.18152872
0.04608778 0.18796504 0.08900061 -0.016442865 0.09277866 0.005938937 -0.19691725 0.087654345
-0.010952595 -0.34345847 0.25763625 -0.19048594 -0.0709414 -0.04501489 0.014171416 -0.22327067
00000000: b503 cebd 1d6f 4a3e aa97 cc3d f9ac cdbe
00000010: 09ad 303e cd06 28be 5a37 0fbe 1366 37be
00000020: eb54 963d 4bba 2abd 4e29 9e3e 2628 99be
00000030: b273 053e 220d 143e 9627 8cba 9022 50bd
00000040: 76af 24be b809 10be 9e81 4bbe b093 093e
00000050: 3c90 433e bf8c 97bc 5e83 2d3e a288 5a3c
00000060: 2ba5 7f3e 4a5f bcbd 0e7f 3b3d 98ac 763e
00000070: 6872 4fbe 605c 2dbe 15e9 e5bc b310 f6bc
00000080: c5ab b2bd 9624 8b3e 20e5 34be 31ce bf3d
00000090: 74b8 2abe dff3 2ebc 3da1 533b 9044 bfbd
000000a0: 0c9f 50bd f312 ed3d 5e3a 473e 5633 fa3c
000000b0: 927a 45be 9b53 d33d 5d0d c53e c1de 5f3e
000000c0: 1007 18be cb4c bdba a1db 48bd ad3d 07be
000000d0: 4e91 7d3d 5a1d 443e 74a2 833e b198 75be
000000e0: 4b80 c63a 645a 08be 5917 33be 702d 6a3d
000000f0: 7d29 c33d 5526 acbb 77f1 a2bd d642 a03e
00000100: 83af 3cbe de6e 1ebd 9ac1 41be e385 d23d
00000110: caf4 8fbc 6b40 c73e 02a7 383d 44ae f6bc
00000120: d55b 59bc 7ce1 eabd 647a 1f3e 7d5c c93d
00000130: 1c74 983c d8ad 9b3e e87c 803e 8fc6 4c3d
00000140: 1c6a 11be b951 83be 5e64 7f3d edc3 913e
00000150: 4677 80be fe24 b2bd e6fa ab3e 2b34 02bc
00000160: e540 273e 751a 75be 8d61 673e de38 e83d
00000170: 48c7 16be 1d77 fd3c 7577 89bd c5fc 8dbd
00000180: 3dbe 503e 8d1a 033e eb92 353d f85c 183e
00000190: 3fe9 2abe bb8c 883d bb06 16be 41d9 f53c
000001a0: 1765 623e 1a34 66bc 544c 033e dce2 e7bd
000001b0: 1895 803e 7ce1 133c d4a8 2a3e e81f 1cbe
000001c0: 6177 3ebe 8f35 93be 3dad b13d 3b3d b7be
000001d0: cb4d 28bd defe 843d 5222 94be 285e 83bd
000001e0: f514 15bd a88b fa3d 31fc 80be a7ca 343e
000001f0: 618e 11be ad27 06be fc10 d8bd f7db f7bd
00000200: 0eb8 403e d867 153e b941 00be f9f4 0cbe
00000210: 6822 893e ba84 d2bd 95a6 5fbe 752a 443d
00000220: a7b8 bdbe 81a0 8f3e c4f3 82bd ed0f 6cbd
00000230: 5797 f13c 03dd 583e 40ef 903e f60e 263e
00000240: 7852 a3be 2096 a23b 98f0 a3be 6426 163d
00000250: 38cb 503c 4d14 363c 243d a43e 168f a2bd
00000260: bfb6 82be dbea f2bd 439e 85be bb6d ff3c
00000270: b790 ffbd 5477 0a3e 8b86 b93d c52e 95bd
00000280: ab15 38bc d29f 3c3e edb2 f4bd 858b a7bd
00000290: dbfb cd3d 1b22 9e3d 78a7 a4bb a724 7a3e
000002a0: 7551 4f3e 7ade 193e 663d fcbd 9172 483e
000002b0: 94b3 0fbe e28a 45be 3aab 6dbe bc2a 983d
000002c0: 3204 313d 9971 09be 5ebc 95bd e54d 143e
000002d0: 1f5a 12bd 32a5 90be 55bc 853e aae2 393e
000002e0: 8ac6 3c3d e879 403e f445 b63d 30b3 86bc
000002f0: bd02 be3d 6a9b c23b ada4 49be 1f84 b33d
00000300: 8372 33bc cad9 afbe e6e8 833e bf0e 43be
00000310: ba49 91bd 8961 38bd 3a2f 683c 11a1 64be

lin3.weight f4 [200, 200]
-0.008126359 0.10212618 0.2603493 0.09317517 0.0156281 0.2535827 -0.16846545 0.037153356
-0.1863015 0.07200608 -0.028224293 0.19587739 -0.1892721 -0.07693491 -0.09486224 0.29942676
0.22291803 -0.30413336 -0.023084959 0.20392951 -0.28703174 -0.06946686 -0.30606702 0.04156109
0.008558856 0.025661934 -0.14935224 -0.05587201 0.037888575 -0.2219653 0.121909976 0.118064605
0.35781223 -0.108888626 0.092253655 0.11619089 0.20394482 0.07012895 0.15561427 0.335649
-0.2708893 -0.40403756 -0.25765097 -0.11862385 -0.049369458 -0.020895544 -0.17807138 0.11911368
0.032734934 -0.30851796 0.09126345 -0.08234435 -0.12658958 -0.056324866 0.15399852 -0.3258611
0.22848111 -0.26561442 0.30034044 -0.18839258 -0.3396164 0.4986291 0.16360852 -0.1737581
-0.014644267 0.09795646 -0.13664582 -0.04212528 -0.046555214 -0.05645321 -0.108603895 -0.24975632
-0.00072309846 -0.07590491 0.29795438 -0.047002796 0.010580329 0.10226794 -0.106025085 -0.092889294
0.14786254 0.09463053 -0.2598808 -0.37465018 0.015882147 -0.27700654 -0.14206582 0.135306
-0.15566577 -0.14491245 0.18264759 -0.17177711 0.06969148 -0.21366283 0.030633261 0.03367038
-0.16503102 -0.4208882 0.14371164 -0.1125946 0.13133918 -0.0066494956 -0.06506079 -0.02498838
0.09046084 -0.041652124 0.14511621 -0.06051886 -0.028274497 -0.22329183 -0.077762336 -0.088957794
-0.1295369 -0.029749298 0.10274798 0.0037245376 0.05403607 0.26883218 0.5487802 -0.067454085
-0.14213331 -0.05802466 0.009568952 -0.2293458 -0.0069951685 -0.060169082 -0.08026763 -0.00057833357
-0.15468475 -0.52299273 -0.30209914 -0.07473289 0.03344886 -0.097996145 0.20441906 -0.09187971
0.06028867 0.17617042 -0.2842483 0.31560227 0.098451845 -0.16464409 0.053539403 -0.25671023
0.19239806 -0.15139908 0.052059043 0.16658437 -0.10763529 -0.27132207 0.010898955 0.051253002
-0.07478678 -0.10193733 0.037576385 -0.22659302 0.109963916 -0.37545747 -0.1251679 0.02860215
-0.3251374 -0.06740364 0.026668932 -0.1071815 0.13187648 0.0640983 -0.015880521 0.06867338
-0.15354413 -0.32119474 0.2961956 -0.11505857 0.3539365 0.25861305 0.23179466 0.06134627
-0.12985067 -0.10280479 0.13414763 -0.3268628 -0.1506083 -0.23456869 0.06343098 0.064282596
0.36155567 0.19328043 0.059726864 0.20186582 -0.002621754 -0.12283487 -0.15812486 -0.05675748
-0.25646272 -0.1457002 -0.4147897 0.038402118 0.12135876 0.122276746 0.3100025 -0.31650162
-0.184761 -0.20274255 0.11951154 -0.13338706 0.24402975 -0.10434945 0.23063014 -0.011048071
-0.25504458 0.07932153 -0.12640938 -0.02957378 0.14073703 0.1035608 0.032952707 0.29340276
-0.023622157 0.1760294 0.018245293 -0.03708051 -0.026757004 0.0088728815 0.023865372 -0.033459667
0.07668664 -0.089907795 0.21739134 0.18165815 -0.18219757 0.058642834 -0.045663655 -0.18275991
0.05885248 -0.30048424 -0.08041238 0.08313606 0.2304393 -0.3571488 0.16433337 0.009599038
-0.051999755 -0.16715719 0.08230892 -0.21211733 0.002779488 -0.10400364 -0.25200012 0.13282451
0.22607487 0.09037716 0.11358962 0.22585408 0.15005727 -0.31511295 0.02839962 -0.10042361
00000000: 6c24 05bc 8827 d13d 814c 853e a0d2 be3d
00000010: 8006 803c 97d5 813e 3582 2cbe 1e2e 183d
00000020: d2c5 3ebe ec77 933d a236 e7bc 1594 483e
00000030: 8cd0 41be 0d90 9dbd 2247 c2bd 774e 993e
00000040: a044 643e 5eb7 9bbe ab1c bdbc e6d2 503e
00000050: d3f5 92be a444 8ebd d1b4 9cbe f63b 2a3d
00000060: 723a 0c3c fa38 d23c cbef 18be 0cda 64bd
00000070: 0d31 1b3d df4a 63be f0ab f93d dbcb f13d
00000080: 2a33 b73e 0001 dfbd 7cef bc3d 7df5 ed3d
00000090: e9d6 503e c49f 8f3d 5959 1f3e 30da ab3e
000000a0: 01b2 8abe 03de cebe d4ea 83be 10f1 f2bd
000000b0: a137 4abd 222d abbc 5858 36be e0f1 f33d
000000c0: 1115 063d 11f6 9dbe 55e8 ba3d 28a4 a8bd
000000d0: b3a0 01be e7b4 66bd cab1 1d3e 44d7 a6be
000000e0: f4f6 693e 9dfe 87be 39c6 993e fce9 40be
000000f0: 33e2 adbe 504c ff3e fe88 273e a5ed 31be
00000100: 82ee 6fbc 669d c83d e2ec 0bbe 8f8b 2cbd
00000110: aeb0 3ebd 7b3b 67bd b86b debd 1fc0 7fbe
00000120: 518e 3dba 0974 9bbd 7a8d 983e 0186 40bd
00000130: 1e59 2d3c db71 d13d ae23 d9bd be3c bebd
00000140: 4769 173e a7cd c13d 190f 85be 26d2 bfbe
00000150: 471b 823c cdd3 8dbe b479 11be a88d 0a3e
00000160: d966 1fbe ee63 14be f807 3b3e 57e6 2fbe
00000170: 68ba 8e3d 6eca 5abe 9bf2 fa3c f4e9 093d
00000180: e4fd 28be a87e d7be 2529 133e ff97 e6bd
00000190: c77d 063e 03e4 d9bb 973e 85bd 6eb4 ccbc
000001a0: 8843 b93d 6b9b 2abd 5899 143e a0e2 77bd
000001b0: eb9f e7bc 9da6 64be dc41 9fbd 812f b6bd
000001c0: 52a5 04be cdb4 f3bc 886d d23d 5f17 743b
000001d0: ed54 5d3d 5fa4 893e dc7c 0c3f 5e25 8abd
000001e0: 658b 11be 44ab 6dbd 18c7 1c3c a0d9 6abe
000001f0: ba37 e5bb db73 76bd 5b63 a4bd 4f9b 17ba
00000200: ae65 1ebe dae2 05bf bdac 9abe 8f0d 99bd
00000210: ac01 093d 34b2 c8bd 3b53 513e 6e2b bcbd
00000220: 41f1 763d 0566 343e fe88 91be 9f96 a13e
00000230: 1fa1 c93d 7698 28be 224c 5b3d 866f 83be
00000240: ff03 453e 5c08 1bbe dd3b 553d 1895 2a3e
00000250: e46f dcbd baea 8abe 8891 323c abee 513d
00000260: d029 99bd 85c4 d0bd b2e9 193d 0008 68be
00000270: c334 e13d f63b c0be 042c 00be 0e4f ea3c
00000280: 6978 a6be eb0a 8abd ce78 da3c f981 dbbd
00000290: a10a 073e f845 833d de17 82bc a1a4 8c3d
000002a0: ac3a 1dbe a373 a4be f3a6 973e d4a3 ebbd
000002b0: 2a37 b53e ee68 843e 945b 6d3e 3a46 7b3d
000002c0: 93f7 04be 518b d2bd ff5d 093e 905a a7be
000002d0: 1039 1abe c632 70be 1ae8 813d 98a6 833d
000002e0: d31d b93e 4eeb 453e 28a4 743d eab5 4e3e
000002f0: bcd1 2bbb d990 fbbd 7ceb 21be 887a 68bd
00000300: 154f 83be 6f32 15be 515f d4be 8a4b 1d3d
00000310: f18a f83d 3b6c fa3d a6b8 9e3e 800c a2be
00000320: fd31 3dbe be9b 4fbe 77c2 f43d 9e96 08be
00000330: efe2 793e 2ab5 d5bd 4f2a 6c3e f802 35bc
00000340: 3495 82be 5473 a23d 7671 01be b644 f2bc
00000350: 5e1d 103e af17 d43d 6bf9 063d e338 963e
00000360: 4183 c1bc 0d41 343e 2777 953c bce1 17bd
00000370: 8131 dbbc 905f 113c 5081 c33c 010d 09bd
00000380: e30d 9d3d 9421 b8bd d69b 5e3e 9804 3a3e
00000390: 0092 3abe 7833 703d d009 3bbd 6a25 3bbe
000003a0: 4c0f 713d 12d9 99be 3faf a4bd 3d43 aa3d
000003b0: 48f8 6b3e 35dc b6be 0247 283e 4945 1d3c
000003c0: b2fd 54bd 412b 2bbe 9491 a83d 4935 59be
000003d0: 1228 363b dcff d4bd 2906 81be 2603 083e
000003e0: 2c80 673e a917 b93d ada1 e83d 4b46 673e
000003f0: 9da8 193e 7c56 a1be 52a6 e83c e5aa cdbd

lin3.bias f4 [200]
-0.20813024 0.035880197 -0.0927163 -0.21231721 -0.12812737 -0.14610699 0.07715913 -0.04468096
-0.34989163 -0.078734934 -0.30167988 0.1201643 0.013007341 0.013938394 -0.31985384 -0.036522936
-0.13562123 0.004347235 -0.33149636 -0.2097132 0.09486259 0.3277382 0.16790767 0.22791044
-0.14545177 -0.2877048 0.066658944 -0.13454627 -0.18468416 0.035526812 -0.018427745 -0.17608893
-0.20745969 -0.24416421 -0.12888275 0.22630948 -0.07484847 0.2807791 -0.097741246 -0.15632357
-0.21631305 -0.15693533 0.3562453 0.2277677 -0.19370739 0.04899104 0.39881268 -0.122613624
-0.026867542 0.15781467 -0.12416535 -0.2914478 0.06818352 -0.24650498 0.04000229 0.09564519
-0.14428325 0.12753806 -0.07506683 0.14391486 -0.23190565 0.061857786 -0.17550713 -0.07986974
-0.082327746 0.30806315 0.011812182 -0.07972054 -0.17293523 -0.120466225 -0.1687724 0.016775899
-0.021727294 -0.16735981 -0.33827123 -0.37786123 -0.008171689 -0.14766522 -0.3163662 0.29072428
0.0843214 0.26011148 -0.006110944 0.11199752 -0.15358968 0.20653568 -0.28856146 -0.10525421
0.13684055 0.15766141 -0.013933343 0.15438777 0.24792147 -0.41681865 -0.2760339 -0.13335654
-0.025313592 0.24327546 0.0009707313 -0.3369792 -0.3150933 -0.18252183 -0.21248339 -0.19967684
0.24266215 0.27012172 -0.11731505 0.10689219 0.103837706 0.011143872 0.18248628 -0.018106135
-0.08773044 -0.10610989 -0.12438647 0.025335293 0.018973695 0.15878733 -0.059925213 0.06962129
0.042827208 0.23649538 -0.23540123 0.3199319 -0.15827808 0.0013796454 0.02017335 -0.3959321
-0.159968 0.24643266 0.07417358 0.01364209 0.16558059 0.045225997 0.07229827 -0.424912
-0.26875883 0.14222968 -0.37806204 0.26072347 0.40849543 -0.09083395 0.27219126 -0.22715385
-0.021912655 0.039780676 -0.011192767 -0.15058118 -0.09880057 0.3332896 -0.18758704 -0.40229207
-0.037333556 -0.21068202 -0.020574056 0.05403429 -0.094697796 0.6037999 0.4748304 0.26958448
-0.16748084 -0.008816121 -0.41502768 0.05420504 0.13000435 0.03547903 -0.064189225 0.2011766
0.10795913 0.14496288 -0.208215 0.24752784 -0.18321268 -0.38034332 -0.051583905 -0.050457515
-0.12207736 -0.016156627 0.3314634 0.28488955 -0.30538628 0.17537686 -0.2497294 0.024641557
-0.07561028 -0.085536584 0.03668754 0.10256181 0.05331675 0.26099157 0.14980443 -0.06590793
0.33386055 0.17324816 0.2462806 -0.10736694 0.35370412 0.15762185 0.18534546 -0.034088552
00000000: 1820 55be 1df7 123d 0be2 bdbd af69 59be
00000010: d233 03be 129d 15be 9b05 9e3d 6203 37bd
00000020: ff24 b3be c83f a1bd c975 9abe b318 f63d
00000030: be1c 553c dd5d 643c e2c3 a3be 1399 15bd
00000040: 4be0 0abe 4073 8e3b e4b9 a9be 0fbf 56be
00000050: 5147 c23d 4dcd a73e fdef 2b3e 5b61 693e
00000060: 4ff1 14be 0b4e 93be 7c84 883d 7fc6 09be
00000070: d81d 3dbe 9084 113d c8f5 96bc a850 34be
00000080: 5070 54be 2f06 7abe d7f9 03be acbd 673e
00000090: 284a 99bd 47c2 8f3e 902c c8bd 4913 20be
000000a0: 2b81 5dbe a8b3 20be c965 b63e f03b 693e
000000b0: 3b5b 46be d4aa 483d 2d31 cc3e da1c fbbd
000000c0: 5219 dcbc 2b9a 213e 674a febd a538 95be
000000d0: cda3 8b3d cd6b 7cbe 71d9 233d a0e1 c33d
000000e0: fdbe 13be 5699 023e a3bc 99bd 6b5e 133e
000000f0: ad78 6dbe 975e 7d3d 24b8 33be bf92 a3bd
00000100: 739b a8bd 74ba 9d3e e287 413c 8644 a3bd
00000110: ef15 31be ffb6 f6bd acd2 2cbe 9c6d 893c
00000120: 70fd b1bc 5f60 2bbe e331 adbe 0777 c1be
00000130: 8ce2 05bc 8d35 17be c0fa a1be d0d9 943e
00000140: b3b0 ac3d 552d 853e 503e c8bb f55e e53d
00000150: 9d46 1dbe 177e 533e 54be 93be 858f d7bd
00000160: ee1f 0c3e fe71 213e ad48 64bc d417 1e3e
00000170: 20df 7d3e 4169 d5be 5154 8dbe 9e8e 08be
00000180: 735e cfbc 341d 793e ad78 7e3a 8a88 acbe
00000190: e953 a1be 01e7 3abe 3f95 59be 1678 4cbe
000001a0: 6d7c 783e 654d 8a3e df42 f0bd 4bea da3d
000001b0: dda8 d43d c994 363c afdd 3a3e 5153 94bc
000001c0: 04ac b3bd 2450 d9bd 55be febd f68b cf3c
000001d0: b96e 9b3c 2599 223e 2474 75bd 9b95 8e3d
000001e0: 956b 2f3d d82b 723e 050d 71be 1dce a33e
000001f0: a613 22be 38d5 b43a 9542 a53c 9db7 cabe
00000200: a7ce 23be d858 7c3e 51e8 973d 1383 5f3c
00000210: f58d 293e e53e 393d 1e11 943d 118e d9be
00000220: c29a 89be a8a4 113e 5991 c1be 8c7d 853e
00000230: 5026 d13e 2607 babd a75c 8b3e 059b 68be
00000240: 2b82 b3bc 10f1 223d de61 37bc f431 1abe
00000250: f457 cabd efa4 aa3e d116 40be 3af9 cdbe
00000260: 12eb 18bd 07bd 57be ec8a a8bc 0f53 5d3d
00000270: ebf0 c1bd a192 1a3f f81c f33e fa06 8a3e
00000280: 1980 2bbe 7e71 10bc 827e d4be 1b06 5e3d
00000290: dc1f 053e 7652 113d a475 83bd 3d01 4e3e
000002a0: ad19 dd3d 2671 143e 5036 55be f077 7d3e
000002b0: 1b9c 3bbe 5cbc c2be a549 53bd 8aac 4ebd
000002c0: b203 fabd e75a 84bc 92b5 a93e 0bdd 913e
000002d0: 975b 9cbe fe95 333e 10b9 7fbe 17dd c93c
000002e0: 90d9 9abd ce2d afbd ad45 163d ed0b d23d
000002f0: aa62 5a3d b0a0 853e 5566 193e bdfa 86bd
00000300: c5ef aa3e f767 313e fb30 7c3e 33e3 dbbd
00000310: b518 b53e 9f67 213e 33cb 3d3e 70a0 0bbd

lin4.weight f4 [62, 200]
0.31664002 -0.44857973 -0.29147828 -0.15314479 -1.2721388 -0.27963388 0.17210203 -0.059951384
-0.8761329 -0.17240849 -0.44586316 0.36335096 -1.0934442 0.6031156 -1.0472416 -0.21160503
0.14867894 0.704822 0.859653 0.66385514 0.89078003 0.7749517 0.84930384 -1.2692671
0.05551771 -0.08920535 0.31231135 -1.2357639 -0.5658006 0.21016073 -0.20930617 -0.12737738
-0.29229182 -1.5427735 1.2782449 1.3215996 -0.7041747 -0.7728484 -0.7673336 0.36747205
-0.9615203 0.099817865 -0.21268952 -1.0917137 1.2209617 1.1736674 -0.4039535 -1.0172472
0.38529798 0.9807155 -0.44762248 1.4496019 0.16980031 0.15082653 0.98782384 0.23345135
1.2739868 0.040204547 -0.3023963 0.25364396 -0.6228575 -0.35036278 1.915971 0.46140125
-0.30916983 -0.5895566 -0.18805352 0.11366623 -1.2709202 -0.41274917 0.36939558 0.5747244
0.41974393 -0.28474617 -0.3281619 0.41830012 0.9778393 0.7136299 0.21568689 -1.0587077
-0.8367129 0.21346556 -0.67528176 0.68639004 0.17870899 0.057314053 0.35714188 0.73449594
0.36023796 1.3909583 -0.13760933 -0.018593874 0.7062709 -0.3987882 -1.2017 1.0089256
-0.102293424 0.31502688 -0.3314391 -0.7888878 0.47930264 1.3834106 -0.61254877 1.1683383
0.81895775 -0.22999652 -1.3205465 0.32262307 0.122773565 -1.4468592 -0.24529819 0.1727438
0.5917996 0.5395568 -1.0294558 -1.1082393 -0.35584277 -0.37867525 1.3343107 -1.3251547
0.16418384 0.8354913 -0.79166883 -0.38679034 -1.0711209 0.7237401 0.91967595 0.630212
-1.0321476 1.047629 -0.70683664 1.060132 0.77893233 0.56859595 -1.2832773 -0.5383478
-0.50945985 -0.7056413 -0.029785551 -0.043573245 -0.57299614 1.4172708 0.6035149 -0.85196584
0.89530224 -1.3738741 -0.14739163 -1.142468 0.046084374 0.22466904 0.71103066 0.44934085
0.4259188 -0.22821265 0.48551047 1.3344877 1.764981 0.17069674 -0.79166263 0.39656693
0.30733436 -0.25478348 -0.105470926 -0.00083334075 -0.5951479 -1.6591979 -0.5279485 0.38137493
0.08367132 0.41689038 -1.423831 1.153294 1.0996504 0.9261019 -0.86647063 -1.4218253
-0.19000335 -0.6257056 0.47819084 0.5592731 -0.79460233 -0.30424297 0.319104 0.7704046
0.44103226 -0.103733055 1.3347799 0.19305837 0.44408935 -0.193973 0.7245896 0.40601653
1.0720747 0.88352555 -0.5930032 -0.18477525 0.4102691 -0.103999555 -0.734261 -0.37561855
0.039791655 -0.078272566 0.56622946 -0.13032934 -0.960706 -0.53818977 0.8593599 -0.45325524
0.46944913 -0.8465904 0.40006194 0.8036936 0.22188903 0.94446677 -0.27295187 -0.10052534
-0.1844563 0.83471274 -0.7218967 -0.83622366 -0.30316368 0.041893423 1.1705071 -1.3051121
-0.24510159 -0.58751124 -0.5442333 -0.046041615 -0.6751252 0.28901976 0.72145486 -0.31515196
-0.19622238 -0.30720422 0.48879158 0.2889234 0.9066075 -0.06814679 -0.5574837 -0.81367606
0.0391836 1.1500195 -0.77531224 0.65458953 0.4676484 0.7202142 0.481304 -0.9124414
1.3180791 0.21586314 -0.7094891 0.33849344 -0.06449831 1.4903134 -0.43882573 1.5812931
00000000: a41e a23e 3eac e5be a43c 95be fdd1 1cbe
00000010: 72d5 a2bf 2c2c 8fbe 843b 303e 958f 75bd
00000020: 3f4a 60bf da8b 30be 2d48 e4be 2309 ba3e
00000030: fbf5 8bbf c965 1a3f 030c 86bf fdae 58be
00000040: 4b3f 183e 376f 343f 3812 5c3f 69f2 293f
00000050: 290a 643f 3c63 463f fa6b 593f 5877 a2bf
00000060: 8a66 633d 4bb1 b6bd 46e7 9f3e 832d 9ebf
00000070: 4fd8 10bf 6034 573e 5b54 56be 376f 02be
00000080: 46a7 95be 9a79 c5bf 879d a33f 2d2a a93f
00000090: cb44 34bf 65d9 45bf fa6f 44bf 4c25 bc3e
000000a0: 3226 76bf 4f6d cc3d 48cb 59be 46bd 8bbf
000000b0: 7948 9c3f bc3a 963f fed2 cebe 2835 82bf
000000c0: c745 c53e 2c10 7b3f c62e e5be 8e8c b93f
000000d0: 22e0 2d3e 4572 1a3e 06e2 7c3f df0d 6f3e
000000e0: 0012 a33f 86ad 243d b0d3 9abe 9fdd 813e
000000f0: 9773 1fbf c062 b3be 8a3e f53f c93c ec3e
00000100: 824b 9ebe 2eed 16bf 1a91 40be d7c9 e83d
00000110: 83ad a2bf dc53 d3be 6b21 bd3e 2321 133f
00000120: ade8 d63e 40ca 91be d604 a8be 6f2b d63e
00000130: ad53 7a3f 73b0 363f 06dd 5c3e bc83 87bf
00000140: d132 56bf b796 5a3e 44df 2cbf 42b7 2f3f
00000150: 7dff 363e 24c2 6a3d 4ddb b63e ed07 3c3f
00000160: 1c71 b83e ec0a b23f 76e9 0cbe 2e52 98bc
00000170: 2bce 343f f82d ccbe 4ed1 99bf 7924 813f
00000180: 377f d1bd 344b a13e 63b2 a9be 8df4 49bf
00000190: 2867 f53e 9913 b13f ffcf 1cbf 1c8c 953f
000001a0: 37a7 513f 3584 6bbe ab07 a9bf da2e a53e
000001b0: b570 fb3d af32 b9bf 732f 7bbe c0e3 303e
000001c0: 2e80 173f 6520 0a3f 35c5 83bf c9da 8dbf
000001d0: 0631 b6be b9e1 c1be b1ca aa3f ab9e a9bf
000001e0: cf1f 283e c2e2 553f cfaa 4abf 6209 c6be
000001f0: 7d1a 89bf 0847 393f e26f 6b3f 9355 213f
00000200: 6a1d 84bf b518 863f 3ff3 34bf 68b2 873f
00000210: 1c68 473f 818f 113f 6e42 a4bf 29d1 09bf
00000220: f66b 02bf e9a4 34bf d400 f4bc dc79 32bd
00000230: e0af 12bf 2169 b53f f47f 1a3f 6f1a 5abf
00000240: 8732 653f 1bdb afbf d5ed 16be 643c 92bf
00000250: f8c2 3c3d a40f 663e 1b06 363f 0110 e63e
00000260: 0712 da3e 94b0 69be d494 f83e 7ed0 aa3f
00000270: e6ea e13f 20cb 2e3e 67aa 4abf d20a cb3e
00000280: ee5a 9d3e fb72 82be 2401 d8bd 8d74 5aba
00000290: 9d5b 18bf 9960 d4bf a227 07bf 9343 c33e
000002a0: de5b ab3d a872 d53e 1840 b6bf 239f 933f
000002b0: 58c1 8c3f 0415 6d3f 05d1 5dbf 5ffe b5bf
000002c0: 3d90 42be 3e2e 20bf 6ed5 f43e 862c 0f3f
000002d0: 0f6b 4bbf bcc5 9bbe 9961 a33e 3c39 453f
000002e0: fbce e13e ff71 d4bd 11da aa3f 18b1 453e
000002f0: ae5f e33e dca0 46be b47e 393f 66e1 cf3e
00000300: be39 893f bb2e 623f 0fcf 17bf b935 3dbe
00000310: cb0e d23e b8fd d4bd 87f8 3bbf 1351 c0be
00000320: 93fc 223d 5e4d a0bd 6af4 103f 0e75 05be
00000330: d4f0 75bf cec6 09bf 03ff 5b3f 1211 e8be
00000340: a35b f03e 26ba 58bf ebd4 cc3e ddbe 4d3f
00000350: e136 633e 93c8 713f 59c0 8bbe 3be0 cdbd
00000360: 1de2 3cbe bcaf 553f 39ce 38bf c112 56bf
00000370: 4538 9bbe 7098 2b3d 2dd3 953f ea0d a7bf
00000380: e9fb 7abe 2367 16bf e052 0bbf 2296 3cbd
00000390: 01d5 2cbf 66fa 933e 44b1 383f 995b a1be
000003a0: 85ee 48be df49 9dbe e442 fa3e c5ed 933e
000003b0: 6e17 683f 8b90 8bbd 40b7 0ebf 134d 50bf
000003c0: fc7e 203d d733 933f dd7a 46bf 2e93 273f
000003d0: 9c6f ef3e f55f 383f 7a6d f63e c295 69bf
000003e0: d1b6 a83f 3a0b 5d3e 14a1 35bf 034f ad3e
000003f0: b117 84bd 97c2 be3f c4ad e0be d067 ca3f

lin4.bias f4 [62]
0.21203637 1.2929237 -1.0659169 -0.19291574 -0.042580374 -1.0730025 -0.46019843 0.014547377
-0.5617912 -0.9103088 0.22675309 -0.70239824 -0.2889644 -0.43252364 -0.78719705 -0.2425264
-0.45472422 -0.1554417 0.5468015 -0.58479804 -1.9086521 0.008914171 0.38016325 0.07643812
-0.3309564 -0.6928385 -0.7678866 -0.98032826 0.886019 0.35826686 -17.377808 -1.0672864
0.43669468 -9.178025 0.13731754 -9.532674 0.4237252 0.11174689 -0.31354678 -0.35844684
0.716354 -0.4644577 -0.1920402 0.42624247 -0.18764639 -1.5035603 -1.9853168 0.39462635
0.018016217 -0.27501202 0.38892385 0.12984696 -0.5559815 -0.87590873 1.0041138 0.48182854
-1.0843757 -1.1247437 -0.24702388 -2.2684538 -0.13018534 -17.289389
00000000: 1020 593e 867e a53f f76f 88bf b48b 45be
00000010: c268 2ebd 2558 89bf 219f ebbe 1f58 6e3c
00000020: 8cd1 0fbf ff09 69bf f631 683e 5fd0 33bf
00000030: 24f3 93be bd73 ddbe bf85 49bf d758 78be
00000040: 9dd1 e8be 1c2c 1fbe 2ffb 0b3f 53b5 15bf
00000050: b64e f4bf be0c 123c c2a4 c23e 978b 9c3d
00000060: 1e73 a9be dd5d 31bf 3794 44bf cbf6 7abf
00000070: 24d2 623f c16e b73e c005 8bc1 d79c 88bf
00000080: 7296 df3e 31d9 12c1 f89c 0c3e d585 18c1
00000090: 82f2 d83e 8edb e43d 3489 a0be 5886 b7be
000000a0: fa62 373f 66cd edbe 30a6 44be 743c da3e
000000b0: 6026 40be aa74 c0bf dc1e febf 770c ca3e
000000c0: bf96 933c 60ce 8cbe 0721 c73e 9af6 043e
000000d0: ce54 0ebf 8e3b 60bf cd86 803f 3bb2 f63e
000000e0: d3cc 8abf 9af7 8fbf d4f3 7cbe 592e 11c0
000000f0: 4e4f 05be ab50 8ac1
