qn1/model_weights_b10_em8.pth (torch, 441842 bytes, 9 tensors)

emb.weight f4 [62, 8]
000000 0f 73 1c bf 4c 74 03 bf b7 45 96 3f 3b f6 d8 be
       -0.61113065 -0.5134933 1.1740025 -0.4237536
000010 bb d5 b7 3e 2f fd 4e bf 89 f0 8c bd 10 c3 d0 3e
       0.3590525 -0.8085508 -0.06881816 0.4077382
000020 0c f9 54 3e a8 8f 72 bf 0a c5 a2 3d b0 c4 2d bf
       0.20798129 -0.9475045 0.079477385 -0.67878246
000030 96 82 74 be e7 5d db be 04 bf 7f 3f 59 7b 55 3d
       -0.2387794 -0.4284508 0.9990084 0.052119587
000040 4e 7b 90 bf 92 76 35 bd ed b6 56 3f 7b 40 1b 3f
       -1.128763 -0.04430253 0.8387287 0.60645264
000050 bf 10 da 3e cf 40 50 3c 56 45 11 3f f6 47 c7 3e
       0.425909 0.012710764 0.56746423 0.3892209
000060 d5 40 2e be 63 88 a4 be 6f 99 d4 3e 71 32 de 3e
       -0.17016919 -0.32135305 0.4152331 0.4339786
000070 38 fd 8d be 0e 41 d5 3f 07 30 17 3f 05 30 f5 be
       -0.27732253 1.6660478 0.5905766 -0.47888198
000080 54 8d 5e bf f5 c0 d3 3e 38 b0 ff 3e 27 db c0 be
       -0.869344 0.41358152 0.49939132 -0.376672
000090 d1 a0 51 3f 1d 0a 1e 3c 1b 3d 34 bf 5c 06 48 3e
       0.8188601 0.009645966 -0.7040574 0.19533676
0000a0 b2 4a b4 bf 58 e3 31 bf 89 5f 81 3f 3f ee 7a 3e
       -1.4085295 -0.69487524 1.010728 0.24504946
0000b0 d2 02 8a be b8 ec 19 3f ff 7a d5 be 76 2c 6f 3f
       -0.26955277 0.6012683 -0.416954 0.93427217
0000c0 51 57 92 bf a0 1e 3a bf 06 44 c6 be ca 89 fc bc
       -1.1432897 -0.7270298 -0.38723773 -0.030827422
0000d0 ac 66 9d 3f fe 62 99 bf fc 54 48 bf cc 91 61 3f
       1.2296958 -1.1983335 -0.78254676 0.88113093
0000e0 f4 34 2e bf 56 ee 6d bf bb a0 e4 bd db e7 53 3f
       -0.6804955 -0.92941797 -0.111634694 0.8277566
0000f0 59 d0 82 3f dc c4 db 3e ef 04 ae be 81 f8 88 3f
       1.0219833 0.4292363 -0.3398814 1.0700837
000100 53 d1 44 bf b2 d9 fa 3e c0 d8 a7 3f 35 61 29 3f
       -0.76881903 0.48994213 1.3113022 0.6616395
000110 09 5b 3a 3f a5 e2 0f 3f b8 75 58 be 42 d3 34 bd
       0.7279516 0.5620521 -0.21138656 -0.044146784
000120 1b 90 f3 3d ae e9 27 bf 52 0c d3 be 31 4a 03 be
       0.1189272 -0.6559094 -0.41220337 -0.1282127
000130 46 98 69 bf 34 d8 e2 be 50 62 db 3e bf a1 85 bf
       -0.91247976 -0.44305575 0.42848444 -1.0439986
000140 87 2c 5d bf 8c c9 2c bf e2 be e3 3d fe ad 44 3f
       -0.8639607 -0.67495036 0.111203924 0.7682799
000150 0d 38 3c bf 17 8a 1a 3f be 3e 45 bf 16 e3 96 3f
       -0.73523027 0.6036696 -0.7704886 1.1788051
000160 4d 28 3d be bd 01 94 3b c7 c0 1c 3e 19 87 8d bf
       -0.18472405 0.004516809 0.15307914 -1.1056854
000170 fa 28 6d 3f 6d f1 47 bf d8 aa 2c be 53 ce 79 bf
       0.9264065 -0.7810276 -0.16862047 -0.9758045
000180 c2 a3 e8 be f1 12 f2 bd 09 c0 52 3e b6 92 a9 be
       -0.45437437 -0.11820019 0.20581068 -0.33119744
000190 37 56 0f 3f 1c ab 25 3f c1 24 2c 3f 01 39 f0 3d
       0.5599093 0.6471422 0.6724358 0.11729623
0001a0 9c 1d 7e bf 2a f1 9d bd 34 31 80 3d 9d e9 01 bf
       -0.9926393 -0.07712014 0.06259385 -0.5074709
0001b0 41 1c 82 3f f7 36 6b be 9c 16 85 3d f8 81 ed 3e
       1.0164872 -0.22970186 0.06498453 0.4638822
0001c0 75 b1 8f bf 52 07 b2 3e 47 66 76 bf 57 5f d1 be
       -1.122603 0.3477121 -0.9624981 -0.4089305
0001d0 6a cc 71 3f 77 20 6a 3e db a6 15 3f 97 1f f1 3e
       0.94452536 0.22863947 0.58457726 0.47094414
0001e0 e4 c9 e7 3f 43 45 94 3e b6 1d 9b bf 2a 61 73 bf
       1.8108487 0.28959092 -1.2118442 -0.95070136
0001f0 0e 7e a5 3e 40 e1 5a be fd 6d 2b 3e 11 6d 3f 3d
       0.32322735 -0.21374989 0.16741176 0.046734873
000200 50 dd 02 bf 14 a3 21 3f 5b d2 53 bf bb be 49 bf
       -0.51118946 0.6313946 -0.8274285 -0.78806657
000210 25 a5 9c 3e 43 f5 b5 bf f9 80 8d bc 19 8e 2d 3f
       0.30594745 -1.4215473 -0.017273413 0.6779495
000220 8b eb 93 be b8 c7 7e 3d c3 9a d9 3e 83 23 46 3f
       -0.28890643 0.062202185 0.42500886 0.77397937
000230 44 77 82 3e a7 f1 c5 3e 33 1e ce 3e 6a b3 47 bd
       0.25481617 0.3866093 0.40257415 -0.048755087
000240 21 ea 37 bf fd 04 d4 be f1 26 1a 3f 87 60 94 bf
       -0.7184163 -0.41410056 0.6021567 -1.1591958
000250 36 45 0b bf 6d a0 1a 3e 84 3e 91 bf 08 f0 ce be
       -0.5440248 0.1510026 -1.1347203 -0.40417504
000260 29 d1 96 bf f9 63 f3 3d d4 e2 97 bb c7 79 cf be
       -1.1782581 0.11884303 -0.0046351943 -0.40522596
000270 5e 3e 8b 3f 1c 5b 4b 3f e1 38 a8 bf e9 9d a5 bd
       1.0878408 0.79435897 -1.3142358 -0.080867596
000280 55 b5 8b bf a7 09 5a 3f b4 8a da 3e ba ce af 3d
       -1.0914713 0.8517098 0.42683947 0.08584352
000290 ae 5c 05 3e 1a d4 db bd c2 bc bf 3b e4 65 4c 3f
       0.13023636 -0.107338145 0.005851359 0.7984297
0002a0 9b f7 3e bd 73 17 36 bf 62 19 d6 3e 22 b0 a9 be
       -0.046622854 -0.7112953 0.4181624 -0.3314219
0002b0 16 a6 67 be e4 b9 ec bd a5 5a f3 be 42 43 09 3e
       -0.2262195 -0.11558893 -0.47530094 0.13404563
0002c0 3d 70 d6 bd e3 57 1e 3f 94 4c 45 3e 77 24 9f 3c
       -0.104706265 0.61852854 0.19267493 0.019426567
0002d0 fb f4 ae be 4e 0f b1 3e fa 06 ac 3e b1 65 91 3f
       -0.3417128 0.3458199 0.33599073 1.1359159
0002e0 11 ae 8c be de b6 67 3e cd 14 1c 3f fa 6c 83 3e
       -0.27476552 0.22628352 0.6096924 0.2566908
0002f0 7b 09 0d bd 7e 31 20 bd 2c 97 e3 bd 75 ed 2e 3f
       -0.03443287 -0.0391097 -0.11112818 0.6833108
000300 d4 43 88 3e 7e 71 b4 3e 9f 39 97 3f 5a 0c c5 bd
       0.2661425 0.35242838 1.181446 -0.096214965
000310 98 1f 6e be a7 d5 be be 29 4c a1 bf 67 c6 14 3e
       -0.2325424 -0.3727238 -1.2601367 0.1452881
000320 bd 86 01 be d5 14 3f 3c ca 47 70 bf b4 a9 30 3d
       -0.12649055 0.011662682 -0.9385954 0.04313059
000330 ad c8 aa be e9 b3 96 3e 46 96 c1 3f 98 c5 19 3f
       -0.33356228 0.29434136 1.5123985 0.6006713
000340 9f 25 d5 bd d5 94 23 be 58 ce 3c bf 86 ed 15 3e
       -0.10407566 -0.15974744 -0.73752356 0.14641389
000350 df 19 80 3f c4 4d 27 3e a5 5c 83 bf 55 43 51 3f
       1.0007895 0.16338259 -1.0262648 0.81743366
000360 6b a4 00 bd e0 63 16 bf 4e 0b 92 bf a4 90 3c be
       -0.0314068 -0.5874615 -1.14097 -0.18414551
000370 eb d8 95 3f 5d a6 64 bf 15 b2 53 bd b8 65 81 3e
       1.1706823 -0.8931635 -0.051683504 0.25272918
000380 29 d3 9f 3e 34 f5 32 be 4c 31 fe 3e 1a b3 00 3d
       0.3121579 -0.1747635 0.49646986 0.031420805
000390 9a 86 4a 3f 75 38 1a be 0c d4 2c bf ea 89 f9 3e
       0.79111636 -0.15060599 -0.6751106 0.48738033
0003a0 b8 fb 23 3f 83 04 71 3f e7 68 88 3f 73 41 23 bd
       0.6405597 0.9414751 1.0657014 -0.03985734
0003b0 e0 25 14 3e 00 07 12 3f 93 eb 81 bd 40 1a a4 3e
       0.14467573 0.5704193 -0.0634376 0.32051277
0003c0 08 1c e6 3e f1 2b c9 3d 51 2b e8 3e 8d 1f eb be
       0.4494326 0.09822834 0.45345548 -0.4592251
0003d0 ad d8 0d bf 6a 17 82 3f 50 cd 4d 3e f3 2e 19 3e
       -0.55408746 1.0163395 0.20097852 0.14959316
0003e0 14 7a 62 3f cf 9d e7 be 5c 4e a7 bf ba 81 58 3d
       0.88467526 -0.45237586 -1.3070788 0.052858092
0003f0 07 cf a8 3e 61 87 4a 3f 94 f9 f2 3e 33 15 7e 3e
       0.3297045 0.7911282 0.47456038 0.24812774

lin1.weight f4 [200, 80]
000000 78 97 a4 bd cc e4 8a 3e 7a 3b 8c be fb 2d 8d 3e
       -0.08036703 0.27127683 -0.27389127 0.27574143
000010 14 c4 06 bd 59 d5 26 3e 35 54 04 3d 54 52 f5 3d
       -0.03290184 0.16292323 0.03230687 0.119785935
000020 5f 22 78 3d 3d fb ad be 30 21 2b be f7 a9 2e be
       0.060579654 -0.33980742 -0.16711879 -0.17057024
000030 1e cb c7 3d c9 17 ca 3e fd 95 37 bd 65 a9 fc bd
       0.097555384 0.39471272 -0.044820774 -0.12336997
000040 96 55 5b 3d db 1e a4 3d fa 03 c9 3c 3a 2b a8 bc
       0.053548418 0.08013698 0.024538029 -0.020528425
000050 ad 6b 60 3d 3e 5f cd bd e2 35 12 be fb b5 62 3d
       0.054790188 -0.10027932 -0.14278367 0.05534933
000060 bc c1 42 bc 97 3e c2 3e f3 56 59 3e d3 4c 57 bd
       -0.01188701 0.37938377 0.21224575 -0.0525635
000070 40 19 25 bd fb d2 63 3e 3c c5 86 be f1 2d 62 be
       -0.040307283 0.22248451 -0.26322353 -0.22087838
000080 65 d3 2f be ee 2d 68 bd 18 de c0 bd e7 b6 ae 3e
       -0.17170484 -0.056684427 -0.09417361 0.34123918
000090 99 94 41 3e 2e 4b 3f 3e 8a e6 db bd 0c b0 67 3d
       0.18904342 0.18681023 -0.10737331 0.056564376
0000a0 01 d5 c4 3d 39 0d ed bd 89 de 0b 3e b1 de 0f be
       0.0961094 -0.11574788 0.13659109 -0.14049794
0000b0 7a c8 a5 be ec ad a7 3e 96 57 50 3e b7 dc 88 3d
       -0.32379514 0.3274988 0.20345911 0.06682723
0000c0 f7 1e e2 bd 60 50 f4 bd e1 1f 8c 3e 6d 30 6d bd
       -0.11041062 -0.11929393 0.27368072 -0.05790751
0000d0 fe ee ed 3e b7 cf 63 be b8 34 6b bd b3 c4 73 3e
       0.464714 -0.22247206 -0.057423323 0.23805504
0000e0 d5 b8 22 3b 8a 52 66 3e ac 76 f9 bd 08 b7 fd bd
       0.0024829407 0.22492424 -0.12180838 -0.12388426
0000f0 00 07 b7 be 7d 0c cd 3e a9 fb a0 3d ce bd df bc
       -0.35747528 0.4004859 0.078605 -0.027312186
000100 29 a7 8f 3e 2e 2d 4a be af b3 38 be fd c8 22 3e
       0.2805722 -0.19743797 -0.18037294 0.15896983
000110 55 46 24 3e ff 32 63 3e c5 c1 8b 3d 15 82 55 3e
       0.16042455 0.22187422 0.06824068 0.20850404
000120 80 30 31 bd e6 33 18 bb 40 b0 fc 3e f0 c4 75 3d
       -0.043259144 -0.0023224293 0.49353218 0.060002267
000130 02 c7 10 be 11 c5 00 3f d3 13 78 3d 96 0e 06 3f
       -0.14138415 0.503007 0.06056578 0.52366006
000140 12 22 f1 bc f9 53 ea 3a 6b 92 19 be 17 71 33 bd
       -0.029435191 0.0017877809 -0.1499726 -0.043809023
000150 d2 34 c1 bd 52 fd c6 3d 95 2e e1 3d 80 6e a8 bd
       -0.09433903 0.09716286 0.10995213 -0.08224201
000160 4b 3b 84 3e 58 15 96 bd 2d 7a 0f 3e 21 86 9d bd
       0.25826487 -0.0732829 0.1401145 -0.07691599
000170 d0 13 ab 3d 8e 15 22 3d e9 c8 04 3e 49 10 f1 3d
       0.08353388 0.039571337 0.12967266 0.11770684
000180 62 04 29 be 4f e7 73 bd af 43 13 3d 87 0f 9f 3d
       -0.16505578 -0.059546765 0.03595322 0.077666335
000190 7d b7 9b 3c ca 6b fc 3d 41 4c 9a 3c 4b 65 3d 3d
       0.019008392 0.12325247 0.018835189 0.04623918
0001a0 6b d5 28 be 92 dd 04 be d6 0b b2 3d 02 89 2a be
       -0.16487662 -0.12975147 0.08693664 -0.16653827
0001b0 73 2d 4f 3e 37 89 19 3d 72 cc 37 bd 31 94 0d bd
       0.20232181 0.037484374 -0.04487271 -0.034565154
0001c0 49 75 63 3c 08 3f 45 bd f4 8e 4b be b2 1c 94 3d
       0.013882943 -0.048155814 -0.19878751 0.07232036
0001d0 4a 43 72 bd a9 b7 0d 3e 39 12 3f 3e 3d e9 b5 bd
       -0.059146203 0.13839592 0.18659295 -0.08882377
0001e0 f9 9d c3 be d1 be ab 3d 10 10 65 be f8 74 5b 3e
       -0.3820646 0.08386005 -0.22369409 0.21431339
0001f0 da cc eb 3d ee 87 97 3e c3 26 b6 be 55 0e df 3d
       0.11513682 0.29595894 -0.35576448 0.108914055
000200 00 cb b7 b8 2c 2f a6 3b 32 10 4c bc 41 96 a8 be
       -8.763932e-05 0.0050715413 -0.012455033 -0.32927135
000210 2a 4c 8c 3d e2 25 a9 be 49 34 1b 3e 32 60 8c 3e
       0.06850465 -0.33036715 0.15156664 0.2741714
000220 ba d5 55 be db c2 45 be 48 a1 32 3e 36 a8 3e be
       -0.20882311 -0.19312613 0.17444336 -0.18618855
000230 2f 81 56 3e 8a aa 51 bc 08 a5 fb 3b f4 55 f8 3e
       0.20947717 -0.012797007 0.0076795854 0.48503077
000240 a1 bf 7c be 04 09 26 bf 5e a2 88 3c 0f bd 92 be
       -0.24682476 -0.64857507 0.016678985 -0.28659865
000250 23 da 14 3e 95 d2 a4 bd b6 4d 25 be 05 04 bd bd
       0.14536338 -0.08047978 -0.16142926 -0.09229282
000260 ba 95 d4 3e 53 37 99 3e 6f 27 ce be 74 ef 01 3f
       0.41520482 0.29925022 -0.4026446 0.50756
000270 06 4f 9e be 15 43 36 be e3 cf 6d be c8 42 cb be
       -0.30919665 -0.17799027 -0.23223834 -0.39699388
000280 ca ce 8e be 60 1f c3 bd 49 c7 35 bd 47 ec 7e bd
       -0.27892143 -0.09527469 -0.044379506 -0.06223705
000290 37 03 bc 3d a2 62 73 3e dd ac 8e be eb 0b ad be
       0.09180301 0.23768094 -0.2786626 -0.33798155
0002a0 20 e2 81 3e de 25 09 be d3 0e 2b bc d7 8a b6 3d
       0.25367832 -0.13393351 -0.010440546 0.089132
0002b0 d9 b8 03 bd f7 00 ac bd f2 46 d5 3d 81 d7 2a be
       -0.032158706 -0.083986215 0.10413922 -0.1668377
0002c0 af 1e 82 be ca f7 66 3e 6f 32 1d 3c 59 7e 72 3e
       -0.25414035 0.22555462 0.009594544 0.2368101
0002d0 31 6e 11 be 36 4e 76 3e 13 9f 2d be 6e 13 f6 3c
       -0.14202191 0.24053273 -0.16955213 0.030038562
0002e0 43 38 91 3b fd 0b 70 3e 97 7d ee bc 26 47 01 be
       0.0044317557 0.23442073 -0.02911262 -0.12624797
0002f0 0c 8a 2d 39 0b 26 08 be 10 b8 95 be a5 29 40 be
       0.00016549992 -0.13295762 -0.2924199 -0.18765886
000300 1a 6a 3a 3d bb 83 12 be a3 51 82 be 7e 2f e3 bb
       0.045511343 -0.14308064 -0.2545291 -0.0069331517
000310 24 2f ab be b7 0d ce 3d 96 40 f2 bc 5a 0e 10 3e
       -0.33434403 0.1006121 -0.029571813 0.14067975
000320 cb a5 87 3e f5 16 5e 3e 15 66 ef 3d 72 b2 91 3e
       0.26493677 0.21688445 0.116893925 0.28456455
000330 65 55 9e 3e 49 4c aa 3c bf 5c 97 3c 0f 2f 76 bd
       0.30924526 0.020788329 0.018476842 -0.060103472
000340 1e 83 a9 bd 5e b5 ce 3e bf 76 26 3e d5 77 c2 3e
       -0.08276962 0.40372747 0.16256236 0.3798205
000350 89 ba 57 bd 63 27 1c be e5 d3 34 3e 17 45 03 bf
       -0.05266813 -0.152494 0.17658956 -0.512773
000360 e5 c8 44 be 88 89 bc 3e 18 21 82 3d 38 0a 66 3e
       -0.1921726 0.36823678 0.063539684 0.22464836
000370 53 36 bb 3e 39 df 6a 3c 78 30 be bd 85 48 53 bf
       0.36564884 0.014335447 -0.092865884 -0.8253253
000380 04 66 2b 3e 2e 1b cb bd 71 6d 32 3e ff 69 01 3e
       0.16738135 -0.099172935 0.17424561 0.1263809
000390 88 d2 d3 3e d2 ee a6 3d 8a b0 4d 3e fe 7e 82 bc
       0.4137156 0.0815102 0.20086876 -0.015929695
0003a0 74 7f a7 be bf 4b e3 3c f3 b7 cd be 99 6c 63 be
       -0.32714427 0.02774608 -0.40179405 -0.22209395
0003b0 ec 31 71 3d 24 4b 90 3e 11 21 b7 3d b3 a3 96 be
       0.0588855 0.28182328 0.08941854 -0.29421768
0003c0 c3 7e 0a bd 4f 55 1c be 30 ae 73 3d 48 b1 0a bc
       -0.033812296 -0.15266918 0.05949229 -0.008465119
0003d0 ab 15 83 bd b1 31 5e 3d cd ce c7 bb b4 dc 05 3e
       -0.06400617 0.05424661 -0.0060976506 0.13072473
0003e0 50 f6 7b bd e9 2b 0b bd 0e 0b 62 bb 4d 48 7c bd
       -0.0615142 -0.033977423 -0.0034491452 -0.06159239
0003f0 2d fd 02 3e 2e 74 57 3d b5 12 d1 3d 15 ef 56 3e
       0.12791891 0.052601032 0.10208646 0.2098964

lin1.bias f4 [200]
000000 28 86 01 bf f1 45 fb bd ca f6 47 3e 30 4e fa 3d
       -0.5059533 -0.122692 0.19527736 0.12221944
000010 c7 09 ce 3e 29 78 41 3c 66 93 50 3e 8d 59 72 bd
       0.40241835 0.011808434 0.20368728 -0.059167434
000020 d5 59 04 3d 22 d5 be 3a 4e 0b 96 3e c4 3f 4f be
       0.032312233 0.0014559368 0.293055 -0.20239168
000030 12 03 ef 3d 7f 2f cf 3e 23 02 b9 3e 7e 80 c2 3d
       0.116705075 0.40465924 0.36134443 0.09497164
000040 55 c9 5c 3e fd 75 0d bf 6c f9 84 3e 99 a5 9a 3d
       0.21561177 -0.5525816 0.25971544 0.075511165
000050 cd c8 eb 3d ce 70 59 be 31 f3 f3 bd d6 51 53 be
       0.11512909 -0.21234438 -0.119116195 -0.20636687
000060 68 fb 10 be 06 5d 38 be 96 f0 b0 3e 85 66 c8 bd
       -0.14158404 -0.18004236 0.34558553 -0.09785179
000070 d1 d1 dc 3d ad 8a 97 3d 6d 86 a6 3d f9 38 d5 bc
       0.10782207 0.07399497 0.081311084 -0.026028143
000080 31 70 72 3d b4 a5 83 be ab 45 97 be e0 36 45 be
       0.059189025 -0.2571236 -0.2954534 -0.19259214
000090 15 d4 4a 3e af 27 41 bd b5 16 81 be 86 71 5c 3e
       0.19807465 -0.047156986 -0.25212637 0.21527681
0000a0 48 ba 35 3c 0f 86 76 3e 51 bb ef 3e 3e b0 4f be
       0.011091776 0.24074577 0.468226 -0.20282075
0000b0 c5 6e d7 ba 43 71 e2 bd 4a cc ec be a0 da 82 3d
       -0.001643621 -0.11056759 -0.4624961 0.06389356
0000c0 06 b2 25 3e f0 a3 60 be b0 f6 89 be 8b 39 cd bd
       0.16181192 -0.21937537 -0.2694602 -0.10020741
0000d0 f7 1b 2b be 2c 22 66 3e c7 eb b0 3e 79 88 39 be
       -0.16709886 0.22473973 0.34554884 -0.18118466
0000e0 6b 89 bf bc 80 6d bd be 5d c1 93 3e 51 61 7c bd
       -0.023380956 -0.36997604 0.28858462 -0.061616246
0000f0 bd c3 90 3d 63 24 08 be 25 15 fe 3d e5 6e 7f 3e
       0.07068584 -0.1329513 0.12406377 0.24944647
000100 02 a7 d4 bd b8 ee ed bd 48 e9 34 be 7a ec 93 3e
       -0.10383417 -0.116177976 -0.17667115 0.28891355
000110 db 7e 5b be ee 95 33 be 2d c0 0b 3e b5 b0 56 3d
       -0.2143511 -0.17537662 0.13647528 0.052414615
000120 d8 ec 8a 3c 43 84 aa 3d 3f 87 df 3d 82 20 0d 3d
       0.016958639 0.08326008 0.10914468 0.03445483
000130 41 b1 b5 bc a1 8f 48 3e 3f 90 e9 bd 8a 34 32 3e
       -0.022179248 0.1958604 -0.11404466 0.17402855
000140 14 52 11 bd 97 df 37 3e 53 e3 e2 be ea c2 06 be
       -0.035478666 0.17956387 -0.4431406 -0.13160291
000150 52 9e 17 bd 15 87 94 3e 4d 0f 0f 3e 5a d7 c9 bd
       -0.03701622 0.2900931 0.1397068 -0.09855528
000160 07 73 80 be e2 ff 4d be e3 db 88 3c 4f 29 c6 3e
       -0.2508776 -0.20117143 0.016706413 0.3870339
000170 64 34 71 bd 4b 01 13 bf 87 0b 10 3e 70 c3 ea 3c
       -0.058887854 -0.5742385 0.14066897 0.028657645
000180 c8 08 f3 be 3c 78 d5 ba ef 57 f5 bb 39 43 66 be
       -0.47467637 -0.0016286443 -0.007487289 -0.22486581
000190 a5 ff 1b 3e 40 f4 b2 bd f2 28 0a 3f 88 dc 63 be
       0.1523424 -0.08737993 0.5396873 -0.22252095
0001a0 41 55 3d 3d 6a 56 e9 be a5 12 95 be b1 5d ef 3c
       0.046223883 -0.4557374 -0.29115787 0.02921948
0001b0 9b 09 4a be 54 a2 24 bd fa 17 3b 3e d1 92 d2 3c
       -0.19730227 -0.04019387 0.18270865 0.025704773
0001c0 31 68 c8 3d 64 2d ac be 46 45 24 3e 97 e6 8b 3d
       0.09785498 -0.3362838 0.1604205 0.06831091
0001d0 79 b4 be 3e c1 97 e9 3d 33 ae 09 3d 8e ba 76 be
       0.37247065 0.11405898 0.033613395 -0.24094602
0001e0 46 63 08 3f 18 3d 89 3e 4c 4d 4a 3e 88 13 1b 3e
       0.5327648 0.26804423 0.19756049 0.1514417
0001f0 77 69 f4 3e 16 8d d2 3b 0b 94 0a bf 32 d5 2e 3e
       0.47736713 0.00642551 -0.54132146 0.17073515
000200 a3 49 5c 3e ba a8 33 3d f7 21 e0 3e 7b 33 0e be
       0.21512465 0.043862082 0.43775913 -0.13886826
000210 ab e6 59 be 81 04 d4 be a5 52 57 be 91 cc 05 bd
       -0.21279399 -0.41409686 -0.2102762 -0.032665793
000220 b7 3b 51 3e b3 b5 a2 3e 30 21 de be 40 8c 81 be
       0.20432936 0.3177925 -0.43384695 -0.25302315
000230 0d 49 d3 be a4 e4 28 be 83 a0 a1 3e de 03 54 3e
       -0.4126667 -0.1649347 0.31567773 0.207046
000240 80 42 0b 3e 77 e8 03 3e 69 f5 b0 bd 4f b4 78 3e
       0.13599586 0.12881647 -0.08640558 0.24287532
000250 8a 7d 33 3e 6b 86 0e 3e a5 f3 ae be 27 2b b6 bd
       0.17528358 0.13918464 -0.3417026 -0.088949494
000260 47 1e 7b 3e 9b cf 27 3c 72 6e bf 3c b0 15 a4 3d
       0.24523269 0.010242368 0.023368094 0.08011949
000270 67 76 af be fd 3c 57 bd 94 a9 2a 3e 5d 85 b2 bd
       -0.3427002 -0.052548397 0.16666251 -0.08716843
000280 c8 44 49 bd 77 1c a2 3b 42 94 99 3e be 10 c6 3e
       -0.04913786 0.004947241 0.29995924 0.38684648
000290 0f 01 aa be a2 df 22 3f b2 ec 9f 3e fa 64 02 3c
       -0.33203933 0.63622487 0.31235272 0.007958645
0002a0 0c f6 9c bd ac 23 8b bd 7c 58 a9 3e 1b 10 98 be
       -0.07664117 -0.06793913 0.3307532 -0.29699787
0002b0 e1 21 00 be 22 80 8f 3d c4 87 93 3e 36 c4 3e bd
       -0.12512924 0.07006861 0.28814518 -0.04657384
0002c0 a4 f1 93 3e 6e 4e 48 3e 55 e1 80 3e 7e 18 58 bc
       0.28895295 0.19561169 0.25171915 -0.013189433
0002d0 4a 1f f6 bd 43 3a f0 be e2 51 1c be 9a 3e 29 3c
       -0.12017687 -0.4691945 -0.15265611 0.010329867
0002e0 41 1c 9c 3e 1f 47 90 3e ee 0c e2 3e 1c 0e 8c 3e
       0.30490306 0.2817926 0.4415049 0.27354515
0002f0 6e cd 5b 3e 31 e3 83 be 55 db 00 3f f3 ca cd 3e
       0.21465084 -0.2575927 0.50334674 0.401939
000300 22 0c c5 bd b5 94 25 3f 55 51 e5 bd f5 f8 4f be
       -0.09621455 0.64680034 -0.111971535 -0.20309813
000310 4c 81 ad 3e 4e 6b 6b be 3a 6b 0f bc 2b b7 ad 3d
       0.33887708 -0.22990152 -0.008753592 0.08482202

lin2.weight f4 [200, 200]
000000 40 49 58 be 91 de 29 3e c1 3f 2b 3e d1 5c a0 3e
       -0.21121693 0.16588809 0.16723539 0.31320813
000010 4d f7 3b 3e 01 ab 4c 3e c3 4c 0e bd 5e 1a 91 3d
       0.18356057 0.19987108 -0.034741174 0.07085107
000020 d4 d6 6f 3e 50 79 70 3d 07 0b d5 bc 36 21 9d bd
       0.23421794 0.058709443 -0.026006235 -0.0767235
000030 d6 c3 bd bd d6 14 a3 bd 82 ee 84 bd d3 e0 59 bc
       -0.09265868 -0.079629585 -0.06490804 -0.013298231
000040 8e f2 81 bd dd 8a 0e bd 9e ef b7 bc d2 38 b4 3e
       -0.06345092 -0.0348004 -0.022453126 0.351996
000050 b6 a9 af 3d 9d 2a 50 bd ea 44 b8 3a 1b d9 96 3b
       0.08577292 -0.05082189 0.0014058624 0.0046035177
000060 10 15 8d 3e 4d f4 a2 bd e5 d9 e6 bd 8a df 0a 3d
       0.27555132 -0.07956753 -0.11272029 0.03390459
000070 1d 9f dc 3d 5d ee 4a 3e d6 f7 f3 bd e7 5c ba 3d
       0.10772536 0.19817491 -0.11912505 0.09099751
000080 46 f7 93 3e 78 67 89 bd c9 39 7f be 07 b4 b9 3c
       0.28899592 -0.06709188 -0.24924387 0.022668852
000090 45 32 6d be fa 3d 63 3e 8e fe 1d bd b1 c5 96 be
       -0.23163708 0.22191611 -0.03857284 -0.29447702
0000a0 01 45 36 bd bb be 92 bd 01 28 48 3d ad 29 35 bc
       -0.0444994 -0.07165285 0.048866276 -0.0110573
0000b0 d3 35 5f 3e 6c a4 32 3e 57 de 9a 3c e5 74 48 bc
       0.21797876 0.17445534 0.018904848 -0.012234901
0000c0 b4 e7 5e 3e 3d 61 4c be 24 cf b8 bd 14 04 9f 3c
       0.21768075 -0.19958968 -0.09023884 0.019411124
0000d0 18 c2 57 bb 3c 8e a3 3d 89 27 d4 3d ad c2 74 3d
       -0.0032922085 0.079861134 0.10359103 0.05975597
0000e0 65 3a b7 3d a6 6f 72 be 4a 3d 93 bc e7 09 72 be
       0.08946685 -0.23675403 -0.01797356 -0.2363659
0000f0 c5 b3 36 be a8 09 84 3c 0a 9f 49 bd 19 85 83 3d
       -0.17842014 0.016117886 -0.049223937 0.06421871
000100 d5 2e 0b be 00 aa 25 be 42 e1 49 3e 86 b0 8c bd
       -0.13592084 -0.16178131 0.19714835 -0.06869607
000110 86 9f ab 3e 51 d5 85 3e cf 95 94 3e d4 39 b7 3d
       0.33520144 0.2613931 0.29020545 0.08946577
000120 e5 46 64 be 13 8e 93 be 3c 28 1a bc d0 7f d6 3d
       -0.22292669 -0.28819332 -0.009409007 0.10473597
000130 59 53 0a 3e ee 8e 40 3d 93 10 f9 3c 9f d5 c6 3d
       0.13508357 0.04701131 0.030403411 0.09708714
000140 5b 3b 8a bd 04 ce 5e 3d 50 5f 86 3e 42 2d eb 3d
       -0.067496024 0.05439569 0.26244593 0.114832416
000150 64 12 0a 3d 5e 86 6e 3e 63 08 81 3e 93 e8 1a 3e
       0.033708945 0.23293445 0.2520171 0.15127783
000160 f4 d3 b4 bc 8b e9 20 3e 8e 62 6c be a7 4c da bd
       -0.022073723 0.1571409 -0.2308447 -0.106591515
000170 c7 ea 8a 3e 4c 4d 8e 3b 9d 09 69 bd 8e 9d cf bd
       0.27132246 0.0043427106 -0.056893934 -0.10137473
000180 d7 45 2f be c5 9a 85 be 46 87 3c 3e 6c c4 80 3e
       -0.17116486 -0.26094642 0.18410978 0.25149858
000190 3e 5d b3 bd eb 46 2b bd f1 10 e0 ba e9 f5 cf 3b
       -0.08758019 -0.04181568 -0.0017094893 0.0063464534
0001a0 37 7e 1f 3e 38 50 18 3e 5a 2f 17 3e 12 aa c9 3d
       0.15575491 0.14874351 0.14764157 0.098468915
0001b0 ca 19 a2 3e 4f 03 66 3d a1 51 16 3d d7 4c b2 bd
       0.316603 0.0561555 0.03669894 -0.08706062
0001c0 cb 35 c5 be 84 9f 27 3d c4 dc 13 be b2 60 8f bc
       -0.38517603 0.04092361 -0.14439684 -0.017502163
0001d0 06 ce 87 be 8f d3 90 bd ec f4 40 be 46 2a 09 3e
       -0.2652437 -0.070716016 -0.1884343 0.13395032
0001e0 ed ec 0e be 10 26 32 be 57 25 df 3d 49 31 64 be
       -0.13957568 -0.17397332 0.10895794 -0.22284426
0001f0 88 6d be bd 72 6e 69 be 1b 65 73 be 6c 5d b6 be
       -0.09298235 -0.22796038 -0.23769037 -0.3561815
000200 9f c7 ef bc d1 9e 6a 3e 83 e3 91 bd 75 8b 02 3e
       -0.029269991 0.22912146 -0.071234725 0.12748511
000210 0b 45 a8 3d d2 6f 58 bc dc 5b 4e 3d 2b 2e 98 bd
       0.08216294 -0.013210254 0.050380573 -0.07430681
000220 8d 47 93 3c 46 75 cf bd 43 d7 2f 3e 4a 3f 98 3d
       0.017978454 -0.1012979 0.1717196 0.074339464
000230 38 ba 6e 3e 6c 78 b4 be ed 02 12 bd 79 9b 3a be
       0.23313224 -0.35248125 -0.03564732 -0.1822337
000240 c0 69 76 bc 8a 71 92 3c ad 90 93 3e 9d 35 49 3d
       -0.015039861 0.017876405 0.28821316 0.049123395
000250 d4 ef 63 be c0 11 80 3d f7 02 9e 3d a9 ea e0 bc
       -0.22259456 0.062533855 0.07715409 -0.027455645
000260 88 38 0a bc ac dc 6b 3c 98 75 5f be 47 2b d7 3c
       -0.00843633 0.014395874 -0.21822202 0.026265753
000270 c2 e6 49 3c fa 68 02 be ac 62 78 3d 06 39 80 bd
       0.012323083 -0.12735358 0.060640976 -0.06260876
000280 a1 20 e6 bd e5 e2 47 bc e4 6c e2 3d ac 2c 6a bd
       -0.11236692 -0.012200092 0.110559255 -0.05717151
000290 54 e9 78 bd ba 57 84 3d bb 5e 7f be 1c 9e 1b 3e
       -0.060769394 0.06462045 -0.2493848 0.15197033
0002a0 09 e4 1c be 2c e7 17 3d 19 bf 08 bd c6 bd 97 bd
       -0.15321364 0.037085697 -0.03338537 -0.07409243
0002b0 44 d4 38 3d 52 c2 0f 3e f3 e6 0f be 17 cc a3 3d
       0.045124307 0.14038971 -0.14052944 0.079979114
0002c0 c3 83 a2 3e 39 3f 1b 3e 08 b5 00 3e 81 a9 84 be
       0.3174115 0.15160836 0.12569058 -0.2591057
0002d0 b7 1d 1b 3e 3d 28 a8 be b5 b7 5b 3e 18 49 88 be
       0.15148054 -0.328432 0.21456797 -0.26618266
0002e0 11 88 93 3d 13 f9 dd bc 71 9f 83 3c 13 9e 4c be
       0.07203687 -0.027096307 0.016067239 -0.19982176
0002f0 dc 51 f0 3d f0 0b 1b 3d 33 96 8d bd 8e 91 cb bc
       0.117343634 0.03785318 -0.06913414 -0.02484968
000300 24 04 44 3e 2a 82 ac bc 20 47 43 be 7a c6 e6 3d
       0.19142205 -0.02105816 -0.19070101 0.11268325
000310 26 ae 84 bd 45 8a 4d 3e 55 12 a3 3e d8 40 49 3d
       -0.06478529 0.20072277 0.31849924 0.049134105
000320 83 d2 d8 bc fc 67 29 be 75 ff 00 bd 32 b5 43 3d
       -0.026467567 -0.16543573 -0.031493623 0.047780223
000330 96 d6 bb bd 6c 1e df 3d 78 1a d7 bd a3 5a a7 be
       -0.091717884 0.108944744 -0.105030954 -0.32686338
000340 45 c9 08 bf 90 cb 80 be e0 e2 c6 3d d5 f5 a3 3d
       -0.5343211 -0.25155306 0.09711242 0.08005873
000350 99 35 9c be 5f 0b 92 3e d6 2a 35 be 10 fa 58 be
       -0.30509642 0.285243 -0.17692122 -0.21189141
000360 85 12 72 be bc 19 23 bc 72 c9 e5 bd 2f be 8d 3d
       -0.23639877 -0.009954866 -0.11220063 0.0692104
000370 f0 17 09 be 06 2e 4e be 0c 89 27 3e c2 12 03 bd
       -0.13388038 -0.20134744 0.16360873 -0.03200031
000380 a3 65 be 3c a7 8d 19 bd 8d 83 fa bb 91 d5 77 3d
       0.023241824 -0.037488606 -0.0076450766 0.060506407
000390 c7 9d 33 be 88 d5 9f 3e 07 4f 82 3d a3 a1 b1 bb
       -0.17540656 0.312176 0.063627295 -0.00542088
0003a0 e0 ef 6a be 29 0d 2b be 75 86 c0 3c 00 f0 b5 3d
       -0.22943068 -0.16704239 0.023501614 0.08883667
0003b0 81 17 1c 3e 77 0e 8b 3e 4c ae c1 bc 8c 18 51 bc
       0.15243341 0.27159473 -0.023642682 -0.0127622
0003c0 8e 4a 94 bd d3 c1 b8 bd 93 44 a9 3d 24 d7 01 3e
       -0.07240783 -0.09021344 0.082650326 0.12679726
0003d0 5c 5a 23 3e b4 5d 7d be 58 72 07 be 3c c2 94 3c
       0.15952438 -0.24742776 -0.13227212 0.018159024
0003e0 a5 46 05 3e c1 8b 3d 3e 42 90 0c 3e f2 03 0a be
       0.1301523 0.18510343 0.13726905 -0.13478068
0003f0 9c e8 87 be d2 21 e5 bd cb 68 e3 3d f1 6a 08 be
       -0.26544654 -0.11188091 0.11103972 -0.13322045

lin2.bias f4 [200]
000000 f4 e9 90 be 8f f2 74 3d 92 7b 73 3d 26 ba 65 3d
       -0.28303492 0.059801634 0.059444018 0.056085728
000010 ff c4 35 bd 9b ac 6f 3e 76 1e af 3d 0f 41 8d 3d
       -0.044377323 0.23405688 0.08550732 0.068971746
000020 0e 50 4d be 43 a4 0b be d1 4f e0 bd 0c fe ca 3d
       -0.2005007 -0.1363688 -0.10952724 0.09911737
000030 35 58 9b 3c 9a 74 54 3e 12 61 93 3c 59 7f b8 3e
       0.018962959 0.20747605 0.017990623 0.3603466
000040 20 57 90 bd 96 d0 2c 3e c1 ac 06 3e 71 15 78 bc
       -0.07047868 0.16876444 0.13151838 -0.015141831
000050 eb 13 6e 3e b3 14 a5 be f1 02 b8 be b3 e5 c4 bc
       0.23249786 -0.32242355 -0.35939744 -0.02403531
000060 4d 91 b7 bc c1 08 05 3e 98 45 e8 3c 8b 1a 38 3d
       -0.022408152 0.1299162 0.028353497 0.04494719
000070 6a 76 34 3e 88 ca 8a 3e 5d f3 2e 3b 0c 6e 30 3e
       0.17623296 0.27107644 0.0026695349 0.1722948
000080 6a ba ef 3d 98 62 19 3f 2e 16 c0 bd a0 9c 42 3e
       0.117054775 0.5991607 -0.093792304 0.1900506
000090 5f 13 b4 be 82 c3 3b 3e 4c c9 67 be af e7 6f bd
       -0.3517103 0.18336299 -0.22635382 -0.05857056
0000a0 7d ac 44 3e b4 4c 7f bd 79 75 d1 3c be 8a be 3e
       0.19206424 -0.06232901 0.02556871 0.37215227
0000b0 72 38 bc 3e d4 88 69 3e 4e 5f 92 3e 33 be 24 3c
       0.36761814 0.22806102 0.28588337 0.010055113
0000c0 7c f9 1a bd ea 06 6a bd fa 88 68 bc 8e 9b 9f bb
       -0.037835583 -0.0571355 -0.014192814 -0.0048708385
0000d0 fe be 8b bd 13 af 27 3e c4 c4 17 bd b8 fa 09 3e
       -0.06823538 0.1637538 -0.037052885 0.13474548
0000e0 bc 79 8d bd 6b aa e9 3d e3 ab e2 bd dd 70 26 3c
       -0.069079846 0.11409458 -0.11067941 0.010158745
0000f0 8d c0 5b be bb 9d 51 3e 89 3e 3c 3d a0 79 c3 bc
       -0.21460171 0.20470326 0.045958076 -0.023861706
000100 32 ed c4 3d 7f be fb 3d 27 07 31 3d 5e 92 6c be
       0.09615554 0.122921936 0.04321971 -0.2310271
000110 2f 14 a3 3d e2 8e 67 bd 3f d5 11 be 0d 82 bc 3d
       0.07962834 -0.056532748 -0.14241503 0.09204493
000120 84 8d 3c be 5d b1 32 bc ce 74 60 3d 7c 6d 76 3e
       -0.18413359 -0.0109065445 0.054798894 0.24065202
000130 02 cf 87 bd 70 a7 f0 3d 96 f0 65 bc b8 6f ab be
       -0.066312805 0.11750686 -0.014034411 -0.33483672
000140 80 74 74 3e 9a d4 0a 3e 79 72 8e 3a e1 13 ac bd
       0.23872566 0.13557664 0.0010867856 -0.08402229
000150 db e0 03 be 03 61 d8 bd 27 66 70 3e 05 b5 9e 3d
       -0.12878744 -0.105653785 0.23476468 0.077493705
000160 02 e5 df bd 7d 7c 1d 3e 3a 96 b7 be 32 85 2b bc
       -0.10932352 0.1537952 -0.358568 -0.010468768
000170 5c 8a b6 3e 71 e6 b7 3d a9 ab dc 3d c1 b7 91 3d
       0.35652435 0.089795 0.10774929 0.071151264
000180 26 b5 80 be e6 44 0e be 34 2f 94 3d 9c c0 f0 bd
       -0.25138205 -0.1389347 0.07235566 -0.11755487
000190 ab 68 d9 3d 4d ac f4 3d 17 47 1e 3e 8b 3c a4 3d
       0.10615667 0.11946926 0.15456806 0.0801936
0001a0 be ee 3b bd c5 45 be bb ec 58 a9 be 21 3c 1a 3d
       -0.04588198 -0.005806657 -0.33075655 0.037655
0001b0 e4 96 f6 bd 4d 60 66 3e b3 ca 04 3d ca 6e b7 3e
       -0.12040499 0.22497673 0.03241987 0.35826713
0001c0 1a a2 3e 3e 53 75 8d bb 3b a6 2e 3e 61 06 3c be
       0.18616524 -0.0043169647 0.170556 -0.18361808
0001d0 df 24 6b bd 66 0a 82 3d 7c a1 bd bc 72 d1 c7 3b
       -0.05740821 0.063496396 -0.02314829 0.006097966
0001e0 90 9c 6c 3e 5a 3e 84 bd a3 7c 47 be e4 2b 7e 3e
       0.23106599 -0.06457205 -0.19481139 0.2482143
0001f0 c0 08 a5 3d 75 03 8b 3e 34 eb 79 bc 89 5c 6d be
       0.080583096 0.27151075 -0.015253831 -0.2317983
000200 43 6e 32 bd 1c 02 cc bc 2c 43 60 bc 8c d9 b3 3d
       -0.043562185 -0.02490335 -0.01368789 0.08781728
000210 5d 65 86 bd c6 d6 5b 3e 77 0d 10 be 62 59 84 3d
       -0.06562302 0.21468648 -0.14067636 0.06462361
000220 67 ae 34 3d 96 36 c4 3e 09 9f 95 bd 65 51 3b 3e
       0.044111636 0.38322896 -0.07305724 0.18292768
000230 b0 9a 90 be 7c b0 89 3d 33 1a 3b bd b2 0a 7b be
       -0.28243017 0.06723115 -0.045679282 -0.24515799
000240 13 62 e8 bd cd 81 69 3d 0a 62 01 be 10 5e c7 3d
       -0.11346831 0.057008553 -0.12635055 0.09734738
000250 bc f8 b8 bd 6f f6 a6 bd 1d f3 c8 bc 63 76 fb 3e
       -0.09031817 -0.08152472 -0.024529988 0.4911376
000260 ee bf 89 bd c4 12 41 3c 76 a3 9b 3d 85 0a 8c bd
       -0.06726061 0.011784259 0.07599537 -0.06837944
000270 87 62 f1 3a 84 53 20 3d 25 f0 43 be 2e 39 08 be
       0.0018416204 0.039142147 -0.19134577 -0.13303062
000280 ae 10 55 3d 27 57 96 bd 90 85 00 3b 42 e5 a9 3d
       0.05201786 -0.07340842 0.001961086 0.082956806
000290 0e e9 48 be 7f 38 74 3e aa b4 33 be 64 84 8d be
       -0.19620153 0.23849677 -0.17549387 -0.2764007
0002a0 a8 d1 d9 ba d8 36 1e 3d 3f 7f dd bd b8 2e 3b bc
       -0.0016618269 0.03862652 -0.10815286 -0.011424713
0002b0 16 06 6c 3e 0e 3c 25 3e 07 f8 05 3d 96 5b ae 3e
       0.23049197 0.1613619 0.03270724 0.3405425
0002c0 74 c9 ea be a1 26 ac bd 6c a1 0b bd 3c 0b a9 bd
       -0.45856822 -0.084058054 -0.03408949 -0.08254096
0002d0 06 97 41 3e f7 ca 25 3e 72 f5 8c 3d 0d 21 1f be
       0.18905267 0.16190706 0.068827525 -0.15539952
0002e0 0d a9 6e bd bc 5e e1 bb 8e e6 92 3e 29 db c1 be
       -0.05826669 -0.0068777483 0.28691524 -0.37862518
0002f0 11 b1 80 3d 9e 0b 5b 3e fd 5e f4 bd 68 0e 55 3e
       0.06283773 0.2139115 -0.1193218 0.20806277
000300 8c 3a 4d be 56 1a 4b 3e a9 b0 15 3e e6 fc ce bc
       -0.20041865 0.19834265 0.14618172 -0.025267076
000310 47 8a 41 be 0b 11 96 bd 7a c6 29 bd bb f2 61 bd
       -0.18900405 -0.073274694 -0.041449048 -0.055163126

lin3.weight f4 [200, 200]
000000 57 de bb be 95 b7 68 3d f9 b1 f4 bd dc e1 8e be
       -0.3669307 0.056815702 -0.11948008 -0.27906692
000010 d4 f0 b5 3e 6f 8a 95 be 86 d8 a4 3e 39 9d 0a bc
       0.355353 -0.2920718 0.32196444 -0.008460336
000020 40 a1 af 3d 0e c2 8a be 63 11 42 3e 4e 09 b8 3d
       0.08575678 -0.27101177 0.18951945 0.0898615
000030 aa 9e b0 bd 6c ae e8 bc e2 d6 82 be 72 28 28 be
       -0.08624013 -0.028403483 -0.25554568 -0.16421679
000040 36 a9 64 3e fb c2 6a b8 0b c3 0a bd 49 c9 d9 be
       0.22330174 -5.5971537e-05 -0.033877414 -0.4253638
000050 77 54 df 3d 57 9f 8c 3c 9d b4 92 bd f1 16 dd bc
       0.10904782 0.017165823 -0.071633555 -0.026988478
000060 dd 84 57 bd b6 00 31 3e 04 c7 64 3d c4 07 00 3f
       -0.052616943 0.17285427 0.05585386 0.5001185
000070 f7 a9 ce bd 9a 80 8a 3c 9b 41 96 bd 2d 3d d8 bd
       -0.10091012 0.016907025 -0.07336732 -0.10558543
000080 d2 92 20 3e 6e 88 f0 3c 34 c0 91 be 3a 67 a2 3e
       0.15681008 0.02936193 -0.28466952 0.3171938
000090 69 91 78 be 6c af 95 3b a0 1f 30 be 77 8f 3d 3e
       -0.2427422 0.004568031 -0.17199564 0.18511759
0000a0 37 c5 d9 3c 34 c5 86 3e 36 11 e9 3c 17 be 2a be
       0.026583297 0.2632233 0.02845059 -0.16674076
0000b0 2f a9 79 3b 98 cf 9c 3e dc e6 d1 3c bc 78 0a be
       0.0038095226 0.3062713 0.025622778 -0.13522619
0000c0 0f 4c cb bd 9c 4c 0b 3e 41 57 85 3e 57 0a 8c be
       -0.099266164 0.13603443 0.26043132 -0.2735164
0000d0 bf 71 cc 3e b6 68 05 be ff 3a 1e bd 99 25 b3 be
       0.3993053 -0.13028225 -0.03863048 -0.34989622
0000e0 78 c1 05 3e 24 14 a2 bd 3c bb ff 3c db 3a e5 be
       0.13062084 -0.07913998 0.03121721 -0.44771466
0000f0 26 7c 19 3e 69 e0 b6 3d 29 7d 90 3d e2 30 bf 3d
       0.14988765 0.089295216 0.070551224 0.093354955
000100 c8 5b f6 bd 9d 8f 8b be ed d0 ca bd f0 11 e4 3e
       -0.12029225 -0.27258006 -0.09903131 0.44544935
000110 67 ed be 3d 17 95 9e be 49 9f ec bd 56 10 62 be
       0.09322625 -0.30973122 -0.11553819 -0.22076544
000120 e9 cc 41 3e 9b dc 0f bd 18 68 ef bd 6b a9 a8 be
       0.18925823 -0.035122495 -0.11689776 -0.32941756
000130 fe aa c1 be 06 93 d3 3c 6b f5 03 3e 53 4d 03 3e
       -0.3782577 0.025826942 0.12886588 0.12822466
000140 64 39 c5 3d b1 6f 30 be 81 56 49 3e c9 66 01 bc
       0.09630087 -0.17230107 0.19661905 -0.007898041
000150 9b 71 56 be 68 2b d2 be be 47 99 3e da 37 68 3e
       -0.20941775 -0.4104874 0.29937547 0.22677556
000160 d1 09 9e 3e 9b fc 18 3e 58 13 09 be 5b 8e e6 3e
       0.30866864 0.14940111 -0.13386285 0.45030484
000170 20 d7 1f be a2 3a dd bd 82 09 1c be 04 42 98 bd
       -0.15609407 -0.10802199 -0.15238002 -0.074344665
000180 19 94 77 3d 5b 74 ad 3e a3 d5 63 3d 83 0d 45 bc
       0.06044397 0.33877835 0.05562366 -0.012027147
000190 4e 59 f1 bd d5 37 3a 3e 1b 20 86 bd 38 b9 e2 bd
       -0.11784612 0.1818536 -0.065490924 -0.11070484
0001a0 43 1c 33 be 19 ba 97 be 11 1c 12 3e 8f e6 8f be
       -0.1749125 -0.2963417 0.14268519 -0.2810559
0001b0 85 e8 2b 3e 15 e2 6d 3e e1 00 81 3e 97 b9 89 bb
       0.16787918 0.23230775 0.25195983 -0.0042030322
0001c0 69 c0 7c be 0f 07 04 3f 58 36 a4 3e 9d 76 6e 3d
       -0.24682774 0.5157327 0.3207271 0.058218587
0001d0 2b 61 39 be ed f9 6c 3e 44 2f b2 3d 58 c4 2c 3e
       -0.18103473 0.23142214 0.087004215 0.16871774
0001e0 ad 4b 55 be 3c bb cf 3d b3 27 1a be 3c 3b d2 bc
       -0.2082965 0.10143134 -0.15054207 -0.02566301
0001f0 8f a3 47 3e e1 03 4b be 93 18 8d 3e 64 67 55 3e
       0.19495986 -0.19825698 0.2755781 0.20840222
000200 5d bb 3c bd 45 b0 42 3d d7 08 9a be b2 1b 0c be
       -0.04607712 0.047531385 -0.3008487 -0.1368244
000210 dd ef 73 3e 06 d7 dd 3d 5e 65 49 bc 93 bf f3 3e
       0.2382197 0.10832028 -0.012292234 0.47607097
000220 f9 fc c5 be 61 19 e1 3e e9 e8 83 bd f7 39 e6 bc
       -0.38669565 0.43964675 -0.064409085 -0.028103812
000230 28 81 b7 3e 0f 9c 20 3e 8e e5 8c 3d 63 56 21 3e
       0.35840726 0.15684532 0.068797216 0.1575561
000240 ba a6 c6 3c 96 cc a1 3e 03 12 26 3e f1 a1 b9 3d
       0.024249423 0.316014 0.16217808 0.09064091
000250 2e 96 10 be 0a 8a 95 3b 54 78 9b be 1d 43 ab bd
       -0.14119789 0.0045635747 -0.3036524 -0.0836241
000260 23 19 1c be ec 5d 5b bc 09 96 cb 3e 80 9d 2f be
       -0.15243964 -0.013389092 0.39762905 -0.17149925
000270 9d 1f fd 3d 61 58 67 3d 56 71 06 3d ce 22 ca bd
       0.123595454 0.05648077 0.03282293 -0.0986992
000280 b0 74 a1 3e 4a 00 8a be a6 b8 bf 3e 1c 97 e6 bd
       0.31534338 -0.26953346 0.37445563 -0.112592906
000290 c2 51 4e 3e e2 f3 6e be bd 6e e3 bd b3 3e fd 3d
       0.20148376 -0.23335221 -0.11105106 0.123654746
0002a0 12 2d a1 3e 1d 05 b2 be b0 61 cf 3d 47 83 10 3d
       0.31479698 -0.34769526 0.10126054 0.035281446
0002b0 14 1d 1d be e8 ab f1 bd ee 40 01 3d 0e bc d5 3c
       -0.15343124 -0.11800367 0.031556062 0.026090648
0002c0 a9 02 a5 bd d2 87 4e be 53 82 61 3e 2d 20 b2 3d
       -0.08057148 -0.20168999 0.22022371 0.08697543
0002d0 29 8e b8 bd 60 78 09 bd 66 8a 53 3e eb 56 4a 3d
       -0.0901149 -0.033562064 0.20658264 0.049399298
0002e0 d6 e5 45 be 67 a3 a3 3d 49 47 9c 3e f8 6f 52 3d
       -0.19325957 0.07990151 0.30523136 0.051376313
0002f0 cc 9c 44 be e3 be 74 3c 8e ff 88 3e 96 5d 82 bd
       -0.19200438 0.014938089 0.26757473 -0.06365506
000300 94 61 cd be 8b 7f 99 3e e1 38 b8 be 07 b2 30 3e
       -0.4011351 0.2998012 -0.35980895 0.17255412
000310 13 01 f4 3d 98 bb 00 be 3c 9d 98 3d fe da 52 be
       0.119142674 -0.12571561 0.07451865 -0.20591351
000320 e8 67 22 bd 80 c3 1f 3e 00 8f 8a 3d d6 c0 9e 3c
       -0.039649874 0.15601921 0.06765556 0.01937906
000330 f1 a3 72 3d f8 d2 84 bd e4 42 be 3d d5 87 8e bd
       0.059238378 -0.064855516 0.09290102 -0.06959502
000340 75 20 bd bc ef 9c 4f 3e 8e d7 c5 bc fa a7 2b bd
       -0.023086766 0.20274709 -0.024150636 -0.04190824
000350 02 85 30 3d 20 4d ba 3d 6e a5 47 3e 4f 97 95 ba
       0.043095596 0.09096742 0.194967 -0.0011412891
000360 e6 3f b1 3d 7d f2 5c be 51 66 8e bb 7b 35 9b be
       0.08654766 -0.21576877 -0.004345693 -0.3031424
000370 e6 2f 94 bb 45 fd 39 3d 6f 83 7e be 2b 58 92 be
       -0.0045223115 0.045407552 -0.24854825 -0.28582892
000380 8b ee 9c be 3d 75 b2 bd 9b bb c9 3d 6d 35 0c 3d
       -0.30650744 -0.08713768 0.09850236 0.03423064
000390 c6 3f a7 bc ed 07 4f 3e 35 16 c5 bd 59 73 f8 3d
       -0.020416152 0.20217867 -0.09623376 0.12131376
0003a0 6f cc 97 bd 11 e4 18 be 62 ce 87 3e b8 f3 03 3e
       -0.074120395 -0.1493075 0.26524645 0.1288594
0003b0 13 3e 00 be 62 ea 9b be dd b4 9c bd c0 40 62 3e
       -0.1252368 -0.30452257 -0.076516844 0.22095013
0003c0 f5 7c 88 3d 08 3d be bd d0 0d 2d be 1d df 7e be
       0.06664459 -0.092889845 -0.168998 -0.24889798
0003d0 1f de 2a 3e 80 68 6a be 63 f0 91 3d 6c 97 b4 bd
       0.16686295 -0.22891426 0.07125928 -0.08817944
0003e0 96 eb fa bd 4b a5 24 3e 34 da 9c 3c 01 d5 f5 3d
       -0.12251966 0.1607868 0.019147016 0.12003518
0003f0 e2 6b c9 3d 02 82 19 be 78 69 de bc 77 aa ed bd
       0.0983503 -0.14991 -0.0271499 -0.11604779

lin3.bias f4 [200]
000000 1b 77 d5 3d b2 2c a4 be a1 ff 4d be 6b 1b 3b be
       0.10423108 -0.3206535 -0.20117046 -0.18272178
000010 37 c4 a6 be cb bd a1 bd cf 1b 33 bc d1 a0 ca 3c
       -0.32571575 -0.07897528 -0.010931923 0.024734886
000020 78 78 25 be 6b 2a 87 be 81 00 aa be 9c 7c 52 be
       -0.16159236 -0.2639955 -0.3320351 -0.20555347
000030 33 f5 7a bd 53 39 a3 be cb 86 bc be d5 d7 3c 3d
       -0.061268996 -0.31879672 -0.3682159 0.04610427
000040 97 f9 12 3e 5c 30 83 3e 07 f6 00 3d 84 6c 00 3d
       0.14353023 0.25622833 0.03148463 0.03135349
000050 f9 60 43 3e 34 72 75 3e b5 9b ae bd cb 62 d8 bd
       0.19079961 0.23969346 -0.085257925 -0.10565718
000060 0c c2 0f 3d 60 af fb bd 91 29 dd bc 4e d2 82 bd
       0.035097167 -0.122893095 -0.02699736 -0.06387769
000070 7e aa 98 3d 63 62 ca be 05 dd 38 be e0 9d 08 3d
       0.07454394 -0.39528188 -0.18053062 0.033353686
000080 64 00 cd bd 33 42 da ba 44 d0 82 be 9c fc 28 3e
       -0.1000984 -0.0016651809 -0.2554952 0.16502613
000090 ee 0b 9a 3e 02 65 5c be a3 f4 14 3d 58 1b f1 bd
       0.30087227 -0.21522906 0.036366116 -0.117727935
0000a0 c1 fb b3 be a1 40 b2 3d 5e 13 10 be a2 5b ea bc
       -0.3515301 0.08703733 -0.14069888 -0.028608147
0000b0 36 82 8d 3e 4f 76 d7 be a4 45 31 3e d2 00 93 3e
       0.27638406 -0.4208245 0.17311722 0.28711563
0000c0 62 8a e7 bc ba 37 95 3c 8f 77 ad 3d 4f 38 a2 be
       -0.028264228 0.018215049 0.084700696 -0.31683585
0000d0 88 f3 0f 3d 1d 45 54 3b 3b 9c 74 be 6b fa 84 3e
       0.03514436 0.0032389828 -0.23887722 0.25972304
0000e0 f9 36 b7 be 36 75 3d be d5 be b9 be cb 42 73 3d
       -0.35784128 -0.18501744 -0.36278406 0.05938987
0000f0 9e cf a7 3e 2a bd 17 3d a8 b5 de bc 5d ee 91 3d
       0.32775587 0.037045635 -0.02718623 0.07125542
000100 fa 75 a2 be cb a9 37 3c 0f 23 86 bd 79 e8 4e 3d
       -0.31730634 0.011209915 -0.06549656 0.050514672
000110 fd b9 4d 3e 38 4d b3 be 1e 34 80 bd e1 4b 9f 3e
       0.2009048 -0.3501985 -0.062599406 0.3111258
000120 15 88 43 3e 12 c1 44 bd 07 07 74 3e d4 36 ae bd
       0.1909488 -0.04803569 0.23830806 -0.085065514
000130 5b d6 5d be f6 0e ee be 3c 5c e8 3d 00 36 a8 be
       -0.21663801 -0.4649579 0.11345717 -0.328537
000140 41 31 19 be c4 f3 d6 bc 6c 90 02 3d 93 be 82 be
       -0.14960195 -0.026239283 0.031876013 -0.25536022
000150 f7 58 0b 3e 50 25 13 3e 2b 41 a5 be e3 e9 26 3e
       0.13608156 0.14369702 -0.32276282 0.16300158
000160 44 3c e0 3d 2a a6 b9 bd 07 b1 3a 3d c5 5d 3c bd
       0.10948995 -0.090648964 0.045578983 -0.045987863
000170 f0 4e 04 be 6a 41 2a be 68 a5 d1 be 8c e0 52 be
       -0.12920737 -0.16626516 -0.40946507 -0.2059347
000180 a0 67 95 bd 2b 62 88 3e 11 05 8d be c0 37 2c be
       -0.072951555 0.26637396 -0.27542928 -0.16818142
000190 81 f1 9e be 35 e4 0b be 18 b0 8e bd a5 9f 20 3e
       -0.31043628 -0.13661273 -0.06967181 0.156859
0001a0 b1 d0 b1 be ea 5b 68 3d 94 27 d0 bd 73 0c 1a 3d
       -0.3472953 0.05672828 -0.10163799 0.03760953
0001b0 c2 b0 7a bd d0 a2 df 3d 04 d7 ce bc 6a d2 86 3e
       -0.061203726 0.10919726 -0.025249012 0.26332408
0001c0 27 0d 20 be 8f 45 5e bd 65 19 82 be 57 d7 51 be
       -0.15630017 -0.054265555 -0.2541 -0.20492302
0001d0 d9 78 26 bd 90 2d 44 be 02 4d a6 3e 76 a4 7d 3e
       -0.040642593 -0.19158006 0.32480627 0.24769768
0001e0 57 16 80 be b5 8c 03 bc db a1 ba 3d 3a a9 03 3f
       -0.25017044 -0.008029153 0.09112903 0.51430094
0001f0 ca d0 39 3d c3 db ab bd 09 58 ac 3e 72 be ed 3c
       0.045365132 -0.083915256 0.33660915 0.029021475
000200 b6 f4 b2 3d 90 ed 91 3e 46 d7 3e 3e 83 ad a8 bc
       0.08738081 0.28501558 0.18636808 -0.02059055
000210 2a 18 d2 be 57 80 93 3d 4a 3c 50 be 35 ca a1 3e
       -0.4103406 0.07202213 -0.20335498 0.31599584
000220 64 b6 6b be 48 82 16 bf 22 7d c2 bd 91 af 2e bd
       -0.23018795 -0.58792543 -0.094965234 -0.042647902
000230 ee 49 39 be 46 dc 4f 3e d7 5c dc 3d 4f 6d 2b 3e
       -0.18094608 0.20298871 0.10759895 0.16740917
000240 58 d9 af bd 04 de 92 3d fc 29 f5 3e 0a 7e da bd
       -0.08586377 0.07171252 0.47883594 -0.10668571
000250 29 38 df 3e 7b 6b ce be c0 34 1c 3e 16 8a 0b be
       0.43597534 -0.40316376 0.15254498 -0.13626894
000260 c1 8a e8 be ab 62 a1 bd 88 35 a9 bd 26 be 36 bd
       -0.4541836 -0.078801475 -0.082621634 -0.044614933
000270 d4 06 16 be 7b 52 96 be 19 e1 27 be 80 fb ac bd
       -0.14651042 -0.29359803 -0.16394462 -0.08446407
000280 c0 1a 8e 3e 76 0a 4b 3e 8e 45 e7 bc a6 88 45 bd
       0.27754784 0.1982821 -0.028231408 -0.04822602
000290 6b 00 7a 3e 4f 6b fb bd 72 46 af 3e 4a 06 47 bc
       0.24414222 -0.12276327 0.34233433 -0.0121474955
0002a0 b9 df ef 3d 16 fc a2 bd e6 c0 fb 3c f0 d4 bf bd
       0.117125936 -0.07958238 0.03073163 -0.093667865
0002b0 b0 be a1 bd c5 52 b7 bc 1b 15 95 be 8b 96 0f bd
       -0.07897699 -0.022378335 -0.29117665 -0.03505568
0002c0 9c da 1b be 27 08 1c 3f 87 e3 42 bd c1 26 94 be
       -0.15220112 0.6094994 -0.04758027 -0.28935817
0002d0 03 1a 09 be 18 aa 39 be ff 94 46 be db fc 23 be
       -0.13388829 -0.18131292 -0.19392775 -0.16014425
0002e0 a0 9e 01 bf aa b0 e5 3e b7 6c df be 91 95 6c be
       -0.5063267 0.44861346 -0.4363763 -0.2310393
0002f0 57 db b5 3c 82 c9 54 be fd 17 19 be 9c 6a 82 be
       0.022199316 -0.20779994 -0.14950557 -0.25471961
000300 e0 fc 00 bf 62 83 58 bd 5e dc af 3e 39 8e ab be
       -0.50385857 -0.05285967 0.34347814 -0.33506945
000310 b5 cc 0d bf 20 fe 08 be 81 17 48 3e 29 29 4b be
       -0.55390483 -0.13378191 0.19540216 -0.1983992
