qn1/model_weights_b5_em12.pth (torch, 426802 bytes, 9 tensors)

emb.weight f4 [62, 12]
0	0x3e0d7d2f	0.13817285
1	0x3d91b7b5	0.071151175
2	0x3f629953	0.88515204
3	0xbf9fe61e	-1.2492101
4	0x3d2f19ba	0.042749144
5	0x3f007ea8	0.5019326
6	0x3f93dda4	1.1552014
7	0x3f617ea5	0.8808387
8	0x3e22296c	0.15836114
9	0x3fc0b8c6	1.5056388
10	0x3eb39ef4	0.3508221
11	0xbe55fa58	-0.2089628
12	0xbf4a52af	-0.79032415
13	0x3eb1144d	0.345858
14	0xbd278ecf	-0.040907677
15	0x3f400112	0.75001633
16	0xbf7c2c33	-0.9850494
17	0xbec21cf0	-0.37912703
18	0x3f80426b	1.0020269
19	0x3f0b05f1	0.5430594
20	0x3d54d088	0.051956683
21	0x3f129666	0.5726074
22	0x3f2a3c31	0.66498095
23	0xbf8a77ba	-1.0817788
24	0xbe8b6083	-0.2722207
25	0xbfbe3f66	-1.4863098
26	0x3c2a67bc	0.010400709
27	0xbd8b9b22	-0.068166986
28	0x3ef892cf	0.48549506
29	0x3ef72d55	0.48276773
30	0xbf32d7b8	-0.6986041
31	0xbeb3af58	-0.35094714
32	0xbd82dfb5	-0.06390325
33	0x3dc38a14	0.09547821
34	0xbf327d34	-0.69722295
35	0x3fb54e65	1.4164549
36	0xbf295909	-0.6615148
37	0xbe145c88	-0.14488423
38	0xbe90a1ac	-0.28248346
39	0x3dad51a8	0.0846284
40	0xbf4eefc1	-0.80834585
41	0xbf82cba5	-1.0218397
42	0xbd141d73	-0.036160897
43	0xbe147f3a	-0.14501658
44	0xbf04a973	-0.5182106
45	0xbff2b328	-1.8960924
46	0xbf9b9f39	-1.2157966
47	0x3e62daad	0.2215373
48	0x3ec772d3	0.3895479
49	0x3d28d1db	0.04121576
50	0x3f41a265	0.7563842
51	0x3f10ffd7	0.5664038
52	0xbcc52f96	-0.024070542
53	0x3f2417a8	0.64098597
54	0xbf4b0c3f	-0.7931556
55	0xbfefbb7c	-1.8729091
56	0x3ee94a70	0.45564604
57	0x3f6e0f11	0.9299174
58	0xbf0380b8	-0.51368284
59	0xbd0173c1	-0.031604532
60	0x3f6ee2d1	0.93314844
61	0xbea97a3d	-0.33101073
62	0xbf4d3b45	-0.80168563
63	0xbdba30af	-0.09091317
64	0xbe7e1b10	-0.24815011
65	0xbfb5e93e	-1.4211805
66	0x3d828948	0.063738406
67	0x3fc4a7b2	1.5363677
68	0xbe8cfc12	-0.27536064
69	0x3f0eddc9	0.5580717
70	0xbf38e756	-0.7222799
71	0x3f9a56de	1.205776
72	0xbf796657	-0.97421783
73	0xbe838c41	-0.25692943
74	0xbe99e79a	-0.3005951
75	0x3f7e7667	0.9939942
76	0xbec94086	-0.3930704
77	0x3f423719	0.7586532
78	0xbfa76e14	-1.3080468
79	0xbf8a8c02	-1.0823977
80	0x3f82c947	1.0217675
81	0xbf790749	-0.9727674
82	0x3e523138	0.20526588
83	0xbf71fbce	-0.9452485
84	0xbef947c2	-0.4868756
85	0xbdd18341	-0.10230113
86	0xbeb45825	-0.352235
87	0x3fc200ea	1.5156529
88	0xbf4c6e1d	-0.7985552
89	0x3efaa9b7	0.48957607
90	0xbfa88108	-1.3164377
91	0x3e988434	0.29788363
92	0x3f0fc8e0	0.56165886
93	0x3f18291d	0.59437734
94	0x3e909aad	0.28243008
95	0x3c9e5a1e	0.01933008
96	0x3fa6fa56	1.3045146
97	0x3f4fec03	0.812195
98	0x3ee09dbb	0.4387034
99	0x3f8b7369	1.0894595
100	0x3f428302	0.7598115
101	0x3f1ed27f	0.6203994
102	0xbfd92d4c	-1.6966949
103	0xbe50072a	-0.20315233
104	0xbe052846	-0.13003644
105	0x3f6bb5d5	0.9207433
106	0xbed79034	-0.42102206
107	0xbf1ce353	-0.6128437
108	0xbfb8a3d2	-1.4424994
109	0x3f45b7be	0.77233493
110	0xbede9df7	-0.43479893
111	0x3f4ae2ae	0.79252136
112	0x3e9c2961	0.3050032
113	0x3f6e7c5b	0.931585
114	0xbf1332d4	-0.5749943
115	0xbf812725	-1.0090071
116	0x3e8f5960	0.27997875
117	0x3dba9218	0.091098964
118	0xbf8ae361	-1.085064
119	0x3ee38a7b	0.4444159
120	0xbe80f3e3	-0.2518607
121	0x3fd9e025	1.7021528
122	0x3ef2338e	0.47304958
123	0x3f9bae9a	1.2162659
124	0xbe122b94	-0.14274436
125	0xbe108882	-0.14114574
126	0x3ec507b5	0.38482442
127	0xbece7e6d	-0.4033083
128	0xbf055b0d	-0.5209206
129	0xbe6251d8	-0.22101533
130	0xbdd6e41b	-0.104927264
131	0xbf34ca47	-0.7062115
132	0xbf16faef	-0.58976644
133	0xbf1ec12b	-0.620135
134	0x3f7fa4a1	0.9986058
135	0xbf6c5a60	-0.923254
136	0x3f1680d4	0.58790326
137	0xbeb50a85	-0.35359588
138	0x3f8dacf8	1.1068411
139	0xbe86c0ec	-0.26319063
140	0xbf003c46	-0.5009197
141	0x3f7a11c2	0.97683346
142	0xbf5230e9	-0.8210588
143	0xbf8467a1	-1.0344125
144	0x3fc727e5	1.555905
145	0xbf336b11	-0.70085245
146	0x3f98db3e	1.1941907
147	0x3eef40b0	0.4672904
148	0x3ed50534	0.41605532
149	0xbfcac5ab	-1.5841573
150	0x3ea4ea52	0.32210022
151	0x3f243284	0.6413958
152	0xbdb74d93	-0.08950343
153	0x3ec7b63c	0.3900622
154	0xbd70ffb2	-0.0588376
155	0x3f36335d	0.71172124
156	0xbeebd4b6	-0.46060723
157	0xbfef5605	-1.8698126
158	0xbe91fdf4	-0.28514063
159	0x3e957673	0.29191932
160	0xbac26eea	-0.001483408
161	0x3d7f14df	0.062275764
162	0x3ea2fbcb	0.31832728
163	0x3eb30280	0.34962845
164	0x3ece1c6a	0.40256053
165	0xbef2ba30	-0.47407675
166	0xbe2a990f	-0.1665995
167	0xbf47e564	-0.780844
168	0x3d9ea6fb	0.07746693
169	0x3f0e40f2	0.5556785
170	0xbe3a448f	-0.18190216
171	0x3dd36d42	0.10323574
172	0x3eb68559	0.3564861
173	0xc001a9a7	-2.0259798
174	0x3f119a6e	0.56876266
175	0xbe0b3026	-0.13592586
176	0x3f9306dd	1.148647
177	0x3e82d0d6	0.25549954
178	0x3f76960c	0.96322703
179	0xb9bc1980	-0.00035877153
180	0x3f4deca9	0.8043924
181	0x3ede7f74	0.43456614
182	0x3ddd0d22	0.107935205
183	0xbee16456	-0.44021863
184	0x3f5534b4	0.83283544
185	0xbf16218f	-0.58644956
186	0xbf2768bc	-0.65394187
187	0x3f044724	0.5167105
188	0x3f7396b0	0.95151806
189	0x3dcf14a6	0.1011136
190	0xbec420b0	-0.3830619
191	0xbf3af15e	-0.7302455
192	0x3ea78fbe	0.32726854
193	0x3f913ec9	1.1347286
194	0x3f209373	0.6272499
195	0xbd10e859	-0.035377834
196	0xbe8eaa4a	-0.27864295
197	0x3e48021f	0.19532059
198	0x3e1ff5a9	0.15621056
199	0x3eac1601	0.33610538
200	0x3f83681c	1.0266147
201	0x3f44a178	0.7680888
202	0x3f91f869	1.1403934
203	0x3f77f030	0.9685087
204	0xbf9ad489	-1.209611
205	0x3ece9de9	0.4035485
206	0x3e2fc7bd	0.17166038
207	0xbe2c7666	-0.1684204
208	0xbf3539dd	-0.7079142
209	0x3f306170	0.6889868
210	0x3f27bdfe	0.6552428
211	0xbf38b2fd	-0.72148114
212	0x3ee36491	0.44412664
213	0x3dfa047b	0.12207886
214	0xbf90156b	-1.1256536
215	0x3f0825bd	0.53182584
216	0x3f9c2c60	1.2201042
217	0xbec57b01	-0.38570407
218	0x3eb12ede	0.3460607
219	0xbead6fdf	-0.33874413
220	0x3f80bef0	1.005827
221	0xbe18de10	-0.1492846
222	0x3fafb3dc	1.3726764
223	0x3f3d6ded	0.7399586
224	0xbeba971a	-0.36443406
225	0xbf9b0834	-1.2111878
226	0xbec9ae44	-0.39390767
227	0xbf824acc	-1.0179076
228	0xbd171668	-0.036886603
229	0xbfa1b921	-1.2634622
230	0xbec75c9d	-0.38937846
231	0x3e9db09b	0.30798802
232	0x3fab0ca0	1.3363228
233	0xbed7778f	-0.42083403
234	0xbfacdda5	-1.350514
235	0xbee2a48b	-0.4426616
236	0x3eda6ceb	0.42661223
237	0xbf405a69	-0.75137955
238	0xbdc55fe1	-0.09637428
239	0xbdcb4133	-0.09924545
240	0xbf935c82	-1.1512606
241	0xbeee0bc5	-0.46493354
242	0x3f0901ab	0.5351817
243	0xbec2287c	-0.37921512
244	0x3def8157	0.116945915
245	0xbf8a309b	-1.0796083
246	0xbd8ad48e	-0.06778823
247	0xbc9cf59f	-0.01916009
248	0xbe1045d9	-0.14089145
249	0xbf0b6939	-0.5445743
250	0x3e18a827	0.14907895
251	0xbf1ed284	-0.6203997
252	0xbf7c4065	-0.9853576
253	0x3c145420	0.00905326
254	0x3f0de68f	0.5542993
255	0x3f742895	0.95374423

lin1.weight f4 [200, 60]
0	0xbe6fc8f2	-0.23416498
1	0xbdff3adb	-0.12462398
2	0x3ee0e5de	0.43925375
3	0x3dae0bd3	0.08498349
4	0x3ddc9744	0.10771039
5	0x3dec1daf	0.11529099
6	0x3e52d152	0.20587662
7	0xbe95d88e	-0.2926678
8	0xbdeafc05	-0.1147385
9	0x3d80ef9d	0.062957026
10	0x3d0911b1	0.033464137
11	0xbe6728d6	-0.22574171
12	0xbe83d547	-0.25748655
13	0x3e941413	0.28921565
14	0xbdfe96dd	-0.12431119
15	0xbe422a60	-0.18961477
16	0x3dc5d221	0.096592195
17	0x3e79324b	0.24335591
18	0xbce8d4c3	-0.028421765
19	0x3ee3a215	0.44459596
20	0x3e2dba28	0.16965544
21	0xbd622dee	-0.055219583
22	0xbebbc18a	-0.36671096
23	0xbe8e1ce6	-0.27756423
24	0xbe1f93db	-0.15583746
25	0xbe1bbbcc	-0.15208358
26	0xbe5c584c	-0.21518058
27	0xbe1a0933	-0.15042572
28	0xbb8c4924	-0.00428118
29	0x3d0281cc	0.031862065
30	0xbe54e539	-0.20790567
31	0xbd185b07	-0.037196185
32	0x3abd1459	0.001442562
33	0x3da94b7f	0.08266353
34	0xbd163dfb	-0.036680203
35	0x3de7aaa3	0.11311843
36	0xbe5ffbef	-0.21873449
37	0xbe3081f4	-0.17237073
38	0xbce9d235	-0.028542617
39	0x3ecf55ae	0.40495056
40	0x3e6f8ab9	0.23392762
41	0x3e02b9f1	0.12766244
42	0x3ea3d481	0.31998065
43	0x3e1772a6	0.14789829
44	0x3e302488	0.17201436
45	0xbd0eb030	-0.034835994
46	0xbdab1028	-0.08352691
47	0xbec38149	-0.38184574
48	0xbda65c23	-0.081230424
49	0xbc9febe0	-0.019521654
50	0x3eb5076e	0.3535723
51	0x37e8a6ad	2.773417e-05
52	0xbe06701a	-0.13128701
53	0xbbcd87c9	-0.0062722904
54	0x3e4d535f	0.20051335
55	0xbea928ba	-0.33038884
56	0x3e94f191	0.2909055
57	0x3e860960	0.26179028
58	0x3c054077	0.008133045
59	0x3e58e743	0.2118197
60	0xbddb561d	-0.10709784
61	0x3e200d93	0.15630178
62	0xbc1cd4a5	-0.009572183
63	0x3eaed22b	0.3414472
64	0x3c95c0fc	0.018280499
65	0x3d45e663	0.048315417
66	0xbe271add	-0.16318841
67	0xbe23708d	-0.15960903
68	0x3e9ae667	0.30253908
69	0x3c367cae	0.011138124
70	0x3b42dafb	0.0029732573
71	0xbe144315	-0.14478715
72	0x3e0e406e	0.13891765
73	0xbd235a32	-0.03988094
74	0xbe829284	-0.25502408
75	0x3e811b5d	0.2521619
76	0xbdaf7c20	-0.08568597
77	0x3dfcf6fc	0.12351796
78	0x3de2421e	0.11047767
79	0x3e1d323a	0.15351191
80	0x3d68b210	0.05681044
81	0xbdaff623	-0.08591869
82	0xbdeab956	-0.11461131
83	0xbd841609	-0.06449515
84	0xbde0c6d7	-0.10975426
85	0xbe9e9610	-0.30973864
86	0xb9a40e13	-0.00031291004
87	0xbe1c7c0e	-0.15281698
88	0x3e41e1a0	0.18933725
89	0x3dc2379d	0.09483264
90	0xbbbfb1fd	-0.0058500753
91	0x3e0c3050	0.13690305
92	0xbebc0e71	-0.36729768
93	0xbe2d227b	-0.16907685
94	0xbe1dfd40	-0.15428638
95	0xbbb39c27	-0.0054812613
96	0x3da5759e	0.08079074
97	0x3cbd1b26	0.023084234
98	0x3e9857b1	0.29754403
99	0x3e2cdcd3	0.16881113
100	0xbed1447f	-0.4087257
101	0x3e9893c5	0.2980024
102	0x3c35556c	0.011067729
103	0xbc658ad7	-0.014010153
104	0xbe32cf7b	-0.1746196
105	0xbe0f558f	-0.13997482
106	0xbcee64a7	-0.02910073
107	0x3e47557b	0.19466202
108	0xbd7731cc	-0.060350224
109	0xbeb99d36	-0.36252755
110	0xbe9b6ef0	-0.30358076
111	0xbd3c3b41	-0.045954946
112	0xbda9c252	-0.08289017
113	0xbcd7cc4f	-0.02634254
114	0xbeb823a0	-0.3596468
115	0xbe7989ea	-0.24369016
116	0xbe96ff9d	-0.29491892
117	0xbea8c117	-0.32959816
118	0xbd9a3bf8	-0.075309694
119	0x3d63e285	0.055635948
120	0x3c1dd96d	0.009634358
121	0xbebc55d0	-0.3678422
122	0x3d8680f2	0.06567563
123	0xbc503340	-0.012707531
124	0x3e4a395e	0.19748446
125	0x3cd9e063	0.026596254
126	0xbe8e768f	-0.27824828
127	0xbde39e21	-0.11114145
128	0x3daa033e	0.083014
129	0xbe40206d	-0.1876237
130	0xbe22010a	-0.15820709
131	0xbe0fee9d	-0.14055867
132	0xbe0e0919	-0.13870658
133	0xbd485c4f	-0.048916157
134	0x3e4aede1	0.19817306
135	0x3e302ee6	0.1720539
136	0x3def9f3b	0.11700293
137	0x3e914344	0.28371632
138	0xbd8ab784	-0.06773284
139	0xbece7249	-0.40321568
140	0x3d1524b2	0.03641195
141	0x3e4c7931	0.19968106
142	0x3e0b76e0	0.13619566
143	0x3d6c35bf	0.057668444
144	0x3e896b28	0.26839566
145	0x3e9c96fb	0.3058394
146	0xbd8ef154	-0.069796234
147	0x3c16dedb	0.009208406
148	0xbe5d61cc	-0.21619338
149	0x3ebcb2d1	0.36855176
150	0xbe281260	-0.1641326
151	0x3e97d237	0.2965257
152	0x3e7ab792	0.24484089
153	0x3e8699f5	0.26289335
154	0x3ebe4097	0.37158653
155	0x3c8f3eb2	0.01748595
156	0xbd3e9055	-0.046524365
157	0x3e1a69a3	0.1507936
158	0x3e39a005	0.18127449
159	0xbea55fd6	-0.3229968
160	0x3e63acfc	0.22233957
161	0x3dcd36ff	0.10020255
162	0xbdd2681c	-0.102737635
163	0xbe90db68	-0.28292394
164	0xbec762aa	-0.38942462
165	0xbe884443	-0.2661458
166	0x3e98669b	0.29765782
167	0xbd6911b4	-0.05690165
168	0x3e31a526	0.17348155
169	0x3ea30a18	0.31843638
170	0xbd230452	-0.039799042
171	0xbe282a84	-0.16422468
172	0x3d8453b4	0.064612776
173	0x3e87ce37	0.26524517
174	0xbe196d71	-0.14983155
175	0xbd73a414	-0.05948265
176	0xbd391ef4	-0.045195535
177	0xbed806eb	-0.42192778
178	0x3e456297	0.1927589
179	0x3edbea73	0.42952308
180	0xbe968404	-0.29397595
181	0xbe7f8159	-0.24951686
182	0xbe136ce6	-0.1439701
183	0xbca7cc1d	-0.020483071
184	0x3daa282a	0.08308442
185	0xbe4f36d8	-0.20235765
186	0xbbf92950	-0.007603802
187	0x3de1dac7	0.110280566
188	0xbd86968f	-0.065716855
189	0x3d65b487	0.056080367
190	0xbc850c24	-0.01624114
191	0xbcfaa1fe	-0.030594822
192	0x3d8f966a	0.07011111
193	0xbe2c9372	-0.16853121
194	0x3e05b707	0.130581
195	0x3d8688e6	0.0656908
196	0xbd01c88c	-0.031685397
197	0x3d41ff85	0.047362823
198	0xbd06cea1	-0.0329119
199	0x3ddd62ac	0.10809836
200	0x3eabf434	0.3358475
201	0x3e4d0247	0.200204
202	0x3e0398fa	0.12851325
203	0x3dffb591	0.12485803
204	0xbe8b8e43	-0.27256975
205	0x3d886c60	0.06661296
206	0xbddabc97	-0.10680502
207	0xbe005ace	-0.12534639
208	0xbe2e812a	-0.1704146
209	0x3eff589c	0.4987229
210	0x3e51ad64	0.204763
211	0xbed4019d	-0.4140748
212	0x3e2271a1	0.15863658
213	0x3ec9dd21	0.3942652
214	0xbde4c6f7	-0.11170762
215	0x3e9da1c1	0.3078747
216	0xbc3ea1cd	-0.011635256
217	0x3d18ad54	0.037274674
218	0xbe1967a9	-0.1498095
219	0x3e477cb8	0.1948117
220	0xba046eb7	-0.0005051898
221	0xbe9efc59	-0.310519
222	0x3f01d46c	0.50714755
223	0xbea005f9	-0.31254557
224	0xbdf205d2	-0.118175164
225	0x3e89997d	0.26874915
226	0x3c7d45c3	0.015458527
227	0xbe85c909	-0.2612994
228	0x3dd2c7cc	0.102920145
229	0x3ed3d6b3	0.4137474
230	0x3e86a684	0.26298916
231	0x3e3a1ddd	0.18175454
232	0xbe1e9b53	-0.15488939
233	0x3c0a2263	0.00843105
234	0xbe96b62b	-0.29435858
235	0x3e6a5363	0.22883372
236	0x3d574363	0.0525545
237	0x3d753939	0.059869025
238	0x3eca2970	0.3948474
239	0x3d4f859a	0.05066452
240	0x3e87e507	0.26541921
241	0x3eb830ec	0.35974824
242	0xbd5cff5d	-0.05395447
243	0xbe8496c4	-0.25896275
244	0x3d76b536	0.06023141
245	0xbe194f17	-0.14971577
246	0x3c47d1a9	0.012195983
247	0x3e55dd5a	0.2088522
248	0xbe119b64	-0.14219433
249	0x3ce8dbaa	0.028425056
250	0x3e140b5a	0.14457455
251	0x3df694ea	0.12040122
252	0x3d263898	0.040581316
253	0x3e0357da	0.12826481
254	0x3e439a88	0.19101918
255	0x3e0a5c5a	0.13511792

lin1.bias f4 [200]
0	0xbe2b7d91	-0.16747119
1	0xbd6597ff	-0.056053158
2	0xbe39c9eb	-0.18143432
3	0xbcb27dea	-0.021788556
4	0xbd0bc864	-0.034126654
5	0xbe95a917	-0.29230568
6	0xbecfc8e8	-0.40582967
7	0x3dd168cd	0.10225067
8	0x3e936497	0.2878768
9	0x3d12cad7	0.035837974
10	0xbe4fdf85	-0.2030011
11	0x3e3289be	0.17435357
12	0xbd6307ce	-0.055427365
13	0x3e9fdabe	0.31221575
14	0xbe9e8c76	-0.30966538
15	0x3cac8445	0.021059165
16	0x3e8e7200	0.2782135
17	0xbce679bc	-0.02813422
18	0x3e2c7dc7	0.16844855
19	0xbdde5171	-0.108553775
20	0xbe830b03	-0.2559434
21	0x3e194760	0.14968634
22	0x3de7fc0b	0.1132737
23	0xbca694fa	-0.02033471
24	0x3ebe9816	0.37225407
25	0x3ea2cc45	0.3179647
26	0xbe82c42d	-0.25540295
27	0x3c8372c2	0.016045932
28	0xbead1264	-0.33803093
29	0x3e54ef4f	0.20794414
30	0x3d8f49a9	0.069964714
31	0x3e266eea	0.16253248
32	0x3d6aa34d	0.057284642
33	0x3d3c82ce	0.046023183
34	0xbe6520c0	-0.22375774
35	0xbdea2da6	-0.11434488
36	0xbd62f022	-0.05540479
37	0xbe151e5c	-0.14562362
38	0x3d633236	0.055467807
39	0xbc69514c	-0.014240574
40	0xbd7ae86b	-0.061256807
41	0xbe1f8f13	-0.15581922
42	0xbe5bd4bc	-0.2146787
43	0xbe56ce72	-0.2097719
44	0xbcfa299b	-0.030537417
45	0xbe368254	-0.17823154
46	0xbd3ff71d	-0.046866525
47	0x3e82b5b0	0.25529242
48	0xbd2bd925	-0.041955132
49	0x3cfd9177	0.030953152
50	0xbe5211d5	-0.20514615
51	0xbd7c7848	-0.061638147
52	0xbceac406	-0.028657924
53	0x3e661362	0.22468331
54	0xbe251b60	-0.16123724
55	0xbdd97c67	-0.10619431
56	0xbd3ee518	-0.0466052
57	0xbd955618	-0.07291812
58	0xbda411f6	-0.08011238
59	0x3e81a214	0.25318968
60	0xbec851a3	-0.39124784
61	0xbd62d632	-0.055380054
62	0x3e8bc3c8	0.27297807
63	0xbc6a6406	-0.014306074
64	0x3d858833	0.065201186
65	0x3db1ed6a	0.08687861
66	0x3dc26bd9	0.094932266
67	0xbd106258	-0.035250038
68	0x3e7ebfd1	0.2487786
69	0x3e4d828a	0.20069328
70	0xbe6855ae	-0.22688934
71	0xbe4fe026	-0.2030035
72	0xbe9f42c6	-0.31105632
73	0xbe863966	-0.26215667
74	0xbe2bd45e	-0.1678023
75	0xbd786de0	-0.06065166
76	0x3e55a5a1	0.20863964
77	0x3cbf4820	0.023349822
78	0xbe0bc077	-0.13647638
79	0x3e222cd8	0.15837419
80	0x3eaaea59	0.33381918
81	0xbea1046c	-0.31448686
82	0x3dabd963	0.083910726
83	0x3e89704e	0.26843494
84	0xbecfcef5	-0.40587583
85	0xbe03476a	-0.12820211
86	0xbde6e386	-0.112738654
87	0x3eeaf21b	0.45887837
88	0xbdcffcd3	-0.10155644
89	0xbea9ed37	-0.33188793
90	0xbec3bc44	-0.38229573
91	0x3e63db22	0.22251561
92	0x3e59649e	0.21229789
93	0xbd83389a	-0.0640728
94	0x3e121d5d	0.14269014
95	0x3ddffdd2	0.10937084
96	0xbe1ec11a	-0.1550335
97	0x3ca753a2	0.020425621
98	0x3e8285b7	0.2549264
99	0x3d4d3ae1	0.05010498
100	0xbf057e67	-0.52146
101	0x3e118783	0.1421185
102	0x3dfccef9	0.123441644
103	0xbbb6d83d	-0.005579977
104	0x3c8d8851	0.017276915
105	0x3dd6cdb4	0.104884535
106	0x3e3c3cdb	0.1838259
107	0xbd75301e	-0.05986034
108	0xbe11fabb	-0.14255802
109	0xbdb81803	-0.08988955
110	0xbde41afa	-0.11137958
111	0xbcaf24ec	-0.02137991
112	0xbd075ae7	-0.033045676
113	0xbe04b467	-0.12959443
114	0xbda60233	-0.08105888
115	0x3e9ecc47	0.31015226
116	0x3ea5a206	0.32350177
117	0xbdfa3cb3	-0.12218609
118	0x3ea32050	0.3186059
119	0x3c1be459	0.009514892
120	0xbecb04c8	-0.39652085
121	0xbdf77c98	-0.12084311
122	0x3e159fa7	0.14611684
123	0xbd4102ba	-0.04712174
124	0xbe087504	-0.13325888
125	0x3d79d7ff	0.060997006
126	0x3db8b1d5	0.09018294
127	0x3df9c10d	0.12195025
128	0x3e95297b	0.2913321
129	0x3e74b051	0.23895384
130	0x3e42986e	0.1900346
131	0xbd9bae46	-0.076015994
132	0x3ea84ce2	0.32871157
133	0xbd9786fc	-0.07398793
134	0xbcd86c13	-0.026418721
135	0xbd943091	-0.07235826
136	0x3e78841c	0.24269146
137	0x3e75d0e5	0.24005468
138	0x3e32c631	0.17458417
139	0x3e780d39	0.24223794
140	0x3e1db23f	0.15400027
141	0xbe65b34f	-0.22431682
142	0x3e63d148	0.22247803
143	0xbdbef58e	-0.093241796
144	0xbc852e87	-0.016257538
145	0xbeb98d2b	-0.36240515
146	0xbd0d1ec4	-0.03445317
147	0xbe3c29e3	-0.18375354
148	0x3ecbc06d	0.39795247
149	0xbd85cb3d	-0.06532905
150	0x3e394fd8	0.18096864
151	0x3e3a9ee4	0.18224674
152	0xbd29d64e	-0.041464143
153	0xbc973d91	-0.018461974
154	0x3d567a92	0.052362986
155	0xbe4b1a20	-0.19834185
156	0x3efd57fc	0.4948119
157	0xbd2bf4c9	-0.041981492
158	0xbb956650	-0.0045593157
159	0xbd027410	-0.031848967
160	0xbe0899fb	-0.13339989
161	0x3dfddec4	0.12396005
162	0xbe548aee	-0.20756122
163	0xbe372b13	-0.17887525
164	0x3dd8c3e2	0.10584237
165	0x3d92e621	0.071728
166	0xbc0b8b85	-0.008517151
167	0x3e1c7eb7	0.15282713
168	0xbe30e6c4	-0.1727553
169	0xbcfc48d6	-0.03079645
170	0x3e2825a0	0.16420603
171	0xbe806405	-0.2507631
172	0xbe0432a4	-0.12909943
173	0x3e1d9a92	0.15390995
174	0x3e4ca5d3	0.19985132
175	0x3ebdda6f	0.37080714
176	0x3ee7e993	0.4529539
177	0xbe1d6b78	-0.15373027
178	0x3ecba1ad	0.39771786
179	0xbdaec684	-0.085339576
180	0x3e69f074	0.22845632
181	0x3ca5f890	0.020260125
182	0x3e18060f	0.14846061
183	0x3ddbe218	0.10736483
184	0x3e6fd38b	0.23420541
185	0x3ea46eff	0.32115933
186	0xbeb9dc5a	-0.36300927
187	0xbc90c19f	-0.01767045
188	0x3ec8284f	0.39093253
189	0xbd20274a	-0.03909997
190	0x3dd8c1f2	0.10583867
191	0xbdd65190	-0.104647756
192	0x3e789d29	0.24278702
193	0xbbd3823d	-0.0064547346
194	0xbed5bf2b	-0.41747412
195	0xbc227fb9	-0.009918147
196	0x3e1df562	0.15425637
197	0x3e6c6d42	0.23088554
198	0x3d8411e5	0.064487256
199	0xbe68dbf5	-0.22740157

lin2.weight f4 [200, 200]
0	0x3cd42e22	0.025900904
1	0xbcebfeaf	-0.028807966
2	0x3d8aa8df	0.06770491
3	0xbe3eabc0	-0.18620205
4	0x3cf387ec	0.029727899
5	0x3dbb2a95	0.09138981
6	0xbe324012	-0.17407253
7	0x3e157020	0.14593554
8	0xbe8bd5e5	-0.27311626
9	0xbd9bfcaf	-0.07616555
10	0xbd83ca25	-0.064350404
11	0x3cfe10de	0.031013902
12	0x3ddbc25f	0.10730433
13	0x3d55c7b3	0.0521924
14	0x3e2e47a7	0.1701952
15	0xbcdfc627	-0.027316166
16	0x3d95ec95	0.07320515
17	0x3e6ccc61	0.2312484
18	0x3d380624	0.04492773
19	0x3cfab76f	0.030605046
20	0xbe3f6836	-0.18692097
21	0xbd09d606	-0.033651374
22	0xbeadcc2d	-0.33944836
23	0x3c982c92	0.01857594
24	0x3d72671a	0.059180357
25	0x3c9611b3	0.018318987
26	0x3d56db4a	0.052455224
27	0xbe1611f1	-0.14655282
28	0x3e49bff1	0.19702126
29	0x3e4ac1bd	0.19800468
30	0xbdb3baee	-0.087758884
31	0xbe779501	-0.24177934
32	0xbeb38707	-0.35063955
33	0x3dff63e9	0.12470228
34	0xbd5522d0	-0.052035153
35	0x3e71407b	0.23559754
36	0xbcd2c2ce	-0.025727656
37	0x3da11648	0.07865578
38	0xba8958b1	-0.0010478703
39	0x3e18475f	0.14870976
40	0x3d6e7e2d	0.0582258
41	0xbe4a6515	-0.19765122
42	0x3dcfc5b4	0.10145131
43	0x3eff03a5	0.49807468
44	0x3e391038	0.18072593
45	0x3d053011	0.032516543
46	0x3e6e571b	0.23275416
47	0x3e454d5d	0.19267793
48	0x3d8e6fc3	0.069549106
49	0x3c376f71	0.011196003
50	0x3de9e713	0.11421027
51	0x3ce3ef25	0.027823994
52	0xbe7c4cf5	-0.24638732
53	0xbe38b0af	-0.1803615
54	0xbdb6effc	-0.08932492
55	0x3e5992c2	0.2124739
56	0xbbbfd785	-0.0058545494
57	0xbd563458	-0.052296013
58	0x3c0ed703	0.008718255
59	0xbe2d796d	-0.16940852
60	0xbbd480c4	-0.0064850766
61	0x3ded898d	0.11598501
62	0x3e3b66f9	0.18301
63	0xbe1d44f1	-0.1535833
64	0xbd8b3ffc	-0.067993134
65	0x3e141a23	0.14463095
66	0xbdfe6b27	-0.124227814
67	0xbd72539f	-0.05916178
68	0x3d05b101	0.032639507
69	0xbd13abdb	-0.036052566
70	0x3e4b451a	0.19850579
71	0x3d48a92c	0.04898946
72	0xbbdc313a	-0.0067197355
73	0xbe6fded8	-0.23424852
74	0xbe040d54	-0.1289571
75	0x3e4b16da	0.19832936
76	0x3da60d27	0.08107977
77	0x3c832949	0.016010897
78	0xbdf1f446	-0.118141696
79	0xbdbdccdb	-0.09267589
80	0xbdcf85b0	-0.10132921
81	0xbbe8a6dc	-0.0070999693
82	0x3e9515e9	0.2911828
83	0xbdbd14f2	-0.092325106
84	0x3e83b627	0.2572491
85	0x3b23d225	0.0024997082
86	0xbd953a37	-0.07286494
87	0x3d4495ce	0.047994427
88	0x3dd7650b	0.10517319
89	0x3d439671	0.047750894
90	0x3d0c1a76	0.034204923
91	0xbd422f38	-0.047408313
92	0x3d430626	0.047613285
93	0x3d49a919	0.04923353
94	0xbd4361fd	-0.04770087
95	0xbca219e7	-0.019787742
96	0xbe0dc665	-0.13845213
97	0xbe014a89	-0.12626089
98	0xbe1964bd	-0.14979835
99	0x3e140b27	0.1445738
100	0xbe0d0a1e	-0.1377339
101	0xbe049f64	-0.12951428
102	0xbc908057	-0.017639322
103	0x3e414604	0.18874365
104	0x3dc0edd9	0.09420366
105	0xbe700d1f	-0.23442505
106	0x3eb1f385	0.34756103
107	0xbdf7c234	-0.12097588
108	0x3e835d46	0.256571
109	0x3e981917	0.29706642
110	0x3df87152	0.12130989
111	0x3df5dec5	0.120053805
112	0x3c932257	0.01796071
113	0xbde42697	-0.11140173
114	0xbd82bbb8	-0.06383461
115	0xbcdf8b41	-0.027288081
116	0x3d8a45cb	0.06751593
117	0x3d54f45d	0.051990855
118	0xbd47e5cd	-0.04880314
119	0xbd9c8b69	-0.07643778
120	0x3e6c238a	0.23060432
121	0xbe12bbdb	-0.14329474
122	0x3ea20a21	0.31648353
123	0xbd0f49b3	-0.034982394
124	0xbea239d7	-0.31684753
125	0x3d6eeae2	0.05832947
126	0xbe9cb86a	-0.30609447
127	0x3c57a3be	0.013161598
128	0x3e79c171	0.24390198
129	0xbe22d258	-0.15900552
130	0x3e148b58	0.1450628
131	0xbdcd0537	-0.1001076
132	0x3dbdeeca	0.09274061
133	0x3cf3cf35	0.02976189
134	0x3e3d6217	0.1849445
135	0x3daf55b3	0.08561268
136	0x3d0c3d46	0.034238122
137	0xbe2bd010	-0.16778588
138	0xbd5b6bcf	-0.05356961
139	0xbdc1f6a9	-0.09470875
140	0xbc7f502e	-0.015583081
141	0xbe5d77da	-0.21627751
142	0x3e6755c0	0.22591305
143	0x3df42202	0.11920549
144	0xbba179e8	-0.0049278624
145	0xbe50494c	-0.2034046
146	0xbd5f6110	-0.054535925
147	0xbdb223aa	-0.08698209
148	0xbd66edc4	-0.056379095
149	0xbd45b634	-0.048269466
150	0x3d9f942b	0.07791933
151	0x3d883f6f	0.06652724
152	0xbdeb8084	-0.11499122
153	0x3e5819c1	0.21103574
154	0xbd839c12	-0.064262524
155	0xbdab8072	-0.083741084
156	0x3dcdafc2	0.10043289
157	0x3df25c33	0.11833992
158	0x3d7771b1	0.06041116
159	0xbe54806e	-0.20752117
160	0xbec8d156	-0.3922221
161	0xbddaf4b6	-0.10691206
162	0xbd97878b	-0.073989
163	0x3e7e1b2a	0.2481505
164	0x3deabf2a	0.11462243
165	0xbe03570d	-0.12826176
166	0x3d860cc7	0.06545406
167	0xbc9171eb	-0.017754516
168	0x3d275f8a	0.040862598
169	0x3d8dd2f5	0.069250025
170	0x3d79be2f	0.06097239
171	0x3d1f4583	0.03888465
172	0x3d099a7b	0.03359459
173	0x3e9f474e	0.3110909
174	0x3962fd76	0.00021647461
175	0x3e0a0415	0.1347812
176	0x3e039114	0.12848312
177	0xbd4cb1c8	-0.049974233
178	0x3e6352d4	0.22199565
179	0x3d0519db	0.03249536
180	0x3e509558	0.2036947
181	0xbe8d3979	-0.2758291
182	0x3de546f1	0.111951716
183	0x3e33d0d9	0.17560138
184	0xbe1915c1	-0.14949705
185	0x3d57ed3c	0.05271648
186	0xbe82cb50	-0.2554574
187	0x3dac5747	0.08415084
188	0xbda1a2be	-0.07892369
189	0x3d9e4767	0.07728463
190	0x3e1db0ae	0.15399429
191	0xbdb97299	-0.09055061
192	0x3cec54ea	0.028849084
193	0x3ddf8817	0.10914629
194	0x3e2b2e2f	0.16716836
195	0xbd8866ca	-0.066602305
196	0xbcbcad90	-0.02303198
197	0x3e3428cb	0.17593686
198	0xbe5d765b	-0.2162718
199	0x3dd7af48	0.10531479
200	0xbe0da66f	-0.1383302
201	0x3e204394	0.15650779
202	0xbda0569f	-0.07829022
203	0x3c79d652	0.015248852
204	0xbd034c4d	-0.032055188
205	0xbd996354	-0.074896485
206	0x3daceb9f	0.08443379
207	0xbd95a71b	-0.073072635
208	0x3e25c758	0.16189325
209	0x3d45f7d3	0.048332047
210	0xbd96e5ee	-0.07368074
211	0x3e0f8a28	0.14017546
212	0x3e5e8c14	0.21733123
213	0xbd447766	-0.04796543
214	0xbd8fefa8	-0.07028133
215	0x3d102cb1	0.03519887
216	0xbdd2fd35	-0.10302202
217	0xbe554605	-0.20827492
218	0x3e333359	0.17500056
219	0xbd7ab347	-0.06120613
220	0x3bd9fd98	0.006652545
221	0xbe0bded0	-0.13659215
222	0x3e1bdbd6	0.1522058
223	0x3d37b1bf	0.044847246
224	0xbd8ad051	-0.067780145
225	0x3dd743bf	0.105109684
226	0xbd8b22b9	-0.06793732
227	0x3dcca6ec	0.09992775
228	0x3d80763b	0.06272551
229	0xbd434529	-0.04767338
230	0xbcbf7aa9	-0.023373919
231	0xbda4628b	-0.08026608
232	0x3da98b61	0.082785375
233	0x3cb8a4d6	0.022539537
234	0x3ebe4de4	0.371688
235	0x3e638d68	0.22221911
236	0x3d6f3c25	0.058406968
237	0xbe36f90b	-0.1786844
238	0xbe34f195	-0.17670281
239	0xbdc0429a	-0.09387703
240	0xbcb1196b	-0.021618566
241	0x3e424342	0.1897097
242	0xbdd0fe22	-0.10204722
243	0xbe2bd521	-0.16780521
244	0x3d7a1e35	0.061063964
245	0x3dbf0e89	0.09328944
246	0xbc6d8124	-0.014496122
247	0xbe201969	-0.15634693
248	0x3d8b19de	0.06792043
249	0x3e755fa1	0.23962261
250	0xbe47450a	-0.1945993
251	0x3cd00743	0.025394088
252	0x3dcd2497	0.100167446
253	0x3e20df82	0.15710261
254	0xbea956de	-0.33074087
255	0x3c3df168	0.0115932

lin2.bias f4 [200]
0	0x3cde1ce4	0.027113385
1	0x3d2ae0db	0.041718345
2	0x3e84aa85	0.25911346
3	0x3d53d71e	0.051718824
4	0xbe1a389b	-0.15060656
5	0x3d146c82	0.036236294
6	0x3cef8681	0.029238941
7	0x3dbd2ee6	0.09237461
8	0x3d9a9118	0.07547206
9	0xbd510156	-0.051026665
10	0x3e7dfb32	0.24802855
11	0x3e0bef8a	0.13665596
12	0x3d90e46c	0.07074818
13	0xbd94f5b7	-0.07273429
14	0xbdb74c2a	-0.08950074
15	0x3d3506a6	0.044195794
16	0x3e1a84fe	0.15089795
17	0x3c357c8f	0.01107706
18	0xbe516665	-0.20449217
19	0x3e180db9	0.14848985
20	0x3dd9ad44	0.10628751
21	0x3ba2c594	0.004967401
22	0x3d0cdfbf	0.03439307
23	0xbe62c5a7	-0.22145711
24	0x3dda070c	0.10645875
25	0x3e33dfb9	0.17565812
26	0x3e5c9f4d	0.21545143
27	0x3e1e00ca	0.15429989
28	0x3d85ad85	0.06527237
29	0xbe80d779	-0.25164393
30	0x3db66025	0.08905057
31	0xbd3686c3	-0.044562113
32	0xbbc66ede	-0.006055697
33	0xbde71254	-0.11282793
34	0xbcbd41f6	-0.023102742
35	0xbd2b4a8e	-0.041819148
36	0x3c491ca7	0.012274898
37	0x3dad03a1	0.08447958
38	0x3c37d4ce	0.01122017
39	0xbe69ab84	-0.22819334
40	0xbc349386	-0.0110215
41	0xbdbebb79	-0.09313101
42	0x3d290bff	0.041271206
43	0xbdfee7a6	-0.12446527
44	0x3d497230	0.049181163
45	0x3b0ee5ae	0.002180438
46	0x3e88542c	0.26626718
47	0xbb3e0345	-0.0028993648
48	0xbdff6935	-0.124712385
49	0x3e413f47	0.18871795
50	0x3e83c98f	0.25739715
51	0xbe2d4b1a	-0.1692318
52	0x3e2814d7	0.164142
53	0xbe49d134	-0.19708711
54	0x3d6e058f	0.05811077
55	0xbe4e5dec	-0.20153016
56	0xbe83bb53	-0.25728855
57	0xbe301591	-0.17195727
58	0xbd8b69b9	-0.06807274
59	0x3db4c38e	0.088263616
60	0xbd8850ea	-0.06656058
61	0xbd7cabb8	-0.0616872
62	0x3d9b2ec2	0.07577278
63	0x3e8441b2	0.25831372
64	0x3e1e2bfb	0.15446465
65	0xbe8b0e61	-0.27159408
66	0xbd39850f	-0.04529291
67	0x3e5268f3	0.20547847
68	0x3d0a495a	0.03376136
69	0x3e4f52b8	0.20246398
70	0xbdea502f	-0.11441075
71	0x3e828628	0.25492978
72	0x3db80f7b	0.08987328
73	0xbe1e3e55	-0.15453465
74	0x3e306829	0.17227234
75	0xbda03c24	-0.07823971
76	0x3d2f1ff6	0.04275509
77	0x3c267b2d	0.010161203
78	0x3e800baa	0.250089
79	0xbd410f44	-0.0471337
80	0x3c5e888f	0.013582363
81	0xbe014c96	-0.12626871
82	0x3bd62aa2	0.006535844
83	0x3dbccbe1	0.09218574
84	0xbe0a3270	-0.13495803
85	0x3dbf0b64	0.093283445
86	0xbcba3eff	-0.022735117
87	0xbe9ae5ad	-0.30253354
88	0xbe2d2887	-0.16909991
89	0xbde0184e	-0.10942136
90	0x3c972e3f	0.018454669
91	0x3ca5a01e	0.020217951
92	0xbc85adbe	-0.016318198
93	0xbe6d8e2b	-0.23198764
94	0x3e37bd2b	0.17943256
95	0xbe4f83ce	-0.20265123
96	0xbd13fe9c	-0.036131486
97	0x3ded8f8a	0.115996435
98	0x3dabeb4d	0.083944894
99	0xbe4117d8	-0.18856752
100	0x3e81ad42	0.25327498
101	0x3e40aa25	0.18814905
102	0xbdc4273e	-0.09577797
103	0xbce25118	-0.02762656
104	0x3dd5c512	0.10437979
105	0xbd909cba	-0.07061143
106	0xbbeffccd	-0.0073238374
107	0x3e6b641e	0.2298741
108	0x3cfeb128	0.031090334
109	0x3e13d9d3	0.14438562
110	0xbda42608	-0.080150664
111	0x3e45e064	0.1932388
112	0xbe5406eb	-0.20705764
113	0x3dcd9faf	0.10040223
114	0x3df48507	0.119394355
115	0xbc23a5f1	-0.009988294
116	0xbe57dda3	-0.21080641
117	0xbdbea0d9	-0.09308023
118	0x3e2acbb0	0.16679263
119	0x3df6406b	0.120240055
120	0x3e859ecd	0.26097718
121	0x3da89e39	0.082333036
122	0x3e8a90c9	0.27063587
123	0x3b910c80	0.004426539
124	0x3e4524c2	0.19252303
125	0xbe12220f	-0.14270805
126	0xbe71e2a7	-0.23621617
127	0x3dc9f993	0.09862056
128	0xbc840fbc	-0.016120784
129	0x3b48da40	0.0030647665
130	0xbe3d0478	-0.18458736
131	0xbdb1e468	-0.08686143
132	0xbe13b46f	-0.14424299
133	0xbc8afecf	-0.016967205
134	0x3d248c14	0.04017265
135	0x3e04d472	0.12971666
136	0x3d4f62e6	0.050631426
137	0xbe0e087f	-0.13870429
138	0xbdafdff1	-0.08587635
139	0x3dd60ca5	0.104516305
140	0xbe6d593a	-0.23178568
141	0xbbeb9e23	-0.007190482
142	0x3dd60de6	0.1045187
143	0x3d3bab3e	0.045817606
144	0x3e0d742f	0.13813852
145	0x3d39984d	0.04531126
146	0x3e686837	0.22696005
147	0x3d1b82da	0.037966587
148	0xbe0c542d	-0.13703986
149	0xbd885a7d	-0.06657884
150	0xbd1378ea	-0.036003985
151	0xbe47eca3	-0.19523863
152	0x3e6fe269	0.23426212
153	0x3e2399be	0.15976617
154	0x3bf667f6	0.0075197173
155	0x3dabf860	0.08396983
156	0x3e1f0422	0.1552892
157	0x3e0f09cc	0.13968581
158	0xbe060d2b	-0.1309096
159	0x3d8d2a02	0.06892778
160	0x3d45cae3	0.04828919
161	0xbe14453a	-0.14479533
162	0xbc6448d6	-0.013933381
163	0xbda014d4	-0.07816473
164	0x3e47bbb3	0.19505195
165	0x3e08fb23	0.13377051
166	0xbdaf1a03	-0.08549883
167	0x3e69d021	0.22833301
168	0x3e0b8db7	0.13628279
169	0x3d4cb015	0.049972612
170	0xbda4b5ba	-0.08042474
171	0x3e4f5033	0.20245437
172	0xbe2649df	-0.16239117
173	0x3e0c49b3	0.13699989
174	0xbe574fa6	-0.21026477
175	0x3e2d309f	0.16913079
176	0xbe7084cd	-0.2348816
177	0x3e5382ad	0.20655318
178	0xbe8e1b6d	-0.277553
179	0xbe4a9329	-0.197827
180	0xbd0f89a4	-0.035043374
181	0x3d90ba0e	0.07066737
182	0xbca9fb46	-0.0207497
183	0x3b225ee8	0.0024775807
184	0x3e3a3ff2	0.18188456
185	0xbe5346a1	-0.20632412
186	0x3df167fa	0.1178741
187	0x3d9a76ac	0.07542166
188	0xbe115ff7	-0.14196764
189	0x3df5e849	0.120071955
190	0x3e5cc2a2	0.21558622
191	0xbe4e3ea9	-0.2014109
192	0x3e486ebc	0.19573492
193	0x3e0c7299	0.1371559
194	0xbe6ea9db	-0.23306982
195	0xbe00549e	-0.12532279
196	0xbe3e3da7	-0.18578206
197	0x3caa048a	0.020754118
198	0xbd4799c5	-0.04873063
199	0x3e16d89d	0.14731069

lin3.weight f4 [200, 200]
0	0xbe379783	-0.17928891
1	0x3d8e9e33	0.06963768
2	0xbe43d9b6	-0.19126019
3	0x3e2de982	0.16983607
4	0xbe7a435d	-0.2443976
5	0x3dd6b460	0.104836226
6	0xbce057f7	-0.027385695
7	0x3e550b93	0.20805196
8	0xbd582a7c	-0.05277489
9	0xbdcf19af	-0.10112321
10	0x3d9d6bd1	0.0768658
11	0xbe097749	-0.1342441
12	0x3dd1265d	0.10212395
13	0x3ddb75ae	0.10715805
14	0x3d34352a	0.043996014
15	0xbe509604	-0.20369726
16	0xbe432869	-0.19058384
17	0xbe7f7ebf	-0.24950694
18	0x3da72acd	0.081624605
19	0xbdc82873	-0.0977334
20	0x3da391ef	0.07986819
21	0xbd092724	-0.033484593
22	0xbd2ada5d	-0.041712154
23	0xbe213736	-0.15743718
24	0x3e60fff8	0.21972644
25	0x3d8176d4	0.06321493
26	0x3d6d92b3	0.05800123
27	0xbb9ee5ba	-0.004849163
28	0x3ea91ba2	0.33028895
29	0x3ef015a6	0.46891516
30	0xbe2c70b8	-0.16839874
31	0x3e54e51b	0.20790522
32	0xbec0ce58	-0.37657428
33	0x3b8dc0e1	0.0043259715
34	0x3e180452	0.14845398
35	0x3d347307	0.04405501
36	0xbd94ccbe	-0.07265614
37	0xbe60c4e6	-0.21950111
38	0xbc74390c	-0.014906179
39	0x3dcb336e	0.09921919
40	0xbdda49ee	-0.10658632
41	0x3e39fac7	0.1816207
42	0xbda61e1c	-0.08111212
43	0xbd125b21	-0.03573144
44	0x3d92399d	0.07139895
45	0xbe05d00e	-0.13067648
46	0x3c99b837	0.018764598
47	0x3c48bb8b	0.012251745
48	0xbe8e1ec7	-0.27757856
49	0x3cfdd519	0.030985402
50	0xbe6c1b3a	-0.23057261
51	0xbdee7922	-0.11644198
52	0xbe161770	-0.14657378
53	0x3e5d862e	0.21633217
54	0xbd85045d	-0.06494973
55	0x3e16a19c	0.14710087
56	0x3e83156f	0.2560229
57	0x3e4386f7	0.19094454
58	0x3cc3b449	0.023889678
59	0x3cf33232	0.02968702
60	0xbe05cb99	-0.13065948
61	0xbcee8951	-0.029118212
62	0xbe5ee47f	-0.21766852
63	0xbe262966	-0.1622673
64	0xbe0ccca9	-0.13749947
65	0xbe1cc3e7	-0.15309106
66	0x3ddfdc47	0.109306864
67	0xbddb938e	-0.10721503
68	0x3cb32573	0.021868443
69	0xbdac32e4	-0.08408144
70	0xbd2d3c2c	-0.042293712
71	0xbd10b7de	-0.0353316
72	0x3cc0b18b	0.02352216
73	0xbde5c630	-0.11219442
74	0xbeac5892	-0.33661324
75	0xbda32add	-0.0796716
76	0xbd83b41c	-0.064308375
77	0xbe955069	-0.2916291
78	0xbdf5ff8e	-0.12011634
79	0x3df76f0b	0.12081727
80	0xbe707be3	-0.23484759
81	0xbd42ae97	-0.047529783
82	0xbe5df725	-0.2167631
83	0xbc356e98	-0.011073731
84	0xbc4b72de	-0.012417523
85	0x3b26eb2f	0.002546977
86	0x3dd93cbe	0.10607289
87	0xbe061533	-0.13094024
88	0x3dbffded	0.093746044
89	0x3e5690e5	0.2095371
90	0x3c476f96	0.0121726
91	0x3db3ec96	0.087853596
92	0xbe297dee	-0.16551945
93	0x3d4ba1c0	0.049714804
94	0x3e51ca16	0.20487246
95	0x3c6f429b	0.014603282
96	0xbe37c7dd	-0.17947336
97	0x3e1f9e70	0.15587783
98	0x3b90ad33	0.004415178
99	0x3d23ec37	0.040020194
100	0x3b54ebfe	0.0032489295
101	0xbdcfeef3	-0.10152998
102	0x3daa93f8	0.08329004
103	0x3d5d89c7	0.054086473
104	0xbe32d706	-0.17464837
105	0x3d4b5668	0.04964295
106	0xbec441e6	-0.38331527
107	0x3ec17e2b	0.3779157
108	0x3e0dfa9f	0.13865136
109	0xbe32e3b2	-0.17469671
110	0x3c4240ef	0.011856302
111	0x3dae5eac	0.08514151
112	0x3d7cab88	0.061687022
113	0x3deacb57	0.11464565
114	0xbd8ccc5f	-0.06874918
115	0x3dddbe52	0.10827316
116	0x3eb3cbd1	0.35116437
117	0x3e0cb5a1	0.13741161
118	0xbe29f90d	-0.16598912
119	0xbe3bc499	-0.18336715
120	0xbd509b72	-0.050929494
121	0xbd9a25f4	-0.0752677
122	0x3e12027a	0.14258757
123	0x3d4d33a8	0.05009809
124	0xbe660197	-0.22461544
125	0x3e48bac6	0.19602498
126	0x3dc673d1	0.09690059
127	0xbe61ced7	-0.2205156
128	0xbd08d483	-0.033405792
129	0xbe7832ea	-0.24238172
130	0x3d9e22ed	0.07721505
131	0x3edb23cd	0.4280075
132	0xbdbeecd6	-0.093225166
133	0xbe6d660d	-0.2318346
134	0xbdd769ad	-0.10518203
135	0xbe11840e	-0.14210531
136	0xbcc09d8d	-0.023512626
137	0xbdfd3ae4	-0.12364748
138	0xbdbdd855	-0.09269778
139	0x3d791a73	0.06081624
140	0x3e3700f2	0.17871454
141	0xbd42833f	-0.047488447
142	0xbe1b3a28	-0.15158904
143	0x3e739cbc	0.23790258
144	0xbd7a5c36	-0.061123095
145	0x3e2050a8	0.15655768
146	0x3d894a9b	0.06703683
147	0x3a108fab	0.0005514572
148	0x3c40ad3a	0.01176005
149	0xbdf7aaa3	-0.12093093
150	0xbe60fc01	-0.21971132
151	0x3e4c9b15	0.19981034
152	0xbc3559b1	-0.011068747
153	0xbe6790a0	-0.22613764
154	0xbc4a76a9	-0.012357392
155	0xbd98013f	-0.07422113
156	0x3a5ad662	0.00083479856
157	0xbeaef796	-0.34173268
158	0x3e25eb05	0.16202934
159	0x3d85b1da	0.06528063
160	0x3e33a98a	0.17545143
161	0x3e28798d	0.16452618
162	0x3e2f999d	0.17148443
163	0x3ddbe4f4	0.10737029
164	0x3dc342d1	0.095342286
165	0xbe079778	-0.13241374
166	0xbdbfb5cc	-0.09360847
167	0x3d88891c	0.066667765
168	0x3e230854	0.15921146
169	0xbbbe865e	-0.0058143577
170	0x3de411c7	0.11136203
171	0x3d7744a1	0.060368184
172	0xbe0042c7	-0.12525474
173	0x3dc5f8b6	0.096665785
174	0xbd8019c5	-0.06254915
175	0x3d41bbf4	0.047298387
176	0xbe724ce3	-0.23662142
177	0xbd276350	-0.040866196
178	0xbdd61493	-0.10453143
179	0x3ec8624a	0.3913749
180	0xbe2b37ec	-0.16720551
181	0xbd0161e7	-0.031587508
182	0x3dd7df77	0.105406694
183	0x3aed63c0	0.0018111393
184	0x3e31e5d6	0.17372832
185	0xbe5e6dbb	-0.21721546
186	0xbe0de4a3	-0.13856749
187	0x3e8900db	0.26758465
188	0x3e6f3f05	0.23363884
189	0xbd833206	-0.064060256
190	0x3de9f3f5	0.11423484
191	0x3e064a2d	0.13114233
192	0xbc2037b1	-0.009778903
193	0xbe0a9f04	-0.13537222
194	0x3e081bb2	0.13291815
195	0x3e21b2dc	0.15790886
196	0x3e88dbe7	0.26730272
197	0xbd1cd8fa	-0.038292862
198	0x3da2d3be	0.07950543
199	0x3e03bc86	0.12864885
200	0xbdd7510e	-0.10513507
201	0x3ddc19e5	0.107471265
202	0xbe72e3c6	-0.23719701
203	0xbdb648d3	-0.08900609
204	0x3e4f4e96	0.20244822
205	0xbcca40cc	-0.0246891
206	0xbd5ad111	-0.053422038
207	0xbd8bb11d	-0.06820891
208	0xbd9fccab	-0.07802709
209	0x3e9b4547	0.30326292
210	0x3e47b634	0.19503099
211	0xb948634a	-0.00019110474
212	0xbe20e328	-0.15711653
213	0x3cfbd3cf	0.030740647
214	0x3e90fce6	0.28317946
215	0xbd47b093	-0.04875238
216	0x3e1dd82f	0.15414499
217	0x3d25d432	0.04048557
218	0x3d8de8e4	0.06929186
219	0x3e811b4c	0.25216138
220	0xbcc2dd46	-0.023787152
221	0xbc1ae82d	-0.009454769
222	0x3dcbfe56	0.0996062
223	0xbdb0f538	-0.08640522
224	0x3d61b679	0.05510566
225	0x3c37a622	0.011209043
226	0xbe09ff7b	-0.13476364
227	0x3dd30de5	0.103053845
228	0xbdba9028	-0.09109527
229	0x3e4e88ba	0.20169345
230	0x3d42e857	0.047584858
231	0xbd0549d4	-0.03254111
232	0xbdf8e81f	-0.121536486
233	0xbdcfd028	-0.101471245
234	0xbd0be17a	-0.034150578
235	0xbe5d6be1	-0.21623184
236	0xbd4e2559	-0.050328586
237	0xbce8dcb8	-0.02842556
238	0xbddcecab	-0.10787328
239	0xbe65ade3	-0.22429614
240	0xbe62000c	-0.2207033
241	0x3dde6f27	0.108610444
242	0xbcbe1b59	-0.0232064
243	0x3e49bb93	0.1970046
244	0x3dfa263b	0.12214323
245	0x3e70f6fb	0.23531716
246	0x3da917c4	0.08256486
247	0x3e35df08	0.17760861
248	0xbe488e50	-0.19585538
249	0xbd561ca4	-0.052273408
250	0x3d8b43ad	0.068000175
251	0x3e582750	0.21108747
252	0x3dd592e1	0.104284056
253	0xbec12bfd	-0.37728873
254	0x3e4991c7	0.19684516
255	0xbd457c8c	-0.04821448

lin3.bias f4 [200]
0	0xbe662e46	-0.2247859
1	0x3d42c70d	0.04755311
2	0x3d9cc780	0.07655239
3	0xbbec8c33	-0.0072188615
4	0xbddb8499	-0.1071865
5	0xbe7b5ae9	-0.24546398
6	0xbe243c9c	-0.16038746
7	0xbe1a2b11	-0.15055491
8	0x3e37f6bf	0.1796522
9	0x3d55cd67	0.05219784
10	0x3e1cd8b3	0.15317039
11	0x3e8ba633	0.27275237
12	0x3e5dbf95	0.21655114
13	0x3e50797a	0.2035884
14	0x3e56c8a7	0.2097498
15	0xbd5fda2a	-0.054651417
16	0x3eb1af9d	0.34704295
17	0x3e0e0e5f	0.1387267
18	0x3e6aa81d	0.22915693
19	0xbdf43ebb	-0.119260274
20	0xbe288634	-0.16457444
21	0xbdf67a79	-0.120350786
22	0xbd4949be	-0.04914259
23	0xbe3281bc	-0.17432302
24	0x3e141d96	0.14464411
25	0x3d5ff502	0.054677017
26	0x3e31ef3d	0.17376418
27	0x3e1677bf	0.14694117
28	0x3ec422a5	0.38307682
29	0xbea4f2cf	-0.32216498
30	0xbe8b346b	-0.2718843
31	0xbdf4c30c	-0.11951265
32	0xbe18d319	-0.14924277
33	0xbe4e0176	-0.20117745
34	0x3e2fa410	0.17152429
35	0xbe02828f	-0.12745117
36	0x3e9e9933	0.30976257
37	0xbdc22484	-0.09479621
38	0xbe56d1f7	-0.20978533
39	0x3c9fa46d	0.019487584
40	0xbdf79ef3	-0.12090864
41	0xbeb57ad6	-0.3544528
42	0xbd2a2e33	-0.041547965
43	0xbe93e18f	-0.28883025
44	0xbd36704d	-0.044540692
45	0xbed771f1	-0.42079118
46	0xbdbdc1e7	-0.092654996
47	0xbd8ec6a8	-0.069714844
48	0x3e12617c	0.14295
49	0x3e81206c	0.25220048
50	0x3e52b513	0.20576887
51	0x3e6ccc4f	0.23124813
52	0x3d059da0	0.032621026
53	0xbdf5b282	-0.11996938
54	0xbe327ed4	-0.17431194
55	0x3c5143c4	0.012772504
56	0x3e1016f4	0.14071256
57	0x3dec14f3	0.11527433
58	0xbd131ff0	-0.03591913
59	0xbe3bec17	-0.1835178
60	0xbdbfddb7	-0.093684606
61	0x3d430a95	0.047617514
62	0x3dfeea2c	0.124470085
63	0x3e6df661	0.23238517
64	0x3e8e0a84	0.27742398
65	0xbe48c3c2	-0.19605926
66	0xbe9b6f01	-0.30358127
67	0x3ebcabb4	0.3684975
68	0xbd046e59	-0.0323318
69	0xbe6f944b	-0.23396413
70	0xbce651a3	-0.0281151
71	0x3e366451	0.17811705
72	0xbd502f38	-0.05082628
73	0x3d6ef318	0.0583373
74	0xbe4cc677	-0.19997583
75	0xbd5399f9	-0.05166051
76	0x3db5368e	0.08848296
77	0xbdb95b6e	-0.09050642
78	0xbe98d71f	-0.29851624
79	0xbea2450c	-0.31693304
80	0x3dda3734	0.106550604
81	0x3e3becad	0.18352003
82	0xbec7c56f	-0.39017817
83	0xbd92edd2	-0.07174267
84	0x3e8b21da	0.27174264
85	0xbd9cb41c	-0.07651541
86	0xbe2f690d	-0.17129917
87	0xbcae7c8d	-0.021299625
88	0x3e836695	0.256642
89	0xbcdd5e02	-0.027022365
90	0x3dd41273	0.103550814
91	0x3de705fb	0.112804376
92	0xbdf788b4	-0.12086621
93	0x3cdf8a55	0.027287642
94	0x3deaddd3	0.11468091
95	0xbe1f4302	-0.15552905
96	0x3e544c53	0.2073224
97	0x3daf85d8	0.085704505
98	0x3de082f5	0.10962478
99	0x3e408218	0.18799627
100	0xbe8faf88	-0.28063607
101	0x3e45a84c	0.19302481
102	0xbe4dd0cd	-0.20099182
103	0xbc874f98	-0.016517445
104	0xbe0f35eb	-0.13985412
105	0xbe35cbad	-0.17753477
106	0xbd4db64d	-0.050222684
107	0xbe0ba9c9	-0.13638987
108	0x3dd7bc7e	0.10533999
109	0x3e9875c9	0.29777363
110	0xbe1f91ad	-0.15582915
111	0xbd9f5027	-0.0777896
112	0xbdc8628d	-0.09784422
113	0x3d843ad9	0.06456537
114	0x3eb95860	0.36200237
115	0xbe275c02	-0.16343692
116	0x3d8c2a5a	0.068440154
117	0x3e1c1b0e	0.15244696
118	0xbe072d5a	-0.13200894
119	0xbc47cb2c	-0.012194436
120	0x3ec9334c	0.3929695
121	0x3e999c62	0.30002123
122	0x3dacd765	0.08439521
123	0x3d2e416b	0.042542856
124	0x3e7d25b4	0.24721414
125	0x3cb2306b	0.021751603
126	0x3e912dec	0.28355348
127	0xbe852658	-0.26005816
128	0x3dbeb65d	0.09312127
129	0x3c903e45	0.017607817
130	0xbd81d359	-0.063391395
131	0x3d7196a5	0.058981556
132	0xbd890661	-0.0669067
133	0x3eb384fd	0.350624
134	0xbe8bda84	-0.27315152
135	0x3e1d8d77	0.15385996
136	0x3e76d07b	0.24102966
137	0xbdda3581	-0.10654736
138	0x3ea5bdbe	0.32371324
139	0xbdde50cc	-0.108552545
140	0x3e104534	0.14088899
141	0x3e8f514b	0.2799171
142	0xbdc72e63	-0.097256444
143	0x3d88bd04	0.06676677
144	0x3e088ee8	0.13335764
145	0xbe03695f	-0.12833165
146	0xbe52bcd9	-0.20579852
147	0x3e8c5983	0.27412042
148	0x3ee97e6a	0.4560426
149	0xbf002599	-0.5005737
150	0xbe150418	-0.14552343
151	0xbd229db9	-0.039701197
152	0xbee71639	-0.45134142
153	0xbd9e83cd	-0.07739983
154	0x3e5bf65c	0.21480697
155	0x3daada73	0.08342447
156	0xbcd34a25	-0.02579219
157	0x3e79fbb0	0.24412417
158	0x3eb523fb	0.35379013
159	0xbe728518	-0.23683584
160	0xbe039148	-0.12848389
161	0xbe00e468	-0.1258713
162	0xbe07c872	-0.13260058
163	0x3d84ff9b	0.064940654
164	0x3ed650ee	0.4185862
165	0x3e51d570	0.20491576
166	0xbd930872	-0.07179345
167	0x3ea2df51	0.31811002
168	0xbe0a6308	-0.1351434
169	0x3e3c2a57	0.18375526
170	0x3e42bb7c	0.19016832
171	0xbd2f2922	-0.042763837
172	0x3d14d8d5	0.0363396
173	0xbb573231	-0.0032836313
174	0xbd187cf6	-0.037228547
175	0xbdcc554f	-0.09977209
176	0xbe421585	-0.18953522
177	0x3d9b087c	0.07569978
178	0xbdc1c2e2	-0.09460999
179	0xbde3776b	-0.111067615
180	0xbddf06ad	-0.10889945
181	0xbe756798	-0.23965299
182	0xbe797985	-0.24362762
183	0xbdc792d4	-0.09744802
184	0xbd74bc3d	-0.05974983
185	0xbd39905c	-0.045303687
186	0xbe46cbe7	-0.1941372
187	0x3eb5f10b	0.35535464
188	0xbe3c1630	-0.18367839
189	0x3ee286f0	0.44243574
190	0x3e70199a	0.23447266
191	0xbca1c238	-0.019745931
192	0x3c5a8dae	0.013339443
193	0x3d6a5e60	0.05721891
194	0x3dd7bdf7	0.1053428
195	0xbe33ae28	-0.17546904
196	0xbdd4f03c	-0.103973836
197	0xbe00b6d7	-0.12569748
198	0xbe88fd68	-0.26755834
199	0x3ea58c1e	0.32333463

lin4.weight f4 [62, 200]
0	0x3e2123ad	0.15736265
1	0x3f21a4ed	0.6314228
2	0xbeb330e8	-0.3499825
3	0x3e814db3	0.25254592
4	0x3a2eabe4	0.0006663187
5	0x3f73b808	0.95202684
6	0xbc04dab4	-0.0081087835
7	0x3e93c161	0.28858474
8	0x3e9ffee2	0.31249148
9	0xbeb160bf	-0.34644124
10	0xbd04c2f8	-0.0324125
11	0x3f46598b	0.7748038
12	0x3cd20fe5	0.025642345
13	0x3e5e8dca	0.21733776
14	0x3ecf57c3	0.40496644
15	0x3ed4cbfa	0.41561872
16	0xbed8eaea	-0.42366725
17	0x3ea3ee3a	0.3201769
18	0xbe06d3f1	-0.13166787
19	0x3d32c9d2	0.043649502
20	0x3f17199e	0.59023464
21	0xbe5ccd3d	-0.21562667
22	0x3e9dcb11	0.3081899
23	0x3f2f7f16	0.6855329
24	0xbf239ab3	-0.6390793
25	0x3f04850f	0.5176553
26	0x3e8043aa	0.25051624
27	0x3e3b6a21	0.18302204
28	0x3eca7c08	0.39547753
29	0x3f4e49c0	0.80581284
30	0xbf178a7a	-0.59195673
31	0x3ed7f6a6	0.42180365
32	0xbec8c1e9	-0.39210442
33	0x3e40097d	0.1875362
34	0x3e9a7d26	0.30173606
35	0x3eba9d99	0.36448362
36	0x3ef04e8f	0.46934935
37	0xbf285e60	-0.65769005
38	0xbebd7023	-0.36999616
39	0xbdc2a96f	-0.09504973
40	0x3ee22a0a	0.44172698
41	0x3ba25155	0.004953543
42	0xbf3f6817	-0.74768203
43	0x3f3583df	0.70904344
44	0xbe465408	-0.19367993
45	0xbdb4df45	-0.08831648
46	0x3ef131a6	0.4710819
47	0x3e8d7dc4	0.27635014
48	0xbefe1092	-0.49622017
49	0x3ebabfeb	0.36474547
50	0x3f06b76a	0.5262362
51	0xbdfacd85	-0.12246231
52	0x3f794bf5	0.97381526
53	0x3f28f8f6	0.66004884
54	0xbeba8571	-0.36429933
55	0xbe4ee7b7	-0.2020558
56	0xbf84ddb9	-1.0380164
57	0xbdf5f6cb	-0.12009963
58	0xbf43d7cf	-0.7650117
59	0x3d71e62f	0.05905741
60	0x3eac14b8	0.33609557
61	0xbd14e0b0	-0.03634709
62	0x3f35deb4	0.71042943
63	0xbf70a12b	-0.9399592
64	0xbee82630	-0.45341635
65	0xbf102a28	-0.56314325
66	0xbef8faff	-0.48628995
67	0xbf3e41fb	-0.7431943
68	0x3eadead0	0.3396821
69	0x3f2cc125	0.67482215
70	0xbe9c5fc8	-0.30541825
71	0xbd9950a6	-0.074860856
72	0x3de2cfcc	0.1107479
73	0xbf0109c0	-0.504055
74	0xbe967bef	-0.2939143
75	0xbea24bc0	-0.31698418
76	0x3eb6f104	0.35730755
77	0x3e27e844	0.16397196
78	0xbf05176e	-0.51988876
79	0x3f1dc077	0.61621803
80	0xbe91b5f2	-0.28459126
81	0xbf3e42d8	-0.74320745
82	0x3efb8f1e	0.49132627
83	0xbebf991d	-0.37421504
84	0x3eb6db71	0.35714296
85	0x3eb98016	0.36230534
86	0x3dd1d8de	0.10246442
87	0x3ca9de14	0.020735778
88	0x3f34429a	0.70414126
89	0xbef156a9	-0.4713643
90	0xbd101130	-0.03517264
91	0xbf182068	-0.5942445
92	0xbe6c75dd	-0.23091836
93	0x3f277b67	0.6542267
94	0x3e265dfc	0.1624679
95	0xbf36f171	-0.7146216
96	0x3c762019	0.015022301
97	0x3ed46bec	0.41488588
98	0xbf54cd81	-0.83126074
99	0x3f189ca0	0.5961399
100	0x3eafca85	0.34334198
101	0x3f08be5e	0.5341548
102	0xbf22c54e	-0.63582313
103	0x3e6fb725	0.23409708
104	0xbecaef62	-0.3963576
105	0x3ec0a2e3	0.37624273
106	0xbee34936	-0.44391793
107	0xbe8ab226	-0.2708904
108	0xbef7982c	-0.48358285
109	0xbdacd7cb	-0.08439597
110	0x3f4fdaac	0.8119304
111	0x3f1b88ab	0.60755414
112	0x3f460a03	0.77359027
113	0xbf726cae	-0.9469708
114	0x3dadc961	0.084856756
115	0xbecafe15	-0.39646974
116	0x3d2808fa	0.041024186
117	0xbd580ea7	-0.05274835
118	0xbeb2c39a	-0.34914857
119	0x3ea60496	0.32425374
120	0x3c09a921	0.00840214
121	0xbcb5a421	-0.02217299
122	0x3e8e5716	0.27800816
123	0xbf1bd5af	-0.6087293
124	0x3e9bfde6	0.30467147
125	0xbed0eddf	-0.4080648
126	0xbf6b90ac	-0.92017627
127	0xbea97543	-0.33097276
128	0x3e7feaf8	0.24991977
129	0xbf01d4fe	-0.50715625
130	0x3de29c58	0.110649765
131	0xbe2536d9	-0.16134204
132	0x3c8830d4	0.016624846
133	0xbf048706	-0.5176853
134	0xbeec7946	-0.46186274
135	0x3ddf6f34	0.10909882
136	0x3ee4e4bc	0.4470576
137	0xbe1dc28d	-0.15406246
138	0xbe8f9be0	-0.2804861
139	0xbd3f7a4f	-0.046747502
140	0x3ea11d06	0.31467456
141	0x3f1b6879	0.6070629
142	0x3b7dc139	0.0038719906
143	0xbed4af56	-0.4154002
144	0x3e27a2d7	0.16370712
145	0xbecb74f7	-0.39737675
146	0xbf324be7	-0.6964707
147	0x3ee20b55	0.4414927
148	0x3eb5697f	0.3543205
149	0xbf3b2389	-0.731011
150	0xbf50379d	-0.8133486
151	0x3ee18c02	0.4405213
152	0x3e129709	0.14315428
153	0x3f270f3d	0.65257627
154	0x3f0e5156	0.5559286
155	0xbe6286e3	-0.22121768
156	0xbed5daca	-0.41768485
157	0x3f4abf50	0.7919817
158	0xbabb7bb0	-0.001430383
159	0xbec43325	-0.3832027
160	0xbe361c0e	-0.1778414
161	0xbedef674	-0.43547404
162	0x3e5617e4	0.20907551
163	0xbe92777e	-0.2860679
164	0x3ee68183	0.45020685
165	0xbf19ed9c	-0.6012819
166	0xbee6b17a	-0.4505728
167	0xbe974369	-0.29543617
168	0xbef053a6	-0.4693882
169	0x3f0f60ba	0.5600697
170	0xbe8200fb	-0.25391373
171	0x3ea82b9a	0.32845765
172	0xbd131a9c	-0.03591405
173	0xbe11fcdf	-0.14256619
174	0x3ec14562	0.37748247
175	0xbf526e45	-0.8219951
176	0x3f39a895	0.7252286
177	0xbe8627ae	-0.26202148
178	0xbeccd661	-0.40007308
179	0x3f0db8eb	0.5536029
180	0xbe107021	-0.14105274
181	0xbf542a10	-0.8287668
182	0xbe674a5e	-0.22586963
183	0xbca97d15	-0.020689527
184	0xbd2f9c2b	-0.042873543
185	0xbe182093	-0.14856176
186	0xbd652e5f	-0.055952426
187	0xbe5b3c95	-0.21409829
188	0x3f05320d	0.52029496
189	0xbf67bfad	-0.9052685
190	0x3ebba939	0.36652544
191	0xbe8a2506	-0.26981372
192	0xbf211207	-0.6291813
193	0x3ead6641	0.33867076
194	0xbe8b525c	-0.27211273
195	0x3f062a6e	0.5240849
196	0x3cf9dddf	0.030501304
197	0x3f0d5689	0.5521017
198	0x3ef39f16	0.4758231
199	0xbf74529f	-0.9543857
200	0xbe9b56e3	-0.30339727
201	0xbd08aa94	-0.0333658
202	0x3dcddb57	0.100516014
203	0xbd0b6012	-0.034027167
204	0xbeecf4a9	-0.4628041
205	0x3f0d4ce4	0.5519545
206	0xbdf8366e	-0.12119757
207	0xbeb21e99	-0.3478897
208	0xbee064a2	-0.43826777
209	0x3d783d48	0.060605317
210	0xbe35a3de	-0.17738292
211	0x3eb6bd89	0.3569148
212	0x3ef607c9	0.48052815
213	0x3ecf8aa6	0.40535468
214	0xbe4752ec	-0.19465226
215	0xbf2e1071	-0.6799384
216	0x3e6bc11e	0.23022887
217	0x3f42885b	0.7598931
218	0xbf00397c	-0.50087714
219	0x3e39295c	0.18082184
220	0x3e9a65e8	0.30155873
221	0xbece5741	-0.40300944
222	0x3eda94ae	0.4269156
223	0x3f08f481	0.53498083
224	0x3e060359	0.13087215
225	0xbe7eadcc	-0.24870986
226	0xbf14ef6d	-0.58177835
227	0x3dc88f60	0.097929716
228	0x3eb3a565	0.35087124
229	0xbd2086ad	-0.039190937
230	0x3e8dcc77	0.27695057
231	0x3df86bf5	0.12129966
232	0xbded2348	-0.11578995
233	0xbf169e91	-0.58835703
234	0xbedc6adf	-0.43050286
235	0x3e3570c9	0.17718805
236	0x3f2d0a66	0.6759399
237	0x3e2002a0	0.15626001
238	0x3e9e0423	0.3086253
239	0x3ef60d2b	0.4805692
240	0xbe818d9e	-0.25303358
241	0x3f10254d	0.56306916
242	0x3dde66ae	0.10859428
243	0x3ed0b189	0.4076045
244	0xbed6d9ee	-0.41963142
245	0xbf19b874	-0.6004708
246	0x3f305577	0.6888041
247	0x3e2286a0	0.15871668
248	0xbe3edfa2	-0.18639997
249	0xbe0ef4af	-0.13960527
250	0x3eae5dc3	0.3405591
251	0xbdfb556b	-0.122721516
252	0x3f1001fb	0.5625302
253	0xbd91cb12	-0.07118811
254	0xbf460491	-0.7735072
255	0xbf195941	-0.59901816
