qn1/model_weights_b15_em8.pth (torch, 473381 bytes, 9 tensors)

emb.weight f4 [62, 8]
-0.9486962 -0.29785886 0.29307482 -0.49325782 -0.6044092 -0.40707338 0.9934151 -0.03370995
-0.064878635 -0.40434122 0.20229596 0.42687902 -0.36438823 -0.45735303 -0.4678025 -0.5406393
-0.24499434 0.81407875 -0.3826653 0.17164564 0.87893045 -0.20061056 0.1253622 -0.43193257
0.7756731 -0.4908813 0.5943493 0.54991657 0.93038493 1.0100521 -0.008610291 -0.7226081
-0.41034138 0.44430497 -1.2385606 0.22014251 0.022801058 0.29147264 -0.23159541 0.13891768
-1.1113616 0.31897065 0.51980233 0.2024695 -0.6325685 -0.19342352 -0.29322776 0.17839968
0.13808429 1.1214081 0.021276977 0.3611619 -0.37933034 -0.9335081 0.3418151 0.1577855
-1.1682464 -0.38124526 -0.49857548 -0.37141195 -0.6523983 -0.029316703 -0.12439438 -0.39890748
-0.38827705 0.008366862 -0.54454696 0.28668454 -0.40620315 -0.2954937 -0.20484234 0.7827334
0.569874 0.053569973 -0.42352498 -0.39357555 -0.23422027 0.3252852 0.9667764 -0.21885307
-0.39208502 0.46352252 0.53242403 -0.082861945 -0.48860717 -0.13400327 -0.3163069 0.90500855
0.4222919 -0.6223739 0.44995275 -0.6712196 -0.18109673 0.6649307 1.0231698 -0.6657319
-0.47747082 0.07175204 -0.3505643 0.01898638 -0.38032937 0.9111668 0.6168931 -0.093653105
0.025967043 0.037999265 0.3960694 -0.6241895 0.32518375 -0.13398314 0.26353645 0.2655602
-0.11876941 -0.25374746 0.5783031 0.14782204 0.6088711 0.24769047 -0.8324607 0.14860338
0.5959205 0.44444308 0.8821463 0.19871286 0.36246905 -0.5231899 0.19177829 -0.2757581
-0.48120666 0.326914 0.28859603 -0.58426034 0.45335853 -0.015729344 -0.6986383 -0.09759533
0.17853977 -0.18269193 -0.32480365 0.8074003 0.45177987 -0.31714025 0.5527857 -0.19094402
-0.20493434 0.87880814 -0.050014783 0.4012281 0.4981933 0.025788229 0.4213292 -0.18054871
-0.41649017 -0.185208 0.30330014 -0.36568004 0.37440598 -0.45375603 -0.14828853 -0.31194046
-0.0017274114 0.6497072 -0.36768457 -1.1142805 -0.4096258 0.23097171 0.04924498 -0.02004086
0.20741287 -0.43994728 -0.9396944 0.23512137 -0.20848408 -0.07833276 1.1015689 0.025695905
0.10208911 0.66436005 -0.018137593 -0.52433527 -0.7241395 0.5204771 0.3527073 0.59738237
-0.13476887 0.7337718 -0.962544 -0.19458108 -0.5017563 -0.7764637 0.4249389 -0.31326082
-0.3942128 -0.1918759 0.47337276 0.18077622 -0.66128236 0.2163587 0.4535257 0.54274386
0.3140474 -0.8049803 0.18233314 -0.039629724 -0.3180191 -0.65633494 0.4387131 0.034470964
0.35294944 0.88986033 0.55847585 0.3590118 0.7909468 0.025122045 -0.12289221 -0.243308
-0.6563967 -0.15582816 0.45773074 -0.26296952 0.49763837 0.54397976 1.0633588 -0.2237494
0.612431 0.26927757 -0.8381881 -0.45601425 0.0177834 -0.86572134 0.7992813 -0.17181064
-0.089057714 0.46691945 -0.009930634 -0.09233067 0.5613759 0.98971534 -0.1930757 0.04633236
-0.40553564 -0.040105652 0.6561711 -0.09646574 -0.066497274 -0.27658656 -0.43823588 0.40086707
-0.27440172 0.40225887 0.27718076 -0.8775333 -0.5516049 -0.01682745 -0.06245389 -0.14614724
00000000: c1dd 72bf f580 98be e70d 963e 4a8c fcbe
00000010: 90ba 1abf ec6b d0be 7450 7e3f 7213 0abd
00000020: 17df 84bd d005 cfbe ac26 4f3e e38f da3e
00000030: 1891 babe 2d2a eabe cf83 efbe 5667 0abf
00000040: ccdf 7abe 7767 503f b5ec c3be e0c3 2f3e
00000050: 9601 613f db6c 4dbe f35e 003e 4426 ddbe
00000060: 8392 463f cb54 fbbe 4727 183f 55c7 0c3f
00000070: b52d 6e3f 6349 813f 2e12 0dbc d8fc 38bf
00000080: 4418 d2be f17b e33e 2789 9ebf 0a6d 613e
00000090: 49c9 ba3c e73b 953e 5927 6dbe 7040 0e3e
000000a0: 1941 8ebf 1f50 a33e c411 053f 2a54 4f3e
000000b0: 02f0 21bf d110 46be f321 96be 68ae 363e
000000c0: f865 0d3e 4d8a 8f3f 0e4d ae3c 36ea b83e
000000d0: 9637 c2be 63fa 6ebf 6402 af3e 8692 213e
000000e0: 1989 95bf 9432 c3be 4945 ffbe b529 bebe
000000f0: 9303 27bf 9529 f0bc 7bc2 febd 9a3d ccbe
00000100: 40cc c6be 2a15 093c 6e67 0bbf 51c8 923e
00000110: dcf9 cfbe f34a 97be 31c2 51be 3761 483f
00000120: 43e3 113f 306c 5b3d 44d8 d8be bc82 c9be
00000130: 70d7 6fbe c88b a63e a87e 773f 051b 60be
00000140: 5ebf c8be d352 ed3e f14c 083f 86b3 a9bd
00000150: b82a fabe 2738 09be faf2 a1be a4ae 673f
00000160: a536 d83e e553 1fbf 3560 e63e 0cd5 2bbf
00000170: 6c71 39be e638 2a3f 3af7 823f 686d 2abf
00000180: 0e77 f4be bcf2 923d 2a7d b3be 5389 9b3c
00000190: 88ba c2be 3a42 693f b5ec 1d3f 33cd bfbd
000001a0: d6b8 d43c 1ea5 1b3d 9cc9 ca3e e2ca 1fbf
000001b0: 7c7e a63e e032 09be 40ee 863e 82f7 873e
000001c0: 603d f3bd 30eb 81be ac0b 143f a95e 173e
000001d0: fade 1b3f 92a2 7d3e 251c 55bf 7c2b 183e
000001e0: 3f8e 183f 0b8e e33e 57d4 613f 627b 4b3e
000001f0: 8b95 b93e c6ef 05bf 8761 443e 2a30 8dbe
00000200: b860 f6be 4661 a73e dcc2 933e 1692 15bf
00000210: 9c1e e83e d3da 80bc f6d9 32bf 0fe0 c7bd
00000220: 21d3 363e 9813 3bbe aa4c a6be c9b1 4e3f
00000230: b14f e73e 3560 a2be 5d83 0d3f d486 43be
00000240: 4fda 51be 92f9 603f 4ddc 4cbd c56d cd3e
00000250: 3113 ff3e d641 d33c 76b8 d73e c3e1 38be
00000260: 333e d5be 2aa7 3dbe 284a 9b3e 6a3a bbbe
00000270: 24b2 bf3e b652 e8be f3d8 17be a9b6 9fbe
00000280: 4f6a e2ba 3653 263f 2741 bcbe bea0 8ebf
00000290: 79ba d1be d983 6c3e 1bb5 493d bb2c a4bc
000002a0: 0a64 543e c540 e1be d08f 70bf a8c3 703e
000002b0: da7c 55be ed6c a0bd 3600 8d3f 3880 d23c
000002c0: 1814 d13d 8013 2a3f 4a95 94bc d63a 06bf
000002d0: 3561 39bf fd3d 053f 0d96 b43e 0dee 183f
000002e0: da00 0abe 78d8 3b3f 4969 76bf 4340 47be
000002f0: 1a73 00bf 53c6 46bf 9791 d93e b963 a0be
00000300: 43d6 c9be 1e7b 44be ea5d f23e 671d 393e
00000310: cd49 29bf 238d 5d3e 8534 e83e 43f1 0a3f
00000320: d2ca a03e 3013 4ebf 8ab5 3a3e c752 22bd
00000330: 66d3 a2be 9105 28bf 019f e03e 6d31 0d3d
00000340: cab5 b43e e3cd 633f 46f8 0e3f 65d0 b73e
00000350: 7d7b 4a3f bfcc cd3c e9ae fbbd bb25 79be
00000360: 9d09 28bf 6b91 1fbe af5b ea3e f1a3 86be
00000370: 75ca fe3e 4242 0b3f 241c 883f 901e 65be
00000380: 47c8 1c3f c0de 893e 7f93 56bf b37a e9be
00000390: 7eae 913c ea9f 5dbf b39d 4c3f 21ef 2fbe
000003a0: e463 b6bd 1110 ef3e 19b4 22bc dd17 bdbd
000003b0: 55b6 0f3f fc5d 7d3f a3b5 45be 00c7 3d3d
000003c0: 5ea2 cfbe d345 24bd d4fa 273f d48f c5bd
000003d0: b92f 88bd c19c 8dbe 7460 e0be 733e cd3e
000003e0: 627e 8cbe e0f4 cd3e a3ea 8d3e 06a6 60bf
000003f0: fb35 0dbf b8d9 89bc a6cf 7fbd 9fa7 15be

lin1.weight f4 [200, 120]
-0.0045565534 0.22780925 0.04437574 -0.09169978 -0.15769662 0.017162992 0.07506044 0.14834215
0.19710533 -0.2197162 0.2881256 -0.10092976 -0.0027959638 0.10464226 -0.006563458 0.10010534
-0.1079713 0.22033037 0.19113007 -0.030732287 -0.07068326 -0.15766397 -0.022086052 -0.23161975
0.031675033 -0.035907675 -0.09832389 0.21750553 0.18224575 -0.13757193 0.33101347 -0.1823277
-0.06286487 -0.19511591 0.12636526 -0.01024053 -0.15519968 0.22535978 0.14896283 0.081580356
-0.30105802 -0.13724893 0.15990151 -0.061910883 0.015256499 0.18468212 0.13846165 0.11823701
-0.05286451 -0.31422526 0.015219425 -0.19172476 0.2186386 -0.04418451 0.105799064 -0.20766856
-0.30078918 0.27230307 0.16332065 0.12608767 0.10929905 0.016308418 0.11501653 -0.21658199
-0.10744601 0.1348755 -0.07974196 0.23901795 -0.16051526 0.015498814 0.21100809 -0.33465704
0.009770935 0.18795998 -0.043578263 0.2573362 -0.11762782 0.007984703 -0.33569247 -0.1485925
-0.09149629 -0.08687059 -0.40254775 0.28074574 -0.21181652 0.40038115 0.035108287 0.21209623
0.02211599 -0.32829025 -0.43054894 0.12228512 -0.059813615 -0.115485474 -0.015873961 -0.38573107
-0.016630376 -0.11362107 -0.091448 -0.037311755 -0.4590106 -0.06141539 -0.25842053 0.23851123
-0.04152982 -0.15352783 -0.64836204 -0.448636 -0.12079377 -0.6764747 -0.43009937 -0.49294543
0.645433 -0.29790536 -0.47641876 -0.11658477 -0.1659898 -0.23152009 0.48651645 0.053875815
0.06681908 -0.25181064 -0.096379295 0.10800253 0.122259006 -0.05286729 -0.17532831 -0.02270599
0.109203845 0.038703434 0.061054446 0.041591555 -0.046246957 -0.054280616 0.00964814 0.07755771
0.13346969 -0.010042602 -0.08035738 -0.0007598826 0.22865094 -0.066824704 0.039660886 -0.257836
-0.01069017 0.05732679 -0.23561008 0.01529356 -0.0720526 0.07277855 0.064019635 0.074306935
-0.07706159 -0.06436649 -0.059114438 -0.16530155 0.17401777 0.26395196 0.38367712 0.21767567
0.0038473036 -0.09976571 0.33368275 -0.0696151 0.14492516 0.012703358 -0.03533562 0.083716966
-0.11182862 -0.08662084 0.089083865 0.017128939 -0.19627687 -0.10458302 0.35968217 0.11089295
0.18795925 0.042409945 0.09986486 0.25154737 0.43586367 -0.1604464 -0.12643215 0.086725585
0.03572865 -0.05980168 0.124526605 -0.04994562 -0.1968507 -0.11570088 -0.07000598 0.009049839
0.004895162 0.24175902 -0.28348935 0.11118368 -0.08898696 -0.10258676 0.10527431 0.100016594
-0.07229541 -0.35022545 -0.32794714 -0.028898329 -0.06845673 -0.29741347 -0.1658932 0.045590267
0.1078518 0.14246018 0.006286579 0.2495065 0.28081784 0.0407232 0.119111076 0.25951827
0.7327845 -0.017865075 -0.2862519 -0.22026908 0.24691269 0.69527 -0.12794174 0.11525061
-0.4209175 -0.27304718 -0.25087166 -0.058116723 -0.17405748 -0.0026755824 0.25295508 -0.31435457
0.08075688 0.10126101 0.36005193 -0.16888216 -0.33660108 -0.5576386 -0.46997222 0.0587677
-0.16534026 -0.26438507 -0.007819296 -0.1840587 0.046779312 0.04649262 -0.11729248 -0.2415308
0.10284408 -0.02372281 -0.11543844 -0.078749515 0.0515895 -0.03864886 -0.010340054 -0.07546202
00000000: 244f 95bb d446 693e 56c3 353d 18cd bbbd
00000010: 397b 21be 6799 8c3c 4ab9 993d 01e7 173e
00000020: fbd5 493e 49fd 60be 3385 933e 43b4 cebd
00000030: 7d3c 37bb ae4e d63d 4712 d7bb 0704 cd3d
00000040: 0f20 ddbd 499e 613e 9ab7 433e 47c2 fbbc
00000050: 63c2 90bd aa72 21be cfed b4bc ba2d 6dbe
00000060: aebd 013d ed13 13bd 095e c9bd c5b9 5e3e
00000070: a19e 3a3e a8df 0cbe 997a a93e 1db4 3abe
00000080: 4cbf 80bd 77cc 47be e565 013e e5c7 27bc
00000090: aaec 1ebe b7c4 663e b689 183e 9a13 a73d
000000a0: 4724 9abe fc8a 0cbe 39bd 233e 4496 7dbd
000000b0: 65f6 793c 4f1d 3d3e e4c8 0d3e 3f26 f23d
000000c0: 7588 58bd 22e2 a0be e55a 793c 7f53 44be
000000d0: cce2 5f3e d1fa 34bd 2ead d83d 11a7 54be
000000e0: 0a01 9abe 4f6b 8b3e 873d 273e 201d 013e
000000f0: 2ed8 df3d 3b99 853c c98d eb3d abc7 5dbe
00000100: a70c dcbd ce1c 0a3e c14f a3bd 1fc1 743e
00000110: 1d5e 24be bdee 7d3c 8112 583e 2b58 abbe
00000120: 4616 203c 9578 403e 1f7f 32bd 92c1 833e
00000130: dbe6 f0bd 46d2 023c e2df abbe a228 18be
00000140: 6862 bbbd 35e9 b1bd bd1a cebe e8bd 8f3e
00000150: 6ee6 58be c2fe cc3e b5cd 0f3d c12f 593e
00000160: 982c b53c a915 a8be e970 dcbe 9f70 fa3d
00000170: 1fff 74bd a683 ecbd 1c0a 82bc 8b7e c5be
00000180: 6d3c 88bc 2ab2 e8bd 1749 bbbd 36d4 18bd
00000190: 7003 ebbe b48e 7bbd b24f 84be 4a3c 743e
000001a0: 2c1b 2abd 6636 1dbe 0efb 25bf 9eb3 e5be
000001b0: b962 f7bd 722d 2dbf fc35 dcbe 5863 fcbe
000001c0: 193b 253f 0d87 98be 29ed f3be ffc3 eebd
000001d0: 3bf9 29be 9a13 6dbe af18 f93e e3ac 5c3d
000001e0: 71d8 883d 53ed 80be 8262 c5bd 6e30 dd3d
000001f0: ee62 fa3d 5f8b 58bd 4489 33be ea01 babc
00000200: 44a6 df3d 7e87 1e3d 3a14 7a3d e85b 2a3d
00000210: 736d 3dbd 5a55 5ebd 3b13 1e3c 94d6 9e3d
00000220: 47ac 083e ba89 24bc 6992 a4bd dc32 47ba
00000230: 7923 6a3e 64db 88bd 7473 223d 1503 84be
00000240: d325 2fbc 7fcf 6a3d c543 71be d791 7a3c
00000250: 5090 93bd ec0c 953d ba1c 833d 3c2e 983d
00000260: 78d2 9dbd 94d2 83bd fb21 72bd cf44 29be
00000270: b731 323e b624 873e 5471 c43e 5fe6 5e3e
00000280: 0b23 7c3b f751 ccbd 77d8 aa3e 5d92 8ebd
00000290: 4367 143e bf21 503c 15bc 10bd cd73 ab3d
000002a0: 6706 e5bd 4466 b1bd 9a71 b63d fd51 8c3c
000002b0: cefc 48be 9f2f d6bd 4328 b83e d81b e33d
000002c0: 6478 403e 0db6 2d3d f385 cc3d d1ca 803e
000002d0: 8629 df3e 104c 24be 6e77 01be 2f9d b13d
000002e0: 3458 123d 9bf2 74bd ce07 ff3d c793 4cbd
000002f0: 3b93 49be 95f4 ecbd 4c5f 8fbd c745 143c
00000300: 9867 a03b ad8f 773e 8425 91be 45b4 e33d
00000310: cc3e b6bd 0219 d2bd 0f9a d73d 80d5 cc3d
00000320: 9e0f 94bd c050 b3be b0e8 a7be 30bc ecbc
00000330: 0b33 8cbd 9446 98be e8df 29be dcbc 3a3d
00000340: 68e1 dc3d 15e1 113e a6ff cd3b a27e 7f3e
00000350: 5bc7 8f3e 5fcd 263d 82f0 f33d 94df 843e
00000360: c497 3b3f c759 92bc 9c8f 92be 388e 61be
00000370: aed6 7c3e 37fd 313f 2903 03be 8308 ec3d
00000380: 8082 d7be d7cc 8bbe 4072 80be cd0b 6ebd
00000390: 203c 32be d358 2fbb 5483 813e 15f3 a0be
000003a0: dd63 a53d ef61 cf3d ba58 b83e 72ef 2cbe
000003b0: fa56 acbe 67c1 0ebf 33a0 f0be 66b6 703d
000003c0: f54e 29be 7b5d 87be 811c 00bc e279 3cbe
000003d0: aa9b 3f3d 0c6f 3e3d 0a37 f0bd da53 77be
000003e0: eb9f d23d 5756 c2bc fd6a ecbd 6d47 a1bd
000003f0: 834f 533d 444e 1ebd 5469 29bc d58b 9abd

lin1.bias f4 [200]
-0.11645774 0.1596704 -0.090295464 -0.38384652 0.007425305 -0.02380977 0.5595179 0.2511666
-0.36120346 0.3002279 -0.23767996 -0.15045848 0.34895644 -0.17351283 0.20396455 0.067653134
-0.08003835 -0.31221977 -0.24356854 0.09075293 -0.20664872 0.26965654 -0.018441884 -0.113376796
0.17648663 0.20228092 -0.13116318 0.11387097 0.26767 0.11328631 0.16641186 -0.27080047
0.15377456 0.3252822 0.2814561 0.14432985 0.2107852 -0.021330677 0.22400664 -0.29926372
-0.030376635 -0.11236053 -0.29679394 -0.0150262695 0.118944444 0.21802853 0.06639429 -0.17830521
0.34181225 0.46189892 -0.30916515 0.0013598058 -0.23107477 -0.18626812 0.26983213 -0.08249137
0.04873508 -0.07351724 0.008585937 0.24803677 0.030950753 0.0041341195 0.18533923 -0.15071021
0.17943628 0.27892342 0.27434322 0.18887782 0.20608744 -0.18173802 0.14267236 0.08667901
0.23250286 -0.16640855 -0.056619905 -0.14772257 0.06757649 0.059097305 0.44935256 -0.40087026
-0.12930539 -0.12980446 -0.038563315 -0.093075946 0.16738184 -0.22768126 0.20254992 -0.09026637
0.35108516 -0.1957704 -0.030850025 0.075916745 -0.10245738 -0.111790165 0.14420506 -0.18055263
-0.13151649 -0.124530494 -0.035573047 -0.3289824 0.04422047 0.32227772 -0.23002955 0.12379303
0.1980474 0.13767661 0.17842785 0.25524437 0.17474125 -0.051351108 0.18592153 0.014251859
-0.2465576 0.25237012 0.010144473 -0.030998224 0.11477517 -0.17337306 -0.13026257 0.11253764
0.08589413 -0.26760292 0.050483827 0.22660796 0.22416851 0.22966683 0.33650726 -0.0012055489
0.12712784 -0.0035201218 0.035336208 0.07857948 -0.12897058 -0.13245097 0.0044475803 -0.18953697
0.12372958 -0.28234085 0.17785615 0.2746092 0.11393309 0.11829038 -0.33395475 0.29800126
-0.2669099 0.20380157 -0.17001398 -0.12983236 0.10481164 -0.12275226 0.16465199 0.024396481
0.3325746 0.005081387 -0.29164016 -0.30920306 -0.08185868 0.17118664 0.43906304 0.111639716
-0.13356113 0.25174195 0.059408724 0.23823862 0.29628977 0.07730846 -0.31941128 0.17745057
-0.0068426346 -0.049700595 -0.11420198 -0.15923657 -0.14287366 -0.2984962 0.024717813 0.028042018
-0.11306399 -0.09713605 -0.27921405 0.34536722 -0.017908225 0.003743437 0.19103006 -0.48193732
-0.21423395 -0.02152061 -0.19123517 0.19452903 -0.061526056 -0.3247033 -0.0017318949 0.4020754
-0.35115078 -0.14945169 -0.22965373 0.08354716 0.1339375 -0.103991464 0.022762056 0.09183632
00000000: 6581 eebd a380 233e d4ec b8bd 8887 c4be
00000010: f94f f33b b50c c3bc 913c 0f3f e998 803e
00000020: a9ef b8be 79b7 993e 6062 73be ca11 1abe
00000030: 6baa b23e 59ad 31be 15dc 503e ba8d 8a3d
00000040: 25eb a3bd 45db 9fbe 086a 79be acdc b93d
00000050: b99b 53be 6c10 8a3e 6f13 97bc 1832 e8bd
00000060: e9b8 343e bb22 4f3e a44f 06be 2f35 e93d
00000070: 0b0c 893e a702 e83d df67 2a3e 5ca6 8abe
00000080: 1477 1d3e 638b a63e 041b 903e 34cb 133e
00000090: 13d8 573e acbd aebc ff61 653e 1839 99be
000000a0: 6cd8 f8bc 471d e6bd 60f5 97be be30 76bc
000000b0: 2599 f33d df42 5f3e bbf9 873d a495 36be
000000c0: 0402 af3e 047e ec3e e54a 9ebe 833b b23a
000000d0: dd9e 6cbe 12bd 3ebe 7027 8a3e 3cf1 a8bd
000000e0: 6f9e 473d 3590 96bd 08ac 0c3c 5afd 7d3e
000000f0: 6f8c fd3c 8277 873b 91c9 3d3e c753 1abe
00000100: 25be 373e 0dcf 8e3e b776 8c3e 3069 413e
00000110: 9608 533e 8819 3abe b418 123e c484 b13d
00000120: 3b15 6e3e 0167 2abe 46ea 67bd 9644 17be
00000130: 8b65 8a3d 0410 723d 8a11 e63e de3e cdbe
00000140: a268 04be 76eb 04be 91f4 1dbd 9a9e bebd
00000150: 2566 2b3e 4725 69be 3f69 4f3e 93dd b8bd
00000160: 6fc1 b33e 0978 48be 31b9 fcbc 3d7a 9b3d
00000170: 2dd5 d1bd 3ef2 e4bd 7eaa 133e cae2 38be
00000180: 42ac 06be d809 ffbd 0bb5 11bd 6270 a8be
00000190: 8620 353d 9601 a53e de8c 6bbe 3387 fd3d
000001a0: f0cc 4a3e 19fb 0c3e cab5 363e 64af 823e
000001b0: 5fef 323e 8a55 52bd 3762 3e3e a180 693c
000001c0: 9879 7cbe a836 813e 0135 263c fdef fdbc
000001d0: 3f0f eb3d b588 31be 8d63 05be 227a e63d
000001e0: 43e9 af3d 4003 89be 21c8 4e3d eb0b 683e
000001f0: 6e8c 653e c82d 6b3e ae4a ac3e 8203 9eba
00000200: cd2d 023e d8b1 66bb b3bc 103d 47ee a03d
00000210: dd10 04be 3aa1 07be 02bd 913b fb15 42be
00000220: ef65 fd3d fb8e 90be ec1f 363e 9499 8c3e
00000230: c055 e93d 3a42 f23d 1efc aabe 9f93 983e
00000240: 6aa8 88be 5cb1 503e 2518 2ebe c6f2 04be
00000250: 7ca7 d63d 8965 fbbd 889a 283e 21db c73c
00000260: 3847 aa3e c381 a63b dc51 95be dd4f 9ebe
00000270: 86a5 a7bd 8d4b 2f3e dfcc e03e 5da3 e43d
00000280: 40c4 08be 52e4 803e 9056 733d d3f4 733e
00000290: 4bb3 973e e653 9e3d e089 a3be 9ab5 353e
000002a0: 2e38 e0bb da92 4bbd bae2 e9bd e90e 23be
000002b0: 794d 12be 7ed4 98be 037d ca3c 60b8 e53c
000002c0: 188e e7bd 44ef c6bd 25f5 8ebe f9d3 b03e
000002d0: 45b4 92bc 7354 753b 629d 433e 7dc0 f6be
000002e0: 2560 5bbe fe4b b0bc 27d3 43be 9e32 473e
000002f0: bf02 7cbd 833f a6be c000 e3ba d4dc cd3e
00000300: 09ca b3be dd09 19be 592a 6bbe c61a ab3d
00000310: e926 093e 7af9 d4bd 7e77 ba3c ae14 bc3d

lin2.weight f4 [200, 200]
-0.1960181 -0.1003218 -0.029306775 0.02446137 -0.14656489 0.12098878 0.09653454 -0.023648074
0.21018142 -0.097780995 -0.12740175 0.2496758 0.19947833 0.05295421 -0.080585085 0.03955211
0.14414676 0.15907489 -0.2068176 -0.03228158 -0.09325827 -0.2025597 -0.05012619 -0.17134537
-0.11871305 0.038070843 -0.10964663 0.039069947 -0.082571015 0.16877797 -0.14562327 0.0153634045
-0.012722407 0.032730974 0.06606099 0.09748381 0.13160686 0.008802501 0.41716975 -0.031972505
0.31302878 0.24344239 0.12222888 0.17312168 -0.21935557 -0.036101837 -0.255484 0.111299716
-0.12403944 0.013369061 -0.07960367 0.06834852 0.07286112 0.2970397 0.06183563 -0.0016666478
-0.056286678 -0.3203867 0.046215612 -0.1524531 -0.12699583 -0.024311699 -0.05884778 0.23942982
0.14665876 -0.22583896 -0.17153332 -0.10603016 -0.31668243 0.030311402 -0.21604885 -0.075533666
-0.22571433 -0.09444775 -0.12010413 0.06500466 -0.026978346 0.039881207 0.15638135 -0.024952896
-0.026905721 0.065273225 -0.028666316 0.029334014 -0.12592304 -0.26897755 -0.12209674 -0.084224105
-0.0078690415 -0.03631189 0.079819836 -0.031862136 -0.10752753 -0.10876135 -0.1663768 -0.04237668
-0.016844543 0.10034739 -0.0073368717 -0.053842936 0.14762197 -0.014734041 0.08917147 -0.21857163
0.064463004 0.24833089 -0.22289668 0.12822892 0.08652782 -0.14636025 0.18909723 -0.18656483
-0.24554515 -0.02506689 0.17933466 0.16768599 -0.035420418 -0.0651458 0.047316473 0.1506731
-0.21875507 -0.12047752 -0.076041594 -0.009818725 -0.16588593 -0.036292545 -0.18312594 -0.07552462
0.06016727 0.14750446 -0.050219785 -0.031695295 -0.13394205 0.09153837 -0.06648098 0.068058535
-0.13867857 -0.04354908 -0.36583105 -0.10292653 -0.14051081 0.00044987726 0.1090493 0.029021915
-0.047213774 0.10250974 0.087818794 0.048815873 -0.12257286 -0.04546471 -0.036189847 0.13584913
-0.12322304 -0.020209653 -0.058749683 -0.24234258 -0.028846808 0.14584239 0.17306364 0.07685183
-0.18447866 -0.02238216 0.1608859 -0.08888135 -0.08096854 -0.15807149 0.12392271 -0.21130265
-0.09312198 -0.013550323 0.16481557 -0.14899011 -0.12243184 0.26864973 -0.095484965 0.06619233
0.060362343 0.17882363 0.21528532 -0.14547995 0.2550738 0.21915065 -0.05520808 -0.070377864
-0.023929982 -0.042193446 0.21809763 0.03259814 0.12804739 -0.030230936 0.1985183 -0.036201376
0.02485995 0.07556878 0.05365021 -0.065528385 -0.08335923 -0.06376919 -0.045454163 -0.15407483
0.3176452 0.24092321 0.10672767 -0.19720054 -0.17574358 0.13258824 -0.012321998 -0.050659075
-0.03892977 0.030591033 0.18743102 0.13319124 -0.05995411 -0.03493151 0.06446863 0.10862075
-0.088258505 0.080098346 0.12536365 -0.15718298 0.16787681 0.049680337 -0.1903015 -0.061272036
0.29905105 0.061496187 0.11757463 -0.017761497 0.19053139 0.04448209 -0.315673 0.00168816
0.07988885 0.079512775 -0.12451617 0.010206467 -0.03447266 -0.03721857 -0.03562913 -0.12717992
0.0023078052 -0.10630106 -0.08215643 -0.251656 -0.046785288 0.15750769 -0.08641206 -0.116853
0.11773911 -0.10373348 -0.18220776 -0.1907257 -0.02346722 0.07491991 -0.010644203 -0.03784569
00000000: f8b8 48be 8475 cdbd c314 f0bc 3663 c83c
00000010: 1b15 16be f7c8 f73d e7b3 c53d 9bb9 c1bc
00000020: cc39 573e 6741 c8bd 9b75 02be 03ab 7f3e
00000030: 0c44 4c3e 84e6 583d cb09 a5bd 6501 223d
00000040: 359b 133e 87e4 223e fec7 53be b139 04bd
00000050: 31fe bebd cf6b 4fbe 1f51 4dbd 2975 2fbe
00000060: d41f f3bd 2cf0 1b3d 6a8e e0bd cf07 203d
00000070: fe1a a9bd 22d4 2c3e 441e 15be cab6 7b3c
00000080: a471 50bc ea10 063d fc4a 873d 97a5 c73d
00000090: f3c3 063e 5d38 103c 4697 d53e 9af5 02bd
000000a0: 4f45 a03e f648 793e 2353 fa3d cf46 313e
000000b0: bf9e 60be 85df 13bd cdce 82be 1bf1 e33d
000000c0: 6408 febd e809 5b3c 4007 a3bd 4ffa 8b3d
000000d0: 3638 953d 9615 983e 5c47 7d3d 6c73 daba
000000e0: dc8c 66bd ba09 a4be 954c 3d3d aa1c 1cbe
000000f0: 320b 02be 5429 c7bc 5f0a 71bd 172d 753e
00000100: b72d 163e 5442 67be 6ea6 2fbe 5726 d9bd
00000110: 3324 a2be 9e4f f83c e93b 5dbe 65b1 9abd
00000120: a821 67be d26d c1bd 27f9 f5bd 2a21 853d
00000130: b101 ddbc 7a5a 233d 6f22 203e 046a ccbc
00000140: 6369 dcbc f8ad 853d 9fd5 eabc e34d f03c
00000150: f8f1 00be 6db7 89be db0d fabd b07d acbd
00000160: 27ed 00bc c7bb 14bd 9578 a33d df81 02bd
00000170: 6537 dcbd 45be debd ae5e 2abe 2b93 2dbd
00000180: 91fd 89bc ef82 cd3d 246a f0bb 698a 5cbd
00000190: 372a 173e 0c67 71bc 889f b63d 3ed1 5fbe
000001a0: 2e05 843d 744a 7e3e 073f 64be 714e 033e
000001b0: 7f35 b13d 76df 15be b4a2 413e da0a 3fbe
000001c0: 3070 7bbe 1459 cdbc 81a3 373e e0b5 2b3e
000001d0: 0015 11bd 296b 85bd ebce 413d 0d4a 1a3e
000001e0: 5401 60be ebbc f6bd b2bb 9bbd b8de 20bc
000001f0: 00de 29be 7ea7 14bd 5e85 3bbe a7ac 9abd
00000200: f571 763d 690b 173e 43b3 4dbd edd2 01bd
00000210: 1b28 09be 7878 bb3d 2e27 88bd 4662 8b3d
00000220: c101 0ebe 8560 32bd 354e bbbe 25cb d2bd
00000230: 11e2 0fbe 81dd eb39 3d55 df3d 5ebf ed3c
00000240: 3b63 41bd a0f0 d13d 57da b33d 27f3 473d
00000250: 7b07 fbbd 3439 3abd ce3b 14bd 091c 0b3e
00000260: 5c5c fcbd b78e a5bc 82a3 70bd a728 78be
00000270: 2450 ecbc b557 153e 9837 313e 7e64 9d3d
00000280: f9e7 3cbe cb5a b7bc 46bf 243e 6d07 b6bd
00000290: d5d2 a5bd 7edd 21be 31cb fd3d b95f 58be
000002a0: bdb6 bebd 2d02 5ebc 6ac5 283e dd90 18be
000002b0: 8bbd fabd 758c 893e 9f8d c3bd d88f 873d
000002c0: 813e 773d 8b1d 373e c173 5c3e b2f8 14be
000002d0: 0899 823e 0769 603e de21 62bd 4522 90bd
000002e0: cf08 c4bc 09d3 2cbd fc54 5f3e a185 053d
000002f0: db1e 033e dea6 f7bc 6248 4b3e e547 14bd
00000300: 18a7 cb3c cec3 9a3d 53c0 5b3d bf33 86bd
00000310: 3eb8 aabd 6c99 82bd 252e 3abd cbc5 1dbe
00000320: 64a2 a23e 93b4 763e 0994 da3d f0ee 49be
00000330: 20f6 33be 36c5 073e 35e2 49bc e47f 4fbd
00000340: d374 1fbd 0c9a fa3c ebed 3f3e 4963 083e
00000350: 7192 75bd 5814 0fbd 2108 843d 8e74 de3d
00000360: e0c0 b4bd 9a0a a43d 545f 003e 93f4 20be
00000370: e6e7 2b3e 9c7d 4b3d 65de 42be 63f8 7abd
00000380: 381d 993e 6de3 7b3d f8ca f03d 8f80 91bc
00000390: a91a 433e da32 363d e49f a1be 4045 dd3a
000003a0: c49c a33d 98d7 a23d 5502 ffbd 0639 273c
000003b0: 3433 0dbd 8072 18bd daef 11bd 743b 02be
000003c0: 8c3e 173b 5fb4 d9bd a141 a8bd 0ed9 80be
000003d0: eea1 3fbd b249 213e cef8 b0bd a050 efbd
000003e0: 3421 f13d 3872 d4bd ac94 3abe 994d 43be
000003f0: 543e c0bc 9c6f 993d 0665 2ebc 1504 1bbd

lin2.bias f4 [200]
-0.37084872 0.07424384 0.1328305 0.28531474 0.2563931 0.23501363 -0.34848127 0.04354726
0.2077448 -0.012810732 0.118184224 0.41794693 -0.08920911 0.1911782 -0.08089999 -0.029420191
0.2727238 -0.31965286 0.14742367 0.19440183 -0.13522074 0.18765008 -0.21339135 -0.057407673
0.22173034 0.25009272 -0.504779 -0.0699396 0.5820179 0.08680075 -0.18139538 0.11850037
0.25736433 0.27821022 0.24896823 0.044046752 -0.12044119 -0.24580322 0.05005707 -0.10055008
0.17027278 -0.2598221 0.022064772 -0.13785727 -0.14623398 0.12356409 -0.22377087 -0.24594559
-0.06100172 -0.1714501 0.15559196 -0.25974408 -0.1871326 0.18858665 0.32967684 0.14419991
0.26584134 0.27713683 -0.25598198 -0.15928684 -0.045296784 -0.18701637 0.33099008 0.1443975
-0.28693914 0.20752224 0.20405926 0.38128784 0.10107679 0.16552459 -0.08597849 0.31578735
-0.29703504 0.26590857 -0.16424786 0.009715879 -0.12472507 0.21244957 -0.15865223 -0.08939141
-0.035321172 -0.20907092 0.32195258 0.32763928 0.009082842 -0.1629392 0.12385752 -0.10869578
0.1319885 0.09267768 0.24153745 -0.08606293 0.008194226 0.01792699 0.24862121 -0.10152258
-0.30194718 0.0774851 -0.045704134 0.32619518 -0.31724334 0.14504127 -0.21604379 -0.16926557
-0.28728646 -0.19122504 -0.022259392 -0.24681449 -0.005814273 0.33514708 0.2682367 0.36728328
0.0903435 -0.09424403 -0.023135794 -0.010504477 0.10623077 0.030381255 0.049016412 -0.042149313
0.15389897 -0.29142034 0.07340681 -0.21134713 0.15917349 -0.10770727 0.04545833 0.05189279
-0.34839943 0.39509034 0.20633909 -0.22577086 0.30795294 0.13955896 0.14263645 -0.16524443
0.005868291 -0.3114494 -0.04822688 0.23502944 0.111148275 0.12406073 -0.18090333 0.1786344
0.1833398 0.07850488 0.20185992 -0.2050058 0.07320494 -0.015224121 0.23738207 0.17092305
-0.23707458 0.0027576194 0.15522283 -0.2606418 0.1655367 -0.21687767 -0.02306053 -0.13470872
-0.18877663 -0.11942635 0.13169524 -0.2716755 0.11868133 -0.08105321 0.3102419 0.08434405
-0.27923104 0.037581164 -0.23714575 -0.038574982 0.0075804116 0.17999528 0.12103276 0.14415894
-0.06956401 0.04733766 -0.17406073 0.05713595 -0.16456644 -0.05031628 0.11635997 -0.035467032
-0.06587077 0.023293946 -0.086292714 -0.17696111 0.047905423 0.30664843 -0.010039927 0.2881116
0.09111421 -0.24377973 -0.19177629 0.09862836 -0.0079973 0.14683618 0.1118096 -0.17108475
00000000: e2df bdbe 280d 983d b804 083e c614 923e
00000010: f545 833e 6aa7 703e 236c b2be 9d5e 323d
00000020: 0ebb 543e 1be4 51bc 920a f23d 24fd d53e
00000030: 44b3 b6bd 38c4 433e e5ae a5bd 9d02 f1bc
00000040: 74a2 8b3e 8aa9 a3be 3bf6 163e 4611 473e
00000050: 4e77 0abe 5827 403e 4383 5abe 4f24 6bbd
00000060: 470d 633e 270c 803e 3239 01bf 7e3c 8fbd
00000070: 20ff 143f 97c4 b13d b6bf 39be 52b0 f23d
00000080: 42c5 833e 9271 8e3e 87f1 7e3e 5e6a 343d
00000090: dfa9 f6bd d7b3 7bbe a408 4d3d 33ed cdbd
000000a0: fd5b 2e3e 6707 85be 2ec1 b43c 752a 0dbe
000000b0: 5cbe 15be 2b0f fd3d 3124 65be 29d9 7bbe
000000c0: f1dc 79bd 9d90 2fbe 8053 1f3e 2dfd 84be
000000d0: b09f 3fbe dc1c 413e 67cb a83e 24a9 133e
000000e0: 5b1c 883e e1e4 8d3e 1210 83be 171c 23be
000000f0: 1f89 39bd 3881 3fbe 8877 a93e f0dc 133e
00000100: b0e9 92be b680 543e e9f4 503e 2938 c33e
00000110: 5901 cf3d 477f 293e 7e15 b0bd e1ae a13e
00000120: fa14 98be 2b25 883e 9730 28be 5a2f 1f3c
00000130: dc6f ffbd 618c 593e bb75 22be d812 b7bd
00000140: efac 10bd b016 56be f8d6 a43e 56c0 a73e
00000150: 33d0 143c 89d9 26be 03a9 fd3d e59b debd
00000160: fe27 073e cccd bd3d 9855 773e c341 b0bd
00000170: 1341 063c 9fdb 923c 8f96 7e3e 12eb cfbd
00000180: d298 9abe 82b0 9e3d 4234 3bbd 0e03 a73e
00000190: b86d a2be b385 143e 953a 5dbe f453 2dbe
000001a0: 3617 93be 7fd0 43be 5459 b6bc f0bc 7cbe
000001b0: a885 bebb 6698 ab3e 5256 893e 8e0c bc3e
000001c0: 0306 b93d 0403 c1bd 4787 bdbc f81a 2cbc
000001d0: 858f d93d 1ce2 f83c 6fc5 483d c2a4 2cbd
000001e0: b197 1d3e 0c35 95be 4f56 963d 626b 58be
000001f0: 60fe 223e a195 dcbd 8432 3a3d 898d 543d
00000200: 6961 b2be 4849 ca3e 8e4a 533e 7a30 67be
00000210: 02ac 9d3e 8be8 0e3e 4a0f 123e d635 29be
00000220: cb4a c03b 4c76 9fbe 8d89 45bd 8fab 703e
00000230: b5a1 e33d 8d13 fe3d b93e 39be f0eb 363e
00000240: 6ebd 3b3e 2bc7 a03d 5eb4 4e3e 0aed 51be
00000250: 79ec 953d 976e 79bc 4914 733e 7406 2f3e
00000260: aec3 72be 2db9 343b bcf2 1e3e d872 85be
00000270: 7482 293e 2e15 5ebe 70e9 bcbc 15f1 09be
00000280: a94e 41be cd95 f4bd 1edb 063e 0d19 8bbe
00000290: 320f f33d 3aff a5bd 07d8 9e3e 93bc ac3d
000002a0: 5ff7 8ebe b5ee 193d 56d6 72be cd00 1ebd
000002b0: 1a65 f83b af50 383e 06e0 f73d 679e 133e
000002c0: 9377 8ebd 22e5 413d fa3c 32be 6307 6a3d
000002d0: 1b84 28be 7218 4ebd 234e ee3d e145 11bd
000002e0: 41e7 86bd f2d2 be3c 3cba b0bd 4b35 35be
000002f0: 7a38 443d 0601 9d3e 827e 24bc 5d83 933e
00000300: 169a ba3d 65a1 79be 0161 44be aafd c93d
00000310: 1b07 03bc 395c 163e 6efc e43d d730 2fbe

lin3.weight f4 [200, 200]
0.2802168 -0.23556335 -0.1997579 0.027049413 0.07015874 -0.16556384 0.1941992 0.24675779
0.1465102 -0.15536663 -0.3919831 -0.07598618 -0.006800132 0.0046038204 -0.15893479 0.21289933
-0.027060905 0.06598734 -0.54689854 -0.18380524 -0.044350013 0.24040009 0.21404532 0.036045857
-0.042608894 -0.2610148 -0.06397826 0.027181135 0.083138674 -0.06280526 0.035395052 -0.059846688
-0.37801036 -0.053437572 0.48072445 -0.2196142 -0.12453332 0.067353696 0.1460598 -0.07471784
-0.02610021 -0.0018583023 0.3512047 0.06775291 -0.15289976 -0.21736789 -0.19326667 -0.036870424
0.23251174 -0.014165648 -0.19144839 -0.15939689 0.13493799 -0.33434334 -0.32207492 -0.009474612
-0.07157351 0.1424323 -0.077858366 -0.2598326 0.15269494 -0.1524598 -0.17664562 -0.09361715
0.070000276 0.11830975 -0.080045134 -0.024979483 -0.18241823 0.03585913 0.06206745 -0.0034629703
0.09453003 -0.073657125 -0.10300585 -0.03906103 -0.0039006546 -0.29612702 -0.23672895 0.16324879
0.14985043 0.06544267 -0.18015677 0.06273107 -0.12560411 0.2994363 -0.11561068 0.03986462
0.05913474 0.27454865 0.14752914 -0.09386355 0.4633394 0.16154984 0.12207376 0.50414777
-0.009626363 -0.35067576 0.031286523 -0.14295307 0.35155308 -0.1407808 -0.3896287 0.18354462
0.1125905 0.16807799 0.029067742 -0.070860095 0.06859627 0.1015993 0.027332393 -0.2664985
0.23461345 0.17265636 -0.027173938 -0.022805784 0.3212566 -0.24648096 -0.07456599 0.020134427
-0.513793 -0.036307883 0.1351361 0.07614119 0.15446588 0.13504246 -0.038154393 -0.09710502
-0.054297023 -0.06800146 0.10246309 -0.06667141 -0.05810953 0.002560945 0.09976483 0.034099136
-0.2178762 -0.17939335 0.023016334 -0.059341945 0.061548598 -0.104835525 0.1361969 0.028687231
0.058876354 0.12153146 -0.08723855 0.044028156 0.23823613 0.02560884 -0.06626675 0.09648166
0.26768282 0.013858894 0.20536873 0.1749361 -0.16138786 -0.033677217 0.18773921 0.30076617
-0.14590211 0.17834827 -0.27834398 0.028619442 0.05633958 -0.03553036 -0.10853834 0.0771466
0.013632407 0.08182622 0.024282765 0.13901407 -0.34158072 0.07270132 -0.32747388 -0.078727864
-0.12361159 -0.30439323 0.018668331 0.30022705 -0.049787093 -0.39385033 -0.1285048 0.25125563
-0.04021391 0.060408045 -0.25083354 -0.10296814 0.22798352 0.1703218 0.021740206 -0.1624518
-0.09355526 -0.05390162 -0.08645579 -0.056733582 0.007052465 -0.24997799 0.078347445 -0.06698602
0.0027005703 -0.06340334 0.23158641 0.008407866 0.14259599 -0.36233538 -0.0009593894 0.02484604
-0.0012920352 -0.30738145 -0.012515113 -0.3642554 0.07330916 0.28458813 0.2999933 0.19736202
0.20652027 0.4052541 -0.07080628 -0.18474115 0.1314298 -0.1442371 0.20554192 0.24468601
-0.25365615 0.0036419753 0.10822279 0.29867482 0.18548627 0.23649974 0.13089584 -0.19195756
-0.0892574 -0.18468691 0.13768138 0.08165591 -0.27794608 -0.114435725 0.088114485 -0.25260323
-0.17960243 0.37709215 -0.004204662 0.15436569 0.10289523 -0.24235679 0.09832177 0.2008175
-0.17274316 -0.060291845 0.10076718 -0.122433886 0.057139914 -0.28763485 -0.083923034 0.3652773
00000000: 9478 8f3e 8537 71be 568d 4cbe bb96 dd3c
00000010: 63af 8f3d 9189 29be 28dc 463e 13ae 7c3e
00000020: c506 163e 6e18 1fbe 02b2 c8be a49e 9bbd
00000030: a4d3 debb a5db 963b cdbf 22be 4802 5a3e
00000040: d5ae ddbc 5f24 873d 8b01 0cbf 7137 3cbe
00000050: 5ca8 35bd 712b 763e b22e 5b3e d2a4 133d
00000060: aa86 2ebd bba3 85be 0907 83bd f9aa de3c
00000070: 9c44 aa3d 0ba0 80bd 67fa 103d cd21 75bd
00000080: 938a c1be 5be1 5abd 8421 f63e 8be2 60be
00000090: 530b ffbd bcf0 893d b390 153e ab05 99bd
000000a0: 1cd0 d5bc 4792 f3ba 1ad1 b33e 0ac2 8a3d
000000b0: c191 1cbe b095 5ebe b3e7 45be 7105 17bd
000000c0: 8f17 6e3e 0917 68bc 0c0b 44be f038 23be
000000d0: 2f2d 0a3e 0d2f abbe 01e7 a4be 673b 1bbc
000000e0: 2295 92bd c6d9 113e 3574 9fbd c708 85be
000000f0: 105c 1c3e 6c1e 1cbe 97e2 34be 59ba bfbd
00000100: 4e5c 8f3d 624c f23d b4ee a3bd c6a1 ccbc
00000110: d8cb 3abe 06e1 123d 703a 7e3d 00f3 62bb
00000120: f698 c13d 8cd9 96bd bbf4 d2bd 75fe 1fbd
00000130: 20a2 7fbb f69d 97be 1369 72be b12a 273e
00000140: 6472 193e ce06 863d 047b 38be 2679 803d
00000150: 5d9e 00be b74f 993e 4bc5 ecbd 1549 233d
00000160: 4537 723d a491 8c3e e111 173e 883b c0bd
00000170: d23a ed3e 526d 253e cf01 fa3d d40f 013f
00000180: e5b7 1dbc c68b b3be 4c26 003d 4a62 12be
00000190: c4fe b33e d828 10be 6a7d c7be 1ff3 3b3e
000001a0: d995 e63d a31c 2c3e 791f ee3c 191f 91bd
000001b0: 347c 8c3d 4b13 d03d 2fe8 df3c 7e72 88be
000001c0: 823e 703e d4cc 303e e19b debc 32d3 babc
000001d0: bf7b a43e 8165 7cbe 0eb6 98bd f4f0 a43c
000001e0: f087 03bf 93b7 14bd 1e61 0a3e eaef 9b3d
000001f0: 4e2c 1e3e 9248 0a3e c847 1cbd ffde c6bd
00000200: 8e66 5ebd 5944 8bbd 2bd8 d13d 058b 88bd
00000210: 4204 6ebd 87d5 273b 8151 cc3d 89ab 0b3d
00000220: f01a 5fbe e4b2 37be c08c bc3c 8a10 73bd
00000230: 621a 7c3d 02b4 d6bd 3377 0b3e 7c01 eb3c
00000240: 5528 713d 7ce5 f83d 20aa b2bd de56 343d
00000250: 2cf4 733e a1c9 d13c ddb6 87bd 2d98 c53d
00000260: b90d 893e 6a10 633c 2e4c 523e 7322 333e
00000270: dc42 25be 1ff1 09bd b53e 403e 06fe 993e
00000280: 5d67 15be eea0 363e 1a83 8ebe 5273 ea3c
00000290: 55c4 663d 4888 11bd 5949 debd 09ff 9d3d
000002a0: 765a 5f3c 8194 a73d a6ec c63c b459 0e3e
000002b0: abe3 aebe 6ee4 943d a8aa a7be 133c a1bd
000002c0: 1328 fdbd 6ed9 9bbe 54ee 983c 5cb7 993e
000002d0: 8ded 4bbd c0a6 c9be c396 03be 94a4 803e
000002e0: 57b7 24bd 6d6e 773d 416d 80be f6e0 d2bd
000002f0: 8374 693e d768 2e3e 8418 b23c c459 26be
00000300: e699 bfbd f2c7 5cbd bc0f b1bd 7961 68bd
00000310: 5d18 e73b 3bfa 7fbe a074 a03d f72f 89bd
00000320: 0dfc 303b 9cd9 81bd fd24 6d3e 25c1 093c
00000330: af04 123e 0684 b9be 887f 7bba ec89 cb3c
00000340: 8259 a9ba 1a61 9dbe 300c 4dbc af7f babe
00000350: 1d23 963d 89b5 913e b998 993e 4519 4a3e
00000360: 0d7a 533e 777d cf3e e202 91bd c92c 3dbe
00000370: 8995 063e e4b2 13be 9579 523e f88e 7a3e
00000380: 38df 81be 35ae 6e3b e9a3 dd3d e8eb 983e
00000390: 1df0 3d3e fd2c 723e 8f09 063e 8690 44be
000003a0: 95cc b6bd 911e 3dbe 59fc 0c3e 373b a73d
000003b0: f34e 8ebe 475d eabd 5e75 b43d 3655 81be
000003c0: b3e9 37be 3912 c13e 43c7 89bb 0a12 1e3e
000003d0: bcba d23d 612c 78be ed5c c93d 1aa3 4d3e
000003e0: 95e3 30be 95f4 76bd 065f ce3d 9ebe fabd
000003f0: 8b0b 6a3d e044 93be d7df abbd a005 bb3e

lin3.bias f4 [200]
-0.17111552 -0.1634596 -0.11144591 0.23008065 -0.29415938 -0.111453794 -0.08231735 -0.21068835
0.12012887 -0.17436978 0.11170185 0.2746238 0.33131012 0.058219053 0.20184086 0.19633023
-0.18998241 -0.15277028 0.2231579 0.51569265 -0.33157012 -0.34998906 0.28180483 0.15280087
0.09498062 -0.06525852 0.071084596 0.039442893 0.250473 0.025550794 0.03007411 -0.25875497
-0.37645066 0.07915868 0.52792454 0.09213614 0.25507942 -0.20194887 0.06347549 -0.11834099
0.15290573 -0.19974911 -0.19910799 -0.3177818 -0.23437344 -0.20564687 0.13282368 -0.3185164
0.22745126 0.22354892 -0.36739635 0.110705934 0.42991933 0.24146436 -0.22264405 -0.027492976
0.4048604 0.2647149 -0.1524669 -0.20776047 0.3404809 -0.23830317 0.23145913 0.13684505
-0.05294193 0.40775797 -0.3014292 0.44912007 0.23772137 0.14013693 -0.17331289 0.10467165
-0.060046315 -0.15330851 -0.30137727 0.43470564 -0.13711455 -0.25035232 0.5018181 0.09951043
0.13274324 0.2699695 -0.3490541 -0.08067927 -0.19930401 -0.24534495 0.12786831 -0.18502651
-0.08892243 0.32599154 0.40706578 -0.34212932 -0.2074539 0.13870847 0.3517441 0.21214941
-0.23149034 -0.15489608 -0.050200425 0.47485277 -0.35821068 0.27490813 -0.17922248 0.021513455
-0.19523138 0.48116654 0.12027867 -0.08138797 -0.11108847 -0.19795857 0.29520467 0.12079281
0.1901592 -0.44941574 0.18657078 0.15953341 -0.0012596245 -0.016671872 -0.11819535 0.37839097
0.1419593 -0.007244758 -0.30790707 -0.09959895 0.10283407 -0.34113473 -0.4745965 -0.108073324
-0.14523105 0.31079257 0.33704713 -0.6196879 -0.10708046 0.21408416 -0.26412916 0.84940726
0.292001 -0.14291367 -0.36810994 0.12963058 0.3777299 -0.14840019 0.1353786 0.19557023
0.5124194 0.17378078 -0.051691275 0.33959174 0.106960945 0.42269436 0.25743634 -0.5620918
-0.25004312 0.46055096 -0.028787073 0.19068827 -0.09449323 -0.09590531 -0.12546231 -0.33285215
0.098982416 0.032251507 0.3959592 0.18025143 -0.4238467 -0.1448394 -0.008434755 0.19881229
0.086965464 0.060938094 0.059544124 -0.08607353 0.0917001 -0.09618005 0.4676135 -0.28688967
0.19545719 0.24479373 0.15980802 -0.39063326 0.0017288734 -0.14184079 0.03363902 -0.23924027
0.22643967 0.07865045 -0.018747538 0.3400217 -0.24100332 -0.33707836 -0.05821449 -0.24470848
0.2717336 -0.12727141 -0.1948633 -0.21001734 -0.15896808 -0.039159544 -0.06615327 0.32115105
00000000: e838 2fbe f461 27be c13d e4bd 439a 6b3e
00000010: 0f9c 96be e341 e4bd 0096 a8bd b0be 57be
00000020: 2006 f63d fe8d 32be f1c3 e43d 7e9b 8c3e
00000030: 7ba1 a93e 1a77 6e3d 5faf 4e3e cb0a 493e
00000040: c08a 42be d06f 1cbe 8183 643e 6f04 043f
00000050: 8fc3 a9be c431 b3be b948 903e d577 1c3e
00000060: 3385 c23d 42a6 85bd cd94 913d df8e 213d
00000070: ff3d 803e e64f d13c fb5d f63c 887b 84be
00000080: 24be c0be f21d a23d 1026 073f dfb1 bc3d
00000090: c599 823e afcb 4ebe 70ff 813d c35c f2bd
000000a0: 5293 1c3e 088b 4cbe f7e2 4bbe 4cb4 a2be
000000b0: 97ff 6fbe 1895 52be ee02 083e 9514 a3be
000000c0: fce8 683e 02ea 643e 601b bcbe cbb9 e23d
000000d0: 631e dc3e 6f42 773e cdfc 63be f338 e1bc
000000e0: dd49 cf3e b688 873e 4820 1cbe 29bf 54be
000000f0: 8353 ae3e bf05 74be 9f03 6d3e 1c21 0c3e
00000100: a3d9 58bd a7c5 d03e ee54 9abe 11f3 e53e
00000110: 3b6d 733e 0e80 0f3e ef78 31be 175e d63d
00000120: 20f3 75bd e8fc 1cbe 1f4e 9abe bd91 de3e
00000130: c267 0cbe 2e2e 80be 2777 003f 20cc cb3d
00000140: d8ed 073e 7139 8a3e 38b7 b2be 2c3b a5bd
00000150: 5a16 4cbe b53b 7bbe e9ef 023e 9777 3dbe
00000160: f71c b6bd 5de8 a63e ed6a d03e 932b afbe
00000170: cc6e 54be 9809 0e3e cd17 b43e b23d 593e
00000180: ce0b 6dbe 149d 1ebe f69e 4dbd e71f f33e
00000190: 6467 b7be c2c0 8c3e 1986 37be fc3c b03c
000001a0: bcea 47be 765b f63e aa54 f63d bcae a6bd
000001b0: 5a82 e3bd a7b5 4abe 1125 973e 3962 f73d
000001c0: 18b9 423e d219 e6be 690c 3f3e ba5c 233e
000001d0: fc19 a5ba 7393 88bc 6710 f2bd 76bc c13e
000001e0: c75d 113e 6f65 edbb ffa5 9dbe 89fa cbbd
000001f0: ab9a d23d 36a9 aebe 50fe f2be 8c55 ddbd
00000200: 73b7 14be 3420 9f3e 7191 ac3e dea3 1ebf
00000210: 004d dbbd e138 5b3e f03b 87be c172 593f
00000220: 2881 953e f657 12be e878 bcbe e1bd 043e
00000230: d065 c13e 38f6 17be b0a0 0a3e 9043 483e
00000240: eb2d 033f 97f3 313e 3bba 53bd f8de ad3e
00000250: 570e db3d 656b d83e b2ce 833e 40e5 0fbf
00000260: a705 80be 56cd eb3e ded2 ebbc c943 433e
00000270: ab85 c1bd 016a c4bd 3179 00be 996b aabe
00000280: 4bb7 ca3d 281a 043d 2abb ca3e d593 383e
00000290: 6f02 d9be c850 14be ed31 0abc 7395 4b3e
000002a0: f31a b23d 399a 793d 8ae4 733d 5247 b0bd
000002b0: 43cd bb3d 0cfa c4bd 096b ef3e 34e3 92be
000002c0: ee25 483e 35ab 7a3e b7a4 233e 1501 c8be
000002d0: 5d9b e23a b63e 11be 12c9 093d 67fb 74be
000002e0: cddf 673e 7d13 a13d 7094 99bc 5317 ae3e
000002f0: 93c9 76be 8995 acbe 5172 6ebd dc94 7abe
00000300: ab20 8b3e 7053 02be 3f8a 47be c90e 57be
00000310: 87c8 22be c265 20bd 5e7b 87bd e96d a43e

lin4.weight f4 [62, 200]
-0.6325827 1.8792847 -0.20723692 1.50901 0.70788383 -0.8890252 -0.4343276 1.5408394
0.020186536 -0.27923146 -0.5576016 -0.9299889 0.9062546 0.3019954 0.3757896 -1.5625036
0.37976173 -0.12647165 -0.27913877 1.1564705 -0.61503255 0.0058804005 -1.0422235 1.2847029
0.21765326 0.84795886 -0.21947289 0.039152794 1.3251017 -0.23934267 2.3466427 1.2393012
-0.7031673 0.9370287 0.81903553 1.858555 -0.61661434 0.38269186 -0.1344033 1.0735271
0.87909055 0.9825741 -0.766929 -1.1451979 -1.0430515 0.31145945 0.29725528 -0.0135869365
0.43896797 1.2233375 -0.43882406 -0.991679 0.24566671 0.04862416 1.3019136 -1.6202178
-0.546673 -0.83381337 -0.60800266 -0.7828963 -0.22202973 0.5431575 -0.6767151 -0.6063473
-0.05174174 0.47752303 1.0681823 -0.007112467 1.321793 0.13141795 -1.0972522 -2.765391
0.29185402 -0.11759198 -0.81486386 1.6936506 0.7278979 1.3365626 0.22690609 -0.096163236
0.7179737 1.1273415 -1.2075016 -0.82309836 -2.6041582 -1.2286458 -1.6727663 0.46102664
-1.0264422 1.8803521 -1.4239655 -0.84212047 -1.0762738 -1.8134104 -0.008847955 1.1676128
1.1670867 -0.25700864 -1.6555052 0.8398464 -0.76807004 1.6642771 1.3534998 -1.4210091
0.3375834 0.36979237 0.6190368 -0.6665695 -1.3886803 -1.1847954 -0.24846323 0.14240913
1.1173551 2.4388335 0.2730491 0.33187675 -1.8619708 -0.0039040162 1.3940917 -2.4328165
-0.11536034 -1.3946694 1.1569303 0.6365926 -0.98323256 -1.2953842 0.005776007 -1.1338013
0.10644852 0.930673 -2.8870578 0.01563141 -0.64079523 0.8119218 1.9230628 0.48105168
-1.2152233 0.05829723 1.3709284 -1.0101155 0.8068267 -1.042097 0.008324993 1.3039716
1.0130674 -0.6914917 0.5849076 1.0933831 -1.0424759 -0.11314936 -0.9499659 1.345721
-1.2636027 0.121438235 -0.32786068 -1.0329204 1.6218624 1.4127498 1.6821114 -0.42560434
0.9518843 0.39983466 0.071652874 1.3178345 0.3526174 0.91655135 -0.23579516 0.18661757
0.8909935 0.80508935 0.30315736 1.6706673 0.8373958 0.4741157 -0.35263184 -1.4400296
0.36666435 0.8129977 1.0258406 0.8466321 0.9080807 -1.0806756 -0.70509285 0.3038888
-1.1654128 0.27900285 0.31015632 -1.1302277 0.29758593 -1.3507394 -0.22144958 -0.12862723
0.56280607 -0.38366902 -0.603512 -0.18412879 -0.21383524 0.3215744 1.2935625 0.54520214
-0.04466147 0.19981058 -1.5519197 -0.55966884 -2.3171065 -1.3348416 -0.7767431 0.66718143
0.62817395 -0.94511026 1.5863738 0.8254529 0.14500193 1.365705 0.27662823 -2.2968612
-1.6478779 -1.4077257 -1.57359 0.44445604 -0.031670243 -1.128093 -1.0815897 0.73181206
0.5295367 1.0993179 0.20617202 -0.96208924 0.013904474 -0.6007377 2.0740545 -0.40208083
-0.19196838 0.28080967 0.7478796 0.59591705 1.1474072 -1.1209314 0.5676422 0.747113
-0.24309514 1.8924845 -1.2875329 1.9002515 -1.4467002 -1.3783354 -0.042703256 -1.3151289
0.3603615 1.0893661 -0.66450506 -0.1251623 1.9692487 1.7470493 -0.694535 -1.4490327
00000000: f1f0 21bf 678c f03f ea35 54be 3d27 c13f
00000010: e037 353f 2897 63bf 3060 debe 3a3a c53f
00000020: 3c5e a53c 6df7 8ebe fabe 0ebf c113 6ebf
00000030: 4d00 683f 249f 9a3e 7f67 c03e 1e00 c8bf
00000040: 2170 c23e c981 01be 47eb 8ebe 3a07 943f
00000050: c672 1dbf 60b0 c03b 9467 85bf 2571 a43f
00000060: 7fe0 5e3e d513 593f 80bd 60be ae5e 203d
00000070: ef9c a93f 3f16 75be 652f 1640 6ca1 9e3f
00000080: c602 34bf 1de1 6f3f 50ac 513f 21e5 ed3f
00000090: 70da 1dbf 30f0 c33e 05a1 09be 5669 893f
000000a0: 140c 613f fa89 7b3f 7555 44bf d895 92bf
000000b0: b682 85bf 9d77 9f3e d831 983e be9b 5ebc
000000c0: 69c0 e03e 5396 9c3f 8cad e0be adde 7dbf
000000d0: 0e90 7b3e 212a 473d 1ba5 a63f 4c63 cfbf
000000e0: c3f2 0bbf cb74 55bf 10a6 1bbf e46b 48bf
000000f0: c35b 63be 5f0c 0b3f 333d 2dbf 9439 1bbf
00000100: 26ef 53bd e67d f43e 33ba 883f b30f e9bb
00000110: 8330 a93f 6d92 063e c372 8cbf 2bfc 30c0
00000120: e46d 953e 10d4 f0bd eb9a 50bf 8bc9 d83f
00000130: 8457 3a3f 7c14 ab3f 125a 683e 3bf1 c4bd
00000140: 20cd 373f ba4c 903f 6a8f 9abf 93b6 52bf
00000150: 87aa 26c0 4444 9dbf 351d d6bf af0b ec3e
00000160: 7562 83bf 61af f03f 8044 b6bf 3595 57bf
00000170: 57c3 89bf d51d e8bf 03f7 10bc 5674 953f
00000180: 1963 953f a396 83be 98e7 d3bf 2c00 573f
00000190: 3da0 44bf 0807 d53f 7b3f ad3f a0e3 b5bf
000001a0: bbd7 ac3e 6d55 bd3e 3279 1e3f 4ca4 2abf
000001b0: 47c0 b1bf 60a7 97bf 256d 7ebe b3d3 113e
000001c0: 7e05 8f3f d915 1c40 17cd 8b3e c0eb a93e
000001d0: 0f55 eebf 86da 7fbb 9971 b23f 44b3 1bc0
000001e0: 0b42 ecbd 8784 b2bf 4b16 943f bcf7 223f
000001f0: 21b5 7bbf 26cf a5bf a944 bd3b 6720 91bf
00000200: af01 da3d 9640 6e3f 8ec5 38c0 710d 803c
00000210: 280b 24bf 1bda 4f3f ec26 f63f 684c f63e
00000220: 708c 9bbf 14c9 6e3d 957a af3f 774b 81bf
00000230: 328c 4e3f 6f63 85bf 8d65 083c 8be8 a63f
00000240: 31ac 813f 9a05 31bf 81bc 153f faf3 8b3f
00000250: da6f 85bf daba e7bd f730 73bf 9640 ac3f
00000260: bcbd a1bf 9cb4 f83d 5bdd a7be bc36 84bf
00000270: 3099 cf3f fcd4 b43f 6d4f d73f d0e8 d9be
00000280: b1ae 733f 21b7 cc3e bebe 923d cdae a83f
00000290: 458a b43e 1ca3 6a3f 4974 71be ad18 3f3e
000002a0: 2618 643f 561a 4e3f 7137 9b3e 6dd8 d53f
000002b0: 925f 563f 4bbf f23e 298c b4be e452 b8bf
000002c0: 6ebb bb3e 9e20 503f bf4e 833f e2bc 583f
000002d0: fa77 683f 9453 8abf f780 34bf 5097 9b3e
000002e0: 3f2c 95bf 76d9 8e3e cfcc 9e3e 4dab 90bf
000002f0: 2f5d 983e 07e5 acbf aec3 62be dbb6 03be
00000300: 0f14 103f 4470 c4be c37f 1abf 428c 3cbe
00000310: a0f7 5abe 66a5 a43e 7593 a53f 5e92 0b3f
00000320: f2ee 36bd 259b 4c3e 4ea5 c6bf 7546 0fbf
00000330: 794b 14c0 17dc aabf a3d8 46bf 67cc 2a3f
00000340: 02d0 203f bff2 71bf 4c0e cb3f e250 533f
00000350: 637b 143e 6ccf ae3f 37a2 8d3e c6ff 12c0
00000360: aaed d2bf 5b30 b4bf 666b c9bf be8f e33e
00000370: a8b8 01bd 5a65 90bf 8871 8abf 0958 3b3f
00000380: b88f 073f 73b6 8c3f c21e 533e 7b4b 76bf
00000390: 97cf 633c f2c9 19bf 4fbd 0440 8add cdbe
000003a0: 5c93 44be 49c6 8f3e 0a75 3f3f 058e 183f
000003b0: 3dde 923f ae7a 8fbf 0051 113f cc42 3f3f
000003c0: efed 78be ef3c f23f e1cd a4bf 713b f33f
000003d0: 792d b9bf 4b6d b0bf 9ce9 2ebd 2556 a8bf
000003e0: 4d81 b83e 5970 8b3f 011d 2abf 8c2a 00be
000003f0: 5710 fc3f 509f df3f 0ccd 31bf e779 b9bf

lin4.bias f4 [62]
0.6509062 0.8563466 -3.1078055 -0.11228161 -0.8972677 -0.6565474 -0.60186887 0.70554423
-1.3487118 -3.8322127 0.81486803 0.020315686 -0.18937072 -0.61190295 0.7360795 0.41391525
-0.7789085 1.59936 1.4958043 -0.73226976 -4.7047615 0.82970786 0.6431121 0.7505959
0.111121096 0.2753681 -3.7602217 0.25770926 0.6882821 0.83051676 -3.8917246 -0.7931654
0.98648804 -4.139891 1.0244197 -3.4899411 -0.03561035 -1.0880591 -1.2696546 -0.8630232
0.48754606 -1.9234935 -0.71976095 0.8946936 -0.14076906 -3.9766243 -0.27561608 0.39463148
-1.0632573 0.31681854 -0.6725675 -0.45266882 -0.56328297 0.055440348 0.5648248 -0.3013034
-0.20945323 -2.8653815 -2.6303494 -4.1429267 -0.26609692 -3.1711085
00000000: caa1 263f 8839 5b3f 49e6 46c0 e7f3 e5bd
00000010: 56b3 65bf 7e13 28bf 1414 1abf 8c9e 343f
00000020: 97a2 acbf f942 75c0 319b 503f 156d a63c
00000030: 66ea 41be aca5 1cbf b56f 3c3f b3ec d33e
00000040: 8c66 47bf d4b7 cc3f 8476 bf3f 0876 3bbf
00000050: 688d 96c0 bc67 543f ffa2 243f 0e27 403f
00000060: 7593 e33d 0cfd 8c3e 79a7 70c0 78f2 833e
00000070: 4133 303f bf9c 543f 0412 79c0 e30c 4bbf
00000080: 7b8a 7c3f fd79 84c0 2f20 833f 325b 5fc0
00000090: 29dc 11bd 8545 8bbf 0b84 a2bf 17ef 5cbf
000000a0: a39f f93e 0935 f6bf 4142 38bf a40a 653f
000000b0: c425 10be 0381 7ec0 8d1d 8dbe 230d ca3e
000000c0: d118 88bf 0a36 a23e 622d 2cbf 35c4 e7be
000000d0: 5033 10bf 6b15 633d 5c98 103f 7044 9abe
000000e0: e87a 56be 6962 37c0 a557 28c0 db92 84c0
000000f0: db3d 88be 71f3 4ac0
