qn1/model_weights.pth (torch, 173386 bytes, 9 tensors)

emb.weight f4 [62, 15]
00000000: 98fc a9be c8c5 8e3e c82d ef3b 2d5f 5fbe
00000010: 78ac b9bd e2e7 13bf 0565 6bbe a5b8 29bf
00000020: 8799 1f3e ce8a 66bf 74ba 5ebe 5b87 1c3e
00000030: ac32 3c3f 421d 84bd baa2 efbe 2e96 dc3d
00000040: e973 d13e bb70 29bc c12a 99bd 967e 393c
00000050: 2f6e ea3d 59db 863d 8c02 92bf 60b7 74bb
00000060: b164 23bd ef8a 1f3e d254 393d 852c a4bc
00000070: 3cde eebd e849 3dbe fbd1 b13d 9b3e 60be
00000080: 0cc4 073f aa64 373e b4ad 5d3e 3bea ad3e
00000090: e994 abbe c4bd 4fbe a783 c9be bf03 dfbe
000000a0: f4fe 753d 711a b1be 068e a93e 0d3f 833f
000000b0: 002a 113f fb23 9dbe c959 fbbe b27e b33d
000000c0: 2234 b1be bd33 07bf 04ed 84be e163 9b3e
000000d0: 8b5d 403f 0cd9 d23e e517 dc3d c836 2dba
000000e0: 4407 273e fd20 acbe 39a1 b23e 5dd5 b1be
000000f0: b0cf 23bd 754d 8bbe 6ca0 c6be ccf4 afbe
00000100: 38cd 4dbd e460 a03d ed5a 3c3e 8e63 89bc
00000110: 18ee a4bd 822e 81be 0778 e6be 5f06 43be
00000120: 9e39 a83e 0331 943f 1d7f 9a3e ff55 c63e
00000130: e53e a83d 5047 f23e bd3c a93e 308d 1cbe
00000140: 7307 123f a9fb 3ebe 286e 7fbf 4227 bdbe
00000150: 95cf cabe be9e 313f 00b6 27bf bd23 933c
00000160: de9e 06be 9c39 e83d 77f0 d73e 9747 813e
00000170: 48c1 1a3f 32ad 423e 3573 653e b71a 143f
00000180: 9ecf 7ebc 6ff5 a1bd 880d c43c 8163 30bf
00000190: 8719 20be c93b a8be df6e a6be 267a 833f
000001a0: 064d 203e dc96 7b3e c0e4 eabd 1028 99bd
000001b0: f333 6fbe af15 923d dac7 483f c384 63be
000001c0: f265 0e3d 75f5 4abe 2502 b2be 97e9 8ebe
000001d0: 315b 113f 375d 6cbd 82f1 583f 113a 373e
000001e0: b561 a7bc 558f 25be 97a0 a3bd f8f3 14bf
000001f0: 2c26 c43e bb9f 203e d342 9b3d 812c 17be
00000200: a745 6dbc c154 49be 20bf dcbe e557 c9bd
00000210: f1b7 a93e bb4c 803f b807 083e cce3 833e
00000220: 41b4 033d ffd6 353f 54a5 f83c bf82 0c3d
00000230: 5b32 463e f9ee 5b3e 8146 82bb e1e1 67bc
00000240: 6056 0fbf 6aff 26bd 8a58 81be 57e6 9a3d
00000250: 3ef1 3c3f ef6d 253f 0537 f3bc 3978 dfbe
00000260: e22a 513e 4e3c 703c 5883 71be 2a7c 5ebe
00000270: 517b 43bf 67c6 e93e 611d cbbd 0a2e cbbd
00000280: 0006 ce3d 3103 083e 0c67 fd3d 01b3 043f
00000290: 4cf4 ad3e 2c67 0fbf a21d 18bf 4bfb 87bb
000002a0: 4d60 aa3e 4210 0cbf 97e4 0cbe 9c7b e1be
000002b0: e9a3 06bf fbfb 813d b4fa 203f b033 9ebe
000002c0: 7273 de3d 27d8 41bf 110d 003f 1b29 6ebe
000002d0: ef6f 14bf bfd3 383d 0a58 b4be eedf b23d
000002e0: 6374 ad3e 078f 7a3d 84d3 143f fd34 c93d
000002f0: cf04 0abf c08f 4b3e af7a 59be 815f 0b3e
00000300: b494 2d3f 38fc f0bc 608f 09be f298 1bbe
00000310: 5f1d 7bbe be38 623e 7a9a be3e 98ee ebbe
00000320: 4ca9 84be 63a8 26bd c861 4bbe dc35 f1bd
00000330: cef7 983e 3c66 10bf 7471 d83e cade 41be
00000340: 6471 b73e 33a5 773e d2ec 62bd 4a69 7e3e
00000350: 6bae 7ebe 460a 88bd a00c cabe 11a9 3dbf
00000360: 0937 693c 85a0 9b3e 7930 1dbf fc73 81be
00000370: 20dd 133f 1ae7 593d 3ae3 ba3e 0256 023e
00000380: 2200 043f 8acc 18bf 88a5 c23d 8e6d 003f
00000390: 2919 893e 53d1 873e e31d f0be ab3e ef3e
000003a0: 5bb3 103e 07c1 acbe e406 a13e 79b0 c5bd
000003b0: aad4 2a3f ceb4 fd3e 4d08 9fbe c79d 93be
000003c0: c1a1 653b 7c06 52bd 919d c6bc 5eab 763f
000003d0: 967f 7f3e 1ec9 b9bd d241 193e 94c6 c93e
000003e0: 44e2 04bf cde8 f7be df8c c5bc 2c25 45be
000003f0: 6893 3b3f 17ca 8abd 3280 06bd 958e 233f
-0.33200526 0.2788527 0.0072991587 -0.2181365 -0.09066099 -0.577757 -0.22987755 -0.6629737
0.1558591 -0.9005555 -0.21750814 0.15286009 0.7351482 -0.06450893 -0.46803838 0.10770832
0.40908745 -0.010341818 -0.07478858 0.011321684 0.11446797 0.06584806 -1.1407027 -0.0037340745
-0.03989095 0.15580343 0.045246907 -0.02004076 -0.116634816 -0.18485224 0.08682629 -0.21898882
0.5303352 0.17909494 0.21648294 0.33967766 -0.33512047 -0.20287234 -0.39358255 -0.43557546
0.060057595 -0.34590486 0.33116168 1.0253617 0.5670471 -0.30691513 -0.49091938 0.087643996
-0.34610087 -0.5281332 -0.2596208 0.3034964 0.75142735 0.4118122 0.10746745 -0.00066075893
0.16311365 -0.33618918 0.34888628 -0.34733096 -0.039992988 -0.27207533 -0.38794267 -0.34366453
-0.05024454 0.078309804 0.1839406 -0.016771104 -0.08053225 -0.25230795 -0.4501345 -0.19045399
0.32856458 1.1577457 0.30175105 0.38737485 0.08215121 0.47320032 0.33054152 -0.15288234
0.57042617 -0.18650688 -0.9977746 -0.36944014 -0.39611498 0.69382846 -0.65512085 0.017961377
-0.1314654 0.11339113 0.42175648 0.2524993 0.60451174 0.19011381 0.22407229 0.57853264
-0.0155524295 -0.07908141 0.023932233 -0.6890183 -0.15634738 -0.32858112 -0.32506463 1.0271652
0.15654382 0.24569267 -0.11469412 -0.074783444 -0.23359661 0.07133042 0.7842995 -0.22218613
0.03476519 -0.19820197 -0.3476726 -0.2791259 0.5677977 -0.057706084 0.8474351 0.17893244
-0.020432333 -0.16167958 -0.079896145 -0.58184767 0.38310373 0.15685932 0.07581105 -0.1476307
-0.014481938 -0.19661237 -0.43114567 -0.09831218 0.3314815 1.0023416 0.13284194 0.25759733
0.032154325 0.71031183 0.030352272 0.034304377 0.19355147 0.2147788 -0.00397569 -0.014152975
-0.5599117 -0.040770926 -0.25262862 0.07563465 0.73805606 0.6462087 -0.029689321 -0.4364641
0.20426515 0.014662815 -0.2358526 -0.21727052 -0.7636004 0.4565918 -0.09917713 -0.09920891
0.10059738 0.13282467 0.1237317 0.5183564 0.33975446 -0.560168 -0.59420216 -0.0041498295
0.33276597 -0.5471231 -0.13759075 -0.4403962 -0.5259386 0.063468896 0.6288254 -0.3089881
0.10861863 -0.7572045 0.5001994 -0.23257868 -0.579833 0.04512381 -0.35223418 0.087341174
0.3387786 0.061171558 0.5813525 0.0982456 -0.5391359 0.19879055 -0.21238206 0.1361065
0.6780503 -0.029417142 -0.134336 -0.15195063 -0.24522923 0.22091958 0.3722723 -0.4608047
-0.25910413 -0.04068793 -0.1986152 -0.11777851 0.2987656 -0.56406 0.42274058 -0.18932644
0.35828698 0.24184112 -0.05540163 0.24844852 -0.24871223 -0.066425845 -0.39462757 -0.740861
0.014234313 0.30395904 -0.6140209 -0.25283802 0.57759285 0.05319891 0.36501485 0.12728122
0.515627 -0.596871 0.09504229 0.5016717 0.26777008 0.2652689 -0.46897802 0.467275
0.14130919 -0.33741018 0.3145057 -0.096528 0.6673075 0.49552006 -0.3106102 -0.28831312
0.003503904 -0.051275715 -0.024245055 0.96355236 0.24951014 -0.09071563 0.14966515 0.39409316
-0.51907754 -0.484198 -0.024115024 -0.19252461 0.732718 -0.06776827 -0.0328371 0.6388944

lin1.weight f4 [100, 150]
00000000: 7451 b5bc 1c96 eebd 8eb6 dabd 3656 febc
00000010: 2d42 133e 28dd cebd 9fdd fdbd 2ea5 9ebd
00000020: f98e 093e 9138 72be ca72 7bbe 06ac 513c
00000030: 0393 c0bd 632d 75bc e00a bfbd 9ab2 ffbc
00000040: 91ef ecbd 1da9 f73d 4546 06bd 512c d6bd
00000050: 5036 cbbd 495b 873d 1f31 88bd bf02 443e
00000060: f8ce 7dbd 1d58 163e 7151 c83d 6d47 1cbe
00000070: 305c 2dbc daf2 5c3d 4704 233e 254b c23d
00000080: 796d 22be 298b d03d 99b3 f43d ac01 6e3e
00000090: 84e9 453e afe3 38bd 535f 67be a7d9 76be
000000a0: 4972 653d 8f9c 1b3d 929b b1bd 94a9 33be
000000b0: a3cc ac3d 5797 e43e 64cc 363e 6102 fbbe
000000c0: e0cc 1abd 48d0 80bd 948f 8cbd fda9 84bd
000000d0: 98d9 823c aad9 463d 0e90 41be f71c 3c3e
000000e0: d09d 0e3e 9d74 9bbd de1f b4bd 932e 36bd
000000f0: ab82 a1be 5f73 be3d e630 3a3d 3306 943d
00000100: 4cae 523c 11bc bb3e 086f 3d3d ba36 813e
00000110: bbfe 0fbe dd37 6b3d 40fc ffbb 115b b33e
00000120: e5e2 a4bd 4dec 1d3d 819b b0bd 1da7 94be
00000130: cf82 113e 969c b7be 30e6 eabe 2df6 113e
00000140: ee51 5cbe bb7f 5439 4e91 35be e147 a0be
00000150: 14ea f5bd d278 53be bbf9 913d 7554 953e
00000160: 0a9f e33e 539c 24be 9649 8e3e ac54 41be
00000170: cca6 2abd bc87 b43d c2f1 ad3e a946 adbe
00000180: a3b2 2abe b0c4 68be bcb3 c3be dece babe
00000190: 565d 65be 9082 71be 101f aebd 9d8e 033d
000001a0: d789 2b3e 2efb a8be e163 b43c 4e75 033f
000001b0: 3f57 c4be cdec c6be 1a82 8fbf 42d1 93bf
000001c0: 4131 033f 6f02 af3e 06cf 2ebf 4de6 31bf
000001d0: c23c 82be 428e eb3d 0056 803d b679 333e
000001e0: 92aa f63e ec50 69be c0c6 50bd 5f51 683e
000001f0: 627d ccbe a4e6 bfbd 6db2 613e 29eb 373f
00000200: a3d3 9fbf d22b 1fbe 334d 35bf 744c f23e
00000210: abac aebe 761a 9b3e 5116 af3e 945e 8d3e
00000220: f694 923f c945 a4be 2d81 aabe 3de2 1fbf
00000230: c173 05bf d7ec e0be 26ec 26bf 1b30 c33e
00000240: 0be5 9bbf d57f 64be 1422 f2be 0ff2 2a3e
00000250: 68f8 79bf 200b 113e 7e55 0c3d a972 75bc
00000260: fd2c 17bd 4bfb 5dbe 4d69 e6bd 6460 d0bc
00000270: 9c67 00be 6f94 fbbc 0ce1 74bb 10c5 753d
00000280: 04db 093d 22e0 6fbd 5915 1abd f19d 323c
00000290: 12bd 13be bfb6 b2bd 497f 643d 2747 083e
000002a0: 75a3 15be 3708 243e 98dc cf3d 626d 06bd
000002b0: 9837 c6bd 9081 b4bd c8e1 98bc fb7f 693c
000002c0: dc1c e33c e3ee f33d fd82 cebd 880b 9e3d
000002d0: 9a03 193e 374a 9fbb 1a8d 69be 5d6e 37bc
000002e0: df7a 693e ac0e 673c a64c 02be 63d0 17bd
000002f0: 9256 d3bd 4224 df3b dee3 023e 5bc1 21be
00000300: 8c7f 943e 37a0 65ba eb93 8c3d c5a6 31be
00000310: 0e88 6ebd e9aa 66be 9c32 fabd 5616 643e
00000320: 6fa9 603e 2fbb 223d a5b9 8bbd 463c b0bd
00000330: f8a9 eebd cd35 abbd 7b4f c03d 8778 ff3c
00000340: 40f5 e43d 4086 423d 7819 c6bc de40 f7bd
00000350: 7793 b8bd fc91 a43e 4367 9a3d 4ae2 0d3e
00000360: 7667 eb3a b2a9 0b3d 7d49 16bd 0669 ecbc
00000370: 0912 99bd d873 ea3d 4f14 a4bd 6a95 b13d
00000380: 9c0e 98bd 946c 2b3d 1601 88bd 2a8d a93d
00000390: b363 5fbe c077 4a3e c91c 353d cea7 0fbd
000003a0: 9a14 89bd 1b39 07be e8d0 7dbe 4b06 ad3d
000003b0: cafa 8dbc 4236 083e 0778 013f 4d5d 24bc
000003c0: 6943 39be 080e 08bd 0fbc 833e dd27 98bd
000003d0: 72a6 13bd 2f54 b5be 8f2b 0b3f 9248 3fbd
000003e0: 6692 273b cacc f13d ad5c 10bc b3a6 a6be
000003f0: cdc7 43bd 2111 fabd 744a 6a3e 708f 003e
-0.022133566 -0.11649725 -0.10679351 -0.031046968 0.14380713 -0.10100776 -0.123957865 -0.07746349
0.13433446 -0.23654391 -0.24555507 0.012797361 -0.0940304 -0.014964434 -0.09328246 -0.031213094
-0.11569131 0.12092803 -0.032781858 -0.104576714 -0.09922469 0.06609208 -0.06649994 0.19141673
-0.06196496 0.1468205 0.09781159 -0.15261622 -0.010581061 0.05394254 0.159196 0.09486989
-0.15862073 0.10182793 0.11948318 0.23242825 0.1932736 -0.04513901 -0.22594957 -0.24106465
0.056017194 0.037991103 -0.08672251 -0.17545158 0.08437469 0.44646713 0.17851406 -0.49025252
-0.03779304 -0.062897265 -0.06863323 -0.06477735 0.015972897 0.048547424 -0.18902609 0.18370424
0.13927388 -0.075906016 -0.08795141 -0.04447801 -0.31545004 0.09299349 0.04545679 0.07227745
0.012858938 0.3666692 0.046248466 0.25237066 -0.14062016 0.057426322 -0.007812053 0.35030416
-0.08051089 0.038555432 -0.0862341 -0.29033747 0.14210056 -0.35861653 -0.45878744 0.14254065
-0.21515629 0.00020265479 -0.1773121 -0.3130484 -0.120075375 -0.20651558 0.071277104 0.29165998
0.44457275 -0.16075258 0.27790517 -0.18879956 -0.041662976 0.08814952 0.3397351 -0.33842972
-0.16669707 -0.2273128 -0.38223064 -0.36485952 -0.22398886 -0.23584962 -0.085020185 0.03211843
0.167518 -0.33004135 0.022020282 0.5135087 -0.38347813 -0.3885254 -1.1211579 -1.1548235
0.5124703 0.34181544 -0.6828464 -0.69492036 -0.2543698 0.11501743 0.06266403 0.17526898
0.4817701 -0.22784775 -0.050970793 0.2268729 -0.3993941 -0.09370163 0.2204072 0.718432
-1.2486461 -0.1554406 -0.7082092 0.47323954 -0.3411611 0.30293626 0.34196714 0.2761122
1.1451709 -0.32084492 -0.33301678 -0.6245459 -0.5212975 -0.43930694 -0.65204084 0.3812264
-1.2179273 -0.22314389 -0.47291625 0.166939 -0.9764466 0.141644 0.03426122 -0.01498095
-0.03690814 -0.21677892 -0.11250553 -0.025436588 -0.12539524 -0.030710427 -0.0037365584 0.060002387
0.033656135 -0.05856336 -0.037618015 0.010901914 -0.14427593 -0.08726262 0.05578545 0.13308392
-0.14613135 0.16018759 0.10149497 -0.03281916 -0.096785724 -0.088137746 -0.018662348 0.014251704
0.027723722 0.119107984 -0.10083578 0.07717043 0.1494278 -0.004861142 -0.22807732 -0.011195746
0.22800778 0.014102619 -0.12724552 -0.037063967 -0.10319246 0.006809742 0.12782237 -0.15796416
0.2900356 -0.00087595306 0.068641506 -0.17348774 -0.05823522 -0.22526135 -0.12216684 0.22274145
0.21939634 0.039729293 -0.06822518 -0.08605246 -0.11653513 -0.08359871 0.0939016 0.031185402
0.1117959 0.047491312 -0.024182066 -0.12072919 -0.09012502 0.32142627 0.07539227 0.13855854
0.0017959911 0.03409738 -0.036691178 -0.028858673 -0.07474143 0.11447877 -0.08011686 0.086710766
-0.074246615 0.041851595 -0.06640832 0.08278878 -0.21815376 0.19772243 0.044216905 -0.03507214
-0.066933826 -0.13205378 -0.24786723 0.08448466 -0.0173315 0.13301948 0.5057377 -0.01003201
-0.18092121 -0.033216506 0.25729415 -0.07429478 -0.036047406 -0.3541579 0.5436334 -0.046700068
0.0025569438 0.118066385 -0.008811158 -0.32549056 -0.047797967 -0.12210298 0.22879964 0.12554717

lin1.bias f4 [100]
00000000: 601e 283f 4209 613f 1636 0f3e b151 e1be
00000010: f87c 353f 002d 4c3f bf3c 80bf 984e 4f3d
00000020: 78d9 ee3d 9e5d 1bbf 2ac5 923f dd8f a2be
00000030: 77b3 8d3e 2028 7e3e 8728 36bc 289b d83e
00000040: 5e52 d3bf 3626 00be eafb 653e 3d27 693f
00000050: 3cea 75bf a477 053e 079d ba3f d14e 023f
00000060: 7d68 793e 1365 71bf 1a48 88be 3790 95bf
00000070: 983e 14bf 09dc 98be e969 31bc 3685 b13f
00000080: 5908 973e fdfc 833a 2b3c 3fbf 8bd9 a7be
00000090: cb2e 16bf 39ed 3abe 4a83 dfbe 39cc 08be
000000a0: f7b1 bfbe 18d5 66bf 3a80 4fbe 5451 683d
000000b0: b347 453c 4158 8b3f 6b59 5d3e 8613 45be
000000c0: 7103 1e3f 53d8 11be 1e1d 81bf fc55 7a3e
000000d0: 3bfa 88be c85e debe 38ec a03e e9c9 eabe
000000e0: 083b 473c 0c06 7c3e aded 473f 9f6e 133e
000000f0: df19 093f 9ee5 b43e fb67 d3be b4c1 c7bf
00000100: 9ac2 ffbe 9de2 e43d 6945 923e 00ea fc3d
00000110: 308f 983e f5e9 8f3e 9bba e5be 8a20 2b3f
00000120: d056 cbbf bcb0 c1be 0934 9fbe 85da 2e3f
00000130: 892c 623f 632a 203f 5c14 87be 9092 46be
00000140: fd79 a93e a63e efbd c644 1ebe d71a 99bf
00000150: 7880 54be d234 453d 13e3 0fbf 962e 83be
00000160: 1331 9f3e 8acc 233f c67c 923f cd29 7a3f
00000170: c3bf 143c 2c98 d83e 0929 2e3f 7343 bd3d
00000180: 9441 74bf b247 0fbf 2a3f 893e ced6 4e3c
0.6567135 0.8790475 0.13985476 -0.44007638 0.7089381 0.79756165 -1.0018538 0.050612062
0.116625726 -0.60689723 1.146642 -0.31750384 0.27675983 0.24819994 -0.011118061 0.42305875
-1.6509511 -0.12514576 0.22459379 0.910755 -0.9606054 0.1303392 1.4579171 0.50901514
0.24356265 -0.9429485 -0.2661751 -1.1684636 -0.5790801 -0.29855374 -0.010828474 1.3868778
0.29498556 0.0010069903 -0.74701184 -0.3278316 -0.5866515 -0.18254556 -0.43654853 -0.13359155
-0.37440464 -0.90168905 -0.20263758 0.056718186 0.01204102 1.0886308 0.21616141 -0.19245729
0.61724 -0.14242677 -1.0087011 0.24446863 -0.2675341 -0.43431687 0.3143022 -0.4585717
0.01216007 0.24611682 0.7809704 0.14397667 0.535551 0.35331434 -0.41290268 -1.5605989
-0.49953157 0.111760356 0.2856858 0.123493195 0.29796743 0.28108183 -0.4486893 0.66846526
-1.5885868 -0.3783015 -0.31094387 0.68302184 0.88349205 0.62564677 -0.2638272 -0.19391847
0.33100882 -0.11681871 -0.15455922 -1.1961316 -0.20752132 0.048146077 -0.5620586 -0.2562148
0.31092128 0.63983977 1.1444328 0.9772003 0.009078923 0.42303598 0.68031365 0.092413805
-0.95412564 -0.55968773 0.26806003 0.012624456

lin2.weight f4 [100, 100]
00000000: 5178 4e3c 71cc 1d3f ce14 df3c 8de5 c0bc
00000010: 2cb8 2d3e 3737 cb3d 23b3 c3be dbce a43c
00000020: 73e9 bc3c e1aa b1be 80f3 c5be d911 e7bd
00000030: d2b5 173f 5757 30be 1891 a03e b182 09be
00000040: 9908 9dbe 25ec 713e bea0 cabe 2270 fdbd
00000050: 934d 833c 35f0 ca3e d458 98bd adfe 8e3e
00000060: fa2b 9ebe aa51 4fbd 90ef 32be ef18 f7bd
00000070: 3549 93bd 2e24 59be 60af 603d 6063 503e
00000080: 2feb d93d 8e3f 5e3e 20eb a33c aed8 40bf
00000090: 983d 93be 0612 903d 3921 50be 471a bb3d
000000a0: b681 95be c415 493e 76ac 2bbe c212 b9bd
000000b0: 9793 bfbe a404 c03b 2ab4 383e 3d92 a7bd
000000c0: 449f 003e 7de3 993d dab7 63bd 096e 37be
000000d0: 463b 743e aa8a 25be ac1e babe 30df 0b3c
000000e0: 8006 b43e c36f 233d 71f0 cf3d bfb4 53be
000000f0: 82ce 413d 2167 8f3d cda4 233e bbd7 aa3d
00000100: 03a8 ab3e f755 a43e c1fd 503e cb36 12bd
00000110: 400e 9bbd 4c2e 61be eb0a 80bc bf61 58bd
00000120: b432 4ebc 4a62 07be e17c 3c3d b6ea 403e
00000130: a63e 493e 1567 553e d3e8 493e b4db 31be
00000140: 73d3 cb3e 5f8e 94bc 7353 2bbe e626 ccbd
00000150: b87c 9e3e 02ec f6be 318a 9e3c 6d93 c8bd
00000160: b361 80be 87eb 58be a254 663e 3f25 e2bd
00000170: 6e7e fbbe 097a d3bb 45ef 563e f758 c5bc
00000180: d061 2c3e ff8f 78be b14b 023e 58b5 373e
00000190: 620c 9a3d 9b79 84be 624b bdbe 5b83 e93d
000001a0: e78a 653e 8936 91bd 5c68 33bd ab22 bd3d
000001b0: ea92 a7be 82db ad3e e48b 19be 95db 263d
000001c0: 48cb 133e e714 cf3e fde6 a13d 82a0 bb3e
000001d0: 5b25 513d 5a5e ae3e e0af 443e 67b8 3b3e
000001e0: 5b2e 963e 67ff 973e 930d aebd d623 5d3e
000001f0: 1d7b 0b3f 2f83 e03c dba2 9e3e 2537 d0bd
00000200: f8ba 9e3d 86ec 013e c6e6 06be c277 aa3e
00000210: e501 1d3e a7d5 a3be 0ece 5abe b420 b7bc
00000220: fe45 6fbe 825a 8cbe aa44 a23e 736f c0bd
00000230: 8b65 3c3e bec2 a8bd 9947 66be 9ae4 f1be
00000240: e1f5 ad3d 96b2 de3d 0f8b d3be 98f1 723d
00000250: 0c00 c1be 8048 16be f49c 47be ff7a dfbe
00000260: 3804 b43e 7942 38be 55d8 5dbe 957f a0be
00000270: 70e0 573e 2794 76be 08b0 693e 7634 e3bc
00000280: f3a7 813d d8ee 493c 20d4 e2be fdaa b1bd
00000290: 08b8 cb3e 9db4 b6be 04d9 dfbc cf0d 6dbd
000002a0: 0917 f3bc 4802 2ebe d698 c73e 1245 313d
000002b0: 0055 02be 61fe 7d3d 8ecb 8a3e a0fe 5b3e
000002c0: 960c 993e ced7 fbbd ab92 7fbe 1660 02bf
000002d0: 4190 803e bfcc 863e ce1a c8be 0877 8c3d
000002e0: 2947 d03e 0872 9dbe ec07 8dbc b064 903d
000002f0: 04e8 c1bd 8168 1e3e aac3 2dbe abea 17be
00000300: 4adc a23e 0e38 0f3f 2a5d 86be 34e9 183e
00000310: a56f 79be b4de 1bbe 1443 09bd 6a23 57be
00000320: 6b97 53be 383e c5be 96aa 7f3d bc40 62bd
00000330: fc0a ae3d d713 48bd b093 73bd 87b4 93bd
00000340: 4ab9 f33d eb14 0f3e 197d 45bd 95c7 44bd
00000350: 7b5a 96bd ae95 423d 8a17 173e 42a9 463e
00000360: b62c 90bc 0276 0c3e 1984 a0be 808e 8a3d
00000370: fc01 be3c 7540 0bbd b4ef 82bd 0f4a b6bc
00000380: 57ea 003e 3c1b 493d cc5e 47bb e4a1 1b3e
00000390: 785a 05bd bbf4 223c 9ff9 f53d 30f7 09be
000003a0: 0cae bb3d d11d 96bd dc4c 2c3d 4d0c 8ebe
000003b0: 70d6 97bd d163 873d 0358 a33e 7e8c 50be
000003c0: 50e5 023e 9b9e 94be 8c51 33bd 8fda f13c
000003d0: adf3 6e3e bcb6 08be 69d2 093b c8c8 0a3e
000003e0: 35e0 87be 2b9c 4b3e a64f 62bc 2191 31be
000003f0: 4ed3 b6bd b7b0 15bc 3245 223e e65a 173e
0.012601928 0.6164008 0.0272316 -0.023546958 0.16964787 0.09922641 -0.38222608 0.020118168
0.023060536 -0.34700683 -0.38662338 -0.11282701 0.5926181 -0.17220818 0.31360698 -0.13428761
-0.30670622 0.23625238 -0.39575762 -0.12374903 0.016028201 0.39636388 -0.074388176 0.27928677
-0.30892926 -0.05061499 -0.17474198 -0.120653026 -0.071916975 -0.21205208 0.05485475 0.20350409
0.10640561 0.21703932 0.020009577 -0.75330627 -0.2875793 0.07034688 -0.20325173 0.091358714
-0.29200524 0.19637209 -0.16765007 -0.09036781 -0.3741729 0.005859928 0.18037477 -0.081821896
0.12560755 0.07514093 -0.055595256 -0.17913069 0.23850736 -0.16166177 -0.36351526 0.008537099
0.3516121 0.039901506 0.101532824 -0.20674418 0.04731608 0.07002092 0.15980835 0.083419286
0.3352662 0.32096836 0.204093 -0.035696786 -0.07571077 -0.21990317 -0.015630206 -0.052827593
-0.012585331 -0.13221088 0.04601753 0.18839535 0.19652805 0.20840104 0.19717722 -0.17368966
0.3980976 -0.018134294 -0.16731052 -0.09968357 0.30954528 -0.48226935 0.019353004 -0.09793744
-0.2507454 -0.21183597 0.22493222 -0.110422604 -0.49119896 -0.0064537567 0.20989712 -0.024090273
0.16834188 -0.2427368 0.12724186 0.17940271 0.07521893 -0.25874028 -0.36971575 0.11402007
0.22416268 -0.0709048 -0.043800697 0.09235128 -0.32729274 0.33956534 -0.1499477 0.040736753
0.14433014 0.40445635 0.07905386 0.36645895 0.051061016 0.3405636 0.19207716 0.18332063
0.2933224 0.29687044 -0.08498683 0.21595702 0.5448473 0.027406303 0.30983624 -0.10166768
0.07750505 0.12687883 -0.1317397 0.33294493 0.15332754 -0.3199894 -0.21367666 -0.022354461
-0.23366544 -0.27412802 0.31693012 -0.09396257 0.1839811 -0.08240269 -0.2248825 -0.47244722
0.08494163 0.10873906 -0.4131703 0.059312433 -0.37695348 -0.14676094 -0.19493467 -0.43648526
0.3515947 -0.17994107 -0.21664555 -0.31347337 0.2108171 -0.24079953 0.22821057 -0.027734976
0.06330862 0.012325011 -0.44302464 -0.086751916 0.39788842 -0.35684672 -0.02732516 -0.057874497
-0.02967407 -0.16993058 0.38983792 0.04327876 -0.12727737 0.062010173 0.27108425 0.2148385
0.29892415 -0.12297021 -0.24958293 -0.50927866 0.25110057 0.26328084 -0.3908295 0.06858641
0.4067929 -0.3075106 -0.017215692 0.070504546 -0.094680816 0.15469553 -0.16969171 -0.14835612
0.31808692 0.5594491 -0.26242954 0.1493271 -0.24358995 -0.15221673 -0.033511236 -0.21009603
-0.2066323 -0.38524032 0.062418543 -0.055237517 0.08498189 -0.048847046 -0.059467018 -0.07212167
0.119005755 0.13972823 -0.048215006 -0.0480419 -0.073414765 0.047506027 0.14755073 0.19400504
-0.017599445 0.13716891 -0.31350783 0.06765461 0.023194306 -0.033997018 -0.06393376 -0.02225211
0.12589394 0.04909824 -0.0030421494 0.15198475 -0.03255698 0.009946044 0.12010502 -0.13473201
0.09164056 -0.07329906 0.042065486 -0.2774376 -0.074139476 0.06610835 0.31903085 -0.20366094
0.12782788 -0.29027256 -0.04377894 0.029523162 0.23335142 -0.13350958 0.0021029955 0.13553154
-0.26538244 0.19883792 -0.013812935 -0.17340519 -0.08927022 -0.00913637 0.15846708 0.14780769

lin2.bias f4 [100]
00000000: 1e75 b13d 52c6 8fbd b838 ac3d 3a33 4abf
00000010: 461d 7fbc b432 3d3e a654 273d fdf0 a1be
00000020: dcbf 283f b6da 0ebe 0099 e9bd 2989 4bbe
00000030: 3f47 1c3e dab6 04be 6fd0 853d 6dfb eabd
00000040: f957 fcbd 70c8 9a3e 1961 793c 40b6 993e
00000050: 08ee e03e 94b0 a1be afd2 48be 1263 5bbf
00000060: bf19 c13e bd11 183e 699d 5bbe eacf b33d
00000070: 3ff1 de3c 8ed5 963d 69d9 b73d b471 703e
00000080: 3b6f 56be 61e6 4a3e 1761 bbbe fcd1 42bf
00000090: 535e d53d 9286 1cbd 3c9e dcbe ddee 31be
000000a0: f211 80be b0f3 46be 4f4e d1be 82b1 16be
000000b0: b472 c43d 6310 83be d1e9 4c3d d97e 83bd
000000c0: 52a3 52be c1d3 c93c e48b 703e 6380 85be
000000d0: 2180 88be 1c34 b6be e853 4fbe 6762 843e
000000e0: 4ed7 6c3d 5cec 36be ab41 c4bc 2991 cc3d
000000f0: c482 953e 8a01 8f3d 3d0c 193c b47a 2f3e
00000100: 60f7 01be f5e3 043d d014 de3a baf8 bbbe
00000110: 4458 34be a394 b8be 939a 0e3e ac49 cb3e
00000120: 5d81 9f3a 35e0 12bd 28f3 4e3d 5e90 c33d
00000130: c33e 163f abef c7be 5ba6 ad3d 12c8 9abd
00000140: 942b 58bb 4e68 893d e92f e43d d7a7 ef3d
00000150: 89bb fe3d dbaa f4bd 906d 5fbc eda3 19be
00000160: 45e6 8f3e 3f89 3bbd 3dd3 19be 444e 263f
00000170: 05d2 1b3e 3a72 83be dbd5 813e bd7d 3f3e
00000180: 5d9e 2fbe de40 613d d513 67bd e704 d43d
0.086649165 -0.070202485 0.08409256 -0.78984416 -0.015570944 0.18476373 0.04085221 -0.31629172
0.65917754 -0.13950619 -0.114061356 -0.19876541 0.15261553 -0.12960377 0.06533896 -0.11473737
-0.12321467 0.30231047 0.015220904 0.30021858 0.43931603 -0.3158003 -0.1961162 -0.85698044
0.37714955 0.14850517 -0.21446766 0.08779891 0.027214644 0.07364951 0.089770146 0.23480874
-0.20940869 0.19814445 -0.3659751 -0.7610166 0.104183815 -0.038214274 -0.43089473 -0.17376275
-0.2501369 -0.19428897 -0.40880057 -0.14716151 0.095921904 -0.2559844 0.050027672 -0.06420679
-0.20570114 0.024637105 0.23490864 -0.26074514 -0.26660255 -0.3558663 -0.20246851 0.25856325
0.057822518 -0.17863601 -0.023957094 0.099886246 0.2920133 0.069827154 0.009341297 0.17136651
-0.12692022 0.03244396 0.0016943458 -0.367132 -0.17611796 -0.360509 0.13926153 0.39704645
0.001216929 -0.03585835 0.05052486 0.0954902 0.58689517 -0.3905004 0.084789954 -0.07557692
-0.003298496 0.06709348 0.11141951 0.11701935 0.12438113 -0.119466506 -0.013636962 -0.15003939
0.2810537 -0.045785185 -0.15021987 0.64963174 0.15216835 -0.25673085 0.2535847 0.18700309
-0.17150255 0.054993503 -0.056415398 0.103524975

lin3.weight f4 [100, 100]
00000000: e5be 90be fed6 013e d8ef aebd 7077 1dbe
00000010: e308 5e3e 04b8 98be 29b6 9a3d fa8f 4ebe
00000020: b0c6 963e 0279 b2bc c0bf 58be 867b 02bd
00000030: 1f43 71be 44c2 9bbe aaa3 33be 3d90 993e
00000040: f3cd 50be 6c34 1f3e 2ee2 3c3e c357 10bf
00000050: 1297 40bd aa89 b03a 3364 19be 8ec6 913e
00000060: 90c7 d5bc 868c cb3d 3967 b93c b6e8 063d
00000070: 766b a7bd 75a2 91bb 89c5 553e 8b44 e0bd
00000080: 900b 06be 3dff 29be 4b8f ed3e 0c1f 29be
00000090: be80 26be cac6 14bf 93c2 7fbe fd33 fbbd
000000a0: b268 11bd b2ab b4bd 9f14 00bf 8f7c b0bd
000000b0: 8138 47be c69c 1b3e 0531 693d ea4d df3e
000000c0: 9ae7 a8bd d48d b1be 5335 2e3e 99d4 003e
000000d0: 2c24 b1be d599 da3e 2d70 e3be 3538 d03e
000000e0: 1aed 77bd e533 e9be e738 a33d 149a 4f3d
000000f0: a326 0d3e d7e8 8dbd 1a32 24bf 4605 39bf
00000100: e99c 18bf b321 983c 628d 9c3e 9ed8 5ebd
00000110: 870f b9be 5bd2 f63e 2ea1 b2bd 3cb6 48be
00000120: e49f 873d 45ab a3be 166e 1f3d 9515 a63e
00000130: c0d1 263e 1b30 76bc 9640 bdbe e6f4 a83e
00000140: 5f29 5a3e f007 9f3c 0f8a f53e 1866 5cbd
00000150: ca3c 37bd f27a 003e 30f1 69be b90d 5cbe
00000160: 9f5c f93d 764d d3bc 8765 2ebe a08e 42be
00000170: 3a99 17be 549b 4c3e d933 c93e 3d3f 1dbe
00000180: ece0 483d 1c9a 843d 2c6e 3e3d e70e dd3d
00000190: 0e24 e83e 01d9 863e 720b 16be be1b 25be
000001a0: a7d3 fbba 6866 2f3e d190 8cbe a354 52be
000001b0: 6b81 38bb 1007 87be ca09 42be 2f7d 013e
000001c0: 98b1 d03d a540 8c3e 77d2 30be 4087 0a3e
000001d0: 74e2 423e c0e9 0abe a2c1 d4bc adac d1bd
000001e0: 851b 343e a89a cf3d 0057 b13c 240e babb
000001f0: b906 933e 9870 313e d306 ca3d a0d1 d63d
00000200: b88c a93d 2253 873d 527d 303e c057 85be
00000210: 41e9 63be f9c0 4f3e ca86 a0bd 76bb 873d
00000220: 90a4 a53d 5f5a a33e f995 24be b999 db3e
00000230: 2683 0e3d 1e58 c53d 4b98 ec3d f09a 433e
00000240: d126 283e da85 15bd 3187 d83e 0c6e cdbe
00000250: e18e ecbd 9009 6c3d a9e4 113d d7b2 c1bd
00000260: 2c30 283e 75e8 38bc 75d3 afbe be9a 1cbe
00000270: fe04 d33d 23fe 55be 99be 5fbd 05b9 543d
00000280: d053 463e 0835 de3d 656c 22be 321a fc3b
00000290: 92a6 ad3d f24f 7cbd 412b c1bc 7aed 29bd
000002a0: f69d 843e 5b5d 8dbd 349f e93d 6bdd 5f3e
000002b0: 6f80 aebe a96e 1f3e 8ee2 26be ccb7 74be
000002c0: 3d2b 963d 084e d73d 1578 153e 8e86 f63d
000002d0: 2300 fd3e 5794 663e d04e 3bbe c3e2 123e
000002e0: 8444 593d e172 433d 39e9 be3c db9c 0f3e
000002f0: d9e3 2c3d 624b 443e 239f 963b c968 f4bd
00000300: 7230 50bd f63d 38be 1d69 f73e 4561 193e
00000310: 9d3d b4be dde5 25be 868e 8a3e 7823 f1bd
00000320: 7635 413e 7813 69bd 1430 f7be 3ff6 843b
00000330: 5328 34be 77bb 32bd 7836 c6bc dd9c 35be
00000340: 9324 92be 2453 10be b7ca 303e e93d 823d
00000350: 9575 853e e02d 67be 64fa ea3e 7986 0ebc
00000360: e154 18be 152a c23d a06a f53c 70f0 b9bc
00000370: cd68 0ebe 0e89 d33c 5d18 78bd 0708 e8bc
00000380: 8896 ad3e 515c 78be fa8d 113e 5ada 1dbe
00000390: 9656 543c 5ad4 c5bc 48fb a03e 3699 16be
000003a0: 6cee 283d bad0 3bbd 7f53 90be 14d2 25be
000003b0: 2eab f6be c96f 37be 54d7 09bf 8d55 923d
000003c0: 2d32 1ebd 359d 2e3e f049 8e3d 80eb db3d
000003d0: ec0f b8bc a8f7 f63c a929 11bd cb80 f33d
000003e0: 0d74 97be a915 613e ab47 fbbc 4659 04be
000003f0: a38a 5a3c c450 da3d b981 003e 404e 723e
-0.2827064 0.1267967 -0.0854184 -0.15377593 0.21683078 -0.29827893 0.075542755 -0.2017211
0.29448462 -0.021786217 -0.21166897 -0.031856082 -0.23560761 -0.3042165 -0.17542902 0.29992858
-0.20391063 0.15547341 0.18445656 -0.56383914 -0.047019072 0.0013468761 -0.14979629 0.28471798
-0.026096135 0.09938912 0.022632228 0.032936774 -0.081747934 -0.004444415 0.20876135 -0.109505735
-0.13090348 -0.16601272 0.46398386 -0.1651575 -0.16260049 -0.5811583 -0.24976568 -0.12265775
-0.035500236 -0.08821811 -0.50031465 -0.08617508 -0.19455148 0.15196523 0.056931514 0.4361413
-0.082472995 -0.3467852 0.17012529 0.125811 -0.3459791 0.4269549 -0.4442152 0.40667883
-0.060528852 -0.45547405 0.07969838 0.05068405 0.1378427 -0.06929176 -0.6413895 -0.7227367
-0.59614426 0.018570757 0.30576617 -0.0544058 -0.3614466 0.48207363 -0.08722149 -0.19600767
0.066222936 -0.31966606 0.038923346 0.3243834 0.16290951 -0.015026118 -0.36963338 0.32999343
0.21304844 0.019412965 0.47956893 -0.0538083 -0.044735707 0.125469 -0.22845912 -0.2148961
0.12175869 -0.025793772 -0.17030917 -0.1899972 -0.14804545 0.19981128 0.3929737 -0.15356155
0.049042627 0.064747065 0.046491787 0.10793858 0.45340008 0.26337436 -0.14652804 -0.16123864
-0.0019212858 0.17128909 -0.27454236 -0.20540099 -0.002815331 -0.26372576 -0.18949047 0.1264541
0.10190123 0.2739307 -0.17267786 0.13528156 0.19031698 -0.13565731 -0.025971238 -0.102380134
0.17588623 0.1013692 0.02164793 -0.005677955 0.28716066 0.17328107 0.09864583 0.104892015
0.08278793 0.06607653 0.17235306 -0.2604351 -0.22256948 0.20288457 -0.07838209 0.06627552
0.080880284 0.31904885 -0.16072835 0.4289072 0.03479304 0.09635948 0.11552485 0.19102073
0.16421057 -0.036504604 0.42290643 -0.40123022 -0.115506895 0.057626307 0.035618458 -0.09457939
0.16424626 -0.011285891 -0.34341016 -0.15293404 0.103036866 -0.20897727 -0.054625127 0.05193426
0.1936791 0.10849959 -0.15861662 0.0076935524 0.084790364 -0.06159968 -0.023580195 -0.04148624
0.25901765 -0.06902572 0.11407319 0.21861808 -0.34082362 0.15569557 -0.16297361 -0.23898238
0.07332466 0.1051293 0.14596589 0.12037383 0.49414167 0.22517525 -0.18291783 0.14344315
0.053043857 0.04771698 0.023304569 0.1402468 0.04220948 0.19169381 0.0045966073 -0.11934049
-0.05082745 -0.17992386 0.48322383 0.14978512 -0.35203257 -0.16200967 0.27061862 -0.11774343
0.1886805 -0.056903332 -0.48278868 0.004057675 -0.17593507 -0.04363581 -0.024195895 -0.1773562
-0.2854353 -0.14094216 0.1726483 0.06359465 0.2606627 -0.22576094 0.45894158 -0.008699053
-0.14876129 0.09480683 0.02995807 -0.022697657 -0.13907166 0.025822189 -0.06057011 -0.02832414
0.3390391 -0.24253966 0.14214316 -0.15415326 0.012960097 -0.024149109 0.31441712 -0.14706883
0.041243 -0.045853354 -0.28188702 -0.1619342 -0.48177475 -0.17913736 -0.5384419 0.07145224
-0.03862207 0.17052157 0.06947696 0.107382774 -0.02246853 0.030147389 -0.03544012 0.118898
-0.29580727 0.21980919 -0.030673822 -0.1292468 0.013338718 0.10659936 0.12549485 0.23662663

lin3.bias f4 [100]
00000000: d8df f43e 06be a43e 4583 01be 8207 803e
00000010: edba 22bf b77d d7bd 44a1 bc3e df4e 4abf
00000020: 4f5e cd3e 55e0 ec3d bebc c23e e400 353e
00000030: 3bf9 ff3e 3063 4c3f 200d 36be aad8 2abf
00000040: 25be e13d 5f66 d43e 4f17 86be 6b22 00bf
00000050: 1169 263d 53d3 51be 951e 46be 4dbd 0a3f
00000060: a97c 2abf 84f3 863e f638 4fbe 2bf8 8d3f
00000070: 493d 823e e5df 913e 2c95 1cbf c4a8 d4be
00000080: 5fc4 463e d021 903e 75be 873e ee29 333f
00000090: 8ab2 d9bd 7447 78bd 4713 b13e a40e 7cbe
000000a0: b2c9 bebd 98a4 d53c 892c 31be cee8 c03e
000000b0: 637d 293f b5b8 1b3e 97fb 5bbf 82a1 753e
000000c0: 219c cd3e cd79 cd3e e439 913e 30fe cd3d
000000d0: 2096 1ebf c18c 5f3e b673 30be 10b0 09be
000000e0: a5c4 f53e 458a c3be 2477 e3be cd88 dabd
000000f0: 42ec 4ebd 5c39 81bf c232 413e 173b 6cbe
00000100: 48b7 09bf aa03 af3e 8c0b 6ebd 4d5d 17bc
00000110: 3375 223f 5c5a 5b3e b678 2c3f 1d3b abbd
00000120: dd80 723e 29da 9bbf 0582 b1bd 0dd5 2abe
00000130: eea6 c83e c111 3b3e 6a6f 39bf 2cbd 44bf
00000140: 1eec 2d3d f48e b73e 6047 6dbe d186 9b3d
00000150: 9c0f f0bd 2407 9f3e f965 1abf f0e2 a13f
00000160: 4167 01bf f514 da3e d526 9abc b63b bb3e
00000170: f5df 0bbf 5ba6 c53e 8f01 79be 53de a4be
00000180: 7391 2fbd fabf 5b3d 5644 0dbf 8639 a13e
0.4782703 0.32176226 -0.12647732 0.25005728 -0.63566476 -0.10522025 0.36841786 -0.790266
0.40111014 0.115662254 0.38034624 0.17676121 0.49994835 0.7983885 -0.17778444 -0.66736853
0.11022595 0.41484353 -0.26189658 -0.5005252 0.040627543 -0.2049077 -0.19347604 0.541951
-0.66596466 0.26357663 -0.20236573 1.109136 0.25437382 0.2849113 -0.6116512 -0.41535008
0.19410847 0.28150797 0.26512495 0.69985855 -0.10629757 -0.060615018 0.3458502 -0.2461496
-0.09315814 0.026079461 -0.17302145 0.37677616 0.6620695 0.15207179 -0.8593077 0.23987392
0.4015818 0.4013199 0.2836448 0.10058248 -0.6194782 0.21831037 -0.1723164 -0.13446069
0.4800159 -0.3819143 -0.44426835 -0.10670624 -0.05051828 -1.009563 0.18867019 -0.23069416
-0.5379529 0.34182483 -0.05811648 -0.009238553 0.6346008 0.21421188 0.6737169 -0.08360884
0.2368197 -1.2175952 -0.086673774 -0.16682835 0.39189857 0.18268491 -0.7243563 -0.76851153
0.042461507 0.35851252 -0.23171759 0.075940736 -0.11721727 0.31060135 -0.6031185 1.2647381
-0.5054818 0.42594114 -0.018817345 0.36568993 -0.54638606 0.38603482 -0.24317001 -0.3220087
-0.04286332 0.05364988 -0.551824 0.314892

lin4.weight f4 [62, 100]
00000000: 6442 8a3e 212b fbbe 0518 a2be 98cb 863e
00000010: 065f e8bd 686b c13c 7460 8dbf 0213 0fbf
00000020: f144 3cbe 9038 e5be 47ef f83d 1ea5 67be
00000030: 02dd bbbe 21fd a9be 2d25 f5be 3618 993f
00000040: 0fec c33e 62df fe3e 668a 503f 5eb6 543e
00000050: 1933 f0be 1942 83be 50f0 5cbf f480 5a3f
00000060: e36f 903f 784b 1cbf f803 0dbf cca5 8fbf
00000070: 7ade 6bbf f81a 43bf f1df 083f e29c 343f
00000080: ee5f aabe 4aa0 e2be b9fb 813f ac8e 20bf
00000090: b299 633f abe4 7e3e e14c 143e 2bcb a53e
000000a0: 3e9c 473f e56c a6be 2468 e9be 05fe dbbd
000000b0: 3835 863f eb68 c33f eaac b0be e47b a93e
000000c0: 4368 afbf 65db 533e 8bfe 373f c292 1f3f
000000d0: 3172 9bbe 04c0 8bbe 1545 90be 9809 c6be
000000e0: 42d8 b33e 44c9 063f 3b46 31bf b713 ef3f
000000f0: ede9 05bf fdf5 2c3f 4026 95bf d693 41be
00000100: e1c6 1bbf 07ec 4c3e 679d 06bf b154 653f
00000110: aec6 ee3e 7725 763e a15b 86be fd97 033e
00000120: dd9e 743f c6f8 0cbf e307 883e 6544 35bf
00000130: a2bc 093e 8425 4dbf 3758 19be 9f93 41bd
00000140: d44c 2a3d fb3b 8ebe 9210 973d a9d9 b2bd
00000150: 5f93 9e3e 4f5e 803f 3e97 2a3f 2266 c2be
00000160: 5b26 01bf 1d5e 5abf 2fa4 d7bf 5e29 1f3e
00000170: cf35 fcbd de9a 9bbf 2e57 9dbe 70f3 ce3d
00000180: 2448 81bf f470 aebd 90f6 80bf 35d9 a6bf
00000190: 8afb bc3d 6a8f ef3d 7ce6 f7be 1548 193f
000001a0: 138f 653e f777 463e a0a3 76bf 7ac7 1fbe
000001b0: f42d a53e 0a3c da3e 9772 30bf 0e59 0cbf
000001c0: b22f 083f 8405 1e3d 6c8e e8bd b19a 4f3e
000001d0: 4dab c3bd a003 ba3e 4074 8a3f 9ce0 683e
000001e0: 554c 263e 5e99 4ebe 23fd 9d3d 2125 213f
000001f0: b4ac 743f c187 a2bf 047a 8dbe e792 883f
00000200: a3b1 f73d cf44 c0be 45e2 67bf 67f6 333d
00000210: 79f1 5c3f da23 23bf 0419 2e3f c2e2 8c3e
00000220: f01a 863f 71f5 0dbe ff93 003e a509 0ebe
00000230: e22d 7d3f f0da 05bf 5591 413d c846 91bd
00000240: a503 15bd db4f 29bf 59b1 a7be 04d1 4a3f
00000250: f142 29bf d0d1 bbbe ce6a 113f 8f18 e93e
00000260: 4ff0 da3c 6b05 13bf 4440 463f 3bde f1be
00000270: 6fc0 893e d59f 9d3e 4589 d8be 4eca 553e
00000280: d479 aabe ce08 3dbe dd50 8fbf 051d 29bf
00000290: 9b50 28be e464 c33d 653e edbe a5dd 023f
000002a0: 73e2 5abd c510 f8bd 7844 993e 6667 163f
000002b0: 4051 b43e 9420 60bf f608 df3e 0bd6 403d
000002c0: 5e85 183f f76b f1be 5543 53be 10df 11bf
000002d0: 1e15 dcbc f2e9 f8bc da91 75be 2794 4c3e
000002e0: d5b0 a73d 5cae 2cbf 6f07 e7bd 3190 ea3d
000002f0: c049 6cbe 73cf 463d f13b 40be 4cf6 383f
00000300: 7cc1 a9be 5c49 5dbf 93b1 663e 93c6 393a
00000310: 69ce 5bbf d48d 4e3f 878e f3be 5046 8fbf
00000320: 23ed 32be 91a8 6d3f 4e92 7dbf a081 293f
00000330: 1c85 e4be 7fb0 163d db5f b5be 2add 0e3f
00000340: bb5a 55be e696 9dbe da2b 91be 838d 183f
00000350: 33cb 8e3e 7575 80bf e7e9 94be 68f9 1bbe
00000360: 0228 183e b397 82be 9980 eb3e 1f16 4dbf
00000370: ffb8 743f 8ea9 a13e d336 f63e a6c7 97be
00000380: 08b1 983e a42d 35bf f3a2 98be f81d cb3f
00000390: 30b1 02bb dae1 2ebe a460 5fbf 9032 423e
000003a0: a210 823e c5f7 81bf b8e4 473f cf33 b6bd
000003b0: 0788 b03e 7eaa 4d3e c3c6 493e 5226 7b3e
000003c0: 7a7d a13f 3339 a43d 2597 7dbf e74c dd3c
000003d0: cb84 fa3d 7205 dfbe 39a3 b2bd c127 903e
000003e0: f714 41bf 7f20 013f d9e4 123f dd30 293f
000003f0: 376f 2ebf 6d83 12bf 9096 f43e 3577 25be
0.27003777 -0.49056342 -0.3165895 0.26327205 -0.11346249 0.023610786 -1.104506 -0.5588838
-0.18385674 -0.44769716 0.121550135 -0.22621581 -0.36692053 -0.33200935 -0.47879925 1.1960514
0.38266036 0.49779803 0.8146118 0.20772693 -0.46913984 -0.25636366 -0.8630419 0.85353017
1.1284145 -0.61052656 -0.5508418 -1.1222472 -0.9213635 -0.76213026 0.5346671 0.70551884
-0.33276314 -0.44262916 1.0154945 -0.627177 0.88906395 0.24891917 0.14482452 0.32381567
0.7797278 -0.32504955 -0.45587265 -0.1074181 1.0484991 1.5266393 -0.34506923 0.33102334
-1.3703693 0.20689161 0.71872777 0.6233331 -0.3036056 -0.27294934 -0.28177705 -0.38679194
0.3512593 0.52650857 -0.6924779 1.8677891 -0.5231007 0.6756285 -1.1652298 -0.18904051
-0.6085034 0.20011912 -0.52583927 0.89582354 0.46635956 0.24037729 -0.26241782 0.12850948
0.95554906 -0.550671 0.26568517 -0.70807487 0.13450864 -0.8013537 -0.14975058 -0.047259923
0.041577175 -0.27780136 0.073762074 -0.08732922 0.3097181 1.0028781 0.6663703 -0.37968546
-0.5044915 -0.85299855 -1.684698 0.15543124 -0.12314951 -1.2156637 -0.30730575 0.10105026
-1.010014 -0.08517638 -1.0075245 -1.3035036 0.09227665 0.11697276 -0.48418033 0.59875613
0.2241786 0.193817 -0.9634342 -0.15603438 0.32261622 0.4262393 -0.6892485 -0.54823387
0.5319778 0.03857948 -0.1135529 0.20273854 -0.095541574 0.3633089 1.0816727 0.22741932
0.16240056 -0.20175692 0.077142976 0.6294728 0.95576024 -1.2697679 -0.27632153 1.0669831
0.120944284 -0.37552497 -0.90579635 0.04393616 0.8630596 -0.6372658 0.6800692 0.27516752
1.0476971 -0.1386316 0.12556456 -0.13870867 0.98898137 -0.522872 0.04725774 -0.070935786
-0.03638043 -0.66137475 -0.32752493 0.7922518 -0.6611777 -0.36683512 0.56803596 0.4552655
0.026725916 -0.5743014 0.7744181 -0.4723986 0.26904628 0.30786005 -0.42292228 0.20877954
-0.33296072 -0.1846039 -1.1196553 -0.66059905 -0.16436999 0.09540728 -0.46336666 0.5111945
-0.053438615 -0.121125735 0.2993505 0.58751523 0.3521824 -0.8754971 0.43561524 0.047079127
0.595785 -0.47152683 -0.20631154 -0.5698099 -0.026865538 -0.030384991 -0.23981419 0.1997839
0.08188025 -0.6745355 -0.11280715 0.114532836 -0.23075008 0.048537683 -0.18772866 0.7225082
-0.3315543 -0.8644006 0.22528677 0.000708678 -0.8586183 0.8068516 -0.47569677 -1.1193333
-0.17473273 0.92835337 -0.9905137 0.6621342 -0.44632804 0.036789414 -0.35424694 0.5580622
-0.20835392 -0.3077919 -0.2835377 0.5959093 0.27889404 -1.0035845 -0.29084703 -0.1523186
0.14859012 -0.25506362 0.4599655 -0.8011188 0.9559478 0.31574672 0.48088703 -0.29644507
0.29822564 -0.7077277 -0.2981182 1.5868521 -0.0019942038 -0.17078343 -0.87256837 0.189646
0.25403315 -1.0153738 0.7808337 -0.088966005 0.3447878 0.20084569 0.19704728 0.24526337
1.2616417 0.080187224 -0.99058753 0.027014209 0.122323595 -0.43558842 -0.087225385 0.2815533
-0.75422615 0.5044021 0.57380444 0.66090184 -0.6813845 -0.5723179 0.4777112 -0.16158755

lin4.bias f4 [62]
00000000: faa5 04c0 8ad4 4c3f 3d19 4bc0 525a 35bf
00000010: c031 a1be 92f8 d3c0 3c6a 21bf 89c6 22c0
00000020: b1a6 b2bf 16e0 68c0 b3b1 88bf a09e d6bf
00000030: 68cd 39bf 74ed 0dc0 ac93 9cc0 08bc 0ac0
00000040: 5b9e 83c0 2e85 93bf 1ef4 803e d001 c6c0
00000050: 2fae dec0 bfd6 24c0 65a1 f8bf 919e 67c0
00000060: 634d 94c0 06e5 48c0 f081 dcc0 a410 96c0
00000070: 8a3d 6dbf e192 173f df9d d5c0 6861 fbc0
00000080: 44c9 6cbf 88ff 5ac1 7142 8fc0 105f 6ec1
00000090: e8a6 f53f 3aa7 193f 8a80 353f 72fc 1ebe
000000a0: 1fe8 4b3f 1173 633f 7805 013d 52f7 c53f
000000b0: 92cf 973f 4678 d5c0 a55f 01c0 a140 b73f
000000c0: 2195 de3f a880 6b3e 6b3e c43f f8c8 ca3e
000000d0: db61 4ec0 2f11 adbe d575 de3f 2492 bf3f
000000e0: e218 6bc0 88df 7fbe 49ca cc3f d727 02c1
000000f0: 1e4a c53c 5bf2 24c1
-2.0726304 0.8001181 -3.1734154 -0.7084094 -0.3148327 -6.624093 -0.63052726 -2.5433676
-1.395712 -3.6386771 -1.067923 -1.6767159 -0.7257905 -2.217618 -4.8930264 -2.1677265
-4.1130805 -1.1525018 0.25186247 -6.1877213 -6.9587626 -2.575607 -1.9424254 -3.6190531
-4.6344466 -3.1389785 -6.8908615 -4.6895313 -0.92672026 0.59208494 -6.6755214 -7.8556404
-0.92494607 -13.687386 -4.4768605 -14.898209 1.9191561 0.6002079 0.7089926 -0.15525988
0.79651064 0.8884745 0.031499356 1.5466101 1.186022 -6.670932 -2.0214627 1.4316598
1.738926 0.22998297 1.5331548 0.39606452 -3.2247226 -0.33802173 1.737971 1.4966474
-3.6733937 -0.24987614 1.5999233 -8.134727 0.024083193 -10.309169
