qn1/model_weights_b10_em2.pth (torch, 392306 bytes, 9 tensors)

emb.weight f4 [62, 2]
000000 cb 2e 5b bf f2 0b 9e 3f 5e 45 ba 3f 1c 3f bf be
       -0.85618275 1.2347395 1.4552419 -0.37352836
000010 72 fc c3 be 7b 57 fe 3f f8 cd 1b c0 7b 6d 9c be
       -0.38278538 1.9870447 -2.4344463 -0.30552277
000020 5f 68 9a 3f f2 fb b4 3f e4 a6 5e 3f a9 0c f5 be
       1.2063102 1.4139388 0.86973405 -0.4786122
000030 bd 38 21 3e 3f 9c 01 3f 1a f3 9f 3d b6 68 ac 3e
       0.157443 0.5062904 0.0781004 0.33673638
000040 02 d6 12 be 9d a1 5e bf b6 99 d6 3f 30 d7 b6 bf
       -0.1433945 -0.8696535 1.6765659 -1.428442
000050 48 9c 76 bf 2d 73 b2 3e 5d f5 86 bf d8 ca 8b be
       -0.96332216 0.34853497 -1.0543629 -0.27303195
000060 79 2e d9 bf 66 77 e6 3f 90 c6 93 be f2 4d b2 3e
       -1.6967307 1.8005188 -0.2886243 0.34825093
000070 2c 15 cb be 95 24 7f be 97 67 21 be 99 5a 44 3f
       -0.3966459 -0.24916299 -0.15762173 0.7670074
000080 a9 bf d4 be a6 d6 cc 3e e1 6e 8f be 54 f7 9b 3e
       -0.41552475 0.40007514 -0.2801428 0.30462134
000090 8a 10 31 bf 37 b0 bd bb d9 6b ab 3e bc 20 73 3e
       -0.6916586 -0.0057888287 0.3348072 0.23742956
0000a0 a3 12 aa bf 68 af 8b 3f 30 e4 e8 be 5f fa 87 bf
       -1.3286937 1.0912905 -0.45486593 -1.0623282
0000b0 e7 a9 80 bf 78 70 1c 40 11 7b 4e bf 6c 04 da 3f
       -1.005185 2.4443645 -0.80656534 1.70326
0000c0 45 20 0b bf 79 cc b9 3e 82 e0 6d be bc 64 43 3f
       -0.54346114 0.36288813 -0.23230174 0.76325583
0000d0 12 6d e3 3e eb 9b e5 3e 90 d5 a3 be 8d c3 23 3f
       0.44419152 0.44845518 -0.31998873 0.6397026
0000e0 c2 d8 5c 3f 4c 12 06 40 ec e4 7a bf 5d e3 63 bf
       0.86268246 2.0948668 -0.9800556 -0.89018804
0000f0 a7 23 47 bf 54 b6 25 3f 25 1d 13 3f f0 77 dc 3f
       -0.77788776 0.64731336 0.57466346 1.7224102
000100 ab ff 3d bf 81 7f 13 bf ee 63 23 c0 48 1d ba 3f
       -0.74218243 -0.5761643 -2.5529742 1.4540186
000110 80 a0 d3 bd ea 71 be 3f f1 fd 41 bf 0e e0 78 be
       -0.10333347 1.4878514 -0.7577811 -0.2430422
000120 27 5d 11 3f 0f 5a 5b bf 69 79 03 bf ee cc 17 3f
       0.56782764 -0.85684294 -0.5135713 0.5929707
000130 e0 8b f0 3e 8c ed 77 3e ca 69 17 bf 59 d5 ab bf
       0.46981716 0.2421171 -0.59145796 -1.3424484
000140 f8 62 d5 bf b8 d1 90 3e 61 6e 3d 3e ad 36 5f 3d
       -1.6670828 0.28285003 0.18499137 0.054495502
000150 a0 3d 71 3f 28 46 2e 3f d5 ad 80 bd 0e e9 2b 3e
       0.9423466 0.680758 -0.06283156 0.16788122
000160 00 28 01 40 15 db ff 3e 26 b0 70 3e 5e c7 18 3f
       2.0180664 0.49971834 0.23504695 0.5967921
000170 2e 0b 01 bf 5f 8b 05 bf 69 9a 9c be 08 c7 f5 3c
       -0.50407684 -0.5216579 -0.30586556 0.030002132
000180 7d 33 3d be 5d 1a 14 3f c7 a5 94 be d5 e6 93 3f
       -0.18476672 0.5785273 -0.29032728 1.1554819
000190 66 b8 7c 3e 1c 81 a5 bf 51 f2 24 3f e9 28 0f 3f
       0.24679717 -1.2930026 0.64432245 0.559218
0001a0 a5 d3 69 bf d9 0b ad be 79 3c 07 be 15 e6 af be
       -0.9133857 -0.33798102 -0.13206662 -0.34355226
0001b0 7b d4 9f 3e e4 5e 85 3f d3 db b0 bf 1d 4f fe bf
       0.31216797 1.0419583 -1.3817085 -1.9867893
0001c0 f6 cb 90 3e 88 e3 c2 be 41 a9 ac bf 0d 0a 6a 3f
       0.2828061 -0.38064218 -1.3489152 0.91421586
0001d0 4e 57 bc 3f 73 ae 8a 3f 27 cb 8d 3e 9a 2a 4c 3e
       1.4714143 1.0834488 0.27694055 0.19938126
0001e0 28 db 89 bd 19 13 e7 3f a3 52 f0 be 7e 1f f7 be
       -0.06731254 1.8052703 -0.46938047 -0.48266214

lin1.weight f4 [200, 20]
000000 a0 d7 34 be cf 59 24 3d 9a c1 c2 be bc 16 b7 3d
       -0.1766038 0.04012471 -0.3803833 0.08939883
000010 16 c7 bb be 16 4e 39 be cc dc 1c 3e 63 3b 4a 3d
       -0.36675328 -0.18096194 0.15318602 0.04937304
000020 29 fa 0d be 87 33 04 3e 16 a7 11 3d 33 a3 01 bf
       -0.1386496 0.12910281 0.035559736 -0.5063965
000030 c9 9d 6a be 78 3c 80 be 78 3f 3a bf 7b ff b2 bd
       -0.22911753 -0.25046134 -0.72753096 -0.08740135
000040 ea cf f4 3c fa d0 50 bd 7b be 84 be 19 aa 0c be
       0.029884297 -0.050980546 -0.25926575 -0.13736762
000050 2d 75 9f 3c d1 e3 09 3e e2 50 fb 3d b0 2a 92 3e
       0.019465053 0.13465811 0.122712865 0.28548193
000060 83 ed 6b be 2c 33 ca bc 33 03 d4 3d ba cf e1 3d
       -0.23039822 -0.024682604 0.10352173 0.11025949
000070 d7 79 a1 bc 4d 46 f4 be c8 60 be be d0 a3 bf 3e
       -0.019711418 -0.47709885 -0.37183213 0.37429667
000080 9c 4b 9e 3e 08 c4 8d be 6c ea 80 bd 3b ef 9c 3e
       0.3091706 -0.27688622 -0.062947124 0.30651268
000090 db 51 06 3f ea 30 3a 3d 68 2b 8b be 19 53 7c 3e
       0.5246865 0.045456804 -0.27181554 0.24641074
0000a0 82 27 8a 3e cd 94 94 3d 95 fd ce 3c a2 f9 49 3e
       0.26983267 0.07254944 0.025267402 0.19724134
0000b0 a6 73 1e 3d d7 ba 20 3e f1 c0 9b be 01 95 7e 3e
       0.03868451 0.15696274 -0.3042064 0.24861528
0000c0 e6 9d 19 bd b7 cd f6 3e b1 3d 04 be e6 4d 85 3c
       -0.0375041 0.48203823 -0.12914158 0.016272496
0000d0 a6 85 0f 3e 73 ee ed 3d 89 0d 5e bd 48 b8 e3 3e
       0.14015827 0.11617746 -0.054212127 0.44476533
0000e0 18 5c be be d5 b7 ee 3e 97 60 8a bd 03 77 8c 3e
       -0.37179637 0.46624628 -0.06756704 0.2743455
0000f0 35 a7 f7 bd 0e c0 9d be 74 3b be bd 41 64 8c bd
       -0.12092439 -0.3081059 -0.092886835 -0.068550594
000100 d0 73 60 be 59 6c a6 be cf e3 c0 bd c6 9d 3a 3e
       -0.21919179 -0.32504538 -0.09418451 0.18224248
000110 0c 1e b2 bd 70 d2 a2 3e 40 ef de bd 7a b3 0c bd
       -0.08697137 0.31801176 -0.10885477 -0.03435085
000120 7d 23 cb be cd 5e 60 be ed c2 d2 be e9 f6 df be
       -0.39675513 -0.21911164 -0.41164342 -0.43743065
000130 f4 5a 39 be 92 55 4c be b5 e9 2d bf 88 47 8b bb
       -0.18101102 -0.19954517 -0.67934734 -0.0042504705
000140 49 e8 e1 3c fa 67 34 be 28 3b 64 3e 0d 01 4e 3e
       0.027576583 -0.17617789 0.22288191 0.20117588
000150 b6 12 a4 3d 5e c1 6d 3e 98 ae 5d 3d e4 7a b6 bd
       0.08011381 0.23218295 0.054121584 -0.08910158
000160 33 3a 10 3e af ee 1d bb d3 56 0e 3e 47 04 c3 bd
       0.14084701 -0.0024098565 0.13900308 -0.095223
000170 91 99 96 3e b2 52 fe be 34 8e b8 be 50 af 8f 3e
       0.29414037 -0.49672467 -0.36045992 0.2806344
000180 0d 95 49 bd 65 65 8d 3d 34 0d 28 bf 57 0a 17 3e
       -0.04921441 0.06904105 -0.65645146 0.14750038
000190 d5 fb 3e be aa a3 07 3e ac 38 53 3e ea a1 87 3e
       -0.18650754 0.13246027 0.20627087 0.26490718
0001a0 ea ce fd 3d d6 d3 d0 be 56 b2 a7 be 2b d6 b8 3c
       0.12392981 -0.40786618 -0.32753247 0.02256306
0001b0 23 e4 d0 be 35 18 40 be 44 9e c6 bd b4 ae ef 3d
       -0.40799055 -0.18759234 -0.096981555 0.11703244
0001c0 31 99 53 3d 89 a9 4c 3e 4f 73 a4 3d 9b 68 c1 be
       0.051659767 0.19986548 0.08029806 -0.3777512
0001d0 b9 8f bf 3e 90 b7 9c 3e 68 ae d9 be 5c 66 58 3d
       0.3741434 0.30608797 -0.42515874 0.052831993
0001e0 c9 22 d3 3c d9 7a 81 be 27 a2 d4 3d 4d 4a f2 bd
       0.025773423 -0.25289038 0.103824906 -0.11830578
0001f0 0e d3 23 be 9c 4e 95 bc 4c 58 5f bd ca 21 41 3d
       -0.1599848 -0.01822596 -0.054527566 0.047151364
000200 1a b6 c7 3d be 43 b1 bd 5b 9e 84 be c0 05 37 3d
       0.0975153 -0.08655499 -0.25902066 0.044683218
000210 e1 5e 59 3e 98 ae 7a 3e e3 8b 05 be ff 1a 11 bf
       0.212276 0.24480665 -0.13041644 -0.5668182
000220 b9 85 42 bf 91 dd ff be 7b 80 b1 be d7 9e 1c 3e
       -0.75985295 -0.4997373 -0.34668335 0.15294968
000230 85 9a 46 bd 1b 99 b4 3c 58 39 78 3e ef e8 2f be
       -0.048487205 0.022045663 0.24240625 -0.17178701
000240 22 3d 1c be 5a f0 28 3e b0 04 5c 3d a7 c8 35 3e
       -0.15257695 0.16497937 0.053715408 0.17752324
000250 c9 fb 11 bd 28 71 f1 bd a7 bc 64 3e 63 da 94 be
       -0.03564051 -0.11789161 0.2233759 -0.29072866
000260 9a 89 17 bf de 5e cc bd dd 5b b9 3e cd 3e d0 be
       -0.5919434 -0.09979032 0.362029 -0.40672913
000270 3f 84 a6 be 40 51 28 3e 35 6c d0 be e1 eb 00 bf
       -0.3252277 0.16437244 -0.40707555 -0.5035992
000280 94 f1 19 3c 61 93 90 be df 54 96 bd 90 53 97 3c
       0.009395976 -0.2823744 -0.073404066 0.018472463
000290 cd 0d fb bd 2e 7c d1 3d 36 41 4c 3e d3 3c c5 3d
       -0.12258492 0.102287635 0.19946751 0.09630742
0002a0 13 b8 ee 3d c6 c3 1f 3e 80 98 34 3d 3b de a8 3c
       0.11656203 0.15602025 0.044090748 0.02061378
0002b0 51 e5 05 bd ec f8 a4 bd 42 0d 9d be 0c 56 85 bc
       -0.032689396 -0.080552906 -0.30674177 -0.016276382
0002c0 53 9c 00 be 20 e2 ee be 5f bb 5c be a1 fb c1 3e
       -0.12559633 -0.46656895 -0.21555851 0.3788729
0002d0 a7 3e 1b 3e ad 39 c7 be 4c 90 03 3f cd 21 fd bc
       0.15160619 -0.3891119 0.51392055 -0.030899907
0002e0 bb 4a 85 3e c0 8c 8b 3e 87 5d 0e 3e 9b 19 79 3e
       0.26033577 0.2725582 0.13902865 0.24326174
0002f0 7f 25 2f 3c a1 72 e2 3d 8e e0 26 be c1 a4 3f 3e
       0.010690092 0.1105702 -0.16296598 0.18715192
000300 c9 4b 46 3e 0c f4 34 3e ce bc 90 be 56 d1 a4 3e
       0.19364847 0.17671221 -0.28269047 0.3219096
000310 33 1c 6f be db de 38 3e 3f 22 f2 bd 89 fd 60 bf
       -0.23350601 0.18053763 -0.11822938 -0.87886864
000320 0c 18 57 3d 6a d0 86 bd f4 e8 ba be 57 fb 54 bd
       0.052513167 -0.065827206 -0.36505854 -0.05199751
000330 1d 23 f3 3d cc 86 bb 3e 9c 90 5a 3d b1 ae 89 3d
       0.11871932 0.3662628 0.053360566 0.06722773
000340 07 a9 0e bf 2f 7c 52 3e 84 16 b6 be cb 2b cb be
       -0.55726665 0.20555185 -0.35564053 -0.3968185
000350 86 54 cf be ad cc 95 be e1 27 d2 be ce e5 9b be
       -0.40494174 -0.29257718 -0.4104605 -0.30448765
000360 a3 7c 3f be ff 2f ba 3e d5 bf f4 bd 34 8a 38 be
       -0.18699889 0.36364743 -0.119506516 -0.1802147
000370 a9 f6 5b 3e 0d 3d 76 bd 8d db 83 3e 55 29 47 be
       0.21480812 -0.060116816 0.2575344 -0.1944936
000380 88 70 94 3d ac 87 87 be 33 9c 01 3e 4b 59 f8 bd
       0.07248026 -0.26470697 0.12657242 -0.12126406
000390 ef 15 38 be b9 f6 c1 3d a1 c1 a0 be 15 e5 9f 3e
       -0.17977117 0.09470887 -0.31397727 0.31229463
0003a0 60 83 c3 be 84 0d 5e 3e ac 45 69 3d d4 c0 df be
       -0.3818617 0.21684843 0.05695121 -0.43701804
0003b0 cd b4 cd be d4 a7 a6 3e 46 3b 9a be c7 f9 c3 be
       -0.40177003 0.32549918 -0.30123347 -0.38276502
0003c0 15 d4 24 3e f7 2a 99 bd 1f 03 4d bd eb 66 99 bc
       0.16096528 -0.07478898 -0.050051805 -0.018725833
0003d0 ee ca 20 3e 21 96 a8 be 0a e5 b8 3c e1 f9 a7 3e
       0.15702412 -0.3292704 0.022570152 0.3280783
0003e0 61 d4 1f bc fa 10 ac 3d 76 4e 4e 3e c9 23 74 bd
       -0.009755225 0.084016755 0.20147118 -0.05960444
0003f0 e1 6a 75 be ad ff 93 bd c3 a3 9e bd d0 88 34 bd
       -0.23966552 -0.07226501 -0.07746079 -0.044075787

lin1.bias f4 [200]
000000 4d 41 1d bf c1 18 69 3e 85 b9 fa 3e 01 21 46 be
       -0.61427766 0.22763349 0.48969665 -0.19348527
000010 2a 42 e9 bd 29 df a5 be 4a 92 f9 bd 9c 99 81 3e
       -0.11389573 -0.3239682 -0.121861055 0.25312507
000020 69 b7 d9 3e 07 fb 56 bd 60 60 be be 28 b8 99 3e
       0.42522743 -0.052485492 -0.37182903 0.30023313
000030 3e cb 83 be ae a1 74 3e 80 ee 4d be 8a 5d 23 3f
       -0.25741 0.23889801 -0.20110512 0.63814604
000040 22 4d a3 3e 34 4e f7 3b eb 9c 78 3e 52 f3 0e 3f
       0.31894785 0.0075471643 0.2427861 0.5584003
000050 cf 83 a2 be ed 6d b8 3e df 30 d2 3e 7f d8 06 bd
       -0.31741187 0.36021367 0.4105291 -0.03292131
000060 f3 d7 da bd c4 27 16 be f9 01 ad 3e 5a 74 a7 be
       -0.1068572 -0.14663607 0.33790568 -0.32705957
000070 a3 be d9 3d e0 87 0b be 88 57 a3 be 61 80 20 3e
       0.10632064 -0.13626051 -0.3190272 0.15673973
000080 ac 3a a2 bd 2a 8a 66 3e 1b 25 25 3e 0c a8 be 3e
       -0.07921347 0.22513643 0.16127436 0.37237585
000090 91 71 f3 3e 32 e4 61 be e8 d7 1a 3e 68 a8 f2 bd
       0.47547582 -0.22059706 0.15121424 -0.11848527
0000a0 8a e1 7d be eb 2d c4 bd 1f d1 1a 3f d8 b2 7c bd
       -0.24793068 -0.09579071 0.60475343 -0.061693996
0000b0 ae 86 83 3e 7d f4 d4 3e de 8f 8a 3e 58 c0 56 be
       0.2568869 0.4159278 0.27062887 -0.20971811
0000c0 0f 00 97 3d b4 82 ac be 0c 39 43 be ee 2c 03 bd
       0.07373058 -0.3369347 -0.1906473 -0.03202527
0000d0 d1 46 f7 be bc 0e 07 bf 03 df 93 be 6b 4a 1a bf
       -0.48296216 -0.5275686 -0.28881082 -0.602698
0000e0 a7 a8 82 be 4d e4 87 be ec 4c 8a 3e 6b f5 09 bf
       -0.25519297 -0.26541367 0.27011812 -0.53890103
0000f0 03 5d 90 3e c5 49 f1 be 65 d3 fb bd 04 2f 0a 3e
       0.28195962 -0.47126594 -0.1229618 0.13494498
000100 55 c5 2d bf 8d 8a af be 12 69 f8 3e f1 f4 d9 3d
       -0.6787923 -0.34285393 0.48517662 0.10642422
000110 45 26 4e 3e 53 2e fa 3d 58 9c 04 3e 62 1d ff bd
       0.20131786 0.12215867 0.12950265 -0.12456776
000120 65 17 43 3e 8b 74 1e 3e 23 00 fa ba 04 91 67 be
       0.19051893 0.15474145 -0.0019073527 -0.22613913
000130 1c 7c 69 3e 68 1c ed be 59 fb e7 3e ea 26 18 be
       0.2280125 -0.46310735 0.4530895 -0.14858595
000140 3b 0f b7 3e d3 94 45 3e 60 de ee be bc 4d df be
       0.35753807 0.19295053 -0.46654034 -0.43613994
000150 8a c5 ba 3e 5d be bd 3e 22 d5 03 3f 8b 28 26 bf
       0.36478835 0.37059298 0.5149709 -0.64905614
000160 46 6d ed 3e 85 01 82 3e 2e 65 3f be 2d ab c1 3d
       0.46372432 0.25391784 -0.1869094 0.09456477
000170 d7 21 8a be cc ff 1a 3e d1 43 04 3f b4 8d df 3e
       -0.26978943 0.15136641 0.5166598 0.43662798
000180 2b 25 96 3e 88 62 df be 66 f4 a9 be d0 24 97 3d
       0.29325232 -0.4362986 -0.33194274 0.07380068
000190 00 46 5c 3e f0 88 c5 3c 55 b7 4f be 9f 22 4e be
       0.21511078 0.024113148 -0.2028478 -0.20130394
0001a0 7f 3c 4e be 61 7d 24 3e 74 16 6f be c1 44 58 be
       -0.20140265 0.16063453 -0.23348409 -0.21119978
0001b0 a3 f3 70 be 9a bf 86 3e 15 bb bd 3e c7 7a 21 be
       -0.2353044 0.26318055 0.37056795 -0.15769492
0001c0 12 a9 8c be 55 a3 a1 3c 0a a1 a5 be a6 95 86 3e
       -0.2747274 0.019731203 -0.32349426 0.26286048
0001d0 27 3a 67 3c e2 4f bb 3d 18 f8 cb be 1d a1 07 3e
       0.014112986 0.09146096 -0.39837718 0.13245054
0001e0 17 b8 0f 3f 31 07 c6 3d 6e 2f 8f 3e d0 56 6a bd
       0.56140274 0.096693404 0.27965873 -0.057211697
0001f0 36 7e a3 bb a7 5c 0c bf 28 a0 b2 bd 1a a9 7a bd
       -0.0049894108 -0.54828876 -0.08721954 -0.061196424
000200 41 49 f4 bd 91 09 b4 3e 64 65 2e bd e1 08 92 3d
       -0.119280346 0.3516355 -0.042577162 0.071306
000210 98 9a c6 3d e6 de d6 3e a2 d3 38 3e 39 67 28 be
       0.09697455 0.41966933 0.18049482 -0.16445626
000220 cc 28 15 be 77 27 e8 3e 96 25 2e be a7 11 1e be
       -0.14566344 0.4534261 -0.17006525 -0.15436421
000230 d0 a6 20 be 03 6d d7 3d 86 64 ae be 33 34 b8 3e
       -0.15688634 0.10518839 -0.34061068 0.35977325
000240 9e 32 05 3f 4a 89 d1 be 1e 42 0a bf 26 5c 80 be
       0.5203036 -0.40925056 -0.54007137 -0.25070304
000250 36 70 8d 3e 9e ed 85 3e 4e a7 e9 3d 77 a2 0a 38
       0.27624673 0.2615785 0.11408864 3.305307e-05
000260 6c 66 b6 be a5 50 dc be 93 6c cb be 90 63 dc be
       -0.35625017 -0.43030277 -0.39731273 -0.4304471
000270 7d 6b a7 be e0 25 84 be 4a 04 de bd 25 21 ad be
       -0.32699195 -0.25810146 -0.10840662 -0.3381435
000280 61 51 9e be 04 0c 8f be b8 c1 10 be 01 02 58 be
       -0.30921462 -0.27938855 -0.14136398 -0.21094514
000290 21 e7 e1 3d 37 a6 7e bd 75 0e 8a be 9e 19 04 3f
       0.110304125 -0.062170234 -0.26964155 0.5160159
0002a0 e9 55 67 3e ad 2f 8e 3e 68 2c e5 be c6 8d 84 3e
       0.22591366 0.2777075 -0.44760442 0.25889415
0002b0 83 e4 e1 3e c3 13 b3 3e 58 90 6d 3e 99 06 7e 3e
       0.44119653 0.34976014 0.23199594 0.24807204
0002c0 d4 23 86 be 34 60 cc 3e e6 15 38 bc e0 66 f7 3d
       -0.2619921 0.39917147 -0.01123569 0.12080169
0002d0 60 4c a7 be 5a d2 44 be 9e f3 11 be dc 0d 5c be
       -0.32675457 -0.19220868 -0.14253089 -0.21489662
0002e0 70 dc 30 3e f9 68 0f be b3 4b 70 3e d2 71 f2 39
       0.1727159 -0.14004888 0.23466377 0.0004624264
0002f0 77 38 d1 bb c8 6f 0a be 0c a0 2b 3e ba 67 73 3e
       -0.006384905 -0.13519204 0.16760272 0.23770037
000300 9a 1d 47 be fb 8b 62 3e 12 b7 c7 be c3 fb 9d 3e
       -0.19444886 0.22123711 -0.3900686 0.3085614
000310 95 02 e3 3e 0f d3 05 bd cf 65 e9 3e 83 cb db 3c
       0.44337907 -0.032671984 0.45585486 0.02683044

lin2.weight f4 [200, 200]
000000 13 2a ea 3c c5 b5 1a 3e 36 cd 8e bd d1 9e d4 3d
       0.028584516 0.15108402 -0.06972735 0.10381854
000010 f1 28 10 3e 96 9b 28 be 94 1c 86 be 76 b9 f3 bc
       0.14078118 -0.16465601 -0.26193678 -0.02975152
000020 6b 17 1d 3e 0d 79 04 bd 16 34 a8 3d c4 72 07 3e
       0.15340964 -0.032342006 0.082130596 0.13227373
000030 df 52 e5 3c 79 9d 8c bc f0 99 05 3e bb 26 00 3d
       0.027993618 -0.017164933 0.13047004 0.031286936
000040 43 f2 fa 3c 60 c8 b6 bd fc 8c 91 bd 4c 10 23 3e
       0.030633098 -0.08924937 -0.07106969 0.15924186
000050 7f 44 55 be 28 80 93 3e b5 24 68 3e 17 eb f6 3d
       -0.2082691 0.28808713 0.22670253 0.120565586
000060 4d 80 16 3e c2 92 55 3e bf 6a 7a 3d cc f8 67 3e
       0.1469738 0.20856765 0.061136957 0.22653502
000070 98 ce 3d 3d d3 e5 dd bb 1d 88 63 be 77 3c c7 be
       0.0463396 -0.006771782 -0.22219892 -0.3891332
000080 61 79 ec bd 42 ea 4f be 8e e7 58 3e b3 ba 32 3d
       -0.11546589 -0.20304206 0.21182081 0.04363508
000090 e6 33 28 3e 52 7e 82 be d8 53 35 be fe cf 13 bd
       0.16426048 -0.25487 -0.17707765 -0.03608703
0000a0 ef 92 be 3d e1 85 d9 bc d7 15 17 bd 85 08 9f bd
       0.09305369 -0.026553096 -0.036886062 -0.07765297
0000b0 7f e4 ca 3d 8c ce cb 3d fe fd 1a 3d 0c 9f 05 be
       0.099068634 0.09951505 0.037839882 -0.13048953
0000c0 7f d9 dc bb d0 a3 eb 3d 30 84 a6 be cc 85 ae 3c
       -0.0067397947 0.11505854 -0.32522726 0.021304034
0000d0 89 13 9d 3d 26 36 e4 bd 4a 30 2e be 8c 78 20 be
       0.07669742 -0.111431405 -0.17010608 -0.15670985
0000e0 29 98 fa bd db bd 71 bd 8b 6c 9d 3d da 2e fe bd
       -0.122360535 -0.05901895 0.076867186 -0.1241128
0000f0 60 d7 15 bd dc 5d 7c bd 88 eb b5 39 00 7c 6b be
       -0.03658235 -0.06161295 0.00034698495 -0.22996521
000100 04 fb 9c bd 6c 43 80 3e c8 0d 70 3d 57 58 55 be
       -0.07665065 0.2505144 0.058606893 -0.2083448
000110 82 f0 9c 3d 39 47 e7 3d bd 44 24 3e 6f bf d5 bd
       0.07663061 0.112928815 0.16041847 -0.10436904
000120 56 18 ea 3d 15 50 f5 bd d9 8f 07 3e 36 46 30 3b
       0.11430423 -0.11978165 0.13238467 0.0026897318
000130 f8 63 4f 3d e7 d6 ee bc a0 3e 1b bd 16 aa 02 3e
       0.050632447 -0.029155208 -0.03790152 0.12760195
000140 e9 85 22 3d c5 cc 92 bd 0a 0e 8e 3e 8b 18 64 bd
       0.039678488 -0.07167963 0.27745086 -0.05568747
000150 9c 55 e3 3d a1 61 d3 bd 63 a1 05 3e 51 0a 36 bd
       0.11100313 -0.103213556 0.13049845 -0.044443432
000160 8c 71 cd bd 47 f0 39 bd 89 23 09 3e 66 7f 2e 3e
       -0.10031423 -0.045395162 0.13392462 0.17040786
000170 ac a7 4b be 32 f6 76 3d 95 5c 5d 3c 4f 45 be bd
       -0.1988818 0.060293384 0.013510843 -0.09290563
000180 16 77 a9 bd 03 e7 0a 3e 81 5f c3 bd f9 c9 8e 3e
       -0.08274667 0.13564686 -0.095397 0.27888468
000190 09 7e 5b be 73 90 62 bc 76 ce c0 3e cf 11 8a 3a
       -0.21434797 -0.013828385 0.37657517 0.0010533872
0001a0 d0 ca 64 be ff 7b 9d 3d ef 2c 0c be 91 86 4d 3d
       -0.22342992 0.07689666 -0.13689016 0.05017716
0001b0 56 3a 0c 3d 30 0a 8e bd c2 a0 19 3e 1f a9 a4 3e
       0.03423532 -0.06935537 0.1500273 0.3216028
0001c0 b3 df 8e bd 08 01 2c be d6 90 86 be b9 87 d7 3d
       -0.06976261 -0.16797268 -0.26282376 0.10523934
0001d0 ab 91 08 be 43 94 b1 bd 8b 1e 62 3d 17 e4 56 be
       -0.13336818 -0.08670857 0.05520491 -0.20985447
0001e0 40 b5 bc 3d 32 4c a4 3e da 0f f0 3c 5e c8 70 be
       0.09214258 0.32089382 0.029304434 -0.23513934
0001f0 88 8a c8 bd fb 18 7d bc 90 f1 35 be c5 af 01 be
       -0.09792048 -0.01544785 -0.1776793 -0.12664707
000200 b9 d2 4d 3c 71 06 65 be 0d 7b e2 3d e1 8e 06 3e
       0.012562447 -0.22365738 0.11058626 0.13140441
000210 d6 3c 07 3e 6f 5f b6 3d d1 a3 9e 3d 5d 2b a4 bd
       0.13206801 0.08904921 0.07746089 -0.080160834
000220 50 0d 59 3d 9a 2a 6f 3e 65 25 a9 bd 9e a2 36 3d
       0.05299121 0.23356095 -0.082590856 0.044588678
000230 07 6c 25 3e a9 b5 2e bb 94 a9 5f 3e 16 8d 9f bd
       0.1615449 -0.002665857 0.21842033 -0.07790582
000240 f0 ee e1 3d 89 27 80 bd 05 89 bd bc 0f c5 75 3e
       0.11031902 -0.06257541 -0.023136625 0.24000953
000250 59 54 67 3b f5 41 6a 3d 5d a0 b1 3d ba 8e cb 3d
       0.0035298078 0.057191808 0.08673165 0.09939332
000260 01 11 ea bd 86 71 f6 bc 6c b6 fd bd b0 08 5f bb
       -0.114290245 -0.030083429 -0.1238831 -0.0034032278
000270 55 72 66 3e 76 ca 94 3c 5d 91 e8 bd 53 7d 55 3e
       0.22504552 0.018162947 -0.11355851 0.20848589
000280 0e 89 81 bd 78 2b b0 3b fa 5c ef b9 5b 8e 6e 3e
       -0.06324969 0.0053762756 -0.00045654905 0.23296492
000290 09 7f dd bc 8d 07 06 bd 5c 1f 32 3e 38 56 d8 bc
       -0.027038114 -0.032722045 0.17394775 -0.0264083
0002a0 ed 0b 1c 3c cb a0 8d be d8 eb 99 bd d4 b0 1d 3e
       0.009524328 -0.27661738 -0.07515687 0.15399486
0002b0 5b cd f8 3b 8e ec 9a 3d 85 24 cf be 8e 1c 93 be
       0.0075928397 0.075646505 -0.4045755 -0.28732723
0002c0 44 cf 16 be b7 85 5b 3d 93 46 bd bc 59 e0 f6 bc
       -0.14727503 0.053594317 -0.023104941 -0.030136274
0002d0 bc a2 86 bd f0 3e ac be 96 36 0b be 00 9b 12 be
       -0.06574008 -0.33641768 -0.13595042 -0.1431694
0002e0 db e7 37 bc 67 60 9c bd 29 d1 3c 3e 14 1f d9 3d
       -0.011224712 -0.07635575 0.18439163 0.10601631
0002f0 1c e9 00 3d 99 98 62 bd e3 13 b6 bd 3f 2d a5 bd
       0.03147231 -0.05532131 -0.08890512 -0.08065271
000300 53 3e b5 bd 2d c3 a9 3c a8 94 27 be c0 83 91 3e
       -0.08849778 0.02072295 -0.16365302 0.2842083
000310 b7 7a 9e 3e 83 2f f1 bd 97 2c e6 3d e2 87 5d ba
       0.30953 -0.1177664 0.112389736 -0.0008450729
000320 12 03 c3 3d 64 cb f3 bd 68 04 e3 bc 5e 80 55 be
       0.0952207 -0.11904028 -0.027712062 -0.2084975
000330 ef 84 af bd 05 e1 d4 bd 4d 8c 31 be dd 25 e8 bd
       -0.08570277 -0.103944816 -0.17338677 -0.11335347
000340 70 bd a2 bc 26 1e a4 bd d1 f6 5e 3e 5d fd 2c 3e
       -0.019865721 -0.08013563 0.2177384 0.16893525
000350 ae 5e 14 be fc 0e 3e be d7 40 1b 3d ad 7e 85 3e
       -0.14489242 -0.18560404 0.037903633 0.26073208
000360 1d f4 15 3e 0a 61 b4 3c 21 aa 2a 3e 43 49 18 3d
       0.14643903 0.022018928 0.16666462 0.037179243
000370 a4 b7 46 be b8 3a d4 3d 76 18 93 bd d5 7a 58 be
       -0.19405991 0.10362762 -0.071824 -0.21140607
000380 fd 05 f9 be 51 b5 aa be 9a 49 0b 3e 3b f2 dd bc
       -0.4863738 -0.33341458 0.13602296 -0.027093044
000390 6f 0c 20 3e 08 f6 dd bc 68 c2 48 3e 1a f7 30 3e
       0.15629743 -0.027094856 0.1960541 0.17281762
0003a0 f8 e3 51 3e d1 ef 7c 3d 55 db 82 3d 3b a7 90 3e
       0.2049712 0.061752144 0.063894905 0.28252587
0003b0 0c 32 94 3d ba f4 16 be 6b 04 93 bc 75 d9 49 be
       0.07236108 -0.14741793 -0.017946443 -0.1971186
0003c0 c1 8c c5 bd 70 f1 18 3e 1d 75 95 3c 01 40 70 3d
       -0.09645987 0.14935851 0.01824432 0.05865479
0003d0 29 03 f3 3e eb 64 d2 be ca b6 2a 3e d6 cc 8a bd
       0.47463349 -0.4109262 0.16671291 -0.067773506
0003e0 a3 dc 62 3d db e9 a1 bd 53 30 06 be 4a ed 8a bd
       0.055386197 -0.079059325 -0.13104372 -0.067835405
0003f0 fe 11 3a bc 86 8e 28 3e 8f 56 e3 ba 4b a3 b4 bd
       -0.011356829 0.16460618 -0.0017344522 -0.08820208

lin2.bias f4 [200]
000000 00 64 6a 3e 1c 9f a0 3e ea b3 a8 bd de 68 49 3e
       0.2288971 0.3137139 -0.08237441 0.1966891
000010 a4 14 51 3e ae 06 89 bd f8 6e 3f 3e cf 09 dc bd
       0.2041803 -0.06690727 0.18694675 -0.10744058
000020 b6 01 8b 3e 62 98 8f 3d 29 97 c2 bc 08 6f 4f 3d
       0.27149743 0.070114866 -0.02375372 0.050642997
000030 2c 4e b7 bd 93 2b 95 3e 48 6e 6f 3c 28 01 0a be
       -0.08950457 0.29134807 0.014613695 -0.13477004
000040 af b5 25 be af a1 f4 bd 59 e8 c4 3d 94 3b 0a 3e
       -0.16182588 -0.11944901 0.09614629 0.1349929
000050 0a 52 42 be 6b 7a ec bd 88 9a 78 be 94 d0 a8 bd
       -0.18976608 -0.11546787 -0.24277699 -0.08242908
000060 1c e7 27 be 4d 5a 96 be 9d f8 8b 3d 22 6e 01 be
       -0.16396755 -0.2936577 0.068345286 -0.12639669
000070 be 05 4a be bb 07 e3 be 4e 1e cb be e9 bc 50 3e
       -0.19728753 -0.44341835 -0.39671558 0.20384564
000080 df 56 e2 3d 23 b9 3d 3e dc 94 9d be af 8c ef 3e
       0.110517256 0.18527655 -0.30777633 0.4678702
000090 7f f9 8a be 43 37 35 3e c8 03 68 3d ec ce a1 be
       -0.27143475 0.17696862 0.05664423 -0.3160318
0000a0 02 ee b4 3d 12 c7 de 3d bd 75 1e ba fb 50 0b bd
       0.08834459 0.108778134 -0.0006044766 -0.034012776
0000b0 10 96 b7 be bc cd 39 3e 75 19 75 bd 60 0a 3c be
       -0.35856676 0.18144888 -0.05983873 -0.18363333
0000c0 0f 97 15 3e a8 0f c5 bd 6e 7a 91 bd ec 33 b5 3d
       0.14608406 -0.09622127 -0.0710343 0.08847794
0000d0 bb 29 78 be 59 de c8 be d7 92 0d 3e 0d f5 f1 be
       -0.24234669 -0.39232138 0.13825546 -0.4725727
0000e0 c1 7b d5 3d 22 75 1f 3f fd af 22 be 4b 10 4f be
       0.10423995 0.62288105 -0.15887447 -0.20221059
0000f0 c8 1a 67 3e 46 c3 30 be 4b e4 91 be 5a 18 b6 be
       0.2256881 -0.17261991 -0.28494486 -0.35565454
000100 a8 40 23 3f b8 47 cf 3d 0c 2b 6f 3e dd 1c db 3d
       0.6377053 0.10121101 0.23356265 0.106988646
000110 95 c5 22 3e c4 29 f3 bd 5c 61 d1 bd 56 5e e1 3d
       0.15895684 -0.118732005 -0.10223648 0.11004321
000120 d5 48 41 3e 10 30 17 be cd b8 37 be c1 30 ca be
       0.1887544 -0.14764428 -0.1794159 -0.3949032
000130 00 8a c8 3c b7 07 9f 3e e1 c0 99 3c ab 5f 37 3e
       0.024479866 0.31060573 0.01876873 0.17907588
000140 57 57 dc be 9f 79 6e 3e 28 98 e3 bd fa 73 20 be
       -0.43035385 0.23288582 -0.11113006 -0.15669242
000150 fa 8b 9a 3e fa 20 48 3e d5 3f 62 bd 63 25 8f 3e
       0.3018492 0.1954383 -0.055236656 0.2795821
000160 c5 f5 9b be d2 b2 95 be 47 28 02 bd bc dc 1a 3e
       -0.30460945 -0.29237992 -0.031776693 0.15123266
000170 02 60 bc be 1f c5 04 3e ed b8 9e be 9a 12 1a be
       -0.36791998 0.1296582 -0.31000462 -0.15046158
000180 da 6d 8a 3e c2 df 75 bd 8a 43 f5 3d ca 68 09 bf
       0.27036935 -0.060027845 0.11975773 -0.5367552
000190 be 65 3e bd cc fb 26 3d 1c 06 de 3e e6 5a 33 3e
       -0.046483748 0.040767476 0.43364036 0.17515144
0001a0 51 63 32 be a5 73 21 3e 54 e0 45 3e b2 41 ad bc
       -0.17420699 0.15766771 0.19323856 -0.02114949
0001b0 83 89 22 be 42 2f 62 3e 73 72 b4 bd 59 95 9b 3e
       -0.15872769 0.2208834 -0.08810892 0.3038738
0001c0 09 32 b9 be 66 69 ee 3d 2f d0 71 be 7d 01 9b be
       -0.36170986 0.11641197 -0.23614572 -0.30274573
0001d0 dd b0 21 bb 0b dd ba ba f0 f2 1e be 66 f0 9d be
       -0.002467207 -0.001425655 -0.15522361 -0.30847472
0001e0 73 01 e0 3c 9a e1 75 3d 4f 2e 2b be 05 02 d5 3e
       0.027344441 0.060029604 -0.16716884 0.41603103
0001f0 4d 97 85 be a4 30 2d be 5d f0 bc be 1c 93 02 bf
       -0.26091996 -0.16913086 -0.36902133 -0.5100572
000200 73 07 1a 3e 7b f5 96 be ee 6a e1 3e a2 01 d8 bd
       0.15041904 -0.29484162 0.44026893 -0.105471864
000210 73 e8 55 3c 9e 24 f5 bd 1d b5 6b 3d c0 8c 11 3e
       0.0130559085 -0.11969875 0.05754577 0.14213848
000220 35 75 80 3d 2d 6b 14 be 84 68 67 bd 29 ca 41 be
       0.062723555 -0.1449401 -0.05649616 -0.18924774
000230 31 c9 a9 3e 76 31 87 be 7c 4a c8 3e e1 da 45 3d
       0.3316131 -0.26404923 0.39119327 0.048304442
000240 37 93 fc 3d 9e 5e 8b 3e 63 dc d2 3e 74 38 9c 3d
       0.123327665 0.27220625 0.41183767 0.07627955
000250 86 4f 59 3e f7 42 fb 3c 7e 8b e1 3d dd 21 e4 ba
       0.21221742 0.03067158 0.11012934 -0.0017405112
000260 6d 24 60 be 44 e9 9a be bf 86 07 bf 57 73 e1 bd
       -0.21888895 -0.30256093 -0.5293998 -0.110083275
000270 92 59 3c 3e 03 3a cf be f2 e9 dd 3d b9 93 0b be
       0.18393543 -0.40473947 0.10835637 -0.1363057
000280 12 47 01 bd f3 e5 d1 bd 83 b2 49 3e 1c d1 0e be
       -0.03156192 -0.102489375 0.19697003 -0.13946956
000290 88 18 b2 bd 16 4c 7d be 2b e8 34 be ec 4f 6e 3e
       -0.08696085 -0.24736056 -0.1766669 0.23272675
0002a0 89 43 14 bf af f7 f5 3d c6 5a 00 3e dd 57 31 be
       -0.5791555 0.120101325 0.12534627 -0.17318673
0002b0 d2 33 0e be 4e e7 0b be 62 3f 59 3e 37 7b 37 be
       -0.13886955 -0.13662454 0.21215585 -0.17918096
0002c0 a8 13 10 3e 5a a1 cd bd 17 96 60 be 99 9b ed be
       0.14069998 -0.10040541 -0.21932255 -0.46407774
0002d0 e2 b5 30 3b d9 77 ad 3e f4 62 fa 3c d5 7d 53 3d
       0.002696388 0.338805 0.030564763 0.051633675
0002e0 32 6d 68 be 81 d8 9d 3d 0c c2 a6 3d c9 62 cc 3d
       -0.22697905 0.077073105 0.0814248 0.09979779
0002f0 4b 9b 1f be fa 6b 06 be f8 a0 26 be ae dc ae 3e
       -0.15586583 -0.13127127 -0.16272342 0.3415274
000300 dd aa 9d be 0c ab 1a bd e1 da b9 bd bb e5 fb 3e
       -0.3079442 -0.03776078 -0.09074951 0.49198708
000310 61 d2 dc be b8 ed 37 3c d9 e2 00 bf 4d 28 c6 bd
       -0.43129256 0.01122611 -0.5034614 -0.096756555

lin3.weight f4 [200, 200]
000000 6d 60 09 3f 90 d1 a4 3d a9 10 87 3e 1e 9f 80 3e
       0.5366276 0.080477834 0.26379898 0.25121397
000010 58 d4 52 bd 32 bc 68 3e 5f 74 59 be 10 db 76 3d
       -0.051472038 0.22728041 -0.21235798 0.060267508
000020 f4 2c a3 3e 93 ef 9d 3e 84 2a 65 3d c3 a1 be 3e
       0.31870234 0.30846843 0.05594875 0.3723279
000030 31 53 61 be d2 87 b0 3d 18 0b 87 3e 0d a3 15 bc
       -0.22004391 0.08619656 0.2637565 -0.009133113
000040 56 a6 99 bd 4c 85 a9 bd e5 f8 2e 3e 3f 73 75 be
       -0.07502429 -0.082773775 0.17087133 -0.23969744
000050 1e 6d 1b 3e 99 04 0e be 4c 09 be be 65 84 02 bb
       0.15178344 -0.13868941 -0.37116468 -0.001991534
000060 54 fb c7 3d 28 75 66 bd 03 f2 c4 be d4 9e c7 bd
       0.09764734 -0.056264073 -0.3846589 -0.09747091
000070 15 dd fa 3e 37 f1 ef be fe 10 cf be 13 1c 6b be
       0.48996797 -0.4686372 -0.40442652 -0.22959928
000080 c3 15 8c 3e 1f bb 95 3e db f9 e1 bc f4 9e aa bd
       0.27360353 0.29244325 -0.02758496 -0.08331099
000090 2f 93 8b 3e 6a fb 17 3c bf 98 aa 3d 7d a9 22 3e
       0.2726073 0.00927625 0.08329915 0.15884967
0000a0 f7 b6 0b bd 20 42 17 3e a0 c2 f0 3d 4d ff cf be
       -0.034110036 0.14771318 0.11755872 -0.40624467
0000b0 58 91 7e bd 52 33 a0 3d 4d 27 5e 3e a7 37 38 be
       -0.06215033 0.078222886 0.2169468 -0.1798998
0000c0 29 7f 51 3e 3e 59 10 3e e2 3b 6a be e0 c9 93 3e
       0.20458664 0.14096543 -0.22874406 0.28864956
0000d0 53 2e 89 bd fa d6 b2 be 7c a4 8e bc 99 d8 7c bd
       -0.06698289 -0.3492964 -0.017412417 -0.06173
0000e0 dc 80 c6 bd 1a e4 8d bd ae c6 16 3e d9 3a 9a be
       -0.09692547 -0.069282725 0.14724228 -0.30123022
0000f0 62 22 17 3e 6b de 7b 3e df ef 39 be fb 24 77 be
       0.1475921 0.24596564 -0.1815791 -0.241352
000100 66 10 20 3e 7f ef 79 3e a7 24 40 3e 27 10 41 be
       0.15631256 0.24407767 0.18763982 -0.18853818
000110 08 ab 80 3e aa e6 df bd 29 20 2e 3e 7e c9 91 3d
       0.25130486 -0.109326676 0.17004456 0.0711851
000120 a6 31 98 be 55 19 2d bc d1 2a f8 3c d5 a9 19 bf
       -0.2972538 -0.010565122 0.030293854 -0.6002477
000130 c4 50 0d bf 05 ef 6e be 89 48 fa bd c4 af ea 3e
       -0.55201364 -0.23333366 -0.12220866 0.45837224
000140 b9 e1 44 3e 3e 16 1b bc 85 46 cc bd c8 2f a6 3e
       0.19226731 -0.009465752 -0.09974388 0.3245833
000150 6c 0b 96 3e 37 7b 8b 3e 4a 81 95 bc b0 eb 62 bd
       0.2930559 0.27242443 -0.018250126 -0.05540055
000160 a8 8e 1a bd 84 bd 54 bd da cd d2 3c a3 1e 7e 3d
       -0.037733704 -0.05193855 0.025732923 0.062040936
000170 04 88 58 bc e5 59 0b be ed a9 ea 3c c0 3b c5 3d
       -0.013216022 -0.13608511 0.02864548 0.09630537
000180 1e 7a b6 3d a0 e9 1d be 3b c0 57 be 62 4f 16 3e
       0.08910011 -0.15421152 -0.21069424 0.1467872
000190 c1 a7 97 bd 2a 0b 55 3e fb 4e b0 3e 2c c3 64 be
       -0.074050434 0.2080504 0.34435257 -0.22340077
0001a0 c2 03 fa be 80 0f 98 3e 13 b7 d0 3d 85 c5 2a 3e
       -0.48830992 0.29699326 0.10191169 0.1667691
0001b0 78 bc 6a be 39 ec 7f 3e e5 4a 05 be 9f 99 c0 bd
       -0.22923458 0.24992456 -0.13016851 -0.09404301
0001c0 9c af a7 be 19 c2 0a be 48 47 ab be 9f 93 43 be
       -0.32751167 -0.13550605 -0.3345282 -0.19099282
0001d0 e5 22 c0 be 04 d8 a0 be 5a e1 2e 3e 50 2e ac be
       -0.37526622 -0.31414807 0.17078152 -0.33629084
0001e0 de 9f 83 3e 82 87 a5 3e fd b8 21 3b 40 e0 26 be
       0.25707906 0.32329947 0.0024676912 -0.16296482
0001f0 47 73 28 be d3 e9 8f bc e0 ea 08 bf 8f 95 ca be
       -0.16450225 -0.01756755 -0.5348339 -0.3956723
000200 cb 7a 68 3e c5 e3 55 bd e5 de da 3d 31 4c a7 bd
       0.22703092 -0.05221917 0.10687045 -0.08168829
000210 85 c1 50 be 5e c1 cf 3d 5e 1d 18 3c 97 dc 42 be
       -0.20386322 0.10144304 0.009284345 -0.19029461
000220 17 92 0e 3e 1c 4f c6 bd 4e f2 1f be 5f 02 17 3e
       0.13922916 -0.09683058 -0.15619776 0.14746998
000230 be da 3e bb 75 ba 36 3e 4c e9 f9 bd 6d 15 df 3d
       -0.002912208 0.17844565 -0.12202701 0.108927585
000240 3c 8b bf 3e 0f 6d 12 bd 89 a7 b0 3d 55 77 88 3e
       0.37410915 -0.035748538 0.08625705 0.26653543
000250 cf 99 f7 3d bd 2f 8c 3e f4 9e 27 3f 91 ea b2 be
       0.120898835 0.2738017 0.6547692 -0.34944585
000260 47 43 95 be bd da bc 3e 11 fc f0 3e 31 2b b5 be
       -0.2915289 0.36885634 0.4706731 -0.35384515
000270 ff 86 68 be 3c a2 88 be 3b 3e b4 3c f3 db 1d bb
       -0.22707747 -0.26686275 0.02200233 -0.0024087399
000280 44 bc ab be be 7d 57 bb 97 43 28 3e 0a 26 54 be
       -0.33542073 -0.0032881345 0.16432033 -0.20717636
000290 e2 ed 02 be aa 67 14 bd 27 cd a9 3c 38 9b 2a 3e
       -0.12786058 -0.036231674 0.020727707 0.16660774
0002a0 19 71 80 bc f2 a5 a6 be 75 04 a1 3e 6a 01 20 be
       -0.01567893 -0.3254848 0.31448713 -0.1562554
0002b0 15 29 5a bc 88 ac 98 3e 2a 65 32 be 69 b5 0f bd
       -0.013315459 0.2981913 -0.17421404 -0.035085116
0002c0 cc 6c da 3e 3a bd a6 bd 4a c2 8b be f7 6e 86 3d
       0.4266113 -0.08141561 -0.27296668 0.065641336
0002d0 26 78 24 3d e7 23 b9 3e 2f 3f 47 bd d5 a7 f4 bd
       0.040153645 0.36160204 -0.04864424 -0.11946074
0002e0 de 2c 87 be e0 80 a5 be 36 3c 1a 3d 30 c1 d7 be
       -0.26401418 -0.32324886 0.037655078 -0.42139578
0002f0 77 6b 46 be 1e dc 3c be 09 44 5d bc be dd 7c 3e
       -0.19376932 -0.18443343 -0.01350499 0.24693963
000300 a5 14 07 be 26 97 54 bd 71 a2 19 be 32 40 9d be
       -0.13191469 -0.05190196 -0.15003373 -0.3071304
000310 dc d7 c1 3d ac 6c ad 3d bf a4 9e 3c b3 84 09 3e
       0.09465 0.08467993 0.019365666 0.13429527
000320 54 50 1e 3e af e0 05 be b6 f9 42 be 3e 10 52 3e
       0.1546033 -0.13073991 -0.1904057 0.20514008
000330 21 52 28 be 14 f1 90 bb 4c 6f d9 3d e9 9c b6 3d
       -0.1643758 -0.00442327 0.10616931 0.08916647
000340 9b 6c a9 bd af 91 7d bd c2 0b ab 3e 39 37 2b be
       -0.08272668 -0.061906513 0.33407408 -0.16720285
000350 58 a2 de 3d e8 b6 0f bd b1 47 cf 3d 4b 20 f3 be
       0.10870808 -0.035086542 0.10121096 -0.47485575
000360 a5 2b 9a be 0f d8 1b 3d 1d b2 a5 bd e1 b0 b0 3d
       -0.30111423 0.038047846 -0.08090613 0.08627487
000370 cd 12 5c 3e ee a1 45 be 09 cf bb be 81 2b b4 bc
       0.21491547 -0.19300053 -0.36681393 -0.0219934
000380 89 65 b2 3d 8b 07 51 be 4c 97 e0 be 63 0a 6e 3d
       0.087107725 -0.20413034 -0.4386543 0.058115374
000390 7a 1a 7a be b5 87 7c be 02 c9 c1 be 37 b9 f9 bc
       -0.24424163 -0.24661143 -0.3784867 -0.030483825
0003a0 bc 07 68 bd 78 7b 33 3e 46 5a b2 3e 9f 19 2e be
       -0.056648 0.17527568 0.34834498 -0.17001961
0003b0 fb 84 0b be 2d ad 61 3e 0b 90 d4 3e a7 06 01 3e
       -0.13624947 0.22038718 0.41516146 0.12600194
0003c0 61 ee cf be 1b 51 44 bd 54 f9 eb 3c 9d 58 e4 3d
       -0.40611556 -0.04792891 0.028805412 0.11149714
0003d0 f6 88 39 bf 9e 50 2f 3c a1 48 5e be 60 f8 d3 3e
       -0.7247461 0.010700373 -0.21707393 0.41400433
0003e0 9d 76 de bd 26 05 60 bd ce 04 be 3e 17 6f d0 bd
       -0.108624674 -0.05469241 0.3711304 -0.10177439
0003f0 ce 49 33 be 4e 33 da 3e 52 ee 64 3d ee 95 1d 3e
       -0.17508623 0.42617267 0.055891342 0.15389225

lin3.bias f4 [200]
000000 25 2c 60 3e 39 09 9f 3e 2c 75 8d 3c 63 4d cd bb
       0.2189184 0.31061724 0.017267786 -0.0062653287
000010 a9 97 7a be fa a2 88 3e 6e fc 25 be 8c a9 69 bd
       -0.24471916 0.2668684 -0.16209576 -0.057046458
000020 99 5e b0 3e 62 17 66 be 8a 07 a3 be 78 a4 a2 bd
       0.34447172 -0.22469857 -0.3184169 -0.07941526
000030 a9 78 9e be 9e 44 75 3d 4a 7e b0 be 25 3a 8a be
       -0.3095143 0.05987989 -0.3447135 -0.26997486
000040 fc 99 b9 be d7 fd 3c 3e 88 e7 82 be b8 6d e5 be
       -0.36250293 0.18456207 -0.2556727 -0.4481027
000050 5f e4 eb be 36 92 55 bd 27 7a 86 3e 28 4b a1 be
       -0.4607267 -0.05214139 0.2626507 -0.31502652
000060 65 69 b6 3e 86 10 c2 bd 0a fd 7a bd af da 87 be
       0.35627285 -0.09475808 -0.061276473 -0.2653403
000070 62 b6 48 3e 75 b5 2f bd 89 4d cc 3e d3 b3 0c 3f
       0.19600824 -0.04289766 0.39902905 0.5496189
000080 0e 5f 17 3e dc da eb 3e 29 f3 9e 3d 9f b6 21 bf
       0.14782354 0.46065414 0.07761223 -0.6316928
000090 c9 b1 20 bc 2c c3 8e 3e 16 ab 90 3d f2 46 91 be
       -0.009808012 0.2788328 0.07063882 -0.2837444
0000a0 ff 87 60 be e9 f6 a2 bd 29 f4 4b bd 50 39 33 bf
       -0.21926878 -0.079572506 -0.049793396 -0.70009327
0000b0 6d fb 37 3d 40 3a c0 bd ce 0c 9e bc ce 6c 8d 39
       0.044917513 -0.0938611 -0.019293215 0.00026974682
0000c0 56 d2 ae 3e 0f 53 06 bf 6f 48 69 be 42 81 a2 3e
       0.3414485 -0.5247049 -0.22781537 0.3173924
0000d0 69 7b af be b5 be 51 3d 10 26 12 be dd 34 67 3e
       -0.34273842 0.051207263 -0.14272332 0.2257876
0000e0 4d 79 2e 3e e0 16 91 3c ba 61 2f bf b9 1a ea bd
       0.1703846 0.017711103 -0.68508494 -0.11430878
0000f0 d1 1c 4d bf 7a 45 2e 3e fc 30 0d bf d3 59 fe bd
       -0.80122095 0.1701869 -0.5515287 -0.12419476
000100 ee 97 61 3e 64 2a e3 3e 52 ef 82 3d 9f 40 da be
       0.22030613 0.4436828 0.06393303 -0.42627427
000110 99 de e4 3e 12 29 24 bf 65 f2 ae 3d 0f 05 86 3d
       0.4470108 -0.6412517 0.08542327 0.065439336
000120 80 af 00 3e ad b9 f6 3e 50 cd 18 3e 7b c9 33 3e
       0.12566948 0.48188534 0.1492207 0.17557327
000130 6e ef 51 3e e9 49 1b 3c df 0a 5f be 8b 84 ff be
       0.20501491 0.009478071 -0.2178149 -0.4990581
000140 3e 7b 9a 3d c6 59 c7 3d 10 d5 fe 3d 2a df 16 bf
       0.07543038 0.0973392 0.12442982 -0.5893427
000150 77 d7 bb be fb fe 34 bf 11 34 af 3e f0 a7 b4 be
       -0.36687824 -0.7070157 0.3421941 -0.35284376
000160 3e a5 7f be 83 91 68 be 43 f2 93 be 8c 61 20 3c
       -0.24965379 -0.22711758 -0.2889577 0.009788882
000170 72 96 57 be ba 16 f5 3e 9b e7 9f be ed 1d f3 be
       -0.21053484 0.47868901 -0.31231388 -0.4748377
000180 27 e9 87 be f5 e9 26 bd 31 d0 63 3e 88 5d 9d 3e
       -0.2654507 -0.040750463 0.22247387 0.3073542
000190 6e b5 93 be 9f 64 24 bf 90 63 1d bf 3a 26 5b 3e
       -0.28849357 -0.64216036 -0.61480045 0.21401301
0001a0 cd 76 0b be d0 8b e2 bd 18 a5 cc be b1 9f 50 bd
       -0.13619538 -0.11061823 -0.39969707 -0.050933544
0001b0 cf ba 58 be f0 0b ae 3e d2 10 60 3e 73 ba 85 3d
       -0.21165012 0.33993483 0.21881416 0.06529703
0001c0 03 9f 4b 3d 2b 33 2d 3e 3a ae a7 be 3f b9 00 bf
       0.049712192 0.1691405 -0.32750112 -0.50282663
0001d0 7f 27 20 be 39 97 3e bd ef 72 98 be 1b 77 ee 3d
       -0.15640067 -0.046530936 -0.29775187 0.11643811
0001e0 1f 86 88 3e 3b 69 c0 3e 8b 07 14 bf cc 8d 40 bd
       0.26664826 0.37580284 -0.5782401 -0.047010228
0001f0 79 84 e3 3e 96 d3 01 bf 1f 5b 00 3f 5f 82 0e 3e
       0.44437006 -0.5071348 0.5013904 0.1391692
000200 76 54 46 bd fa a9 84 3e 36 d6 ab be 63 88 ec 3e
       -0.048420392 0.25910932 -0.33561867 0.46197805
000210 49 70 22 be 2a 07 f5 be 63 a4 64 3e 38 bd 08 3e
       -0.15863146 -0.47857028 0.22328334 0.13353431
000220 ed 88 05 3f 6f 7d b0 be 09 14 33 be e0 db 95 3c
       0.5216206 -0.34470698 -0.17488112 0.018293321
000230 15 99 81 3e 1c e9 50 be bb 78 97 bd 6e 57 99 3e
       0.25312105 -0.20401424 -0.073960744 0.29949516
000240 ef 45 7e 3e 63 01 bf bd 81 20 b6 be 4b 41 f8 3e
       0.24831365 -0.09326436 -0.35571674 0.48487315
000250 1c 95 f4 be eb cc c1 be e6 5f a2 bd 10 00 8d 3e
       -0.4777001 -0.37851653 -0.079284474 0.2753911
000260 f0 e7 e2 3e 50 49 d1 3e 72 7b 9c bd a8 48 4c 3d
       0.4431758 0.40876245 -0.07640733 0.049873978
000270 ac a3 fd 3d 33 53 33 bd 24 70 c3 3e a3 d4 14 be
       0.123847336 -0.043780517 0.38171494 -0.1453424
000280 09 e0 43 bd 47 6c be 3e ea 00 42 be 78 e2 4f 3e
       -0.04782108 0.37191984 -0.18945661 0.20301235
000290 cb da 07 be 2d dd 1c 3d 24 e5 0d bf 33 b3 a2 be
       -0.13267057 0.038296867 -0.55427766 -0.31777343
0002a0 7d 6e 5b 3e f2 73 f1 be 47 93 43 3f 18 5c 53 bf
       0.21428867 -0.47158772 0.763966 -0.825624
0002b0 a0 ac b8 3e e7 50 0b be a6 9e 55 bd a9 1d 1d bf
       0.36069202 -0.1360508 -0.052153252 -0.6137338
0002c0 8e 36 fe 3e 05 65 83 3e f1 79 1a bf c0 d5 1f 3d
       0.49650997 0.2566301 -0.6034232 0.039022207
0002d0 8e df 57 3e 31 a9 d6 3e 9c c5 00 bf cf b1 a1 3e
       0.21081373 0.41925958 -0.5030153 0.3158097
0002e0 05 69 b6 3e 41 65 03 bf b9 50 81 3e 30 27 dc 3c
       0.35627 -0.51326376 0.252569 0.026874155
0002f0 8a 30 a0 bd ff c9 01 bd 10 34 b8 3d a5 14 10 bf
       -0.07821758 -0.03168678 0.08994305 -0.562815
000300 94 28 63 3e a3 06 32 bf e0 a6 54 3e b6 a0 c5 3a
       0.22183448 -0.69541377 0.20766783 0.0015077803
000310 b9 6b 14 bf b0 76 d9 3d 81 4e d5 be c4 d3 e7 3e
       -0.5797687 0.10618341 -0.41661456 0.45278752

lin4.weight f4 [62, 200]
000000 81 52 e0 3f dc dc ff bf 53 c9 5a bf 40 05 bb bd
       1.7525178 -1.9989276 -0.85463446 -0.09131861
000010 e7 85 00 c0 cf 1e ee be 1f 46 6c bd b4 d4 64 3f
       -2.0081728 -0.4650788 -0.05768406 0.8938706
000020 77 61 3c 40 9b c2 e1 bf d4 e7 ed be 11 b9 62 bf
       2.9434488 -1.7637514 -0.46465933 -0.8856364
000030 11 5b e7 3f 31 41 2f 3f 17 14 98 3e 46 41 50 3e
       1.8074666 0.6845885 0.29702827 0.203374
000040 f8 96 42 c0 d8 96 25 3f 1f 4b 22 40 fb 39 b2 3e
       -3.0404644 0.64683294 2.535835 0.3480986
000050 66 2c e7 3d ed df 68 3f f2 8e 96 3f f5 bc bd be
       0.11287765 0.90966684 1.1762373 -0.37058225
000060 1b 4a 96 3f 1e f8 5e bf 9e 60 43 3e 8d 5b cb 3e
       1.1741365 -0.87097347 0.19079825 0.39718285
000070 ed 80 fe be a5 aa 54 3f 4b 16 d1 3f 88 0d b9 bf
       -0.49707738 0.8307288 1.6334928 -1.4457254
000080 db 6e f4 bc ab b0 43 bf 1b 85 df bf 05 a1 e6 3f
       -0.029838016 -0.7644145 -1.7462496 1.8017889
000090 8d f2 31 3f 4f 7d 86 3f db 0c 04 be 5b 2a d4 be
       0.6951073 1.0506991 -0.12895529 -0.41438565
0000a0 c9 e3 e7 3f 85 2f c7 3f 17 db 96 3e 43 7c c9 3f
       1.811639 1.5561377 0.29464027 1.5741047
0000b0 26 eb 76 be 96 15 3b 3f 01 c1 e5 be f7 d2 33 3f
       -0.2411314 0.7307981 -0.44873813 0.7024378
0000c0 5a 8f 4a 3f 45 9a 9e bf d9 6b 9b 3f 73 e4 25 bf
       0.7912499 -1.2390829 1.2142287 -0.6480171
0000d0 be 6b 2f c0 f9 fa 4d bf 54 ef 01 40 a2 21 fe bf
       -2.740951 -0.8046108 2.0302324 -1.9854014
0000e0 0e 0f 2d 3f a4 44 8a c0 7b 2d 20 bd e2 b1 af bf
       0.67601097 -4.320879 -0.039105874 -1.372616
0000f0 94 08 90 bf 8c bb db bf ad e3 a0 bf ab a5 b5 bf
       -1.1252618 -1.716661 -1.2569481 -1.4191183
000100 ca 8b 57 bf 22 7d 50 40 2b b0 43 bf 69 51 f9 3e
       -0.84197676 3.2576375 -0.76440686 0.48694924
000110 be 7e dc 3e bb c5 f2 3f ec df 4b be dc 34 be 3e
       0.43065447 1.8966593 -0.19909638 0.37149704
000120 6f 3f 5b 40 a1 95 e5 3f a3 af 09 40 5b b9 3d 40
       3.4257467 1.7936288 2.151345 2.9644382
000130 ce 48 36 bf c2 63 7d bf af bd 9c bf 4f 47 f1 3f
       -0.7120484 -0.98980343 -1.2245387 1.8849887
000140 df 4d 27 bf 51 0c 23 40 23 6c a6 bf 37 4f 23 c0
       -0.65353197 2.5476267 -1.3001751 -2.55171
000150 0d 26 62 c0 5b 71 8e bf 4a 62 72 3d c5 ea e2 bf
       -3.5335724 -1.1128343 0.059175767 -1.7727896
000160 89 d4 7c be aa e4 84 be 78 87 87 bf f3 7d 00 3e
       -0.2469045 -0.25955707 -1.0588217 0.12548046
000170 88 3a df 3e c1 b0 09 3f 25 72 83 bf df cd 5b c0
       0.43599343 0.5378533 -1.0269209 -3.4344404
000180 fe b9 04 bf 29 33 f2 bf cb c5 29 40 de 17 38 3f
       -0.518463 -1.8921863 2.6526973 0.7191142
000190 7c 27 bd bd e5 ab 82 3e a5 d5 89 bf 14 79 da 3f
       -0.09236047 0.2552177 -1.0768324 1.70682
0001a0 f0 dd 0c be ba b4 a5 be 71 5b b3 bf 02 59 f9 3f
       -0.13756537 -0.32364446 -1.4012281 1.9480288
0001b0 44 06 ed be 35 67 90 3f a0 1e d6 3f cf af 28 bf
       -0.46293843 1.1281496 1.6728096 -0.6589326
0001c0 32 d5 f1 3d b6 81 f7 bf 66 4c 91 be 72 6f 06 3f
       0.11808242 -1.933646 -0.283786 0.525138
0001d0 7b c2 aa bf 98 c9 7f bc 84 26 a1 bf 93 5d d2 bf
       -1.3340601 -0.015612029 -1.2589879 -1.6434807
0001e0 67 c0 19 3f 51 99 30 40 85 95 aa 3e 85 1f 24 3e
       0.6005921 2.7593577 0.333172 0.16027649
0001f0 dd 21 a6 3f 04 ad 00 40 b4 21 c0 3e 63 0b aa 3e
       1.2979084 2.01056 0.37525713 0.33211812
000200 e1 fb f3 3f 8e 2f de bf 7f 53 81 be 43 8e aa be
       1.9061242 -1.7358263 -0.25259015 -0.33311662
000210 13 92 0a bf 28 c8 ef bf a7 47 32 c0 2d 40 3a 3f
       -0.5412914 -1.8732958 -2.7856233 0.72754174
000220 c8 d6 0d c0 4c 08 11 c0 2f cf a4 bf a0 95 85 bf
       -2.2162342 -2.2661314 -1.2875727 -1.0436287
000230 d9 9d a5 be c9 e9 6f 3f 54 8d 38 3f d8 02 6b be
       -0.3234699 0.937161 0.7209065 -0.22950304
000240 c1 86 c1 3f a0 4c 46 3f b2 41 68 c0 58 e9 a5 bf
       1.5119249 0.7746067 -3.6290097 -1.2961836
000250 b0 48 32 c0 13 21 3f c0 e1 5d 82 3f 71 f3 92 be
       -2.7856865 -2.9863937 1.01849 -0.28701356
000260 be a1 9b 3e ac d7 7a be 6e 46 3f c0 91 6a 17 40
       0.30396837 -0.24496335 -2.9886737 2.3658793
000270 c2 11 89 bf eb 56 4f be b7 97 0e c0 49 74 6c bf
       -1.0708544 -0.20248 -2.22801 -0.9236494
000280 50 3b cb 3e 1a 97 cc 3f 39 ef 61 40 ec a9 55 3f
       0.3969369 1.5983613 3.530226 0.83462405
000290 b5 9f 90 be 25 7b 17 3c 51 3c 1d 40 cd ed 01 40
       -0.28246847 0.009245669 2.4568064 2.0301392
0002a0 44 6d c3 3f ca 13 90 3f ea 03 6f bf d7 a3 2e bf
       1.526772 1.1256039 -0.9336535 -0.6821875
0002b0 18 a8 94 bf 1f 1d 38 bf 00 96 44 bf 5a 7f b2 bf
       -1.1613798 -0.71919435 -0.7679138 -1.3945115
0002c0 5a e5 54 3f 91 a6 7d 3e 2b 04 be bc 4e 56 f5 3d
       0.8316246 0.24770571 -0.023195347 0.11979352
0002d0 16 d3 18 bf 84 12 01 40 a7 49 20 c0 77 c6 90 bf
       -0.5969709 2.016755 -2.5044954 -1.1310567
0002e0 16 46 8b 3d bf 04 10 c0 e2 1f 80 3f 79 0e c2 be
       0.06800477 -2.2502897 1.000973 -0.37901667
0002f0 fc fe 45 40 85 7c 84 be 6d 48 86 3f aa f4 53 bf
       3.093688 -0.2587625 1.0490853 -0.827952
000300 9b 97 5a c0 bb e0 6d 3f 4c d7 24 3e 50 88 30 40
       -3.4155033 0.92921036 0.16097754 2.7583199
000310 0b 55 b6 be 0c 54 00 c0 53 96 33 bf 92 b7 ac be
       -0.35611758 -2.0051298 -0.7015125 -0.33733803
000320 12 4e cb 3f 46 02 c3 3d f8 c5 8b bf fa 7f 04 40
       1.58832 0.09521918 -1.091979 2.070311
000330 c7 e8 16 c0 a7 c5 a4 3f 12 6f 08 c0 6c db d9 3e
       -2.3579576 1.2872819 -2.1317792 0.42550218
000340 9c 1c d6 bf 06 ff 29 bf 55 91 f5 bf 31 11 e2 3f
       -1.6727481 -0.6640476 -1.9184977 1.7661496
000350 4b 99 66 bf 90 b2 cc 3f 13 db c5 bf a6 23 b2 3f
       -0.90077657 1.5991993 -1.5457481 1.3917129
000360 e7 4a 07 c0 d5 fc a9 bf be e7 05 40 94 4f 2e bf
       -2.1139467 -1.3280283 2.0922694 -0.68090177
000370 8a c9 cb 3f 9e dd 19 3f 52 7e 07 40 95 38 d7 be
       1.592088 0.60103786 2.117085 -0.42035356
000380 a9 d6 0e 40 c8 4d e4 3f fd 3f 10 3f 7d 91 dd bf
       2.2318518 1.7836237 0.5634764 -1.7310024
000390 e0 1b 77 3b 1c 44 ef be a5 ce db 3f 1c 49 22 c0
       0.0037705824 -0.4673165 1.7172438 -2.5357122
0003a0 b9 9a ba 3e 56 70 50 3f b0 58 81 3e 30 d1 43 3f
       0.3644617 0.8142141 0.25262976 0.7649107
0003b0 65 9b 38 bf 07 ac 04 40 24 11 9a bf c2 58 d8 bf
       -0.72112113 2.0729997 -1.2036481 -1.6902087
0003c0 51 b9 db bf 20 5d ca 3f 66 ae ed bf 0a 58 c4 3f
       -1.7165929 1.580967 -1.8568847 1.5339367
0003d0 d3 cb 88 3e 9a 02 e5 bf 02 f2 25 c0 15 19 0a c0
       0.26718006 -1.7891419 -2.592896 -2.157781
0003e0 05 2f 70 be a9 84 18 c0 7d 41 0d bf 8d 0f 18 be
       -0.23455437 -2.383097 -0.5517805 -0.14849682
0003f0 34 e6 5e bf 32 ee 94 bf 77 e0 ef 3f c6 bc e6 bf
       -0.8707001 -1.1635191 1.8740376 -1.8026359

lin4.bias f4 [62]
000000 9c 7f ff 3f 7a 8c 86 40 72 48 5c c0 7a 57 ca 3f
       1.9960818 4.204648 -3.4419217 1.5807946
000010 56 25 84 3f e6 29 69 c0 09 8e e4 be 98 6a 2a 3f
       1.0323894 -3.6431823 -0.44639614 0.665689
000020 1f dc 19 bf 43 3f a4 bf 29 cb 36 3d 72 d1 0c c0
       -0.60101503 -1.2831806 0.044627342 -2.2002835
000030 ea 26 08 c0 4e 59 d4 bf 04 f6 d4 bf ec 59 10 c0
       -2.1273751 -1.6589754 -1.6637578 -2.2554884
000040 e8 eb 0f c0 ff 40 04 be e3 e7 42 3f 13 ba 23 c0
       -2.2487736 -0.12915419 0.7613508 -2.558232
000050 ac b4 bd c0 bb 62 95 bf 5d ed d4 bf 9b a9 00 bf
       -5.9283047 -1.1670755 -1.6634938 -0.502588
000060 77 ac 0c c0 55 50 0a c0 70 71 f7 bf dd d5 31 c0
       -2.1980264 -2.161153 -1.9331493 -2.7786782
000070 fd 8c b2 3e 7c 01 80 3f ae e0 07 c1 89 c0 86 c0
       0.3487319 1.0000453 -8.492353 -4.211003
000080 55 e4 98 3e 27 a1 06 c1 ec 31 8b bf 07 1d a8 c0
       0.29861704 -8.414344 -1.087461 -5.2535434
000090 9f 27 e1 3f 94 5a e9 be bb 4f 63 bd 8f 9e 48 bf
       1.7590216 -0.45576918 -0.05549596 -0.7836694
0000a0 51 d4 33 3f 0d 39 36 bf f9 d2 a3 bf 35 08 09 3f
       0.70245844 -0.711808 -1.2798759 0.5352815
0000b0 6c 96 a8 3f e0 9c b5 c0 f2 5b 81 c0 a8 47 49 bf
       1.3170905 -5.6754 -4.042474 -0.78624964
0000c0 94 50 a0 3e 32 9e 28 be a3 c5 1e bf 10 60 b8 3e
       0.31311476 -0.16466597 -0.6202032 0.3601079
0000d0 87 63 3a c0 da df ad be 28 08 0e 40 41 84 6c 3f
       -2.9123247 -0.33959848 2.2192478 0.92389303
0000e0 71 f4 13 c0 db 5d 79 c0 2e df 5b 3f 90 62 ac c0
       -2.3117945 -3.8963535 0.8588742 -5.3870316
0000f0 d3 1c 29 bf a3 9a 3c c1
       -0.6605961 -11.787753
