qn1/model_weights.pth (torch, 15370 bytes, 9 tensors)

emb.weight f4 [62, 8]
000000 5d a9 4f bd 69 88 68 be 91 b3 2e 3f 0d 30 78 be
       -0.050698627 -0.22708286 0.68242747 -0.2423708
000010 dd f9 ae 3e 6a 9b 21 bf 2c 0f 29 3e f1 87 3d be
       0.34175006 -0.6312777 0.16509694 -0.18508889
000020 a7 6b c3 be b6 18 91 bc d4 6b 8e 3e 7f 89 5e bd
       -0.3816807 -0.017711978 0.2781664 -0.054330345
000030 6b 49 b5 bd 84 46 7a be 7c 01 11 be 56 9d d9 3e
       -0.08851894 -0.24440962 -0.14160722 0.4250285
000040 c0 4c 0d 3f 83 0f 08 3e b0 de e7 be 46 da 93 3e
       0.55195236 0.13287167 -0.45287085 0.28877467
000050 58 48 0d 3e be ca f5 be 07 da 38 3f 0b 2d ed 3e
       0.13797128 -0.48006243 0.72207683 0.46323428
000060 3b 82 8d be 91 32 ac 3e aa 12 56 be 41 42 93 be
       -0.2763842 0.3363233 -0.20905557 -0.28761485
000070 17 6d 35 3e be f9 b7 bd 20 20 90 3e 5f be 9d be
       0.17717396 -0.089831814 0.2814951 -0.30809304
000080 86 f1 f5 3e 16 7a 83 3e 44 0e 0d be e6 b5 81 3e
       0.4803583 0.25679082 -0.13774973 0.2533409
000090 ce 2d bc bd 0b d6 d5 be 74 47 34 bd 94 8d 34 bd
       -0.09188424 -0.41764864 -0.044013456 -0.044080332
0000a0 a6 35 56 bf c0 83 38 3e 2c b3 0c 3e 39 42 b6 be
       -0.8367561 0.18019009 0.13740224 -0.355974
0000b0 73 d2 22 3f d4 5b 2f be 07 33 5e be 93 a1 ff bc
       0.6360237 -0.17124873 -0.21699153 -0.031204974
0000c0 11 cc 87 3e b7 2d 05 3e 2e 3a 1d bf d6 66 bc 3e
       0.26522878 0.1300572 -0.614169 0.36797208
0000d0 d9 8a b2 3e 6d c4 a5 be 58 77 3e 3f 83 c3 3a 3f
       0.34871557 -0.32376423 0.74400854 0.7295458
0000e0 26 2b f2 3e 1f 17 98 bd 9a 6f ff be 21 13 45 3e
       0.47298545 -0.07426285 -0.49889833 0.19245578
0000f0 98 e2 bd bd 4b f5 f3 be f2 b4 86 3e 2b dd 29 3e
       -0.09271735 -0.4764808 0.26309925 0.16588275
000100 17 e4 eb 3e a2 39 9e 3e e3 ac 8a be 28 bc a2 3e
       0.46072456 0.30903345 -0.27085027 0.31784177
000110 d4 f8 89 bd e0 e5 0f bf 77 89 b5 3d 16 3e 83 bd
       -0.06736913 -0.56210136 0.0886411 -0.06408326
000120 fc bc 01 3f 8a 46 8b 3e a7 9a 36 bf b6 3b c1 3e
       0.5067899 0.27202255 -0.7132973 0.37740868
000130 72 3f 58 3f 84 95 17 be 49 8d 86 3e ff 99 06 3f
       0.8447181 -0.1480313 0.26279667 0.5257873
000140 4e 35 be be ab fe c9 3e e3 53 4f 3e af 8e 59 bd
       -0.37150043 0.3945211 0.20246844 -0.05311459
000150 bd f7 f0 be 99 a2 7a 3e a0 11 11 3f f5 37 a3 bd
       -0.4706401 0.24476089 0.5666752 -0.07969657
000160 6a a5 a3 3e bd da 05 3f ac 46 42 3f 3f 2a b4 3e
       0.31962138 0.52286893 0.75889087 0.3518848
000170 c5 39 78 bc dc e7 d2 3e 82 89 a9 3e eb d5 a3 be
       -0.015150492 0.4119252 0.33112723 -0.31999144
000180 96 a7 10 bd 43 25 25 3f 68 94 ee 3e cb b6 9c be
       -0.035316072 0.6450998 0.465976 -0.3060821
000190 2c 57 47 3e d4 4b c0 3e 1b 4c 17 bd b3 0f 64 3e
       0.19466847 0.37557852 -0.036937814 0.22271614
0001a0 b1 d9 1e 3e f5 d2 65 3e 51 f1 bc 3e 7c 99 a6 bb
       0.1551273 0.22443755 0.3690286 -0.0050842147
0001b0 04 65 0d 3e 7a ea dc 3e dc ef aa 3e 1c b5 d0 3d
       0.13808066 0.4314764 0.33386123 0.10190794
0001c0 50 8d 43 be fb bb bb 3e 43 2c 96 3e e6 85 a2 bd
       -0.19096875 0.36666855 0.29330644 -0.07935695
0001d0 a1 a4 dd be e9 79 69 3d c1 b1 1d 3f 9d a7 30 be
       -0.43289664 0.05700103 0.61599356 -0.1725144
0001e0 73 49 c8 3e c2 d1 35 3e 50 85 e4 3e 0b 82 94 3e
       0.39118537 0.17755798 0.4463296 0.29005465
0001f0 d5 36 d9 3d e1 20 6c 3e 29 59 7f 3e bb f3 aa bd
       0.106061615 0.23059417 0.24936356 -0.08347269
000200 d8 07 e5 3d 66 ff 15 3f ff 13 29 3e 8f cc 63 be
       0.11183137 0.5859283 0.16511534 -0.22246002
000210 31 ac e1 bd 76 d8 f4 3c ab f1 9e 3e 9c c4 84 bd
       -0.11019171 0.029888373 0.31043753 -0.06482813
000220 aa db 9c 3e 55 f6 2b 3e c9 0f 49 3e 87 10 b8 be
       0.3063634 0.16793187 0.19634928 -0.3595011
000230 48 71 e3 bd 00 d2 a4 3e 1e 05 73 3e fc 13 02 3e
       -0.11105591 0.32191467 0.23732421 0.12702936
000240 f1 1e 86 be 2c 50 2a 3f 2a e7 a9 bd 4e 91 45 3e
       -0.2619548 0.6652858 -0.08296044 0.1929371
000250 8d fc 41 be ca 12 b2 3e 5c 39 c2 3e 81 23 e7 bd
       -0.18943997 0.3477996 0.37934387 -0.11286069
000260 d8 31 9c 3e 62 a8 d6 3e 3c 9e 01 3f ed 5a 89 be
       0.30506778 0.4192534 0.5063207 -0.26827183
000270 3a 5d 9e bf 66 62 79 3f d8 70 35 bd 47 ff 06 bf
       -1.23722 0.9741577 -0.04429707 -0.5273327
000280 83 90 87 3e de d3 2d 3f 08 b5 c8 bd ea 0c ca 3d
       0.2647744 0.6790141 -0.09800154 0.098657444
000290 30 cb ac 3e 82 bb 23 bf 40 06 3e bd 50 1e 2c 3c
       0.3374877 -0.6395799 -0.04639268 0.010505274
0002a0 fb 03 79 3e 0c b8 30 3e 06 ee 16 3f c0 74 5a 3e
       0.24317925 0.17257708 0.58956945 0.21333599
0002b0 dc b2 25 3d de 81 8e 3e 0c af 97 3e 73 13 ea bd
       0.040453777 0.27833456 0.29625738 -0.11429491
0002c0 7c 58 92 3d 09 42 8a bc a9 d0 75 3e 9d 10 f7 3c
       0.07145783 -0.016877191 0.24005379 0.030159289
0002d0 28 ab 5c 3c 8c ae 63 3e a2 f5 06 3f 8d 0e 38 3e
       0.013468541 0.22234553 0.52718556 0.179743
0002e0 07 ef 78 3d 4e 65 cb 3e 96 ce 47 3e a3 30 71 3d
       0.06077483 0.39725727 0.195124 0.058884274
0002f0 f4 bb 4b 3e 19 08 07 3e 1b 7b bc 3e 5d 4e 05 be
       0.19895917 0.13186683 0.36812672 -0.13018174
000300 3e 62 a9 be 53 8a dd 3e b3 bd c8 3e 22 db 77 3d
       -0.33082765 0.43269596 0.3920723 0.060511716
000310 87 b3 03 bf ed 08 df 3c 9a 85 03 3f 3f e5 8d be
       -0.5144581 0.027225936 0.51375735 -0.27713963
000320 61 5c 7b 3e 2a e4 8a 3e f2 45 47 3f b5 9a 8c 3e
       0.24546959 0.271272 0.77841103 0.27461782
000330 88 68 98 bd 20 a2 53 3e ea 0a 72 3e 2d 6a 4a be
       -0.07441813 0.20667315 0.23636976 -0.19767065
000340 db 73 21 be cc 61 58 3f eb 26 bc 3e 02 c1 cc 3d
       -0.15766852 0.84524226 0.36748442 0.09997751
000350 30 1e 2e bf d8 a9 80 3f 02 7a 44 3f 5e 68 16 bf
       -0.6801481 1.0051832 0.7674867 -0.58753
000360 94 a5 ad 3c e2 08 8a 3e cd 66 3a 3e f1 84 9e 3e
       0.021197118 0.26959902 0.18203278 0.309608
000370 5f 5e f4 3c 72 dd aa 3e 0c 2c b9 3e e4 19 43 3e
       0.029830156 0.33372074 0.36166418 0.19052845
000380 05 cb 81 3e a5 a8 37 3e c6 dd 12 3d 4e c9 dd 3d
       0.25350204 0.17935427 0.03585603 0.108294114
000390 73 3f 84 3d 9c 9d 91 3d 82 3e 55 3e 98 15 54 3e
       0.064574145 0.0711014 0.20824626 0.20711362
0003a0 7d ed d1 3d 7d 68 de 3e a6 8e 71 3e d5 33 53 3b
       0.102503754 0.43439093 0.23589572 0.003222694
0003b0 74 c0 8f 3d 4f 6c cc 3d 15 34 89 be 66 cf 1e bd
       0.070191294 0.09981596 -0.26797548 -0.03877201
0003c0 f1 fb b3 be 53 6a 16 3f 3b c9 9f 3e ef 93 b8 3e
       -0.35153154 0.5875599 0.31208214 0.36050364
0003d0 92 90 d1 3c e1 76 cb 3e 4f 78 58 3f 11 c1 ad be
       0.025581632 0.39739135 0.84558576 -0.3393636
0003e0 11 ff 15 3e 47 6f c3 3e 2c 3b d9 3e 50 3a d8 be
       0.14648081 0.38170835 0.42427957 -0.4223199
0003f0 07 26 29 3e 08 ce 26 3e 16 d2 9f 3e 53 0c 2a be
       0.16518413 0.16289532 0.3121497 -0.16606264

lin1.weight f4 [10, 160]
000000 58 5f a3 3a 28 cf b2 b9 02 38 8b bc b5 2a 4a 3d
       0.0012464328 -0.0003410515 -0.01699448 0.049357135
000010 bc 80 b3 bc 44 f1 28 3c e5 d5 3b bc 27 66 18 bc
       -0.021911971 0.010311428 -0.011464571 -0.009301699
000020 5c 5c fc bb 77 06 c2 bc a0 6b bc bc 62 2d 35 3d
       -0.00770144 -0.023684723 -0.023000538 0.044232734
000030 29 00 04 3c 3b 58 f6 bc da 99 7a bb 6d 07 ee bb
       0.008056679 -0.030071368 -0.0038238675 -0.007264069
000040 3c 1c 4e 3b b3 24 e8 3c 94 5a 85 bb de 95 a8 3d
       0.0031449934 0.028337812 -0.0040696356 0.0823171
000050 56 79 d6 3c ce e7 1b bc 24 3c 8b bc e0 47 e4 3a
       0.026180904 -0.009515716 -0.01699645 0.001741644
000060 d6 bd 51 bc 06 a2 8c 3b a8 7a 14 bd 21 23 2a bd
       -0.012801608 0.0042917756 -0.036249787 -0.041537408
000070 f6 85 f8 bc d4 68 20 39 1f be e8 bc a4 bd a1 3c
       -0.030337315 0.0001529784 -0.02841097 0.019743748
000080 78 3e b5 bc a6 49 8d 3c 0d 4a fb 3b a7 be 98 bc
       -0.022124514 0.017247032 0.0076687397 -0.018645598
000090 96 6c 4c bc fb 33 9f bb 78 4a b3 3b fe a5 ee b9
       -0.012477061 -0.0048584915 0.005471524 -0.0004551857
0000a0 b9 93 33 3d 4b 01 96 3c fd d1 c7 3b 50 8d 92 bc
       0.04384205 0.018311163 0.0060980306 -0.017889649
0000b0 b9 89 56 bb bf 6e 4f bc 53 f0 d7 3b d6 13 60 bc
       -0.0032735898 -0.012660681 0.006589928 -0.013676604
0000c0 b6 8c 34 3b 57 31 89 ba c3 9f 59 3c 5c a2 b6 3b
       0.002754969 -0.0010466975 0.013282719 0.005573554
0000d0 bb 33 82 3c e6 d1 7f bc 9d 6e dc bc b4 63 9c 3a
       0.015893808 -0.0156140085 -0.026908213 0.0011931569
0000e0 5c 98 4c bc bf 8e 5c bc f8 a9 4b 3c cd 26 7b bb
       -0.012487497 -0.013461768 0.01243066 -0.0038322688
0000f0 9b 1d 8d 3b 3d c1 b3 bc f2 03 89 bc ab 6e 78 3c
       0.0043065078 -0.02194273 -0.016725514 0.015163104
000100 f4 c2 6a 3c 0d 16 3b bc d3 00 58 3c 62 58 0c bc
       0.014328707 -0.011418832 0.01318379 -0.008565994
000110 db 7a b3 bc aa 63 b6 bc cf ba 07 3c 97 e5 da 3c
       -0.021909168 -0.02226432 0.008284285 0.026720805
000120 ef 14 d0 bb 37 59 12 3d 0f 17 4f bd 22 6d 3a 3c
       -0.0063501517 0.035729613 -0.0505591 0.011378558
000130 b1 d6 1d 3d 5c 8e 86 bb 24 86 d6 3c 2c 82 86 3c
       0.038534824 -0.004106326 0.02618701 0.016419493
000140 35 60 a8 ba 57 bb 5c 3a 83 a3 57 bc de 2f 86 bb
       -0.0012846055 0.000842025 -0.013161543 -0.0040950617
000150 28 85 2c 3d f1 43 0f bd 33 8b 44 3d 31 19 c0 3a
       0.042119175 -0.034976903 0.047984313 0.0014655945
000160 f9 78 8b bc 56 44 e9 bc 54 bf 5c 3a 31 ce 86 3a
       -0.017025458 -0.028474968 0.0008420844 0.0010284838
000170 6e 58 3e 3d b6 d9 18 bc 0b 51 65 3d 94 45 5a 3d
       0.046471052 -0.00932925 0.05598549 0.05328901
000180 84 0a 98 3c 41 5c 84 3b d6 b6 0a 3c 4f ac af bb
       0.018559702 0.004039318 0.008466443 -0.005361117
000190 87 e5 fb 3c d9 db 3c bd 24 6f 0f bd 2b 1e a4 bb
       0.030749096 -0.0461081 -0.0350181 -0.005008479
0001a0 02 48 6e 3c ce 14 fa bc aa 41 85 3c af d5 72 bd
       0.014543535 -0.030527499 0.016266663 -0.059285816
0001b0 39 8b a0 3a ff dd 94 bc c3 8a 84 bb d7 1c f0 ba
       0.0012248523 -0.018172262 -0.004044862 -0.0018319142
0001c0 f4 69 19 bd 22 59 af bc 14 c7 55 3b 03 1e c6 bc
       -0.03745456 -0.021404807 0.003261988 -0.024184233
0001d0 67 14 99 3c 9a f1 28 3c c7 04 36 3d 28 ba 1c 3d
       0.018686486 0.010311509 0.04443815 0.03826347
0001e0 1a 71 0c bd 77 c2 30 3d 51 4f 23 bd fb e2 67 bc
       -0.03428755 0.043154206 -0.039870564 -0.014153237
0001f0 3f f0 04 3b 9a 14 ec 3d 47 ef b0 3c 35 32 cb 3c
       0.00202848 0.11527367 0.021598471 0.024804214
000200 b5 22 29 3c 90 b7 32 3d fc 62 a9 3d ea a3 fc bc
       0.010323216 0.04363209 0.08270833 -0.030839879
000210 b6 6a 47 bd d1 ce 03 3d 8c 3c d1 3d 96 02 c8 3d
       -0.04868575 0.032179657 0.102166265 0.09766118
000220 d7 80 89 3e c5 ee 8d bd 91 09 89 3e 61 61 14 be
       0.2685611 -0.06930307 0.2676511 -0.14490272
000230 39 5d a2 be 02 90 3f 3e 90 29 30 3c 04 a4 ae be
       -0.31711748 0.18707278 0.010752097 -0.3410951
000240 be ac b1 bf 17 a7 d9 3d 79 26 47 bf 54 7f 09 be
       -1.3880842 0.10627573 -0.7779308 -0.13427478
000250 3e 09 49 3e 7a 07 3e bf b0 53 16 3f 59 62 85 3f
       0.19632432 -0.7423016 0.58721447 1.0420638
000260 b1 33 1b bf 12 c9 2d 3f 45 5e c3 3f 51 54 30 bf
       -0.6062575 0.67884934 1.5263144 -0.68878657
000270 f0 d4 04 40 ee b9 8a 3f 41 71 bd 3f 00 43 16 c0
       2.0754967 1.0837991 1.4800187 -2.3478394
000280 30 0a af 3c 1c 8a 20 bc 18 82 18 3b ec a4 9c bc
       0.021367162 -0.009798553 0.0023270901 -0.01912161
000290 09 86 3b bc 57 7b 1b 3d e4 a9 e1 bb 3e 4a be 3c
       -0.011445531 0.037959423 -0.0068867076 0.02322876
0002a0 99 00 d8 3c c6 ce 84 3c 93 03 81 3a 31 d6 06 3d
       0.026367472 0.016211879 0.0009842984 0.032919113
0002b0 ae d4 4b 3c d8 c1 7f bc 11 6b 0f 3d df 8e 5d ba
       0.0124408435 -0.015610181 0.035014216 -0.00084517704
0002c0 05 df de bc a9 56 66 3c 11 8d 70 3c d6 d8 c5 3c
       -0.027205953 0.014058747 0.01468207 0.024151247
0002d0 4e 02 3d bc 9d 30 b2 bb 84 5d da 3c a5 bd 0b bd
       -0.011536194 -0.005437924 0.02665592 -0.034116406
0002e0 c7 e0 0c 3c 33 31 8c bd bc f4 83 bc e9 27 51 bd
       0.008598513 -0.068453215 -0.01610791 -0.051063452
0002f0 4b 34 2d 3d 1f b1 46 bc f9 f2 00 3d 0d b2 f9 bb
       0.0422862 -0.01212719 0.031481717 -0.0076201023
000300 cc 28 ce bc 03 51 22 bd a0 e6 38 bc 01 c6 c7 3b
       -0.025165938 -0.03962804 -0.011285454 0.006096602
000310 07 fc 93 3c b8 a3 b4 3a ed 7d 81 3d 2a af 39 3c
       0.018064512 0.0013781702 0.063228466 0.011333266
000320 8f cd af bb 85 8c 59 bc 5b d0 e7 bc 4e af e3 3c
       -0.0053650807 -0.013278131 -0.028297594 0.027793553
000330 ef 32 a7 3c ec 0f 2a 3c 4c c1 eb bc d8 37 fc ba
       0.02041003 0.010379773 -0.028778695 -0.0019242717
000340 1c 93 c1 3c a4 ed 29 3d 70 b7 20 bd 77 85 6c 3d
       0.023629718 0.041486397 -0.03923744 0.05774447
000350 5e 01 76 bc 99 74 0f 3d 30 60 92 3c bb d4 79 bc
       -0.015014974 0.035023306 0.017868131 -0.015248473
000360 af 55 57 bb 65 1c fc 3b cc c8 94 3c cc 36 63 bd
       -0.0032857468 0.0076938146 0.018162154 -0.05547218
000370 e6 af a5 bc d2 88 33 3d be bd 9b 3c 37 d5 06 bd
       -0.020225476 0.043831654 0.019011375 -0.03291818
000380 4f 79 38 3d 17 f9 19 bd 78 e9 5d 3d a6 b3 cc bc
       0.045037564 -0.037591066 0.05417773 -0.024988007
000390 8c 64 86 3b 1a 56 5e bd 02 69 02 bd 65 d1 32 bd
       0.0041013416 -0.05428133 -0.031838425 -0.043656725
0003a0 90 aa e9 3b 68 7b 3e bc 8e 9e 56 bd 61 d2 8e 3d
       0.0071309283 -0.011626102 -0.052397303 0.0697372
0003b0 fe 50 a8 bc 7c 5a bc bb 9d 23 c8 3c a1 59 16 bc
       -0.020546433 -0.0057480913 0.024431044 -0.009176643
0003c0 2f 74 7f ba 7d 82 10 3d 67 e4 d8 bc f7 d0 8e bb
       -0.0009744791 0.035280693 -0.026476098 -0.0043584066
0003d0 ef 8e 97 bc 1c bb d8 3b ff 2f c7 bc f7 8a 15 3b
       -0.018500773 0.006614102 -0.024314879 0.0022818425
0003e0 44 2b 42 bc ab e7 b0 bb 49 e6 24 bc bc b5 52 3b
       -0.011851136 -0.0053987107 -0.01006467 0.003215178
0003f0 13 ed a0 bc 5e 96 bc 3c 1f 8d 0d 3b 3c 34 55 3b
       -0.019644296 0.02302092 0.0021599007 0.0032532355

lin1.bias f4 [10]
000000 81 3b c1 be 74 74 51 bf bc 41 84 3e 06 4a 8d be
       -0.3774071 -0.8181832 0.258314 -0.27595538
000010 c2 6b a6 be 6a e8 6c 3f aa cf 15 3f 9c b6 89 bf
       -0.32504088 0.92542136 0.58519995 -1.0758853
000020 a7 df 36 40 35 c1 3e be
       2.8574007 -0.1862839

lin2.weight f4 [10, 10]
000000 dd 84 13 3f ef 08 f6 3e a2 55 27 bf 66 0e 9e bf
       0.5762461 0.4805369 -0.6536504 -1.2348144
000010 9c a3 f7 be 55 6f 97 3e ca 1a 36 be 03 e7 97 3e
       -0.48367012 0.29577127 -0.17783657 0.29668435
000020 07 ff 3d 3e 74 63 0a 3f 83 db e1 be 4a b6 57 3e
       0.18554316 0.54058003 -0.44112787 0.21065632
000030 a5 6b a9 3e b9 5f 9b be ab 69 b9 3d 1a b0 0c bf
       0.3308994 -0.30346468 0.09053358 -0.5495621
000040 67 b0 a3 be 0d 12 32 3f 88 48 ba bd 7b 3b 79 3f
       -0.31970522 0.69558793 -0.090958655 0.97356385
000050 0e 1c e1 be 90 c4 2f bf f3 be 7a be d9 fb 7c bf
       -0.43966717 -0.68659306 -0.24486904 -0.9882179
000060 3b 38 41 3f 53 5e 30 be 55 43 84 bf 2b 31 f0 3b
       0.75476426 -0.17223482 -1.0333048 0.00733008
000070 ef c4 83 3f 60 3e 33 3f 4b 16 a1 3f 82 e6 11 bf
       1.0294474 0.7001705 1.2584928 -0.5699235
000080 5a 63 32 3e 69 96 06 bf 05 eb f8 3e 1c 24 6c 3e
       0.17420712 -0.5257326 0.48616806 0.2306065
000090 bb 8a 1f bf 72 16 2a 3f 2a 96 51 be 5d c5 45 3f
       -0.6232106 0.664405 -0.2046744 0.7725428
0000a0 91 34 93 be 27 72 3d 3d bf d3 2f 3f b3 5b 43 3e
       -0.28751042 0.046251442 0.68682474 0.19077949
0000b0 b5 76 01 c0 07 08 a8 bb f0 22 d3 bc a1 86 08 be
       -2.0228703 -0.00512791 -0.025773495 -0.13332607
0000c0 8f a0 b6 3e 89 ba 7f bf 93 f8 37 bf 75 8c ac 3c
       0.3566937 -0.99894005 -0.7186367 0.021063069
0000d0 ce ad ad 3f 8e a3 e0 be 67 de 31 3f 6b 33 70 3f
       1.3568666 -0.43874782 0.69479984 0.9382846
0000e0 50 5c 9b be b2 38 cf be 44 99 95 bd eb c2 ba be
       -0.30343866 -0.40472943 -0.07304624 -0.36476836
0000f0 88 e2 f9 3c 15 a2 96 3e 98 c1 bb 3d c5 a5 8e 3f
       0.030503526 0.29420534 0.091677845 1.1144339
000100 d2 e0 eb 3e 36 db 67 3d de a1 a3 3f 23 2d 56 3f
       0.46069962 0.05660554 1.2783773 0.83662623
000110 89 b1 26 3f 0e 46 43 3f 7b 41 58 3e 5e 3b 58 bf
       0.6511465 0.7627877 0.21118729 -0.8446559
000120 82 70 f9 bd d0 39 9a bf f9 1d c3 be 81 21 b5 3e
       -0.12179662 -1.2048893 -0.38108805 0.35377124
000130 2b c7 54 be 0a b0 ce 3e fb a6 cd 3e a9 43 05 3e
       -0.20779102 0.40368682 0.40166458 0.13014092
000140 ce d4 a9 3e a5 e8 e5 be 22 02 38 3e da 15 8e 3d
       0.3317017 -0.44904056 0.17969564 0.069377616
000150 82 8e 8a 3e f6 6b a1 3f 0a 9f a3 be 08 0f 81 bf
       0.2706185 1.2611072 -0.31957275 -1.0082712
000160 94 12 0c 3e 20 c3 62 3e ab 91 f6 3e 91 f3 aa 3e
       0.13678962 0.22144747 0.4815801 0.3338895
000170 7e 9b 3f 3f 70 80 9f be 40 e9 6e be 41 93 1a bc
       0.7484664 -0.31152678 -0.23331165 -0.009434522
000180 7e 57 7f be e2 06 2e bd ca 84 b5 3e 6b e4 23 bd
       -0.2493572 -0.042487033 0.35452873 -0.04001276

lin2.bias f4 [10]
000000 93 46 57 be ca 4b 98 be e7 d1 b1 be f1 5c 28 bf
       -0.21023016 -0.29745322 -0.34730455 -0.6576682
000010 b3 8f da 3e 41 d3 6e be b4 99 47 be 80 fc a2 bd
       0.4268776 -0.23322774 -0.19492227 -0.07958317
000020 75 ca e2 3c 11 53 8f 3e
       0.02768443 0.27993062

lin3.weight f4 [10, 10]
000000 48 c2 c6 3e 8f ab 72 be e0 a7 ce bd 45 dd 20 3e
       0.388201 -0.23698257 -0.10090613 0.15709408
000010 5d 9c de 3e 47 72 45 bd 96 ba 4c 3d 61 7b 5b 3f
       0.4347867 -0.048204686 0.04998263 0.85735136
000020 5b ac 8d be 4e d2 04 3f e1 21 c3 bf 38 52 7a bf
       -0.2767056 0.518834 -1.5244714 -0.97781706
000030 a6 1d 83 3f 91 90 70 3e b0 9d 57 3f 26 c6 2f 3e
       1.0243423 0.23492648 0.8422499 0.17165431
000040 fb eb e6 bd 2f 9e 34 be 2b 92 b4 be 25 9f 2c 3f
       -0.112754785 -0.17638467 -0.35267767 0.67430335
000050 b5 41 73 bf 75 61 24 be 26 7f cf 3e 3a 41 a7 3e
       -0.95022136 -0.16052802 0.40526694 0.3266695
000060 e2 ef eb be a1 2c e3 be b0 72 a8 3e 08 50 3e 3f
       -0.46081454 -0.44369987 0.329 0.7434087
000070 01 2b 95 bf 4d 39 85 bc 26 4f 87 3f cb f3 f5 be
       -1.1653749 -0.016262675 1.0571029 -0.48037562
000080 a8 3c 0d 3e 94 21 31 bf 02 75 fc bd dc 44 5b bf
       0.1379267 -0.6919186 -0.12327005 -0.85651946
000090 10 94 bf be e7 31 5c be 83 ca 23 be 21 dd c0 bf
       -0.3741765 -0.21503411 -0.15995221 -1.5067483
0000a0 e1 7d af bd 3d 20 96 bb 0a e6 af be 95 84 25 3e
       -0.08568931 -0.00458148 -0.34355193 0.16163857
0000b0 53 5a e2 bd 59 ed c2 3f 61 10 8f bf 22 78 a7 3f
       -0.11052384 1.5228683 -1.1176873 1.3083537
0000c0 7d 53 90 3f ba 89 04 bf 35 99 42 3d e9 3b 40 3e
       1.1275479 -0.51772654 0.04750939 0.18772854
0000d0 24 6c 89 3e f4 74 c1 3e e4 78 1b 3d ba 09 00 be
       0.26840317 0.3778454 0.037957087 -0.1250371
0000e0 01 5a 20 be 3e 31 01 bf 56 c2 34 bf b3 fd 3b 3f
       -0.15659334 -0.5046576 -0.70609033 0.7343399
0000f0 40 18 c8 3f 8c 4c b4 be 14 ab 6a bf a6 0b 20 3f
       1.56324 -0.3521465 -0.91667295 0.62517774
000100 a2 cc 90 3f 38 d1 ca 3f a3 6b 95 3f 23 a7 98 bf
       1.1312449 1.5845098 1.1673473 -1.1926006
000110 ab 5f c0 bf 1f df 11 bf 94 3b 3e 3f d1 76 ff 3d
       -1.5029196 -0.5698108 0.7430966 0.12473834
000120 0a 1b eb be 61 7c 10 bf e4 06 81 bf c5 21 f8 3c
       -0.45919067 -0.5643979 -1.0080228 0.03028954
000130 98 da 2d 3f 2f ad f7 be 83 14 19 bf d0 e9 1e 3d
       0.6791167 -0.48374316 -0.59796923 0.0387972
000140 a9 e5 9a 3f 93 8d 17 3f 95 1f 42 bf f1 b1 74 3f
       1.2101337 0.592004 -0.7582944 0.9558402
000150 c9 36 80 3d 47 55 8f bf b7 90 5a 3f b1 2e 08 bf
       0.062604494 -1.11979 0.8537707 -0.53196245
000160 10 66 af bf 31 cc 31 bf 9d c7 de 3e d4 53 a6 3f
       -1.3703022 -0.69452196 0.43511668 1.2994332
000170 6c 40 28 3f 41 9a 4a 3f 8e 1a 0b bf f4 af 64 3d
       0.657233 0.7914162 -0.54337394 0.055831864
000180 07 90 40 bf 91 d4 9e bf 90 9a 00 be 8e 66 e6 be
       -0.7521977 -1.240862 -0.12558961 -0.45000118

lin3.bias f4 [10]
000000 11 f7 0a 3e ae 46 09 bd 70 3d a6 3c 90 c0 79 bd
       0.13570811 -0.03351467 0.020292968 -0.060974658
000010 62 c2 70 3f 2c c3 b1 be e7 82 57 be 43 af ff be
       0.94046605 -0.34719217 -0.21046029 -0.49938402
000020 d9 50 f8 3c c4 6d b4 be
       0.030311989 -0.35239995

lin4.weight f4 [62, 10]
000000 c2 1d cf 3f 4f 13 5d 40 24 1e 33 40 9a 97 79 bf
       1.6180956 3.4543035 2.7987146 -0.9749695
000010 9d e1 41 bf fc 93 04 c0 21 71 91 3f 05 14 3d 40
       -0.75734884 -2.0715322 1.1362649 2.954347
000020 2c 2b ca 3f a7 86 f6 3e e5 4c e7 3f 4c a8 18 40
       1.5794425 0.48149607 1.8070341 2.385272
000030 3d c7 eb 3f 06 9c 0c c0 75 cc bd 3d 32 65 c0 3e
       1.8420178 -2.197023 0.09267513 0.37577206
000040 a4 a6 3d bb ff 4e 20 3f 9a ef 07 40 db 83 fc bd
       -0.0028938437 0.6262054 2.123999 -0.12329837
000050 00 7e 85 3d 3f 1c c7 3f 34 a4 0b bf 13 9a 1a bf
       0.06518173 1.5555495 -0.5454743 -0.6039135
000060 94 ce 01 bf 56 6d 4e 3f 2e ad b4 be e7 35 7d 3f
       -0.5070584 0.80635583 -0.35288376 0.98910373
000070 84 e0 a0 3f 98 8c 0a be 0c 76 ca 3e d0 6c 8c 3f
       1.2568517 -0.13530195 0.39543188 1.0970707
000080 39 64 43 3f b1 30 ba be c8 3c 00 be 1f 5c 30 be
       0.763248 -0.36365274 -0.12523186 -0.17222641
000090 e9 ef a2 3d 1f e4 ae 3f d1 b5 71 3f 57 c6 dd bd
       0.079559155 1.3663367 0.94418055 -0.10828846
0000a0 8e 1c 0a 3f 7d 48 d0 3f e3 54 e0 bd dc a1 6e bf
       0.5394982 1.6272122 -0.10953691 -0.9321573
0000b0 1c 92 05 bf 99 ef b8 3e 75 e3 8f be b8 df 7a 3f
       -0.5217607 0.36120299 -0.28103223 0.9799762
0000c0 90 ad c7 3f 04 85 3c be 81 a5 9f 3e 24 2c ee 3f
       1.5599842 -0.18410116 0.31180957 1.8607221
0000d0 08 bb 04 40 2c 65 6b bf 91 41 44 bf 7f e6 f9 3e
       2.0739155 -0.9195125 -0.76662546 0.48808667
0000e0 42 7c c8 3e 87 26 b7 3e a2 1d c6 3f f5 59 0e bf
       0.391573 0.35771582 1.5477793 -0.55606014
0000f0 76 e4 4e 3f 6e 00 e9 3f 71 ec c2 3c 96 98 53 bf
       0.80817354 1.8203256 0.023794385 -0.826547
000100 2b 37 39 be 45 f6 1f 3a 93 86 d4 be b3 11 7e 3f
       -0.18087451 0.00061020657 -0.41508922 0.99245757
000110 10 02 a4 3f 37 af 69 be 70 fc a0 3f 9e 5c 2e 3f
       1.281313 -0.22820745 1.2577038 0.6811007
000120 83 8d 6c 3f b0 75 15 bf 66 4e 92 bf 4b 44 6d 40
       0.9240343 -0.583827 -1.1430175 3.7072933
000130 34 14 e8 be 8c 88 6f 3f d5 39 41 40 d6 21 62 3e
       -0.45327914 0.9356773 3.0191548 0.2208322
000140 16 26 44 3f 32 82 d9 3f 71 4d 7c bf 44 bf 0b bf
       0.76620615 1.6992857 -0.98555666 -0.54588723
000150 68 75 1b be 0c 9d 77 3d c1 61 f2 be 0e d0 5d 3f
       -0.15181506 0.060452506 -0.47340205 0.8664559
000160 fe a5 ad 3f b5 ae a0 be 3f d2 e9 3e 36 fb d6 3f
       1.3566282 -0.3138329 0.45668218 1.6795413
000170 8d 5e 94 3d 7d 10 39 bf 1e 22 ec be fe 58 84 3e
       0.07244597 -0.72290784 -0.4611978 0.25849146
000180 b5 68 5e be 6c 81 90 3f 80 cb c8 3f bc 2f e1 3d
       -0.2171963 1.1289496 1.5687103 0.10995433
000190 92 c4 7f 3f 4b a8 ec bf d4 3d 08 40 64 8d df 3f
       0.9990932 -1.8488859 2.1287737 1.7465024
0001a0 bd ea 86 bf f0 33 a0 3f 01 82 51 3e c7 b7 37 40
       -1.0540386 1.251585 0.20459749 2.8705919
0001b0 96 c6 e2 3f 70 28 9d 3f a8 c8 85 bf cb 2b d6 bf
       1.7716854 1.2277966 -1.045186 -1.6732115
0001c0 f1 6c 07 40 fa c9 e6 3f b3 7d 00 c0 1a 3b 1c 40
       2.1160243 1.8030388 -2.007672 2.4411073
0001d0 ce fe 67 3f 3a b9 01 40 f3 2f 92 3f 6e e4 b6 3e
       0.90623176 2.0269303 1.1420883 0.35721153
0001e0 83 62 a5 bf 11 2e e4 bf 42 33 05 40 65 4b 6f bb
       -1.2920688 -1.7826558 2.0812535 -0.0036513445
0001f0 c3 a4 d0 bf 4d ea e9 3f 69 49 a0 3f d1 77 26 40
       -1.6300281 1.8274628 1.2522403 2.601063
000200 2f ce 76 3f 65 17 58 3f 4e 28 62 bf aa f5 c6 bf
       0.9640836 0.844107 -0.8834275 -1.5543721
000210 66 41 18 40 b3 8f 92 be 64 75 e4 bf 77 b7 b3 3f
       2.3789916 -0.2862526 -1.7848325 1.4040364
000220 7d 41 84 3f 6b 2c 25 40 d5 c9 64 3f 67 2b 59 3f
       1.0332485 2.580836 0.8937047 0.8483185
000230 49 22 d8 3f 7f 65 ba bf 4b d3 25 40 bf 40 1d 40
       1.6885463 -1.4562224 2.5910213 2.4570768
000240 eb 3d 18 be b5 93 20 40 57 5c 0e 3f 66 0c 4c 40
       -0.1486737 2.5090153 0.5560965 3.1882567
000250 49 ca b0 3f 9a 67 6c 3f 2b 73 4a c0 e4 88 b6 bf
       1.3811733 0.92345583 -3.1632793 -1.4260526
000260 29 ca 1f 40 c6 c0 20 3f 6e d6 2e c0 4a 90 43 40
       2.4967139 0.6279415 -2.7318377 3.0556817
000270 8d 24 82 3f bf de 1c be 6a e1 27 be 95 c6 39 bf
       1.0167404 -0.15319346 -0.16394582 -0.7256864
000280 ac 40 71 bf af 78 1d 3f 63 11 85 3f ed 70 c9 bd
       -0.94239306 0.61512274 1.0395931 -0.09835992
000290 23 9c 1d c0 ea 3e bd 3f 7a 52 9b 3f df 38 8f 40
       -2.4626548 1.4784825 1.2134545 4.4756923
0002a0 cd ea 66 be 13 a8 ac 3f 29 f1 a6 3e d2 25 f0 bf
       -0.22550507 1.3488792 0.32605866 -1.8761542
0002b0 1e 70 0a 40 99 34 f7 3f 4e fa c0 bf 23 3a cb 3f
       2.163093 1.9312927 -1.5076387 1.5877117
0002c0 23 e4 91 3f 9b 42 38 40 be a0 f1 3f ee a0 0d 3f
       1.1397747 2.8790653 1.887718 0.55323684
0002d0 4a 8f ec 3e 7c 34 a1 bf 95 13 df 3f 0f 62 1f 40
       0.4620307 -1.2594142 1.7427851 2.49036
0002e0 5b 97 3f bf 52 6e 43 40 f6 0a 81 bd 3f 02 ee 3f
       -0.74840325 3.0536084 -0.06300919 1.8594435
0002f0 c8 23 9f 3e 34 b9 e4 bd a9 f1 0f c0 17 45 40 bf
       0.31081986 -0.11168137 -2.2491248 -0.7510542
000300 21 9e ac 3f 68 b3 02 3e 6f 7b 24 bf d2 44 62 3f
       1.3485757 0.1276375 -0.64250845 0.8838626
000310 18 47 e8 3f 10 75 f0 3f 3b c1 03 40 2e 37 6e 3f
       1.8146696 1.8785725 2.0586689 0.9305295
000320 e9 01 ad bf a2 3b c2 bf f3 d0 28 40 2f 50 d7 3f
       -1.3516208 -1.5174448 2.6377532 1.6821345
000330 35 ae a3 bf bb 09 77 40 a3 14 0f 40 5f 59 74 be
       -1.2787539 3.859969 2.2356346 -0.23862217
000340 58 06 1f 3e cd 95 c9 3f e3 f3 27 bf 97 fc b4 bf
       0.15529764 1.574884 -0.65606517 -1.4139584
000350 e3 6f b9 3f 55 c9 88 3f 6a 3e 22 be 1f af 40 40
       1.448727 1.0686442 -0.15844122 3.0106885
000360 e7 7b a1 3d e3 c0 07 40 f4 b3 0b 40 b2 1d 90 3f
       0.078849606 2.1211479 2.1828585 1.1259062
000370 f2 0d c7 bf e3 24 fa bf 2d cf 13 40 9d 9f 99 3e
       -1.5551131 -1.9542507 2.30952 0.30004588
000380 e8 17 8f bf d6 48 0f 40 08 a8 3b 3f 89 d4 1f 40
       -1.1179171 2.2388206 0.7330327 2.497347
000390 a7 58 ac 3f dc 5d 95 3e 12 25 99 bf 8f cc 93 3e
       1.3464555 0.29173172 -1.1964438 0.28867003
0003a0 44 ff 85 3f e0 27 ec bf 65 71 f1 bf 8c ff 1c 40
       1.0468526 -1.8449669 -1.886273 2.4530973
0003b0 c6 4f 9e 3e 32 58 b5 40 3f 1d 8c 3f db 0d e5 be
       0.30920237 5.667016 1.0946425 -0.44737133
0003c0 d3 5e 95 3f 6a 77 05 c0 6b 37 1e 40 cb f7 ce 3f
       1.1669563 -2.0854135 2.4721324 1.616937
0003d0 d2 ac b0 be 1f dc 9e 3f 6d cf 43 3e ea e9 6a 40
       -0.3450685 1.2410926 0.19122095 3.670527
0003e0 64 ec 29 40 9d 43 e0 3f 5b e5 8c bf f1 1a a2 bf
       2.6550531 1.7520634 -1.1007494 -1.2664472
0003f0 44 4b 2a 40 b8 dd 80 be 0d 6b 5c bf 1e f0 0c 3f
       2.6608438 -0.25169158 -0.86100847 0.5505389

lin4.bias f4 [62]
000000 0a 37 fa 3c d3 10 d4 3f 4e 16 da bf 34 e2 9c 3f
       0.030543823 1.6567634 -1.7038057 1.2256532
000010 54 22 9e 3e bf b6 9b bf 4b f3 45 bf 09 56 86 3f
       0.30885565 -1.2165145 -0.7732436 1.0495006
000020 52 35 0d c0 31 b5 d3 bf f3 01 55 3f 44 dc 39 bf
       -2.2063794 -1.653967 0.832061 -0.72601724
000030 36 4e 04 bf 27 bf 37 bf 7f 2d c7 3d f8 dd 4f bf
       -0.5168184 -0.7177605 0.097254746 -0.8119807
000040 21 9b a2 bf 7a 0e 85 bf 0b 4a f2 3f c5 ad 19 c0
       -1.2703592 -1.0395043 1.8928846 -2.401231
000050 61 a7 91 bf 34 44 9f 3f 57 2d 64 bf 8b c5 d2 bf
       -1.1379205 1.2442689 -0.89131683 -1.6466535
000060 03 ef c8 be a1 d7 2e bf 29 5d 85 c0 c0 cf 96 3f
       -0.3924485 -0.68297774 -4.167622 1.178215
000070 b5 99 e3 bf 18 76 6c bd 79 dd ab bf 00 89 3c c0
       -1.7781283 -0.05772981 -1.3426963 -2.9458618
000080 a8 b6 8b bf 95 a0 f1 c0 3d d8 e1 bf 37 f6 80 c0
       -1.0915117 -7.5508523 -1.7644116 -4.0300555
000090 72 ac 92 3b 9b 69 3a be 92 15 fc be 27 29 0b 3f
       0.0044761235 -0.18204348 -0.49235207 0.5435967
0000a0 e5 09 13 be 45 4e 88 be 44 25 d4 bf 9a 71 52 bf
       -0.14359243 -0.26622215 -1.6573873 -0.8220459
0000b0 ef 25 a8 3e d9 89 7b c0 26 7c 57 bf 40 ab d7 be
       0.3284144 -3.9302886 -0.8417381 -0.4212284
0000c0 97 96 3c 3f 7b bc 4d bf 3c 6c 76 3f 68 75 a4 bf
       0.7366728 -0.80365723 0.962589 -1.284833
0000d0 da 0d 1f c0 81 ae 4e bc e5 63 b4 3e c4 96 c5 3f
       -2.4852204 -0.012614847 0.35232463 1.5436635
0000e0 7a d5 bd 3f 70 61 29 c0 cf 87 8b 3f cd 9f da c0
       1.4830773 -2.646572 1.090082 -6.832007
0000f0 53 33 6e 3f 8b b9 70 c0
       0.93047065 -3.7613246
